{'JOB_ID': 'imagenet_av_2_k3_w5_s5', 'arch': 'DN_X', 'config': '../models/architectures/configs/DN4_AV.yaml', 'dengine': False, 'refit_dengine': False, 'dataset_dir': '../dataset/miniImageNet', 'data_name': 'imageNetAV', 'mode': 'train', 'resume': None, 'epochs': 30, 'ngpu': 1, 'print_freq': 100, 'outf': '../results/DN_X_imageNetAV_DN4_5_Way_5_Shot_K1'}DN_X(
  (BACKBONE): FourLayer_64F(
    (features): Sequential(
      (0): Conv2d(3, 64, kernel_size=(3, 3), stride=(1, 1), padding=(1, 1), bias=False)
      (1): BatchNorm2d(64, eps=1e-05, momentum=0.1, affine=True, track_running_stats=True)
      (2): LeakyReLU(negative_slope=0.2, inplace=True)
      (3): MaxPool2d(kernel_size=2, stride=2, padding=0, dilation=1, ceil_mode=False)
      (4): Conv2d(64, 64, kernel_size=(3, 3), stride=(1, 1), padding=(1, 1), bias=False)
      (5): BatchNorm2d(64, eps=1e-05, momentum=0.1, affine=True, track_running_stats=True)
      (6): LeakyReLU(negative_slope=0.2, inplace=True)
      (7): MaxPool2d(kernel_size=2, stride=2, padding=0, dilation=1, ceil_mode=False)
      (8): Conv2d(64, 64, kernel_size=(3, 3), stride=(1, 1), padding=(1, 1), bias=False)
      (9): BatchNorm2d(64, eps=1e-05, momentum=0.1, affine=True, track_running_stats=True)
      (10): LeakyReLU(negative_slope=0.2, inplace=True)
      (11): Conv2d(64, 64, kernel_size=(3, 3), stride=(1, 1), padding=(1, 1), bias=False)
      (12): BatchNorm2d(64, eps=1e-05, momentum=0.1, affine=True, track_running_stats=True)
      (13): LeakyReLU(negative_slope=0.2, inplace=True)
    )
    (criterion): CrossEntropyLoss()
    (knn): KNN_itc(
      (softmax): Softmax(dim=1)
    )
  )
)
===================================== Epoch 0 =====================================
{'JOB_ID': 'imagenet_av_2_k3_w5_s5', 'arch': 'DN_X', 'config': '../models/architectures/configs/DN4_AV.yaml', 'dengine': False, 'refit_dengine': False, 'dataset_dir': '../dataset/miniImageNet', 'data_name': 'imageNetAV', 'mode': 'train', 'resume': None, 'epochs': 30, 'ngpu': 1, 'print_freq': 100, 'outf': '../results/DN_X_imageNetAV_DN4_5_Way_5_Shot_K1'}DN_X(
  (BACKBONE): FourLayer_64F(
    (features): Sequential(
      (0): Conv2d(3, 64, kernel_size=(3, 3), stride=(1, 1), padding=(1, 1), bias=False)
      (1): BatchNorm2d(64, eps=1e-05, momentum=0.1, affine=True, track_running_stats=True)
      (2): LeakyReLU(negative_slope=0.2, inplace=True)
      (3): MaxPool2d(kernel_size=2, stride=2, padding=0, dilation=1, ceil_mode=False)
      (4): Conv2d(64, 64, kernel_size=(3, 3), stride=(1, 1), padding=(1, 1), bias=False)
      (5): BatchNorm2d(64, eps=1e-05, momentum=0.1, affine=True, track_running_stats=True)
      (6): LeakyReLU(negative_slope=0.2, inplace=True)
      (7): MaxPool2d(kernel_size=2, stride=2, padding=0, dilation=1, ceil_mode=False)
      (8): Conv2d(64, 64, kernel_size=(3, 3), stride=(1, 1), padding=(1, 1), bias=False)
      (9): BatchNorm2d(64, eps=1e-05, momentum=0.1, affine=True, track_running_stats=True)
      (10): LeakyReLU(negative_slope=0.2, inplace=True)
      (11): Conv2d(64, 64, kernel_size=(3, 3), stride=(1, 1), padding=(1, 1), bias=False)
      (12): BatchNorm2d(64, eps=1e-05, momentum=0.1, affine=True, track_running_stats=True)
      (13): LeakyReLU(negative_slope=0.2, inplace=True)
    )
    (criterion): CrossEntropyLoss()
    (knn): KNN_itc(
      (softmax): Softmax(dim=1)
    )
  )
)
===================================== Epoch 0 =====================================
Trainset: 101
Valset: 600
Testset: 600
Eposide-(0): [100/101]	Time 0.367 (0.555)	Data 0.000 (0.157)	Loss 1.547 (1.728)	Prec@1 28.000 (29.446)
…

Test-(1): [500/600]	Time 0.090 (0.152)	Loss 1.540 (1.554)	Prec@1 34.0 (32.19561004638672)
 * Prec@1 32.150 Best_prec1 0.000============ Testing on the test set ============
{'JOB_ID': 'imagenet_av_2_k3_w5_s5', 'arch': 'DN_X', 'config': '../models/architectures/configs/DN4_AV.yaml', 'dengine': False, 'refit_dengine': False, 'dataset_dir': '../dataset/miniImageNet', 'data_name': 'imageNetAV', 'mode': 'train', 'resume': None, 'epochs': 30, 'ngpu': 1, 'print_freq': 100, 'outf': '../results/DN_X_imageNetAV_DN4_5_Way_5_Shot_K1'}DN_X(
  (BACKBONE): FourLayer_64F(
    (features): Sequential(
      (0): Conv2d(3, 64, kernel_size=(3, 3), stride=(1, 1), padding=(1, 1), bias=False)
      (1): BatchNorm2d(64, eps=1e-05, momentum=0.1, affine=True, track_running_stats=True)
      (2): LeakyReLU(negative_slope=0.2, inplace=True)
      (3): MaxPool2d(kernel_size=2, stride=2, padding=0, dilation=1, ceil_mode=False)
      (4): Conv2d(64, 64, kernel_size=(3, 3), stride=(1, 1), padding=(1, 1), bias=False)
      (5): BatchNorm2d(64, eps=1e-05, momentum=0.1, affine=True, track_running_stats=True)
      (6): LeakyReLU(negative_slope=0.2, inplace=True)
      (7): MaxPool2d(kernel_size=2, stride=2, padding=0, dilation=1, ceil_mode=False)
      (8): Conv2d(64, 64, kernel_size=(3, 3), stride=(1, 1), padding=(1, 1), bias=False)
      (9): BatchNorm2d(64, eps=1e-05, momentum=0.1, affine=True, track_running_stats=True)
      (10): LeakyReLU(negative_slope=0.2, inplace=True)
      (11): Conv2d(64, 64, kernel_size=(3, 3), stride=(1, 1), padding=(1, 1), bias=False)
      (12): BatchNorm2d(64, eps=1e-05, momentum=0.1, affine=True, track_running_stats=True)
      (13): LeakyReLU(negative_slope=0.2, inplace=True)
    )
    (criterion): CrossEntropyLoss()
    (knn): KNN_itc(
      (softmax): Softmax(dim=1)
    )
  )
)
===================================== Epoch 1 =====================================
{'JOB_ID': 'imagenet_av_2_k3_w5_s5', 'arch': 'DN_X', 'config': '../models/architectures/configs/DN4_AV.yaml', 'dengine': False, 'refit_dengine': False, 'dataset_dir': '../dataset/miniImageNet', 'data_name': 'imageNetAV', 'mode': 'train', 'resume': None, 'epochs': 30, 'ngpu': 1, 'print_freq': 100, 'outf': '../results/DN_X_imageNetAV_DN4_5_Way_5_Shot_K1'}DN_X(
  (BACKBONE): FourLayer_64F(
    (features): Sequential(
      (0): Conv2d(3, 64, kernel_size=(3, 3), stride=(1, 1), padding=(1, 1), bias=False)
      (1): BatchNorm2d(64, eps=1e-05, momentum=0.1, affine=True, track_running_stats=True)
      (2): LeakyReLU(negative_slope=0.2, inplace=True)
      (3): MaxPool2d(kernel_size=2, stride=2, padding=0, dilation=1, ceil_mode=False)
      (4): Conv2d(64, 64, kernel_size=(3, 3), stride=(1, 1), padding=(1, 1), bias=False)
      (5): BatchNorm2d(64, eps=1e-05, momentum=0.1, affine=True, track_running_stats=True)
      (6): LeakyReLU(negative_slope=0.2, inplace=True)
      (7): MaxPool2d(kernel_size=2, stride=2, padding=0, dilation=1, ceil_mode=False)
      (8): Conv2d(64, 64, kernel_size=(3, 3), stride=(1, 1), padding=(1, 1), bias=False)
      (9): BatchNorm2d(64, eps=1e-05, momentum=0.1, affine=True, track_running_stats=True)
      (10): LeakyReLU(negative_slope=0.2, inplace=True)
      (11): Conv2d(64, 64, kernel_size=(3, 3), stride=(1, 1), padding=(1, 1), bias=False)
      (12): BatchNorm2d(64, eps=1e-05, momentum=0.1, affine=True, track_running_stats=True)
      (13): LeakyReLU(negative_slope=0.2, inplace=True)
    )
    (criterion): CrossEntropyLoss()
    (knn): KNN_itc(
      (softmax): Softmax(dim=1)
    )
  )
)
===================================== Epoch 1 =====================================
Trainset: 101
Valset: 1000
Testset: 800
{'JOB_ID': 'imagenet_av_2_k3_w5_s5', 'arch': 'DN_X', 'config': '../models/architectures/configs/DN4_AV.yaml', 'dengine': False, 'refit_dengine': False, 'dataset_dir': '../dataset/miniImageNet', 'data_name': 'imageNetAV', 'mode': 'train', 'resume': None, 'epochs': 30, 'ngpu': 1, 'print_freq': 100, 'outf': '../results/DN_X_imageNetAV_DN4_5_Way_5_Shot_K1'}DN_X(
  (BACKBONE): FourLayer_64F(
    (features): Sequential(
      (0): Conv2d(3, 64, kernel_size=(3, 3), stride=(1, 1), padding=(1, 1), bias=False)
      (1): BatchNorm2d(64, eps=1e-05, momentum=0.1, affine=True, track_running_stats=True)
      (2): LeakyReLU(negative_slope=0.2, inplace=True)
      (3): MaxPool2d(kernel_size=2, stride=2, padding=0, dilation=1, ceil_mode=False)
      (4): Conv2d(64, 64, kernel_size=(3, 3), stride=(1, 1), padding=(1, 1), bias=False)
      (5): BatchNorm2d(64, eps=1e-05, momentum=0.1, affine=True, track_running_stats=True)
      (6): LeakyReLU(negative_slope=0.2, inplace=True)
      (7): MaxPool2d(kernel_size=2, stride=2, padding=0, dilation=1, ceil_mode=False)
      (8): Conv2d(64, 64, kernel_size=(3, 3), stride=(1, 1), padding=(1, 1), bias=False)
      (9): BatchNorm2d(64, eps=1e-05, momentum=0.1, affine=True, track_running_stats=True)
      (10): LeakyReLU(negative_slope=0.2, inplace=True)
      (11): Conv2d(64, 64, kernel_size=(3, 3), stride=(1, 1), padding=(1, 1), bias=False)
      (12): BatchNorm2d(64, eps=1e-05, momentum=0.1, affine=True, track_running_stats=True)
      (13): LeakyReLU(negative_slope=0.2, inplace=True)
    )
    (criterion): CrossEntropyLoss()
    (knn): KNN_itc(
      (softmax): Softmax(dim=1)
    )
  )
)
===================================== Epoch 1 =====================================
Trainset: 101
Valset: 1000
Testset: 800
{'JOB_ID': 'imagenet_av_2_k3_w5_s5', 'arch': 'DN_X', 'config': '../models/architectures/configs/DN4_AV.yaml', 'dengine': False, 'refit_dengine': False, 'dataset_dir': '../dataset/miniImageNet', 'data_name': 'imageNetAV', 'mode': 'train', 'resume': None, 'epochs': 30, 'ngpu': 1, 'print_freq': 100, 'outf': '../results/DN_X_imageNetAV_DN4_5_Way_5_Shot_K1'}DN_X(
  (BACKBONE): FourLayer_64F(
    (features): Sequential(
      (0): Conv2d(3, 64, kernel_size=(3, 3), stride=(1, 1), padding=(1, 1), bias=False)
      (1): BatchNorm2d(64, eps=1e-05, momentum=0.1, affine=True, track_running_stats=True)
      (2): LeakyReLU(negative_slope=0.2, inplace=True)
      (3): MaxPool2d(kernel_size=2, stride=2, padding=0, dilation=1, ceil_mode=False)
      (4): Conv2d(64, 64, kernel_size=(3, 3), stride=(1, 1), padding=(1, 1), bias=False)
      (5): BatchNorm2d(64, eps=1e-05, momentum=0.1, affine=True, track_running_stats=True)
      (6): LeakyReLU(negative_slope=0.2, inplace=True)
      (7): MaxPool2d(kernel_size=2, stride=2, padding=0, dilation=1, ceil_mode=False)
      (8): Conv2d(64, 64, kernel_size=(3, 3), stride=(1, 1), padding=(1, 1), bias=False)
      (9): BatchNorm2d(64, eps=1e-05, momentum=0.1, affine=True, track_running_stats=True)
      (10): LeakyReLU(negative_slope=0.2, inplace=True)
      (11): Conv2d(64, 64, kernel_size=(3, 3), stride=(1, 1), padding=(1, 1), bias=False)
      (12): BatchNorm2d(64, eps=1e-05, momentum=0.1, affine=True, track_running_stats=True)
      (13): LeakyReLU(negative_slope=0.2, inplace=True)
    )
    (criterion): CrossEntropyLoss()
    (knn): KNN_itc(
      (softmax): Softmax(dim=1)
    )
  )
)
===================================== Epoch 1 =====================================
Trainset: 101
Valset: 1000
Testset: 800
{'JOB_ID': 'imagenet_av_2_k3_w5_s5', 'arch': 'DN_X', 'config': '../models/architectures/configs/DN4_AV.yaml', 'dengine': False, 'refit_dengine': False, 'dataset_dir': '../dataset/miniImageNet', 'data_name': 'imageNetAV', 'mode': 'train', 'resume': None, 'epochs': 30, 'ngpu': 1, 'print_freq': 100, 'outf': '../results/DN_X_imageNetAV_DN4_5_Way_5_Shot_K1'}DN_X(
  (BACKBONE): FourLayer_64F(
    (features): Sequential(
      (0): Conv2d(3, 64, kernel_size=(3, 3), stride=(1, 1), padding=(1, 1), bias=False)
      (1): BatchNorm2d(64, eps=1e-05, momentum=0.1, affine=True, track_running_stats=True)
      (2): LeakyReLU(negative_slope=0.2, inplace=True)
      (3): MaxPool2d(kernel_size=2, stride=2, padding=0, dilation=1, ceil_mode=False)
      (4): Conv2d(64, 64, kernel_size=(3, 3), stride=(1, 1), padding=(1, 1), bias=False)
      (5): BatchNorm2d(64, eps=1e-05, momentum=0.1, affine=True, track_running_stats=True)
      (6): LeakyReLU(negative_slope=0.2, inplace=True)
      (7): MaxPool2d(kernel_size=2, stride=2, padding=0, dilation=1, ceil_mode=False)
      (8): Conv2d(64, 64, kernel_size=(3, 3), stride=(1, 1), padding=(1, 1), bias=False)
      (9): BatchNorm2d(64, eps=1e-05, momentum=0.1, affine=True, track_running_stats=True)
      (10): LeakyReLU(negative_slope=0.2, inplace=True)
      (11): Conv2d(64, 64, kernel_size=(3, 3), stride=(1, 1), padding=(1, 1), bias=False)
      (12): BatchNorm2d(64, eps=1e-05, momentum=0.1, affine=True, track_running_stats=True)
      (13): LeakyReLU(negative_slope=0.2, inplace=True)
    )
    (criterion): CrossEntropyLoss()
    (knn): KNN_itc(
      (softmax): Softmax(dim=1)
    )
  )
)
===================================== Epoch 1 =====================================
Trainset: 101
Valset: 1000
Testset: 800
{'JOB_ID': 'imagenet_av_2_k3_w5_s5', 'arch': 'DN_X', 'config': '../models/architectures/configs/DN4_AV.yaml', 'dengine': False, 'refit_dengine': False, 'dataset_dir': '../dataset/miniImageNet', 'data_name': 'imageNetAV', 'mode': 'train', 'resume': None, 'epochs': 30, 'ngpu': 1, 'print_freq': 100, 'outf': '../results/DN_X_imageNetAV_DN4_5_Way_5_Shot_K1'}DN_X(
  (BACKBONE): FourLayer_64F(
    (features): Sequential(
      (0): Conv2d(3, 64, kernel_size=(3, 3), stride=(1, 1), padding=(1, 1), bias=False)
      (1): BatchNorm2d(64, eps=1e-05, momentum=0.1, affine=True, track_running_stats=True)
      (2): LeakyReLU(negative_slope=0.2, inplace=True)
      (3): MaxPool2d(kernel_size=2, stride=2, padding=0, dilation=1, ceil_mode=False)
      (4): Conv2d(64, 64, kernel_size=(3, 3), stride=(1, 1), padding=(1, 1), bias=False)
      (5): BatchNorm2d(64, eps=1e-05, momentum=0.1, affine=True, track_running_stats=True)
      (6): LeakyReLU(negative_slope=0.2, inplace=True)
      (7): MaxPool2d(kernel_size=2, stride=2, padding=0, dilation=1, ceil_mode=False)
      (8): Conv2d(64, 64, kernel_size=(3, 3), stride=(1, 1), padding=(1, 1), bias=False)
      (9): BatchNorm2d(64, eps=1e-05, momentum=0.1, affine=True, track_running_stats=True)
      (10): LeakyReLU(negative_slope=0.2, inplace=True)
      (11): Conv2d(64, 64, kernel_size=(3, 3), stride=(1, 1), padding=(1, 1), bias=False)
      (12): BatchNorm2d(64, eps=1e-05, momentum=0.1, affine=True, track_running_stats=True)
      (13): LeakyReLU(negative_slope=0.2, inplace=True)
    )
    (criterion): CrossEntropyLoss()
    (knn): KNN_itc(
      (softmax): Softmax(dim=1)
    )
  )
)
===================================== Epoch 1 =====================================
Trainset: 101
Valset: 1000
Testset: 800
{'JOB_ID': 'imagenet_av_2_k3_w5_s5', 'arch': 'DN_X', 'config': '../models/architectures/configs/DN4_AV.yaml', 'dengine': False, 'refit_dengine': False, 'dataset_dir': '../dataset/miniImageNet', 'data_name': 'imageNetAV', 'mode': 'train', 'resume': None, 'epochs': 30, 'ngpu': 1, 'print_freq': 100, 'outf': '../results/DN_X_imageNetAV_DN4_5_Way_5_Shot_K1'}DN_X(
  (BACKBONE): FourLayer_64F(
    (features): Sequential(
      (0): Conv2d(3, 64, kernel_size=(3, 3), stride=(1, 1), padding=(1, 1), bias=False)
      (1): BatchNorm2d(64, eps=1e-05, momentum=0.1, affine=True, track_running_stats=True)
      (2): LeakyReLU(negative_slope=0.2, inplace=True)
      (3): MaxPool2d(kernel_size=2, stride=2, padding=0, dilation=1, ceil_mode=False)
      (4): Conv2d(64, 64, kernel_size=(3, 3), stride=(1, 1), padding=(1, 1), bias=False)
      (5): BatchNorm2d(64, eps=1e-05, momentum=0.1, affine=True, track_running_stats=True)
      (6): LeakyReLU(negative_slope=0.2, inplace=True)
      (7): MaxPool2d(kernel_size=2, stride=2, padding=0, dilation=1, ceil_mode=False)
      (8): Conv2d(64, 64, kernel_size=(3, 3), stride=(1, 1), padding=(1, 1), bias=False)
      (9): BatchNorm2d(64, eps=1e-05, momentum=0.1, affine=True, track_running_stats=True)
      (10): LeakyReLU(negative_slope=0.2, inplace=True)
      (11): Conv2d(64, 64, kernel_size=(3, 3), stride=(1, 1), padding=(1, 1), bias=False)
      (12): BatchNorm2d(64, eps=1e-05, momentum=0.1, affine=True, track_running_stats=True)
      (13): LeakyReLU(negative_slope=0.2, inplace=True)
    )
    (criterion): CrossEntropyLoss()
    (knn): KNN_itc(
      (softmax): Softmax(dim=1)
    )
  )
)
===================================== Epoch 1 =====================================
Trainset: 10000
Valset: 1000
Testset: 800
{'JOB_ID': 'imagenet_av_2_k3_w5_s5', 'arch': 'DN_X', 'config': '../models/architectures/configs/DN4_AV.yaml', 'dengine': False, 'refit_dengine': False, 'dataset_dir': '../dataset/miniImageNet', 'data_name': 'imageNetAV', 'mode': 'train', 'resume': None, 'epochs': 30, 'ngpu': 1, 'print_freq': 100, 'outf': '../results/DN_X_imageNetAV_DN4_5_Way_5_Shot_K1'}DN_X(
  (BACKBONE): FourLayer_64F(
    (features): Sequential(
      (0): Conv2d(3, 64, kernel_size=(3, 3), stride=(1, 1), padding=(1, 1), bias=False)
      (1): BatchNorm2d(64, eps=1e-05, momentum=0.1, affine=True, track_running_stats=True)
      (2): LeakyReLU(negative_slope=0.2, inplace=True)
      (3): MaxPool2d(kernel_size=2, stride=2, padding=0, dilation=1, ceil_mode=False)
      (4): Conv2d(64, 64, kernel_size=(3, 3), stride=(1, 1), padding=(1, 1), bias=False)
      (5): BatchNorm2d(64, eps=1e-05, momentum=0.1, affine=True, track_running_stats=True)
      (6): LeakyReLU(negative_slope=0.2, inplace=True)
      (7): MaxPool2d(kernel_size=2, stride=2, padding=0, dilation=1, ceil_mode=False)
      (8): Conv2d(64, 64, kernel_size=(3, 3), stride=(1, 1), padding=(1, 1), bias=False)
      (9): BatchNorm2d(64, eps=1e-05, momentum=0.1, affine=True, track_running_stats=True)
      (10): LeakyReLU(negative_slope=0.2, inplace=True)
      (11): Conv2d(64, 64, kernel_size=(3, 3), stride=(1, 1), padding=(1, 1), bias=False)
      (12): BatchNorm2d(64, eps=1e-05, momentum=0.1, affine=True, track_running_stats=True)
      (13): LeakyReLU(negative_slope=0.2, inplace=True)
    )
    (criterion): CrossEntropyLoss()
    (knn): KNN_itc(
      (softmax): Softmax(dim=1)
    )
  )
)
===================================== Epoch 1 =====================================
Trainset: 10000
Valset: 1000
Testset: 800
{'JOB_ID': 'imagenet_av_2_k3_w5_s5', 'arch': 'DN_X', 'config': '../models/architectures/configs/DN4_AV.yaml', 'dengine': False, 'refit_dengine': False, 'dataset_dir': '../dataset/miniImageNet', 'data_name': 'imageNetAV', 'mode': 'train', 'resume': None, 'epochs': 30, 'ngpu': 1, 'print_freq': 100, 'outf': '../results/DN_X_imageNetAV_DN4_5_Way_5_Shot_K1'}DN_X(
  (BACKBONE): FourLayer_64F(
    (features): Sequential(
      (0): Conv2d(3, 64, kernel_size=(3, 3), stride=(1, 1), padding=(1, 1), bias=False)
      (1): BatchNorm2d(64, eps=1e-05, momentum=0.1, affine=True, track_running_stats=True)
      (2): LeakyReLU(negative_slope=0.2, inplace=True)
      (3): MaxPool2d(kernel_size=2, stride=2, padding=0, dilation=1, ceil_mode=False)
      (4): Conv2d(64, 64, kernel_size=(3, 3), stride=(1, 1), padding=(1, 1), bias=False)
      (5): BatchNorm2d(64, eps=1e-05, momentum=0.1, affine=True, track_running_stats=True)
      (6): LeakyReLU(negative_slope=0.2, inplace=True)
      (7): MaxPool2d(kernel_size=2, stride=2, padding=0, dilation=1, ceil_mode=False)
      (8): Conv2d(64, 64, kernel_size=(3, 3), stride=(1, 1), padding=(1, 1), bias=False)
      (9): BatchNorm2d(64, eps=1e-05, momentum=0.1, affine=True, track_running_stats=True)
      (10): LeakyReLU(negative_slope=0.2, inplace=True)
      (11): Conv2d(64, 64, kernel_size=(3, 3), stride=(1, 1), padding=(1, 1), bias=False)
      (12): BatchNorm2d(64, eps=1e-05, momentum=0.1, affine=True, track_running_stats=True)
      (13): LeakyReLU(negative_slope=0.2, inplace=True)
    )
    (criterion): CrossEntropyLoss()
    (knn): KNN_itc(
      (softmax): Softmax(dim=1)
    )
  )
)
===================================== Epoch 1 =====================================
Trainset: 10000
Valset: 1000
Testset: 800
{'JOB_ID': 'imagenet_av_2_k3_w5_s5', 'arch': 'DN_X', 'config': '../models/architectures/configs/DN4_AV.yaml', 'dengine': False, 'refit_dengine': False, 'dataset_dir': '../dataset/miniImageNet', 'data_name': 'imageNetAV', 'mode': 'train', 'resume': None, 'epochs': 30, 'ngpu': 1, 'print_freq': 100, 'outf': '../results/DN_X_imageNetAV_DN4_5_Way_5_Shot_K1'}DN_X(
  (BACKBONE): FourLayer_64F(
    (features): Sequential(
      (0): Conv2d(3, 64, kernel_size=(3, 3), stride=(1, 1), padding=(1, 1), bias=False)
      (1): BatchNorm2d(64, eps=1e-05, momentum=0.1, affine=True, track_running_stats=True)
      (2): LeakyReLU(negative_slope=0.2, inplace=True)
      (3): MaxPool2d(kernel_size=2, stride=2, padding=0, dilation=1, ceil_mode=False)
      (4): Conv2d(64, 64, kernel_size=(3, 3), stride=(1, 1), padding=(1, 1), bias=False)
      (5): BatchNorm2d(64, eps=1e-05, momentum=0.1, affine=True, track_running_stats=True)
      (6): LeakyReLU(negative_slope=0.2, inplace=True)
      (7): MaxPool2d(kernel_size=2, stride=2, padding=0, dilation=1, ceil_mode=False)
      (8): Conv2d(64, 64, kernel_size=(3, 3), stride=(1, 1), padding=(1, 1), bias=False)
      (9): BatchNorm2d(64, eps=1e-05, momentum=0.1, affine=True, track_running_stats=True)
      (10): LeakyReLU(negative_slope=0.2, inplace=True)
      (11): Conv2d(64, 64, kernel_size=(3, 3), stride=(1, 1), padding=(1, 1), bias=False)
      (12): BatchNorm2d(64, eps=1e-05, momentum=0.1, affine=True, track_running_stats=True)
      (13): LeakyReLU(negative_slope=0.2, inplace=True)
    )
    (criterion): CrossEntropyLoss()
    (knn): KNN_itc(
      (softmax): Softmax(dim=1)
    )
  )
)
===================================== Epoch 1 =====================================
Trainset: 10000
Valset: 1000
Testset: 800
{'JOB_ID': 'imagenet_av_2_k3_w5_s5', 'arch': 'DN_X', 'config': '../models/architectures/configs/DN4_AV.yaml', 'dengine': False, 'refit_dengine': False, 'dataset_dir': '../dataset/miniImageNet', 'data_name': 'imageNetAV', 'mode': 'train', 'resume': None, 'epochs': 30, 'ngpu': 1, 'print_freq': 100, 'outf': '../results/DN_X_imageNetAV_DN4_5_Way_5_Shot_K1'}DN_X(
  (BACKBONE): FourLayer_64F(
    (features): Sequential(
      (0): Conv2d(3, 64, kernel_size=(3, 3), stride=(1, 1), padding=(1, 1), bias=False)
      (1): BatchNorm2d(64, eps=1e-05, momentum=0.1, affine=True, track_running_stats=True)
      (2): LeakyReLU(negative_slope=0.2, inplace=True)
      (3): MaxPool2d(kernel_size=2, stride=2, padding=0, dilation=1, ceil_mode=False)
      (4): Conv2d(64, 64, kernel_size=(3, 3), stride=(1, 1), padding=(1, 1), bias=False)
      (5): BatchNorm2d(64, eps=1e-05, momentum=0.1, affine=True, track_running_stats=True)
      (6): LeakyReLU(negative_slope=0.2, inplace=True)
      (7): MaxPool2d(kernel_size=2, stride=2, padding=0, dilation=1, ceil_mode=False)
      (8): Conv2d(64, 64, kernel_size=(3, 3), stride=(1, 1), padding=(1, 1), bias=False)
      (9): BatchNorm2d(64, eps=1e-05, momentum=0.1, affine=True, track_running_stats=True)
      (10): LeakyReLU(negative_slope=0.2, inplace=True)
      (11): Conv2d(64, 64, kernel_size=(3, 3), stride=(1, 1), padding=(1, 1), bias=False)
      (12): BatchNorm2d(64, eps=1e-05, momentum=0.1, affine=True, track_running_stats=True)
      (13): LeakyReLU(negative_slope=0.2, inplace=True)
    )
    (criterion): CrossEntropyLoss()
    (knn): KNN_itc(
      (softmax): Softmax(dim=1)
    )
  )
)
===================================== Epoch 1 =====================================
Trainset: 10000
Valset: 1000
Testset: 800
{'JOB_ID': 'imagenet_av_2_k3_w5_s5', 'arch': 'DN_X', 'config': '../models/architectures/configs/DN4_AV.yaml', 'dengine': False, 'refit_dengine': False, 'dataset_dir': '../dataset/miniImageNet', 'data_name': 'imageNetAV', 'mode': 'train', 'resume': None, 'epochs': 30, 'ngpu': 1, 'print_freq': 100, 'outf': '../results/DN_X_imageNetAV_DN4_5_Way_5_Shot_K1'}DN_X(
  (BACKBONE): FourLayer_64F(
    (features): Sequential(
      (0): Conv2d(3, 64, kernel_size=(3, 3), stride=(1, 1), padding=(1, 1), bias=False)
      (1): BatchNorm2d(64, eps=1e-05, momentum=0.1, affine=True, track_running_stats=True)
      (2): LeakyReLU(negative_slope=0.2, inplace=True)
      (3): MaxPool2d(kernel_size=2, stride=2, padding=0, dilation=1, ceil_mode=False)
      (4): Conv2d(64, 64, kernel_size=(3, 3), stride=(1, 1), padding=(1, 1), bias=False)
      (5): BatchNorm2d(64, eps=1e-05, momentum=0.1, affine=True, track_running_stats=True)
      (6): LeakyReLU(negative_slope=0.2, inplace=True)
      (7): MaxPool2d(kernel_size=2, stride=2, padding=0, dilation=1, ceil_mode=False)
      (8): Conv2d(64, 64, kernel_size=(3, 3), stride=(1, 1), padding=(1, 1), bias=False)
      (9): BatchNorm2d(64, eps=1e-05, momentum=0.1, affine=True, track_running_stats=True)
      (10): LeakyReLU(negative_slope=0.2, inplace=True)
      (11): Conv2d(64, 64, kernel_size=(3, 3), stride=(1, 1), padding=(1, 1), bias=False)
      (12): BatchNorm2d(64, eps=1e-05, momentum=0.1, affine=True, track_running_stats=True)
      (13): LeakyReLU(negative_slope=0.2, inplace=True)
    )
    (criterion): CrossEntropyLoss()
    (knn): KNN_itc(
      (softmax): Softmax(dim=1)
    )
  )
)
===================================== Epoch 1 =====================================
Trainset: 10000
Valset: 1000
Testset: 800
{'JOB_ID': 'imagenet_av_2_k3_w5_s5', 'arch': 'DN_X', 'config': '../models/architectures/configs/DN4_AV.yaml', 'dengine': False, 'refit_dengine': False, 'dataset_dir': '../dataset/miniImageNet', 'data_name': 'imageNetAV', 'mode': 'train', 'resume': None, 'epochs': 30, 'ngpu': 1, 'print_freq': 100, 'outf': '../results/DN_X_imageNetAV_DN4_5_Way_5_Shot_K1'}DN_X(
  (BACKBONE): FourLayer_64F(
    (features): Sequential(
      (0): Conv2d(3, 64, kernel_size=(3, 3), stride=(1, 1), padding=(1, 1), bias=False)
      (1): BatchNorm2d(64, eps=1e-05, momentum=0.1, affine=True, track_running_stats=True)
      (2): LeakyReLU(negative_slope=0.2, inplace=True)
      (3): MaxPool2d(kernel_size=2, stride=2, padding=0, dilation=1, ceil_mode=False)
      (4): Conv2d(64, 64, kernel_size=(3, 3), stride=(1, 1), padding=(1, 1), bias=False)
      (5): BatchNorm2d(64, eps=1e-05, momentum=0.1, affine=True, track_running_stats=True)
      (6): LeakyReLU(negative_slope=0.2, inplace=True)
      (7): MaxPool2d(kernel_size=2, stride=2, padding=0, dilation=1, ceil_mode=False)
      (8): Conv2d(64, 64, kernel_size=(3, 3), stride=(1, 1), padding=(1, 1), bias=False)
      (9): BatchNorm2d(64, eps=1e-05, momentum=0.1, affine=True, track_running_stats=True)
      (10): LeakyReLU(negative_slope=0.2, inplace=True)
      (11): Conv2d(64, 64, kernel_size=(3, 3), stride=(1, 1), padding=(1, 1), bias=False)
      (12): BatchNorm2d(64, eps=1e-05, momentum=0.1, affine=True, track_running_stats=True)
      (13): LeakyReLU(negative_slope=0.2, inplace=True)
    )
    (criterion): CrossEntropyLoss()
    (knn): KNN_itc(
      (softmax): Softmax(dim=1)
    )
  )
)
===================================== Epoch 1 =====================================
Trainset: 10000
Valset: 1000
Testset: 800
{'JOB_ID': 'imagenet_av_2_k3_w5_s5', 'arch': 'DN_X', 'config': '../models/architectures/configs/DN4_AV.yaml', 'dengine': False, 'refit_dengine': False, 'dataset_dir': '../dataset/miniImageNet', 'data_name': 'imageNetAV', 'mode': 'train', 'resume': None, 'epochs': 30, 'ngpu': 1, 'print_freq': 100, 'outf': '../results/DN_X_imageNetAV_DN4_5_Way_5_Shot_K1'}DN_X(
  (BACKBONE): FourLayer_64F(
    (features): Sequential(
      (0): Conv2d(3, 64, kernel_size=(3, 3), stride=(1, 1), padding=(1, 1), bias=False)
      (1): BatchNorm2d(64, eps=1e-05, momentum=0.1, affine=True, track_running_stats=True)
      (2): LeakyReLU(negative_slope=0.2, inplace=True)
      (3): MaxPool2d(kernel_size=2, stride=2, padding=0, dilation=1, ceil_mode=False)
      (4): Conv2d(64, 64, kernel_size=(3, 3), stride=(1, 1), padding=(1, 1), bias=False)
      (5): BatchNorm2d(64, eps=1e-05, momentum=0.1, affine=True, track_running_stats=True)
      (6): LeakyReLU(negative_slope=0.2, inplace=True)
      (7): MaxPool2d(kernel_size=2, stride=2, padding=0, dilation=1, ceil_mode=False)
      (8): Conv2d(64, 64, kernel_size=(3, 3), stride=(1, 1), padding=(1, 1), bias=False)
      (9): BatchNorm2d(64, eps=1e-05, momentum=0.1, affine=True, track_running_stats=True)
      (10): LeakyReLU(negative_slope=0.2, inplace=True)
      (11): Conv2d(64, 64, kernel_size=(3, 3), stride=(1, 1), padding=(1, 1), bias=False)
      (12): BatchNorm2d(64, eps=1e-05, momentum=0.1, affine=True, track_running_stats=True)
      (13): LeakyReLU(negative_slope=0.2, inplace=True)
    )
    (criterion): CrossEntropyLoss()
    (knn): KNN_itc(
      (softmax): Softmax(dim=1)
    )
  )
)
===================================== Epoch 1 =====================================
Trainset: 10000
Valset: 1000
Testset: 800
{'JOB_ID': 'imagenet_av_2_k3_w5_s5', 'arch': 'DN_X', 'config': '../models/architectures/configs/DN4_AV.yaml', 'dengine': False, 'refit_dengine': False, 'dataset_dir': '../dataset/miniImageNet', 'data_name': 'imageNetAV', 'mode': 'train', 'resume': None, 'epochs': 30, 'ngpu': 1, 'print_freq': 100, 'outf': '../results/DN_X_imageNetAV_DN4_5_Way_5_Shot_K1'}DN_X(
  (BACKBONE): FourLayer_64F(
    (features): Sequential(
      (0): Conv2d(3, 64, kernel_size=(3, 3), stride=(1, 1), padding=(1, 1), bias=False)
      (1): BatchNorm2d(64, eps=1e-05, momentum=0.1, affine=True, track_running_stats=True)
      (2): LeakyReLU(negative_slope=0.2, inplace=True)
      (3): MaxPool2d(kernel_size=2, stride=2, padding=0, dilation=1, ceil_mode=False)
      (4): Conv2d(64, 64, kernel_size=(3, 3), stride=(1, 1), padding=(1, 1), bias=False)
      (5): BatchNorm2d(64, eps=1e-05, momentum=0.1, affine=True, track_running_stats=True)
      (6): LeakyReLU(negative_slope=0.2, inplace=True)
      (7): MaxPool2d(kernel_size=2, stride=2, padding=0, dilation=1, ceil_mode=False)
      (8): Conv2d(64, 64, kernel_size=(3, 3), stride=(1, 1), padding=(1, 1), bias=False)
      (9): BatchNorm2d(64, eps=1e-05, momentum=0.1, affine=True, track_running_stats=True)
      (10): LeakyReLU(negative_slope=0.2, inplace=True)
      (11): Conv2d(64, 64, kernel_size=(3, 3), stride=(1, 1), padding=(1, 1), bias=False)
      (12): BatchNorm2d(64, eps=1e-05, momentum=0.1, affine=True, track_running_stats=True)
      (13): LeakyReLU(negative_slope=0.2, inplace=True)
    )
    (criterion): CrossEntropyLoss()
    (knn): KNN_itc(
      (softmax): Softmax(dim=1)
    )
  )
)
===================================== Epoch 1 =====================================
Trainset: 10000
Valset: 1000
Testset: 800
{'JOB_ID': 'imagenet_av_2_k3_w5_s5', 'arch': 'DN_X', 'config': '../models/architectures/configs/DN4_AV.yaml', 'dengine': False, 'refit_dengine': False, 'dataset_dir': '../dataset/miniImageNet', 'data_name': 'imageNetAV', 'mode': 'train', 'resume': None, 'epochs': 30, 'ngpu': 1, 'print_freq': 100, 'outf': '../results/DN_X_imageNetAV_DN4_5_Way_5_Shot_K1'}DN_X(
  (BACKBONE): FourLayer_64F(
    (features): Sequential(
      (0): Conv2d(3, 64, kernel_size=(3, 3), stride=(1, 1), padding=(1, 1), bias=False)
      (1): BatchNorm2d(64, eps=1e-05, momentum=0.1, affine=True, track_running_stats=True)
      (2): LeakyReLU(negative_slope=0.2, inplace=True)
      (3): MaxPool2d(kernel_size=2, stride=2, padding=0, dilation=1, ceil_mode=False)
      (4): Conv2d(64, 64, kernel_size=(3, 3), stride=(1, 1), padding=(1, 1), bias=False)
      (5): BatchNorm2d(64, eps=1e-05, momentum=0.1, affine=True, track_running_stats=True)
      (6): LeakyReLU(negative_slope=0.2, inplace=True)
      (7): MaxPool2d(kernel_size=2, stride=2, padding=0, dilation=1, ceil_mode=False)
      (8): Conv2d(64, 64, kernel_size=(3, 3), stride=(1, 1), padding=(1, 1), bias=False)
      (9): BatchNorm2d(64, eps=1e-05, momentum=0.1, affine=True, track_running_stats=True)
      (10): LeakyReLU(negative_slope=0.2, inplace=True)
      (11): Conv2d(64, 64, kernel_size=(3, 3), stride=(1, 1), padding=(1, 1), bias=False)
      (12): BatchNorm2d(64, eps=1e-05, momentum=0.1, affine=True, track_running_stats=True)
      (13): LeakyReLU(negative_slope=0.2, inplace=True)
    )
    (criterion): CrossEntropyLoss()
    (knn): KNN_itc(
      (softmax): Softmax(dim=1)
    )
  )
)
===================================== Epoch 1 =====================================
Trainset: 10000
Valset: 1000
Testset: 800
{'JOB_ID': 'imagenet_av_2_k3_w5_s5', 'arch': 'DN_X', 'config': '../models/architectures/configs/DN4_AV.yaml', 'dengine': False, 'refit_dengine': False, 'dataset_dir': '../dataset/miniImageNet', 'data_name': 'imageNetAV', 'mode': 'train', 'resume': None, 'epochs': 30, 'ngpu': 1, 'print_freq': 100, 'outf': '../results/DN_X_imageNetAV_DN4_5_Way_5_Shot_K1'}DN_X(
  (BACKBONE): FourLayer_64F(
    (features): Sequential(
      (0): Conv2d(3, 64, kernel_size=(3, 3), stride=(1, 1), padding=(1, 1), bias=False)
      (1): BatchNorm2d(64, eps=1e-05, momentum=0.1, affine=True, track_running_stats=True)
      (2): LeakyReLU(negative_slope=0.2, inplace=True)
      (3): MaxPool2d(kernel_size=2, stride=2, padding=0, dilation=1, ceil_mode=False)
      (4): Conv2d(64, 64, kernel_size=(3, 3), stride=(1, 1), padding=(1, 1), bias=False)
      (5): BatchNorm2d(64, eps=1e-05, momentum=0.1, affine=True, track_running_stats=True)
      (6): LeakyReLU(negative_slope=0.2, inplace=True)
      (7): MaxPool2d(kernel_size=2, stride=2, padding=0, dilation=1, ceil_mode=False)
      (8): Conv2d(64, 64, kernel_size=(3, 3), stride=(1, 1), padding=(1, 1), bias=False)
      (9): BatchNorm2d(64, eps=1e-05, momentum=0.1, affine=True, track_running_stats=True)
      (10): LeakyReLU(negative_slope=0.2, inplace=True)
      (11): Conv2d(64, 64, kernel_size=(3, 3), stride=(1, 1), padding=(1, 1), bias=False)
      (12): BatchNorm2d(64, eps=1e-05, momentum=0.1, affine=True, track_running_stats=True)
      (13): LeakyReLU(negative_slope=0.2, inplace=True)
    )
    (criterion): CrossEntropyLoss()
    (knn): KNN_itc(
      (softmax): Softmax(dim=1)
    )
  )
)
===================================== Epoch 1 =====================================
Trainset: 10000
Valset: 1000
Testset: 800
{'JOB_ID': 'imagenet_av_2_k3_w5_s5', 'arch': 'DN_X', 'config': '../models/architectures/configs/DN4_AV.yaml', 'dengine': False, 'refit_dengine': False, 'dataset_dir': '../dataset/miniImageNet', 'data_name': 'imageNetAV', 'mode': 'train', 'resume': None, 'epochs': 30, 'ngpu': 1, 'print_freq': 100, 'outf': '../results/DN_X_imageNetAV_DN4_5_Way_5_Shot_K1'}DN_X(
  (BACKBONE): FourLayer_64F(
    (features): Sequential(
      (0): Conv2d(3, 64, kernel_size=(3, 3), stride=(1, 1), padding=(1, 1), bias=False)
      (1): BatchNorm2d(64, eps=1e-05, momentum=0.1, affine=True, track_running_stats=True)
      (2): LeakyReLU(negative_slope=0.2, inplace=True)
      (3): MaxPool2d(kernel_size=2, stride=2, padding=0, dilation=1, ceil_mode=False)
      (4): Conv2d(64, 64, kernel_size=(3, 3), stride=(1, 1), padding=(1, 1), bias=False)
      (5): BatchNorm2d(64, eps=1e-05, momentum=0.1, affine=True, track_running_stats=True)
      (6): LeakyReLU(negative_slope=0.2, inplace=True)
      (7): MaxPool2d(kernel_size=2, stride=2, padding=0, dilation=1, ceil_mode=False)
      (8): Conv2d(64, 64, kernel_size=(3, 3), stride=(1, 1), padding=(1, 1), bias=False)
      (9): BatchNorm2d(64, eps=1e-05, momentum=0.1, affine=True, track_running_stats=True)
      (10): LeakyReLU(negative_slope=0.2, inplace=True)
      (11): Conv2d(64, 64, kernel_size=(3, 3), stride=(1, 1), padding=(1, 1), bias=False)
      (12): BatchNorm2d(64, eps=1e-05, momentum=0.1, affine=True, track_running_stats=True)
      (13): LeakyReLU(negative_slope=0.2, inplace=True)
    )
    (criterion): CrossEntropyLoss()
    (knn): KNN_itc(
      (softmax): Softmax(dim=1)
    )
  )
)
===================================== Epoch 1 =====================================
Trainset: 10000
Valset: 1000
Testset: 800
{'JOB_ID': 'imagenet_av_2_k3_w5_s5', 'arch': 'DN_X', 'config': '../models/architectures/configs/DN4_AV.yaml', 'dengine': False, 'refit_dengine': False, 'dataset_dir': '../dataset/miniImageNet', 'data_name': 'imageNetAV', 'mode': 'train', 'resume': None, 'epochs': 30, 'ngpu': 1, 'print_freq': 100, 'outf': '../results/DN_X_imageNetAV_DN4_5_Way_5_Shot_K1'}DN_X(
  (BACKBONE): FourLayer_64F(
    (features): Sequential(
      (0): Conv2d(3, 64, kernel_size=(3, 3), stride=(1, 1), padding=(1, 1), bias=False)
      (1): BatchNorm2d(64, eps=1e-05, momentum=0.1, affine=True, track_running_stats=True)
      (2): LeakyReLU(negative_slope=0.2, inplace=True)
      (3): MaxPool2d(kernel_size=2, stride=2, padding=0, dilation=1, ceil_mode=False)
      (4): Conv2d(64, 64, kernel_size=(3, 3), stride=(1, 1), padding=(1, 1), bias=False)
      (5): BatchNorm2d(64, eps=1e-05, momentum=0.1, affine=True, track_running_stats=True)
      (6): LeakyReLU(negative_slope=0.2, inplace=True)
      (7): MaxPool2d(kernel_size=2, stride=2, padding=0, dilation=1, ceil_mode=False)
      (8): Conv2d(64, 64, kernel_size=(3, 3), stride=(1, 1), padding=(1, 1), bias=False)
      (9): BatchNorm2d(64, eps=1e-05, momentum=0.1, affine=True, track_running_stats=True)
      (10): LeakyReLU(negative_slope=0.2, inplace=True)
      (11): Conv2d(64, 64, kernel_size=(3, 3), stride=(1, 1), padding=(1, 1), bias=False)
      (12): BatchNorm2d(64, eps=1e-05, momentum=0.1, affine=True, track_running_stats=True)
      (13): LeakyReLU(negative_slope=0.2, inplace=True)
    )
    (criterion): CrossEntropyLoss()
    (knn): KNN_itc(
      (softmax): Softmax(dim=1)
    )
  )
)
===================================== Epoch 1 =====================================
Trainset: 10000
Valset: 1000
Testset: 800
Eposide-(0): [100/10000]	Time 0.466 (0.668)	Data 0.000 (0.193)	Loss 1.308 (1.601)	Prec@1 50.000 (35.327)
…
Eposide-(0): [2000/10000]	Time 0.457 (0.480)	Data 0.000 (0.010)	Loss 0.948 (1.105)	Prec@1 66.000 (55.440)
Eposide-(0): [2100/10000]	Time 0.461 (0.479)	Data 0.000 (0.010)	Loss 0.884 (1.093)	Prec@1 60.000 (55.942)
{'JOB_ID': 'imagenet_av_2_k3_w5_s5', 'arch': 'DN_X', 'config': '../models/architectures/configs/DN4_AV.yaml', 'dengine': False, 'refit_dengine': False, 'dataset_dir': '../dataset/miniImageNet', 'data_name': 'imageNetAV', 'mode': 'train', 'resume': None, 'epochs': 30, 'ngpu': 1, 'print_freq': 100, 'outf': '../results/DN_X_imageNetAV_DN4_5_Way_5_Shot_K1'}DN_X(
  (BACKBONE): FourLayer_64F(
    (features): Sequential(
      (0): Conv2d(3, 64, kernel_size=(3, 3), stride=(1, 1), padding=(1, 1), bias=False)
      (1): BatchNorm2d(64, eps=1e-05, momentum=0.1, affine=True, track_running_stats=True)
      (2): LeakyReLU(negative_slope=0.2, inplace=True)
      (3): MaxPool2d(kernel_size=2, stride=2, padding=0, dilation=1, ceil_mode=False)
      (4): Conv2d(64, 64, kernel_size=(3, 3), stride=(1, 1), padding=(1, 1), bias=False)
      (5): BatchNorm2d(64, eps=1e-05, momentum=0.1, affine=True, track_running_stats=True)
      (6): LeakyReLU(negative_slope=0.2, inplace=True)
      (7): MaxPool2d(kernel_size=2, stride=2, padding=0, dilation=1, ceil_mode=False)
      (8): Conv2d(64, 64, kernel_size=(3, 3), stride=(1, 1), padding=(1, 1), bias=False)
      (9): BatchNorm2d(64, eps=1e-05, momentum=0.1, affine=True, track_running_stats=True)
      (10): LeakyReLU(negative_slope=0.2, inplace=True)
      (11): Conv2d(64, 64, kernel_size=(3, 3), stride=(1, 1), padding=(1, 1), bias=False)
      (12): BatchNorm2d(64, eps=1e-05, momentum=0.1, affine=True, track_running_stats=True)
      (13): LeakyReLU(negative_slope=0.2, inplace=True)
    )
    (criterion): CrossEntropyLoss()
    (knn): KNN_itc(
      (softmax): Softmax(dim=1)
    )
  )
)
===================================== Epoch 1 =====================================
{'JOB_ID': 'imagenet_av_2_k3_w5_s5', 'arch': 'DN_X', 'config': '../models/architectures/configs/DN4_AV.yaml', 'dengine': False, 'refit_dengine': False, 'dataset_dir': '../dataset/miniImageNet', 'data_name': 'imageNetAV', 'mode': 'train', 'resume': None, 'epochs': 30, 'ngpu': 1, 'print_freq': 100, 'outf': '../results/DN_X_imageNetAV_DN4_5_Way_5_Shot_K1'}DN_X(
  (BACKBONE): FourLayer_64F(
    (features): Sequential(
      (0): Conv2d(3, 64, kernel_size=(3, 3), stride=(1, 1), padding=(1, 1), bias=False)
      (1): BatchNorm2d(64, eps=1e-05, momentum=0.1, affine=True, track_running_stats=True)
      (2): LeakyReLU(negative_slope=0.2, inplace=True)
      (3): MaxPool2d(kernel_size=2, stride=2, padding=0, dilation=1, ceil_mode=False)
      (4): Conv2d(64, 64, kernel_size=(3, 3), stride=(1, 1), padding=(1, 1), bias=False)
      (5): BatchNorm2d(64, eps=1e-05, momentum=0.1, affine=True, track_running_stats=True)
      (6): LeakyReLU(negative_slope=0.2, inplace=True)
      (7): MaxPool2d(kernel_size=2, stride=2, padding=0, dilation=1, ceil_mode=False)
      (8): Conv2d(64, 64, kernel_size=(3, 3), stride=(1, 1), padding=(1, 1), bias=False)
      (9): BatchNorm2d(64, eps=1e-05, momentum=0.1, affine=True, track_running_stats=True)
      (10): LeakyReLU(negative_slope=0.2, inplace=True)
      (11): Conv2d(64, 64, kernel_size=(3, 3), stride=(1, 1), padding=(1, 1), bias=False)
      (12): BatchNorm2d(64, eps=1e-05, momentum=0.1, affine=True, track_running_stats=True)
      (13): LeakyReLU(negative_slope=0.2, inplace=True)
    )
    (criterion): CrossEntropyLoss()
    (knn): KNN_itc(
      (softmax): Softmax(dim=1)
    )
  )
)
===================================== Epoch 1 =====================================
Trainset: 10000
Valset: 1000
Testset: 800
{'JOB_ID': 'imagenet_av_2_k3_w5_s5', 'arch': 'DN_X', 'config': '../models/architectures/configs/DN4_AV.yaml', 'dengine': False, 'refit_dengine': False, 'dataset_dir': '../dataset/miniImageNet', 'data_name': 'imageNetAV', 'mode': 'train', 'resume': None, 'epochs': 30, 'ngpu': 1, 'print_freq': 100, 'outf': '../results/DN_X_imageNetAV_DN4_5_Way_5_Shot_K1'}DN_X(
  (BACKBONE): FourLayer_64F(
    (features): Sequential(
      (0): Conv2d(3, 64, kernel_size=(3, 3), stride=(1, 1), padding=(1, 1), bias=False)
      (1): BatchNorm2d(64, eps=1e-05, momentum=0.1, affine=True, track_running_stats=True)
      (2): LeakyReLU(negative_slope=0.2, inplace=True)
      (3): MaxPool2d(kernel_size=2, stride=2, padding=0, dilation=1, ceil_mode=False)
      (4): Conv2d(64, 64, kernel_size=(3, 3), stride=(1, 1), padding=(1, 1), bias=False)
      (5): BatchNorm2d(64, eps=1e-05, momentum=0.1, affine=True, track_running_stats=True)
      (6): LeakyReLU(negative_slope=0.2, inplace=True)
      (7): MaxPool2d(kernel_size=2, stride=2, padding=0, dilation=1, ceil_mode=False)
      (8): Conv2d(64, 64, kernel_size=(3, 3), stride=(1, 1), padding=(1, 1), bias=False)
      (9): BatchNorm2d(64, eps=1e-05, momentum=0.1, affine=True, track_running_stats=True)
      (10): LeakyReLU(negative_slope=0.2, inplace=True)
      (11): Conv2d(64, 64, kernel_size=(3, 3), stride=(1, 1), padding=(1, 1), bias=False)
      (12): BatchNorm2d(64, eps=1e-05, momentum=0.1, affine=True, track_running_stats=True)
      (13): LeakyReLU(negative_slope=0.2, inplace=True)
    )
    (criterion): CrossEntropyLoss()
    (knn): KNN_itc(
      (softmax): Softmax(dim=1)
    )
  )
)
===================================== Epoch 1 =====================================
Trainset: 10000
Valset: 1000
Testset: 800
{'JOB_ID': 'imagenet_av_2_k3_w5_s5', 'arch': 'DN_X', 'config': '../models/architectures/configs/DN4_AV.yaml', 'dengine': False, 'refit_dengine': False, 'dataset_dir': '../dataset/miniImageNet', 'data_name': 'imageNetAV', 'mode': 'train', 'resume': None, 'epochs': 30, 'ngpu': 1, 'print_freq': 100, 'outf': '../results/DN_X_imageNetAV_DN4_5_Way_5_Shot_K1'}DN_X(
  (BACKBONE): FourLayer_64F(
    (features): Sequential(
      (0): Conv2d(3, 64, kernel_size=(3, 3), stride=(1, 1), padding=(1, 1), bias=False)
      (1): BatchNorm2d(64, eps=1e-05, momentum=0.1, affine=True, track_running_stats=True)
      (2): LeakyReLU(negative_slope=0.2, inplace=True)
      (3): MaxPool2d(kernel_size=2, stride=2, padding=0, dilation=1, ceil_mode=False)
      (4): Conv2d(64, 64, kernel_size=(3, 3), stride=(1, 1), padding=(1, 1), bias=False)
      (5): BatchNorm2d(64, eps=1e-05, momentum=0.1, affine=True, track_running_stats=True)
      (6): LeakyReLU(negative_slope=0.2, inplace=True)
      (7): MaxPool2d(kernel_size=2, stride=2, padding=0, dilation=1, ceil_mode=False)
      (8): Conv2d(64, 64, kernel_size=(3, 3), stride=(1, 1), padding=(1, 1), bias=False)
      (9): BatchNorm2d(64, eps=1e-05, momentum=0.1, affine=True, track_running_stats=True)
      (10): LeakyReLU(negative_slope=0.2, inplace=True)
      (11): Conv2d(64, 64, kernel_size=(3, 3), stride=(1, 1), padding=(1, 1), bias=False)
      (12): BatchNorm2d(64, eps=1e-05, momentum=0.1, affine=True, track_running_stats=True)
      (13): LeakyReLU(negative_slope=0.2, inplace=True)
    )
    (criterion): CrossEntropyLoss()
    (knn): KNN_itc(
      (softmax): Softmax(dim=1)
    )
  )
)
===================================== Epoch 1 =====================================
Trainset: 10000
Valset: 1000
Testset: 800
Eposide-(0): [100/10000]	Time 0.498 (0.702)	Data 0.000 (0.201)	Loss 1.575 (1.642)	Prec@1 20.000 (36.614)
…
Eposide-(0): [400/10000]	Time 0.485 (0.545)	Data 0.000 (0.051)	Loss 1.303 (1.432)	Prec@1 40.000 (41.691)
Eposide-(0): [500/10000]	Time 0.475 (0.534)	Data 0.000 (0.041)	Loss 1.236 (1.388)	Prec@1 52.000 (43.493)
{'JOB_ID': 'imagenet_av_2_k3_w5_s5', 'arch': 'DN_X', 'config': '../models/architectures/configs/DN4_AV.yaml', 'dengine': False, 'refit_dengine': False, 'dataset_dir': '../dataset/miniImageNet', 'data_name': 'imageNetAV', 'mode': 'train', 'resume': None, 'epochs': 30, 'ngpu': 1, 'print_freq': 100, 'outf': '../results/DN_X_imageNetAV_DN4_5_Way_5_Shot_K1'}DN_X(
  (BACKBONE): FourLayer_64F(
    (features): Sequential(
      (0): Conv2d(3, 64, kernel_size=(3, 3), stride=(1, 1), padding=(1, 1), bias=False)
      (1): BatchNorm2d(64, eps=1e-05, momentum=0.1, affine=True, track_running_stats=True)
      (2): LeakyReLU(negative_slope=0.2, inplace=True)
      (3): MaxPool2d(kernel_size=2, stride=2, padding=0, dilation=1, ceil_mode=False)
      (4): Conv2d(64, 64, kernel_size=(3, 3), stride=(1, 1), padding=(1, 1), bias=False)
      (5): BatchNorm2d(64, eps=1e-05, momentum=0.1, affine=True, track_running_stats=True)
      (6): LeakyReLU(negative_slope=0.2, inplace=True)
      (7): MaxPool2d(kernel_size=2, stride=2, padding=0, dilation=1, ceil_mode=False)
      (8): Conv2d(64, 64, kernel_size=(3, 3), stride=(1, 1), padding=(1, 1), bias=False)
      (9): BatchNorm2d(64, eps=1e-05, momentum=0.1, affine=True, track_running_stats=True)
      (10): LeakyReLU(negative_slope=0.2, inplace=True)
      (11): Conv2d(64, 64, kernel_size=(3, 3), stride=(1, 1), padding=(1, 1), bias=False)
      (12): BatchNorm2d(64, eps=1e-05, momentum=0.1, affine=True, track_running_stats=True)
      (13): LeakyReLU(negative_slope=0.2, inplace=True)
    )
    (criterion): CrossEntropyLoss()
    (knn): KNN_itc(
      (softmax): Softmax(dim=1)
    )
  )
)
===================================== Epoch 1 =====================================
Trainset: 10000
Valset: 1000
Testset: 800
Eposide-(0): [100/10000]	Time 0.485 (0.680)	Data 0.000 (0.175)	Loss 1.413 (1.597)	Prec@1 46.000 (35.525)
Eposide-(0): [200/10000]	Time 0.485 (0.588)	Data 0.000 (0.088)	Loss 1.271 (1.531)	Prec@1 52.000 (36.498)
{'JOB_ID': 'imagenet_av_2_k3_w5_s5', 'arch': 'DN_X', 'config': '../models/architectures/configs/DN4_AV.yaml', 'dengine': False, 'refit_dengine': False, 'dataset_dir': '../dataset/miniImageNet', 'data_name': 'imageNetAV', 'mode': 'train', 'resume': None, 'epochs': 30, 'ngpu': 1, 'print_freq': 100, 'outf': '../results/DN_X_imageNetAV_DN4_5_Way_5_Shot_K1'}DN_X(
  (BACKBONE): FourLayer_64F(
    (features): Sequential(
      (0): Conv2d(3, 64, kernel_size=(3, 3), stride=(1, 1), padding=(1, 1), bias=False)
      (1): BatchNorm2d(64, eps=1e-05, momentum=0.1, affine=True, track_running_stats=True)
      (2): LeakyReLU(negative_slope=0.2, inplace=True)
      (3): MaxPool2d(kernel_size=2, stride=2, padding=0, dilation=1, ceil_mode=False)
      (4): Conv2d(64, 64, kernel_size=(3, 3), stride=(1, 1), padding=(1, 1), bias=False)
      (5): BatchNorm2d(64, eps=1e-05, momentum=0.1, affine=True, track_running_stats=True)
      (6): LeakyReLU(negative_slope=0.2, inplace=True)
      (7): MaxPool2d(kernel_size=2, stride=2, padding=0, dilation=1, ceil_mode=False)
      (8): Conv2d(64, 64, kernel_size=(3, 3), stride=(1, 1), padding=(1, 1), bias=False)
      (9): BatchNorm2d(64, eps=1e-05, momentum=0.1, affine=True, track_running_stats=True)
      (10): LeakyReLU(negative_slope=0.2, inplace=True)
      (11): Conv2d(64, 64, kernel_size=(3, 3), stride=(1, 1), padding=(1, 1), bias=False)
      (12): BatchNorm2d(64, eps=1e-05, momentum=0.1, affine=True, track_running_stats=True)
      (13): LeakyReLU(negative_slope=0.2, inplace=True)
    )
    (criterion): CrossEntropyLoss()
    (knn): KNN_itc()
  )
)
===================================== Epoch 1 =====================================
Trainset: 10000
Valset: 1000
Testset: 800
{'JOB_ID': 'imagenet_av_2_k3_w5_s5', 'arch': 'DN_X', 'config': '../models/architectures/configs/DN4_AV.yaml', 'dengine': False, 'refit_dengine': False, 'dataset_dir': '../dataset/miniImageNet', 'data_name': 'imageNetAV', 'mode': 'train', 'resume': None, 'epochs': 30, 'ngpu': 1, 'print_freq': 100, 'outf': '../results/DN_X_imageNetAV_DN4_5_Way_5_Shot_K1'}DN_X(
  (BACKBONE): FourLayer_64F(
    (features): Sequential(
      (0): Conv2d(3, 64, kernel_size=(3, 3), stride=(1, 1), padding=(1, 1), bias=False)
      (1): BatchNorm2d(64, eps=1e-05, momentum=0.1, affine=True, track_running_stats=True)
      (2): LeakyReLU(negative_slope=0.2, inplace=True)
      (3): MaxPool2d(kernel_size=2, stride=2, padding=0, dilation=1, ceil_mode=False)
      (4): Conv2d(64, 64, kernel_size=(3, 3), stride=(1, 1), padding=(1, 1), bias=False)
      (5): BatchNorm2d(64, eps=1e-05, momentum=0.1, affine=True, track_running_stats=True)
      (6): LeakyReLU(negative_slope=0.2, inplace=True)
      (7): MaxPool2d(kernel_size=2, stride=2, padding=0, dilation=1, ceil_mode=False)
      (8): Conv2d(64, 64, kernel_size=(3, 3), stride=(1, 1), padding=(1, 1), bias=False)
      (9): BatchNorm2d(64, eps=1e-05, momentum=0.1, affine=True, track_running_stats=True)
      (10): LeakyReLU(negative_slope=0.2, inplace=True)
      (11): Conv2d(64, 64, kernel_size=(3, 3), stride=(1, 1), padding=(1, 1), bias=False)
      (12): BatchNorm2d(64, eps=1e-05, momentum=0.1, affine=True, track_running_stats=True)
      (13): LeakyReLU(negative_slope=0.2, inplace=True)
    )
    (criterion): CrossEntropyLoss()
    (knn): KNN_itc()
  )
)
===================================== Epoch 1 =====================================
Trainset: 10000
Valset: 1000
Testset: 800
{'JOB_ID': 'imagenet_av_2_k3_w5_s5', 'arch': 'DN_X', 'config': '../models/architectures/configs/DN4_AV.yaml', 'dengine': False, 'refit_dengine': False, 'dataset_dir': '../dataset/miniImageNet', 'data_name': 'imageNetAV', 'mode': 'train', 'resume': None, 'epochs': 30, 'ngpu': 1, 'print_freq': 100, 'outf': '../results/DN_X_imageNetAV_DN4_5_Way_5_Shot_K1'}DN_X(
  (BACKBONE): FourLayer_64F(
    (features): Sequential(
      (0): Conv2d(3, 64, kernel_size=(3, 3), stride=(1, 1), padding=(1, 1), bias=False)
      (1): BatchNorm2d(64, eps=1e-05, momentum=0.1, affine=True, track_running_stats=True)
      (2): LeakyReLU(negative_slope=0.2, inplace=True)
      (3): MaxPool2d(kernel_size=2, stride=2, padding=0, dilation=1, ceil_mode=False)
      (4): Conv2d(64, 64, kernel_size=(3, 3), stride=(1, 1), padding=(1, 1), bias=False)
      (5): BatchNorm2d(64, eps=1e-05, momentum=0.1, affine=True, track_running_stats=True)
      (6): LeakyReLU(negative_slope=0.2, inplace=True)
      (7): MaxPool2d(kernel_size=2, stride=2, padding=0, dilation=1, ceil_mode=False)
      (8): Conv2d(64, 64, kernel_size=(3, 3), stride=(1, 1), padding=(1, 1), bias=False)
      (9): BatchNorm2d(64, eps=1e-05, momentum=0.1, affine=True, track_running_stats=True)
      (10): LeakyReLU(negative_slope=0.2, inplace=True)
      (11): Conv2d(64, 64, kernel_size=(3, 3), stride=(1, 1), padding=(1, 1), bias=False)
      (12): BatchNorm2d(64, eps=1e-05, momentum=0.1, affine=True, track_running_stats=True)
      (13): LeakyReLU(negative_slope=0.2, inplace=True)
    )
    (criterion): CrossEntropyLoss()
    (knn): KNN_itc()
  )
)
===================================== Epoch 1 =====================================
Trainset: 10000
Valset: 1000
Testset: 800
{'JOB_ID': 'imagenet_av_2_k3_w5_s5', 'arch': 'DN_X', 'config': '../models/architectures/configs/DN4_AV.yaml', 'dengine': False, 'refit_dengine': False, 'dataset_dir': '../dataset/miniImageNet', 'data_name': 'imageNetAV', 'mode': 'train', 'resume': None, 'epochs': 30, 'ngpu': 1, 'print_freq': 100, 'outf': '../results/DN_X_imageNetAV_DN4_5_Way_5_Shot_K1'}DN_X(
  (BACKBONE): FourLayer_64F(
    (features): Sequential(
      (0): Conv2d(3, 64, kernel_size=(3, 3), stride=(1, 1), padding=(1, 1), bias=False)
      (1): BatchNorm2d(64, eps=1e-05, momentum=0.1, affine=True, track_running_stats=True)
      (2): LeakyReLU(negative_slope=0.2, inplace=True)
      (3): MaxPool2d(kernel_size=2, stride=2, padding=0, dilation=1, ceil_mode=False)
      (4): Conv2d(64, 64, kernel_size=(3, 3), stride=(1, 1), padding=(1, 1), bias=False)
      (5): BatchNorm2d(64, eps=1e-05, momentum=0.1, affine=True, track_running_stats=True)
      (6): LeakyReLU(negative_slope=0.2, inplace=True)
      (7): MaxPool2d(kernel_size=2, stride=2, padding=0, dilation=1, ceil_mode=False)
      (8): Conv2d(64, 64, kernel_size=(3, 3), stride=(1, 1), padding=(1, 1), bias=False)
      (9): BatchNorm2d(64, eps=1e-05, momentum=0.1, affine=True, track_running_stats=True)
      (10): LeakyReLU(negative_slope=0.2, inplace=True)
      (11): Conv2d(64, 64, kernel_size=(3, 3), stride=(1, 1), padding=(1, 1), bias=False)
      (12): BatchNorm2d(64, eps=1e-05, momentum=0.1, affine=True, track_running_stats=True)
      (13): LeakyReLU(negative_slope=0.2, inplace=True)
    )
    (criterion): CrossEntropyLoss()
    (knn): KNN_itc()
  )
)
===================================== Epoch 1 =====================================
Trainset: 10000
Valset: 1000
Testset: 800
{'JOB_ID': 'imagenet_av_2_k3_w5_s5', 'arch': 'DN_X', 'config': '../models/architectures/configs/DN4_AV.yaml', 'dengine': False, 'refit_dengine': False, 'dataset_dir': '../dataset/miniImageNet', 'data_name': 'imageNetAV', 'mode': 'train', 'resume': None, 'epochs': 30, 'ngpu': 1, 'print_freq': 100, 'outf': '../results/DN_X_imageNetAV_DN4_5_Way_5_Shot_K1'}DN_X(
  (BACKBONE): FourLayer_64F(
    (features): Sequential(
      (0): Conv2d(3, 64, kernel_size=(3, 3), stride=(1, 1), padding=(1, 1), bias=False)
      (1): BatchNorm2d(64, eps=1e-05, momentum=0.1, affine=True, track_running_stats=True)
      (2): LeakyReLU(negative_slope=0.2, inplace=True)
      (3): MaxPool2d(kernel_size=2, stride=2, padding=0, dilation=1, ceil_mode=False)
      (4): Conv2d(64, 64, kernel_size=(3, 3), stride=(1, 1), padding=(1, 1), bias=False)
      (5): BatchNorm2d(64, eps=1e-05, momentum=0.1, affine=True, track_running_stats=True)
      (6): LeakyReLU(negative_slope=0.2, inplace=True)
      (7): MaxPool2d(kernel_size=2, stride=2, padding=0, dilation=1, ceil_mode=False)
      (8): Conv2d(64, 64, kernel_size=(3, 3), stride=(1, 1), padding=(1, 1), bias=False)
      (9): BatchNorm2d(64, eps=1e-05, momentum=0.1, affine=True, track_running_stats=True)
      (10): LeakyReLU(negative_slope=0.2, inplace=True)
      (11): Conv2d(64, 64, kernel_size=(3, 3), stride=(1, 1), padding=(1, 1), bias=False)
      (12): BatchNorm2d(64, eps=1e-05, momentum=0.1, affine=True, track_running_stats=True)
      (13): LeakyReLU(negative_slope=0.2, inplace=True)
    )
    (criterion): CrossEntropyLoss()
    (knn): KNN_itc()
  )
)
===================================== Epoch 1 =====================================
Trainset: 10000
Valset: 1000
Testset: 800
{'JOB_ID': 'imagenet_av_2_k3_w5_s5', 'arch': 'DN_X', 'config': '../models/architectures/configs/DN4_AV.yaml', 'dengine': False, 'refit_dengine': False, 'dataset_dir': '../dataset/miniImageNet', 'data_name': 'imageNetAV', 'mode': 'train', 'resume': None, 'epochs': 30, 'ngpu': 1, 'print_freq': 100, 'outf': '../results/DN_X_imageNetAV_DN4_5_Way_5_Shot_K1'}DN_X(
  (BACKBONE): FourLayer_64F(
    (features): Sequential(
      (0): Conv2d(3, 64, kernel_size=(3, 3), stride=(1, 1), padding=(1, 1), bias=False)
      (1): BatchNorm2d(64, eps=1e-05, momentum=0.1, affine=True, track_running_stats=True)
      (2): LeakyReLU(negative_slope=0.2, inplace=True)
      (3): MaxPool2d(kernel_size=2, stride=2, padding=0, dilation=1, ceil_mode=False)
      (4): Conv2d(64, 64, kernel_size=(3, 3), stride=(1, 1), padding=(1, 1), bias=False)
      (5): BatchNorm2d(64, eps=1e-05, momentum=0.1, affine=True, track_running_stats=True)
      (6): LeakyReLU(negative_slope=0.2, inplace=True)
      (7): MaxPool2d(kernel_size=2, stride=2, padding=0, dilation=1, ceil_mode=False)
      (8): Conv2d(64, 64, kernel_size=(3, 3), stride=(1, 1), padding=(1, 1), bias=False)
      (9): BatchNorm2d(64, eps=1e-05, momentum=0.1, affine=True, track_running_stats=True)
      (10): LeakyReLU(negative_slope=0.2, inplace=True)
      (11): Conv2d(64, 64, kernel_size=(3, 3), stride=(1, 1), padding=(1, 1), bias=False)
      (12): BatchNorm2d(64, eps=1e-05, momentum=0.1, affine=True, track_running_stats=True)
      (13): LeakyReLU(negative_slope=0.2, inplace=True)
    )
    (criterion): CrossEntropyLoss()
    (knn): KNN_itc()
  )
)
===================================== Epoch 1 =====================================
{'JOB_ID': 'imagenet_av_2_k3_w5_s5', 'arch': 'DN_X', 'config': '../models/architectures/configs/DN4_AV.yaml', 'dengine': False, 'refit_dengine': False, 'dataset_dir': '../dataset/miniImageNet', 'data_name': 'imageNetAV', 'mode': 'train', 'resume': None, 'epochs': 30, 'ngpu': 1, 'print_freq': 100, 'outf': '../results/DN_X_imageNetAV_DN4_5_Way_5_Shot_K1'}DN_X(
  (BACKBONE): FourLayer_64F(
    (features): Sequential(
      (0): Conv2d(3, 64, kernel_size=(3, 3), stride=(1, 1), padding=(1, 1), bias=False)
      (1): BatchNorm2d(64, eps=1e-05, momentum=0.1, affine=True, track_running_stats=True)
      (2): LeakyReLU(negative_slope=0.2, inplace=True)
      (3): MaxPool2d(kernel_size=2, stride=2, padding=0, dilation=1, ceil_mode=False)
      (4): Conv2d(64, 64, kernel_size=(3, 3), stride=(1, 1), padding=(1, 1), bias=False)
      (5): BatchNorm2d(64, eps=1e-05, momentum=0.1, affine=True, track_running_stats=True)
      (6): LeakyReLU(negative_slope=0.2, inplace=True)
      (7): MaxPool2d(kernel_size=2, stride=2, padding=0, dilation=1, ceil_mode=False)
      (8): Conv2d(64, 64, kernel_size=(3, 3), stride=(1, 1), padding=(1, 1), bias=False)
      (9): BatchNorm2d(64, eps=1e-05, momentum=0.1, affine=True, track_running_stats=True)
      (10): LeakyReLU(negative_slope=0.2, inplace=True)
      (11): Conv2d(64, 64, kernel_size=(3, 3), stride=(1, 1), padding=(1, 1), bias=False)
      (12): BatchNorm2d(64, eps=1e-05, momentum=0.1, affine=True, track_running_stats=True)
      (13): LeakyReLU(negative_slope=0.2, inplace=True)
    )
    (criterion): CrossEntropyLoss()
    (knn): KNN_itc()
  )
)
===================================== Epoch 1 =====================================
Trainset: 0
Valset: 0
Testset: 0
{'JOB_ID': 'imagenet_av_2_k3_w5_s5', 'arch': 'DN_X', 'config': '../models/architectures/configs/DN4_AV.yaml', 'dengine': False, 'refit_dengine': False, 'dataset_dir': '../dataset/miniImageNet', 'data_name': 'imageNetAV', 'mode': 'train', 'resume': None, 'epochs': 30, 'ngpu': 1, 'print_freq': 100, 'outf': '../results/DN_X_imageNetAV_DN4_5_Way_5_Shot_K1'}DN_X(
  (BACKBONE): FourLayer_64F(
    (features): Sequential(
      (0): Conv2d(3, 64, kernel_size=(3, 3), stride=(1, 1), padding=(1, 1), bias=False)
      (1): BatchNorm2d(64, eps=1e-05, momentum=0.1, affine=True, track_running_stats=True)
      (2): LeakyReLU(negative_slope=0.2, inplace=True)
      (3): MaxPool2d(kernel_size=2, stride=2, padding=0, dilation=1, ceil_mode=False)
      (4): Conv2d(64, 64, kernel_size=(3, 3), stride=(1, 1), padding=(1, 1), bias=False)
      (5): BatchNorm2d(64, eps=1e-05, momentum=0.1, affine=True, track_running_stats=True)
      (6): LeakyReLU(negative_slope=0.2, inplace=True)
      (7): MaxPool2d(kernel_size=2, stride=2, padding=0, dilation=1, ceil_mode=False)
      (8): Conv2d(64, 64, kernel_size=(3, 3), stride=(1, 1), padding=(1, 1), bias=False)
      (9): BatchNorm2d(64, eps=1e-05, momentum=0.1, affine=True, track_running_stats=True)
      (10): LeakyReLU(negative_slope=0.2, inplace=True)
      (11): Conv2d(64, 64, kernel_size=(3, 3), stride=(1, 1), padding=(1, 1), bias=False)
      (12): BatchNorm2d(64, eps=1e-05, momentum=0.1, affine=True, track_running_stats=True)
      (13): LeakyReLU(negative_slope=0.2, inplace=True)
    )
    (criterion): CrossEntropyLoss()
    (knn): KNN_itc()
  )
)
===================================== Epoch 1 =====================================
Trainset: 0
Valset: 0
Testset: 0
{'JOB_ID': 'imagenet_av_2_k3_w5_s5', 'arch': 'DN_X', 'config': '../models/architectures/configs/DN4_AV.yaml', 'dengine': False, 'refit_dengine': False, 'dataset_dir': '../dataset/miniImageNet', 'data_name': 'imageNetAV', 'mode': 'train', 'resume': None, 'epochs': 30, 'ngpu': 1, 'print_freq': 100, 'outf': '../results/DN_X_imageNetAV_DN4_5_Way_5_Shot_K1'}DN_X(
  (BACKBONE): FourLayer_64F(
    (features): Sequential(
      (0): Conv2d(3, 64, kernel_size=(3, 3), stride=(1, 1), padding=(1, 1), bias=False)
      (1): BatchNorm2d(64, eps=1e-05, momentum=0.1, affine=True, track_running_stats=True)
      (2): LeakyReLU(negative_slope=0.2, inplace=True)
      (3): MaxPool2d(kernel_size=2, stride=2, padding=0, dilation=1, ceil_mode=False)
      (4): Conv2d(64, 64, kernel_size=(3, 3), stride=(1, 1), padding=(1, 1), bias=False)
      (5): BatchNorm2d(64, eps=1e-05, momentum=0.1, affine=True, track_running_stats=True)
      (6): LeakyReLU(negative_slope=0.2, inplace=True)
      (7): MaxPool2d(kernel_size=2, stride=2, padding=0, dilation=1, ceil_mode=False)
      (8): Conv2d(64, 64, kernel_size=(3, 3), stride=(1, 1), padding=(1, 1), bias=False)
      (9): BatchNorm2d(64, eps=1e-05, momentum=0.1, affine=True, track_running_stats=True)
      (10): LeakyReLU(negative_slope=0.2, inplace=True)
      (11): Conv2d(64, 64, kernel_size=(3, 3), stride=(1, 1), padding=(1, 1), bias=False)
      (12): BatchNorm2d(64, eps=1e-05, momentum=0.1, affine=True, track_running_stats=True)
      (13): LeakyReLU(negative_slope=0.2, inplace=True)
    )
    (criterion): CrossEntropyLoss()
    (knn): KNN_itc()
  )
)
===================================== Epoch 1 =====================================
Trainset: 10000
Valset: 1000
Testset: 800
{'JOB_ID': 'imagenet_av_2_k3_w5_s5', 'arch': 'DN_X', 'config': '../models/architectures/configs/DN4_AV.yaml', 'dengine': False, 'refit_dengine': False, 'dataset_dir': '../dataset/miniImageNet', 'data_name': 'imageNetAV', 'mode': 'train', 'resume': None, 'epochs': 30, 'ngpu': 1, 'print_freq': 100, 'outf': '../results/DN_X_imageNetAV_DN4_5_Way_5_Shot_K1'}DN_X(
  (BACKBONE): FourLayer_64F(
    (features): Sequential(
      (0): Conv2d(3, 64, kernel_size=(3, 3), stride=(1, 1), padding=(1, 1), bias=False)
      (1): BatchNorm2d(64, eps=1e-05, momentum=0.1, affine=True, track_running_stats=True)
      (2): LeakyReLU(negative_slope=0.2, inplace=True)
      (3): MaxPool2d(kernel_size=2, stride=2, padding=0, dilation=1, ceil_mode=False)
      (4): Conv2d(64, 64, kernel_size=(3, 3), stride=(1, 1), padding=(1, 1), bias=False)
      (5): BatchNorm2d(64, eps=1e-05, momentum=0.1, affine=True, track_running_stats=True)
      (6): LeakyReLU(negative_slope=0.2, inplace=True)
      (7): MaxPool2d(kernel_size=2, stride=2, padding=0, dilation=1, ceil_mode=False)
      (8): Conv2d(64, 64, kernel_size=(3, 3), stride=(1, 1), padding=(1, 1), bias=False)
      (9): BatchNorm2d(64, eps=1e-05, momentum=0.1, affine=True, track_running_stats=True)
      (10): LeakyReLU(negative_slope=0.2, inplace=True)
      (11): Conv2d(64, 64, kernel_size=(3, 3), stride=(1, 1), padding=(1, 1), bias=False)
      (12): BatchNorm2d(64, eps=1e-05, momentum=0.1, affine=True, track_running_stats=True)
      (13): LeakyReLU(negative_slope=0.2, inplace=True)
    )
    (criterion): CrossEntropyLoss()
    (knn): KNN_itc()
  )
)
===================================== Epoch 1 =====================================
Trainset: 10000
Valset: 1000
Testset: 800
{'JOB_ID': 'imagenet_av_2_k3_w5_s5', 'arch': 'DN_X', 'config': '../models/architectures/configs/DN4_AV.yaml', 'dengine': False, 'refit_dengine': False, 'dataset_dir': '../dataset/miniImageNet', 'data_name': 'imageNetAV', 'mode': 'train', 'resume': None, 'epochs': 30, 'ngpu': 1, 'print_freq': 100, 'outf': '../results/DN_X_imageNetAV_DN4_5_Way_5_Shot_K1'}DN_X(
  (BACKBONE): FourLayer_64F(
    (features): Sequential(
      (0): Conv2d(3, 64, kernel_size=(3, 3), stride=(1, 1), padding=(1, 1), bias=False)
      (1): BatchNorm2d(64, eps=1e-05, momentum=0.1, affine=True, track_running_stats=True)
      (2): LeakyReLU(negative_slope=0.2, inplace=True)
      (3): MaxPool2d(kernel_size=2, stride=2, padding=0, dilation=1, ceil_mode=False)
      (4): Conv2d(64, 64, kernel_size=(3, 3), stride=(1, 1), padding=(1, 1), bias=False)
      (5): BatchNorm2d(64, eps=1e-05, momentum=0.1, affine=True, track_running_stats=True)
      (6): LeakyReLU(negative_slope=0.2, inplace=True)
      (7): MaxPool2d(kernel_size=2, stride=2, padding=0, dilation=1, ceil_mode=False)
      (8): Conv2d(64, 64, kernel_size=(3, 3), stride=(1, 1), padding=(1, 1), bias=False)
      (9): BatchNorm2d(64, eps=1e-05, momentum=0.1, affine=True, track_running_stats=True)
      (10): LeakyReLU(negative_slope=0.2, inplace=True)
      (11): Conv2d(64, 64, kernel_size=(3, 3), stride=(1, 1), padding=(1, 1), bias=False)
      (12): BatchNorm2d(64, eps=1e-05, momentum=0.1, affine=True, track_running_stats=True)
      (13): LeakyReLU(negative_slope=0.2, inplace=True)
    )
    (criterion): CrossEntropyLoss()
    (knn): KNN_itc()
  )
)
===================================== Epoch 1 =====================================
Trainset: 10000
Valset: 1000
Testset: 800
{'JOB_ID': 'imagenet_av_2_k3_w5_s5', 'arch': 'DN_X', 'config': '../models/architectures/configs/DN4_AV.yaml', 'dengine': False, 'refit_dengine': False, 'dataset_dir': '../dataset/miniImageNet', 'data_name': 'imageNetAV', 'mode': 'train', 'resume': None, 'epochs': 30, 'ngpu': 1, 'print_freq': 100, 'outf': '../results/DN_X_imageNetAV_DN4_5_Way_5_Shot_K1'}DN_X(
  (BACKBONE): FourLayer_64F(
    (features): Sequential(
      (0): Conv2d(3, 64, kernel_size=(3, 3), stride=(1, 1), padding=(1, 1), bias=False)
      (1): BatchNorm2d(64, eps=1e-05, momentum=0.1, affine=True, track_running_stats=True)
      (2): LeakyReLU(negative_slope=0.2, inplace=True)
      (3): MaxPool2d(kernel_size=2, stride=2, padding=0, dilation=1, ceil_mode=False)
      (4): Conv2d(64, 64, kernel_size=(3, 3), stride=(1, 1), padding=(1, 1), bias=False)
      (5): BatchNorm2d(64, eps=1e-05, momentum=0.1, affine=True, track_running_stats=True)
      (6): LeakyReLU(negative_slope=0.2, inplace=True)
      (7): MaxPool2d(kernel_size=2, stride=2, padding=0, dilation=1, ceil_mode=False)
      (8): Conv2d(64, 64, kernel_size=(3, 3), stride=(1, 1), padding=(1, 1), bias=False)
      (9): BatchNorm2d(64, eps=1e-05, momentum=0.1, affine=True, track_running_stats=True)
      (10): LeakyReLU(negative_slope=0.2, inplace=True)
      (11): Conv2d(64, 64, kernel_size=(3, 3), stride=(1, 1), padding=(1, 1), bias=False)
      (12): BatchNorm2d(64, eps=1e-05, momentum=0.1, affine=True, track_running_stats=True)
      (13): LeakyReLU(negative_slope=0.2, inplace=True)
    )
    (criterion): CrossEntropyLoss()
    (knn): KNN_itc()
  )
)
===================================== Epoch 1 =====================================
Trainset: 10000
Valset: 1000
Testset: 800
{'JOB_ID': 'imagenet_av_2_k3_w5_s5', 'arch': 'DN_X', 'config': '../models/architectures/configs/DN4_AV.yaml', 'dengine': False, 'refit_dengine': False, 'dataset_dir': '../dataset/miniImageNet', 'data_name': 'imageNetAV', 'mode': 'train', 'resume': None, 'epochs': 30, 'ngpu': 1, 'print_freq': 100, 'outf': '../results/DN_X_imageNetAV_DN4_5_Way_5_Shot_K1'}DN_X(
  (BACKBONE): FourLayer_64F(
    (features): Sequential(
      (0): Conv2d(3, 64, kernel_size=(3, 3), stride=(1, 1), padding=(1, 1), bias=False)
      (1): BatchNorm2d(64, eps=1e-05, momentum=0.1, affine=True, track_running_stats=True)
      (2): LeakyReLU(negative_slope=0.2, inplace=True)
      (3): MaxPool2d(kernel_size=2, stride=2, padding=0, dilation=1, ceil_mode=False)
      (4): Conv2d(64, 64, kernel_size=(3, 3), stride=(1, 1), padding=(1, 1), bias=False)
      (5): BatchNorm2d(64, eps=1e-05, momentum=0.1, affine=True, track_running_stats=True)
      (6): LeakyReLU(negative_slope=0.2, inplace=True)
      (7): MaxPool2d(kernel_size=2, stride=2, padding=0, dilation=1, ceil_mode=False)
      (8): Conv2d(64, 64, kernel_size=(3, 3), stride=(1, 1), padding=(1, 1), bias=False)
      (9): BatchNorm2d(64, eps=1e-05, momentum=0.1, affine=True, track_running_stats=True)
      (10): LeakyReLU(negative_slope=0.2, inplace=True)
      (11): Conv2d(64, 64, kernel_size=(3, 3), stride=(1, 1), padding=(1, 1), bias=False)
      (12): BatchNorm2d(64, eps=1e-05, momentum=0.1, affine=True, track_running_stats=True)
      (13): LeakyReLU(negative_slope=0.2, inplace=True)
    )
    (criterion): CrossEntropyLoss()
    (knn): KNN_itc()
  )
)
===================================== Epoch 1 =====================================
Trainset: 10000
Valset: 1000
Testset: 800
Eposide-(0): [100/10000]	Time 0.530 (0.722)	Data 0.000 (0.180)	Loss 1.540 (1.705)	Prec@1 40.000 (28.218)
…
Eposide-(0): [100/10000]	Time 0.526 (0.720)	Data 0.000 (0.189)	Loss 1.630 (1.661)	Prec@1 26.000 (28.772)
Eposide-(0): [200/10000]	Time 0.530 (0.627)	Data 0.000 (0.095)	Loss 1.561 (1.620)	Prec@1 24.000 (28.418)
{'JOB_ID': 'imagenet_av_2_k3_w5_s5', 'arch': 'DN_X', 'config': '../models/architectures/configs/DN4_AV.yaml', 'dengine': False, 'refit_dengine': False, 'dataset_dir': '../dataset/miniImageNet', 'data_name': 'imageNetAV', 'mode': 'train', 'resume': None, 'epochs': 30, 'ngpu': 1, 'print_freq': 100, 'outf': '../results/DN_X_imageNetAV_DN4_5_Way_5_Shot_K1'}DN_X(
  (BACKBONE): FourLayer_64F(
    (features): Sequential(
      (0): Conv2d(3, 64, kernel_size=(3, 3), stride=(1, 1), padding=(1, 1), bias=False)
      (1): BatchNorm2d(64, eps=1e-05, momentum=0.1, affine=True, track_running_stats=True)
      (2): LeakyReLU(negative_slope=0.2, inplace=True)
      (3): MaxPool2d(kernel_size=2, stride=2, padding=0, dilation=1, ceil_mode=False)
      (4): Conv2d(64, 64, kernel_size=(3, 3), stride=(1, 1), padding=(1, 1), bias=False)
      (5): BatchNorm2d(64, eps=1e-05, momentum=0.1, affine=True, track_running_stats=True)
      (6): LeakyReLU(negative_slope=0.2, inplace=True)
      (7): MaxPool2d(kernel_size=2, stride=2, padding=0, dilation=1, ceil_mode=False)
      (8): Conv2d(64, 64, kernel_size=(3, 3), stride=(1, 1), padding=(1, 1), bias=False)
      (9): BatchNorm2d(64, eps=1e-05, momentum=0.1, affine=True, track_running_stats=True)
      (10): LeakyReLU(negative_slope=0.2, inplace=True)
      (11): Conv2d(64, 64, kernel_size=(3, 3), stride=(1, 1), padding=(1, 1), bias=False)
      (12): BatchNorm2d(64, eps=1e-05, momentum=0.1, affine=True, track_running_stats=True)
      (13): LeakyReLU(negative_slope=0.2, inplace=True)
    )
    (criterion): CrossEntropyLoss()
    (knn): KNN_itc()
  )
)
===================================== Epoch 1 =====================================
Trainset: 10000
Valset: 1000
Testset: 800
{'JOB_ID': 'imagenet_av_2_k3_w5_s5', 'arch': 'DN_X', 'config': '../models/architectures/configs/DN4_AV.yaml', 'dengine': False, 'refit_dengine': False, 'dataset_dir': '../dataset/miniImageNet', 'data_name': 'imageNetAV', 'mode': 'train', 'resume': None, 'epochs': 30, 'ngpu': 1, 'print_freq': 100, 'outf': '../results/DN_X_imageNetAV_DN4_5_Way_5_Shot_K1'}DN_X(
  (BACKBONE): FourLayer_64F(
    (features): Sequential(
      (0): Conv2d(3, 64, kernel_size=(3, 3), stride=(1, 1), padding=(1, 1), bias=False)
      (1): BatchNorm2d(64, eps=1e-05, momentum=0.1, affine=True, track_running_stats=True)
      (2): LeakyReLU(negative_slope=0.2, inplace=True)
      (3): MaxPool2d(kernel_size=2, stride=2, padding=0, dilation=1, ceil_mode=False)
      (4): Conv2d(64, 64, kernel_size=(3, 3), stride=(1, 1), padding=(1, 1), bias=False)
      (5): BatchNorm2d(64, eps=1e-05, momentum=0.1, affine=True, track_running_stats=True)
      (6): LeakyReLU(negative_slope=0.2, inplace=True)
      (7): MaxPool2d(kernel_size=2, stride=2, padding=0, dilation=1, ceil_mode=False)
      (8): Conv2d(64, 64, kernel_size=(3, 3), stride=(1, 1), padding=(1, 1), bias=False)
      (9): BatchNorm2d(64, eps=1e-05, momentum=0.1, affine=True, track_running_stats=True)
      (10): LeakyReLU(negative_slope=0.2, inplace=True)
      (11): Conv2d(64, 64, kernel_size=(3, 3), stride=(1, 1), padding=(1, 1), bias=False)
      (12): BatchNorm2d(64, eps=1e-05, momentum=0.1, affine=True, track_running_stats=True)
      (13): LeakyReLU(negative_slope=0.2, inplace=True)
    )
    (criterion): CrossEntropyLoss()
    (knn): KNN_itc()
  )
)
===================================== Epoch 1 =====================================
Trainset: 10000
Valset: 1000
Testset: 800
{'JOB_ID': 'imagenet_av_2_k3_w5_s5', 'arch': 'DN_X', 'config': '../models/architectures/configs/DN4_AV.yaml', 'dengine': False, 'refit_dengine': False, 'dataset_dir': '../dataset/miniImageNet', 'data_name': 'imageNetAV', 'mode': 'train', 'resume': None, 'epochs': 30, 'ngpu': 1, 'print_freq': 100, 'outf': '../results/DN_X_imageNetAV_DN4_5_Way_5_Shot_K1'}DN_X(
  (BACKBONE): FourLayer_64F(
    (features): Sequential(
      (0): Conv2d(3, 64, kernel_size=(3, 3), stride=(1, 1), padding=(1, 1), bias=False)
      (1): BatchNorm2d(64, eps=1e-05, momentum=0.1, affine=True, track_running_stats=True)
      (2): LeakyReLU(negative_slope=0.2, inplace=True)
      (3): MaxPool2d(kernel_size=2, stride=2, padding=0, dilation=1, ceil_mode=False)
      (4): Conv2d(64, 64, kernel_size=(3, 3), stride=(1, 1), padding=(1, 1), bias=False)
      (5): BatchNorm2d(64, eps=1e-05, momentum=0.1, affine=True, track_running_stats=True)
      (6): LeakyReLU(negative_slope=0.2, inplace=True)
      (7): MaxPool2d(kernel_size=2, stride=2, padding=0, dilation=1, ceil_mode=False)
      (8): Conv2d(64, 64, kernel_size=(3, 3), stride=(1, 1), padding=(1, 1), bias=False)
      (9): BatchNorm2d(64, eps=1e-05, momentum=0.1, affine=True, track_running_stats=True)
      (10): LeakyReLU(negative_slope=0.2, inplace=True)
      (11): Conv2d(64, 64, kernel_size=(3, 3), stride=(1, 1), padding=(1, 1), bias=False)
      (12): BatchNorm2d(64, eps=1e-05, momentum=0.1, affine=True, track_running_stats=True)
      (13): LeakyReLU(negative_slope=0.2, inplace=True)
    )
    (criterion): CrossEntropyLoss()
    (knn): KNN_itc()
  )
)
===================================== Epoch 1 =====================================
Trainset: 10000
Valset: 1000
Testset: 800
{'JOB_ID': 'imagenet_av_2_k3_w5_s5', 'arch': 'DN_X', 'config': '../models/architectures/configs/DN4_AV.yaml', 'dengine': False, 'refit_dengine': False, 'dataset_dir': '../dataset/miniImageNet', 'data_name': 'imageNetAV', 'mode': 'train', 'resume': None, 'epochs': 30, 'ngpu': 1, 'print_freq': 100, 'outf': '../results/DN_X_imageNetAV_DN4_5_Way_5_Shot_K1'}DN_X(
  (BACKBONE): FourLayer_64F(
    (features): Sequential(
      (0): Conv2d(3, 64, kernel_size=(3, 3), stride=(1, 1), padding=(1, 1), bias=False)
      (1): BatchNorm2d(64, eps=1e-05, momentum=0.1, affine=True, track_running_stats=True)
      (2): LeakyReLU(negative_slope=0.2, inplace=True)
      (3): MaxPool2d(kernel_size=2, stride=2, padding=0, dilation=1, ceil_mode=False)
      (4): Conv2d(64, 64, kernel_size=(3, 3), stride=(1, 1), padding=(1, 1), bias=False)
      (5): BatchNorm2d(64, eps=1e-05, momentum=0.1, affine=True, track_running_stats=True)
      (6): LeakyReLU(negative_slope=0.2, inplace=True)
      (7): MaxPool2d(kernel_size=2, stride=2, padding=0, dilation=1, ceil_mode=False)
      (8): Conv2d(64, 64, kernel_size=(3, 3), stride=(1, 1), padding=(1, 1), bias=False)
      (9): BatchNorm2d(64, eps=1e-05, momentum=0.1, affine=True, track_running_stats=True)
      (10): LeakyReLU(negative_slope=0.2, inplace=True)
      (11): Conv2d(64, 64, kernel_size=(3, 3), stride=(1, 1), padding=(1, 1), bias=False)
      (12): BatchNorm2d(64, eps=1e-05, momentum=0.1, affine=True, track_running_stats=True)
      (13): LeakyReLU(negative_slope=0.2, inplace=True)
    )
    (criterion): CrossEntropyLoss()
    (knn): KNN_itc()
  )
)
===================================== Epoch 1 =====================================
Trainset: 10000
Valset: 1000
Testset: 800
{'JOB_ID': 'imagenet_av_2_k3_w5_s5', 'arch': 'DN_X', 'config': '../models/architectures/configs/DN4_AV.yaml', 'dengine': False, 'refit_dengine': False, 'dataset_dir': '../dataset/miniImageNet', 'data_name': 'imageNetAV', 'mode': 'train', 'resume': None, 'epochs': 30, 'ngpu': 1, 'print_freq': 100, 'outf': '../results/DN_X_imageNetAV_DN4_5_Way_5_Shot_K1'}DN_X(
  (BACKBONE): FourLayer_64F(
    (features): Sequential(
      (0): Conv2d(3, 64, kernel_size=(3, 3), stride=(1, 1), padding=(1, 1), bias=False)
      (1): BatchNorm2d(64, eps=1e-05, momentum=0.1, affine=True, track_running_stats=True)
      (2): LeakyReLU(negative_slope=0.2, inplace=True)
      (3): MaxPool2d(kernel_size=2, stride=2, padding=0, dilation=1, ceil_mode=False)
      (4): Conv2d(64, 64, kernel_size=(3, 3), stride=(1, 1), padding=(1, 1), bias=False)
      (5): BatchNorm2d(64, eps=1e-05, momentum=0.1, affine=True, track_running_stats=True)
      (6): LeakyReLU(negative_slope=0.2, inplace=True)
      (7): MaxPool2d(kernel_size=2, stride=2, padding=0, dilation=1, ceil_mode=False)
      (8): Conv2d(64, 64, kernel_size=(3, 3), stride=(1, 1), padding=(1, 1), bias=False)
      (9): BatchNorm2d(64, eps=1e-05, momentum=0.1, affine=True, track_running_stats=True)
      (10): LeakyReLU(negative_slope=0.2, inplace=True)
      (11): Conv2d(64, 64, kernel_size=(3, 3), stride=(1, 1), padding=(1, 1), bias=False)
      (12): BatchNorm2d(64, eps=1e-05, momentum=0.1, affine=True, track_running_stats=True)
      (13): LeakyReLU(negative_slope=0.2, inplace=True)
    )
    (criterion): CrossEntropyLoss()
    (knn): KNN_itc()
  )
)
===================================== Epoch 1 =====================================
Trainset: 10000
Valset: 1000
Testset: 800
{'JOB_ID': 'imagenet_av_2_k3_w5_s5', 'arch': 'DN_X', 'config': '../models/architectures/configs/DN4_AV.yaml', 'dengine': False, 'refit_dengine': False, 'dataset_dir': '../dataset/miniImageNet', 'data_name': 'imageNetAV', 'mode': 'train', 'resume': None, 'epochs': 30, 'ngpu': 1, 'print_freq': 100, 'outf': '../results/DN_X_imageNetAV_DN4_5_Way_5_Shot_K1'}DN_X(
  (BACKBONE): FourLayer_64F(
    (features): Sequential(
      (0): Conv2d(3, 64, kernel_size=(3, 3), stride=(1, 1), padding=(1, 1), bias=False)
      (1): BatchNorm2d(64, eps=1e-05, momentum=0.1, affine=True, track_running_stats=True)
      (2): LeakyReLU(negative_slope=0.2, inplace=True)
      (3): MaxPool2d(kernel_size=2, stride=2, padding=0, dilation=1, ceil_mode=False)
      (4): Conv2d(64, 64, kernel_size=(3, 3), stride=(1, 1), padding=(1, 1), bias=False)
      (5): BatchNorm2d(64, eps=1e-05, momentum=0.1, affine=True, track_running_stats=True)
      (6): LeakyReLU(negative_slope=0.2, inplace=True)
      (7): MaxPool2d(kernel_size=2, stride=2, padding=0, dilation=1, ceil_mode=False)
      (8): Conv2d(64, 64, kernel_size=(3, 3), stride=(1, 1), padding=(1, 1), bias=False)
      (9): BatchNorm2d(64, eps=1e-05, momentum=0.1, affine=True, track_running_stats=True)
      (10): LeakyReLU(negative_slope=0.2, inplace=True)
      (11): Conv2d(64, 64, kernel_size=(3, 3), stride=(1, 1), padding=(1, 1), bias=False)
      (12): BatchNorm2d(64, eps=1e-05, momentum=0.1, affine=True, track_running_stats=True)
      (13): LeakyReLU(negative_slope=0.2, inplace=True)
    )
    (criterion): CrossEntropyLoss()
    (knn): KNN_itc()
  )
)
===================================== Epoch 1 =====================================
Trainset: 10000
Valset: 1000
Testset: 800
{'JOB_ID': 'imagenet_av_2_k3_w5_s5', 'arch': 'DN_X', 'config': '../models/architectures/configs/DN4_AV.yaml', 'dengine': False, 'refit_dengine': False, 'dataset_dir': '../dataset/miniImageNet', 'data_name': 'imageNetAV', 'mode': 'train', 'resume': None, 'epochs': 30, 'ngpu': 1, 'print_freq': 100, 'outf': '../results/DN_X_imageNetAV_DN4_5_Way_5_Shot_K1'}DN_X(
  (BACKBONE): FourLayer_64F(
    (features): Sequential(
      (0): Conv2d(3, 64, kernel_size=(3, 3), stride=(1, 1), padding=(1, 1), bias=False)
      (1): BatchNorm2d(64, eps=1e-05, momentum=0.1, affine=True, track_running_stats=True)
      (2): LeakyReLU(negative_slope=0.2, inplace=True)
      (3): MaxPool2d(kernel_size=2, stride=2, padding=0, dilation=1, ceil_mode=False)
      (4): Conv2d(64, 64, kernel_size=(3, 3), stride=(1, 1), padding=(1, 1), bias=False)
      (5): BatchNorm2d(64, eps=1e-05, momentum=0.1, affine=True, track_running_stats=True)
      (6): LeakyReLU(negative_slope=0.2, inplace=True)
      (7): MaxPool2d(kernel_size=2, stride=2, padding=0, dilation=1, ceil_mode=False)
      (8): Conv2d(64, 64, kernel_size=(3, 3), stride=(1, 1), padding=(1, 1), bias=False)
      (9): BatchNorm2d(64, eps=1e-05, momentum=0.1, affine=True, track_running_stats=True)
      (10): LeakyReLU(negative_slope=0.2, inplace=True)
      (11): Conv2d(64, 64, kernel_size=(3, 3), stride=(1, 1), padding=(1, 1), bias=False)
      (12): BatchNorm2d(64, eps=1e-05, momentum=0.1, affine=True, track_running_stats=True)
      (13): LeakyReLU(negative_slope=0.2, inplace=True)
    )
    (criterion): CrossEntropyLoss()
    (knn): KNN_itc()
  )
)
===================================== Epoch 1 =====================================
Trainset: 10000
Valset: 1000
Testset: 800
{'JOB_ID': 'imagenet_av_2_k3_w5_s5', 'arch': 'DN_X', 'config': '../models/architectures/configs/DN4_AV.yaml', 'dengine': False, 'refit_dengine': False, 'dataset_dir': '../dataset/miniImageNet', 'data_name': 'imageNetAV', 'mode': 'train', 'resume': None, 'epochs': 30, 'ngpu': 1, 'print_freq': 100, 'outf': '../results/DN_X_imageNetAV_DN4_5_Way_5_Shot_K1'}DN_X(
  (BACKBONE): FourLayer_64F(
    (features): Sequential(
      (0): Conv2d(3, 64, kernel_size=(3, 3), stride=(1, 1), padding=(1, 1), bias=False)
      (1): BatchNorm2d(64, eps=1e-05, momentum=0.1, affine=True, track_running_stats=True)
      (2): LeakyReLU(negative_slope=0.2, inplace=True)
      (3): MaxPool2d(kernel_size=2, stride=2, padding=0, dilation=1, ceil_mode=False)
      (4): Conv2d(64, 64, kernel_size=(3, 3), stride=(1, 1), padding=(1, 1), bias=False)
      (5): BatchNorm2d(64, eps=1e-05, momentum=0.1, affine=True, track_running_stats=True)
      (6): LeakyReLU(negative_slope=0.2, inplace=True)
      (7): MaxPool2d(kernel_size=2, stride=2, padding=0, dilation=1, ceil_mode=False)
      (8): Conv2d(64, 64, kernel_size=(3, 3), stride=(1, 1), padding=(1, 1), bias=False)
      (9): BatchNorm2d(64, eps=1e-05, momentum=0.1, affine=True, track_running_stats=True)
      (10): LeakyReLU(negative_slope=0.2, inplace=True)
      (11): Conv2d(64, 64, kernel_size=(3, 3), stride=(1, 1), padding=(1, 1), bias=False)
      (12): BatchNorm2d(64, eps=1e-05, momentum=0.1, affine=True, track_running_stats=True)
      (13): LeakyReLU(negative_slope=0.2, inplace=True)
    )
    (criterion): CrossEntropyLoss()
    (knn): KNN_itc()
  )
)
===================================== Epoch 1 =====================================
Trainset: 10000
Valset: 1000
Testset: 800
{'JOB_ID': 'imagenet_av_2_k3_w5_s5', 'arch': 'DN_X', 'config': '../models/architectures/configs/DN4_AV.yaml', 'dengine': False, 'refit_dengine': False, 'dataset_dir': '../dataset/miniImageNet', 'data_name': 'imageNetAV', 'mode': 'train', 'resume': None, 'epochs': 30, 'ngpu': 1, 'print_freq': 100, 'outf': '../results/DN_X_imageNetAV_DN4_5_Way_5_Shot_K1'}DN_X(
  (BACKBONE): FourLayer_64F(
    (features): Sequential(
      (0): Conv2d(3, 64, kernel_size=(3, 3), stride=(1, 1), padding=(1, 1), bias=False)
      (1): BatchNorm2d(64, eps=1e-05, momentum=0.1, affine=True, track_running_stats=True)
      (2): LeakyReLU(negative_slope=0.2, inplace=True)
      (3): MaxPool2d(kernel_size=2, stride=2, padding=0, dilation=1, ceil_mode=False)
      (4): Conv2d(64, 64, kernel_size=(3, 3), stride=(1, 1), padding=(1, 1), bias=False)
      (5): BatchNorm2d(64, eps=1e-05, momentum=0.1, affine=True, track_running_stats=True)
      (6): LeakyReLU(negative_slope=0.2, inplace=True)
      (7): MaxPool2d(kernel_size=2, stride=2, padding=0, dilation=1, ceil_mode=False)
      (8): Conv2d(64, 64, kernel_size=(3, 3), stride=(1, 1), padding=(1, 1), bias=False)
      (9): BatchNorm2d(64, eps=1e-05, momentum=0.1, affine=True, track_running_stats=True)
      (10): LeakyReLU(negative_slope=0.2, inplace=True)
      (11): Conv2d(64, 64, kernel_size=(3, 3), stride=(1, 1), padding=(1, 1), bias=False)
      (12): BatchNorm2d(64, eps=1e-05, momentum=0.1, affine=True, track_running_stats=True)
      (13): LeakyReLU(negative_slope=0.2, inplace=True)
    )
    (criterion): CrossEntropyLoss()
    (knn): KNN_itc()
  )
)
===================================== Epoch 1 =====================================
Trainset: 10000
Valset: 1000
Testset: 800
{'JOB_ID': 'imagenet_av_2_k3_w5_s5', 'arch': 'DN_X', 'config': '../models/architectures/configs/DN4_AV.yaml', 'dengine': False, 'refit_dengine': False, 'dataset_dir': '../dataset/miniImageNet', 'data_name': 'imageNetAV', 'mode': 'train', 'resume': None, 'epochs': 30, 'ngpu': 1, 'print_freq': 100, 'outf': '../results/DN_X_imageNetAV_DN4_5_Way_5_Shot_K1'}DN_X(
  (BACKBONE): FourLayer_64F(
    (features): Sequential(
      (0): Conv2d(3, 64, kernel_size=(3, 3), stride=(1, 1), padding=(1, 1), bias=False)
      (1): BatchNorm2d(64, eps=1e-05, momentum=0.1, affine=True, track_running_stats=True)
      (2): LeakyReLU(negative_slope=0.2, inplace=True)
      (3): MaxPool2d(kernel_size=2, stride=2, padding=0, dilation=1, ceil_mode=False)
      (4): Conv2d(64, 64, kernel_size=(3, 3), stride=(1, 1), padding=(1, 1), bias=False)
      (5): BatchNorm2d(64, eps=1e-05, momentum=0.1, affine=True, track_running_stats=True)
      (6): LeakyReLU(negative_slope=0.2, inplace=True)
      (7): MaxPool2d(kernel_size=2, stride=2, padding=0, dilation=1, ceil_mode=False)
      (8): Conv2d(64, 64, kernel_size=(3, 3), stride=(1, 1), padding=(1, 1), bias=False)
      (9): BatchNorm2d(64, eps=1e-05, momentum=0.1, affine=True, track_running_stats=True)
      (10): LeakyReLU(negative_slope=0.2, inplace=True)
      (11): Conv2d(64, 64, kernel_size=(3, 3), stride=(1, 1), padding=(1, 1), bias=False)
      (12): BatchNorm2d(64, eps=1e-05, momentum=0.1, affine=True, track_running_stats=True)
      (13): LeakyReLU(negative_slope=0.2, inplace=True)
    )
    (criterion): CrossEntropyLoss()
    (knn): KNN_itc()
  )
)
===================================== Epoch 1 =====================================
Trainset: 10000
Valset: 1000
Testset: 800
{'JOB_ID': 'imagenet_av_2_k3_w5_s5', 'arch': 'DN_X', 'config': '../models/architectures/configs/DN4_AV.yaml', 'dengine': False, 'refit_dengine': False, 'dataset_dir': '../dataset/miniImageNet', 'data_name': 'imageNetAV', 'mode': 'train', 'resume': None, 'epochs': 30, 'ngpu': 1, 'print_freq': 100, 'outf': '../results/DN_X_imageNetAV_DN4_5_Way_5_Shot_K1'}DN_X(
  (BACKBONE): FourLayer_64F(
    (features): Sequential(
      (0): Conv2d(3, 64, kernel_size=(3, 3), stride=(1, 1), padding=(1, 1), bias=False)
      (1): BatchNorm2d(64, eps=1e-05, momentum=0.1, affine=True, track_running_stats=True)
      (2): LeakyReLU(negative_slope=0.2, inplace=True)
      (3): MaxPool2d(kernel_size=2, stride=2, padding=0, dilation=1, ceil_mode=False)
      (4): Conv2d(64, 64, kernel_size=(3, 3), stride=(1, 1), padding=(1, 1), bias=False)
      (5): BatchNorm2d(64, eps=1e-05, momentum=0.1, affine=True, track_running_stats=True)
      (6): LeakyReLU(negative_slope=0.2, inplace=True)
      (7): MaxPool2d(kernel_size=2, stride=2, padding=0, dilation=1, ceil_mode=False)
      (8): Conv2d(64, 64, kernel_size=(3, 3), stride=(1, 1), padding=(1, 1), bias=False)
      (9): BatchNorm2d(64, eps=1e-05, momentum=0.1, affine=True, track_running_stats=True)
      (10): LeakyReLU(negative_slope=0.2, inplace=True)
      (11): Conv2d(64, 64, kernel_size=(3, 3), stride=(1, 1), padding=(1, 1), bias=False)
      (12): BatchNorm2d(64, eps=1e-05, momentum=0.1, affine=True, track_running_stats=True)
      (13): LeakyReLU(negative_slope=0.2, inplace=True)
    )
    (criterion): CrossEntropyLoss()
    (knn): KNN_itc()
  )
)
===================================== Epoch 1 =====================================
Trainset: 10000
Valset: 1000
Testset: 800
{'JOB_ID': 'imagenet_av_2_k3_w5_s5', 'arch': 'DN_X', 'config': '../models/architectures/configs/DN4_AV.yaml', 'dengine': False, 'refit_dengine': False, 'dataset_dir': '../dataset/miniImageNet', 'data_name': 'imageNetAV', 'mode': 'train', 'resume': None, 'epochs': 30, 'ngpu': 1, 'print_freq': 100, 'outf': '../results/DN_X_imageNetAV_DN4_5_Way_5_Shot_K1'}DN_X(
  (BACKBONE): FourLayer_64F(
    (features): Sequential(
      (0): Conv2d(3, 64, kernel_size=(3, 3), stride=(1, 1), padding=(1, 1), bias=False)
      (1): BatchNorm2d(64, eps=1e-05, momentum=0.1, affine=True, track_running_stats=True)
      (2): LeakyReLU(negative_slope=0.2, inplace=True)
      (3): MaxPool2d(kernel_size=2, stride=2, padding=0, dilation=1, ceil_mode=False)
      (4): Conv2d(64, 64, kernel_size=(3, 3), stride=(1, 1), padding=(1, 1), bias=False)
      (5): BatchNorm2d(64, eps=1e-05, momentum=0.1, affine=True, track_running_stats=True)
      (6): LeakyReLU(negative_slope=0.2, inplace=True)
      (7): MaxPool2d(kernel_size=2, stride=2, padding=0, dilation=1, ceil_mode=False)
      (8): Conv2d(64, 64, kernel_size=(3, 3), stride=(1, 1), padding=(1, 1), bias=False)
      (9): BatchNorm2d(64, eps=1e-05, momentum=0.1, affine=True, track_running_stats=True)
      (10): LeakyReLU(negative_slope=0.2, inplace=True)
      (11): Conv2d(64, 64, kernel_size=(3, 3), stride=(1, 1), padding=(1, 1), bias=False)
      (12): BatchNorm2d(64, eps=1e-05, momentum=0.1, affine=True, track_running_stats=True)
      (13): LeakyReLU(negative_slope=0.2, inplace=True)
    )
    (criterion): CrossEntropyLoss()
    (knn): KNN_itc()
  )
)
===================================== Epoch 1 =====================================
Trainset: 10000
Valset: 1000
Testset: 800
{'JOB_ID': 'imagenet_av_2_k3_w5_s5', 'arch': 'DN_X', 'config': '../models/architectures/configs/DN4_AV.yaml', 'dengine': False, 'refit_dengine': False, 'dataset_dir': '../dataset/miniImageNet', 'data_name': 'imageNetAV', 'mode': 'train', 'resume': None, 'epochs': 30, 'ngpu': 1, 'print_freq': 100, 'outf': '../results/DN_X_imageNetAV_DN4_5_Way_5_Shot_K1'}DN_X(
  (BACKBONE): FourLayer_64F(
    (features): Sequential(
      (0): Conv2d(3, 64, kernel_size=(3, 3), stride=(1, 1), padding=(1, 1), bias=False)
      (1): BatchNorm2d(64, eps=1e-05, momentum=0.1, affine=True, track_running_stats=True)
      (2): LeakyReLU(negative_slope=0.2, inplace=True)
      (3): MaxPool2d(kernel_size=2, stride=2, padding=0, dilation=1, ceil_mode=False)
      (4): Conv2d(64, 64, kernel_size=(3, 3), stride=(1, 1), padding=(1, 1), bias=False)
      (5): BatchNorm2d(64, eps=1e-05, momentum=0.1, affine=True, track_running_stats=True)
      (6): LeakyReLU(negative_slope=0.2, inplace=True)
      (7): MaxPool2d(kernel_size=2, stride=2, padding=0, dilation=1, ceil_mode=False)
      (8): Conv2d(64, 64, kernel_size=(3, 3), stride=(1, 1), padding=(1, 1), bias=False)
      (9): BatchNorm2d(64, eps=1e-05, momentum=0.1, affine=True, track_running_stats=True)
      (10): LeakyReLU(negative_slope=0.2, inplace=True)
      (11): Conv2d(64, 64, kernel_size=(3, 3), stride=(1, 1), padding=(1, 1), bias=False)
      (12): BatchNorm2d(64, eps=1e-05, momentum=0.1, affine=True, track_running_stats=True)
      (13): LeakyReLU(negative_slope=0.2, inplace=True)
    )
    (criterion): CrossEntropyLoss()
    (knn): KNN_itc()
  )
)
===================================== Epoch 1 =====================================
Trainset: 10000
Valset: 1000
Testset: 800
{'JOB_ID': 'imagenet_av_2_k3_w5_s5', 'arch': 'DN_X', 'config': '../models/architectures/configs/DN4_AV.yaml', 'dengine': False, 'refit_dengine': False, 'dataset_dir': '../dataset/miniImageNet', 'data_name': 'imageNetAV', 'mode': 'train', 'resume': None, 'epochs': 30, 'ngpu': 1, 'print_freq': 100, 'outf': '../results/DN_X_imageNetAV_DN4_5_Way_5_Shot_K1'}DN_X(
  (BACKBONE): FourLayer_64F(
    (features): Sequential(
      (0): Conv2d(3, 64, kernel_size=(3, 3), stride=(1, 1), padding=(1, 1), bias=False)
      (1): BatchNorm2d(64, eps=1e-05, momentum=0.1, affine=True, track_running_stats=True)
      (2): LeakyReLU(negative_slope=0.2, inplace=True)
      (3): MaxPool2d(kernel_size=2, stride=2, padding=0, dilation=1, ceil_mode=False)
      (4): Conv2d(64, 64, kernel_size=(3, 3), stride=(1, 1), padding=(1, 1), bias=False)
      (5): BatchNorm2d(64, eps=1e-05, momentum=0.1, affine=True, track_running_stats=True)
      (6): LeakyReLU(negative_slope=0.2, inplace=True)
      (7): MaxPool2d(kernel_size=2, stride=2, padding=0, dilation=1, ceil_mode=False)
      (8): Conv2d(64, 64, kernel_size=(3, 3), stride=(1, 1), padding=(1, 1), bias=False)
      (9): BatchNorm2d(64, eps=1e-05, momentum=0.1, affine=True, track_running_stats=True)
      (10): LeakyReLU(negative_slope=0.2, inplace=True)
      (11): Conv2d(64, 64, kernel_size=(3, 3), stride=(1, 1), padding=(1, 1), bias=False)
      (12): BatchNorm2d(64, eps=1e-05, momentum=0.1, affine=True, track_running_stats=True)
      (13): LeakyReLU(negative_slope=0.2, inplace=True)
    )
    (criterion): CrossEntropyLoss()
    (knn): KNN_itc()
  )
)
===================================== Epoch 1 =====================================
Trainset: 10000
Valset: 1000
Testset: 800
{'JOB_ID': 'imagenet_av_2_k3_w5_s5', 'arch': 'DN_X', 'config': '../models/architectures/configs/DN4_AV.yaml', 'dengine': False, 'refit_dengine': False, 'dataset_dir': '../dataset/miniImageNet', 'data_name': 'imageNetAV', 'mode': 'train', 'resume': None, 'epochs': 30, 'ngpu': 1, 'print_freq': 100, 'outf': '../results/DN_X_imageNetAV_DN4_5_Way_5_Shot_K1'}DN_X(
  (BACKBONE): FourLayer_64F(
    (features): Sequential(
      (0): Conv2d(3, 64, kernel_size=(3, 3), stride=(1, 1), padding=(1, 1), bias=False)
      (1): BatchNorm2d(64, eps=1e-05, momentum=0.1, affine=True, track_running_stats=True)
      (2): LeakyReLU(negative_slope=0.2, inplace=True)
      (3): MaxPool2d(kernel_size=2, stride=2, padding=0, dilation=1, ceil_mode=False)
      (4): Conv2d(64, 64, kernel_size=(3, 3), stride=(1, 1), padding=(1, 1), bias=False)
      (5): BatchNorm2d(64, eps=1e-05, momentum=0.1, affine=True, track_running_stats=True)
      (6): LeakyReLU(negative_slope=0.2, inplace=True)
      (7): MaxPool2d(kernel_size=2, stride=2, padding=0, dilation=1, ceil_mode=False)
      (8): Conv2d(64, 64, kernel_size=(3, 3), stride=(1, 1), padding=(1, 1), bias=False)
      (9): BatchNorm2d(64, eps=1e-05, momentum=0.1, affine=True, track_running_stats=True)
      (10): LeakyReLU(negative_slope=0.2, inplace=True)
      (11): Conv2d(64, 64, kernel_size=(3, 3), stride=(1, 1), padding=(1, 1), bias=False)
      (12): BatchNorm2d(64, eps=1e-05, momentum=0.1, affine=True, track_running_stats=True)
      (13): LeakyReLU(negative_slope=0.2, inplace=True)
    )
    (criterion): CrossEntropyLoss()
    (knn): KNN_itc()
  )
)
===================================== Epoch 1 =====================================
Trainset: 10000
Valset: 1000
Testset: 800
{'JOB_ID': 'imagenet_av_2_k3_w5_s5', 'arch': 'DN_X', 'config': '../models/architectures/configs/DN4_AV.yaml', 'dengine': False, 'refit_dengine': False, 'dataset_dir': '../dataset/miniImageNet', 'data_name': 'imageNetAV', 'mode': 'train', 'resume': None, 'epochs': 30, 'ngpu': 1, 'print_freq': 100, 'outf': '../results/DN_X_imageNetAV_DN4_5_Way_5_Shot_K1'}DN_X(
  (BACKBONE): FourLayer_64F(
    (features): Sequential(
      (0): Conv2d(3, 64, kernel_size=(3, 3), stride=(1, 1), padding=(1, 1), bias=False)
      (1): BatchNorm2d(64, eps=1e-05, momentum=0.1, affine=True, track_running_stats=True)
      (2): LeakyReLU(negative_slope=0.2, inplace=True)
      (3): MaxPool2d(kernel_size=2, stride=2, padding=0, dilation=1, ceil_mode=False)
      (4): Conv2d(64, 64, kernel_size=(3, 3), stride=(1, 1), padding=(1, 1), bias=False)
      (5): BatchNorm2d(64, eps=1e-05, momentum=0.1, affine=True, track_running_stats=True)
      (6): LeakyReLU(negative_slope=0.2, inplace=True)
      (7): MaxPool2d(kernel_size=2, stride=2, padding=0, dilation=1, ceil_mode=False)
      (8): Conv2d(64, 64, kernel_size=(3, 3), stride=(1, 1), padding=(1, 1), bias=False)
      (9): BatchNorm2d(64, eps=1e-05, momentum=0.1, affine=True, track_running_stats=True)
      (10): LeakyReLU(negative_slope=0.2, inplace=True)
      (11): Conv2d(64, 64, kernel_size=(3, 3), stride=(1, 1), padding=(1, 1), bias=False)
      (12): BatchNorm2d(64, eps=1e-05, momentum=0.1, affine=True, track_running_stats=True)
      (13): LeakyReLU(negative_slope=0.2, inplace=True)
    )
    (criterion): CrossEntropyLoss()
    (knn): KNN_itc()
  )
)
===================================== Epoch 1 =====================================
Trainset: 10000
Valset: 1000
Testset: 800
{'JOB_ID': 'imagenet_av_2_k3_w5_s5', 'arch': 'DN_X', 'config': '../models/architectures/configs/DN4_AV.yaml', 'dengine': False, 'refit_dengine': False, 'dataset_dir': '../dataset/miniImageNet', 'data_name': 'imageNetAV', 'mode': 'train', 'resume': None, 'epochs': 30, 'ngpu': 1, 'print_freq': 100, 'outf': '../results/DN_X_imageNetAV_DN4_5_Way_5_Shot_K1'}DN_X(
  (BACKBONE): FourLayer_64F(
    (features): Sequential(
      (0): Conv2d(3, 64, kernel_size=(3, 3), stride=(1, 1), padding=(1, 1), bias=False)
      (1): BatchNorm2d(64, eps=1e-05, momentum=0.1, affine=True, track_running_stats=True)
      (2): LeakyReLU(negative_slope=0.2, inplace=True)
      (3): MaxPool2d(kernel_size=2, stride=2, padding=0, dilation=1, ceil_mode=False)
      (4): Conv2d(64, 64, kernel_size=(3, 3), stride=(1, 1), padding=(1, 1), bias=False)
      (5): BatchNorm2d(64, eps=1e-05, momentum=0.1, affine=True, track_running_stats=True)
      (6): LeakyReLU(negative_slope=0.2, inplace=True)
      (7): MaxPool2d(kernel_size=2, stride=2, padding=0, dilation=1, ceil_mode=False)
      (8): Conv2d(64, 64, kernel_size=(3, 3), stride=(1, 1), padding=(1, 1), bias=False)
      (9): BatchNorm2d(64, eps=1e-05, momentum=0.1, affine=True, track_running_stats=True)
      (10): LeakyReLU(negative_slope=0.2, inplace=True)
      (11): Conv2d(64, 64, kernel_size=(3, 3), stride=(1, 1), padding=(1, 1), bias=False)
      (12): BatchNorm2d(64, eps=1e-05, momentum=0.1, affine=True, track_running_stats=True)
      (13): LeakyReLU(negative_slope=0.2, inplace=True)
    )
    (criterion): CrossEntropyLoss()
    (knn): KNN_itc()
  )
)
===================================== Epoch 1 =====================================
Trainset: 10000
Valset: 1000
Testset: 800
{'JOB_ID': 'imagenet_av_2_k3_w5_s5', 'arch': 'DN_X', 'config': '../models/architectures/configs/DN4_AV.yaml', 'dengine': False, 'refit_dengine': False, 'dataset_dir': '../dataset/miniImageNet', 'data_name': 'imageNetAV', 'mode': 'train', 'resume': None, 'epochs': 30, 'ngpu': 1, 'print_freq': 100, 'outf': '../results/DN_X_imageNetAV_DN4_5_Way_5_Shot_K1'}DN_X(
  (BACKBONE): FourLayer_64F(
    (features): Sequential(
      (0): Conv2d(3, 64, kernel_size=(3, 3), stride=(1, 1), padding=(1, 1), bias=False)
      (1): BatchNorm2d(64, eps=1e-05, momentum=0.1, affine=True, track_running_stats=True)
      (2): LeakyReLU(negative_slope=0.2, inplace=True)
      (3): MaxPool2d(kernel_size=2, stride=2, padding=0, dilation=1, ceil_mode=False)
      (4): Conv2d(64, 64, kernel_size=(3, 3), stride=(1, 1), padding=(1, 1), bias=False)
      (5): BatchNorm2d(64, eps=1e-05, momentum=0.1, affine=True, track_running_stats=True)
      (6): LeakyReLU(negative_slope=0.2, inplace=True)
      (7): MaxPool2d(kernel_size=2, stride=2, padding=0, dilation=1, ceil_mode=False)
      (8): Conv2d(64, 64, kernel_size=(3, 3), stride=(1, 1), padding=(1, 1), bias=False)
      (9): BatchNorm2d(64, eps=1e-05, momentum=0.1, affine=True, track_running_stats=True)
      (10): LeakyReLU(negative_slope=0.2, inplace=True)
      (11): Conv2d(64, 64, kernel_size=(3, 3), stride=(1, 1), padding=(1, 1), bias=False)
      (12): BatchNorm2d(64, eps=1e-05, momentum=0.1, affine=True, track_running_stats=True)
      (13): LeakyReLU(negative_slope=0.2, inplace=True)
    )
    (criterion): CrossEntropyLoss()
    (knn): KNN_itc()
  )
)
===================================== Epoch 1 =====================================
Trainset: 10000
Valset: 1000
Testset: 800
{'JOB_ID': 'imagenet_av_2_k3_w5_s5', 'arch': 'DN_X', 'config': '../models/architectures/configs/DN4_AV.yaml', 'dengine': False, 'refit_dengine': False, 'dataset_dir': '../dataset/miniImageNet', 'data_name': 'imageNetAV', 'mode': 'train', 'resume': None, 'epochs': 30, 'ngpu': 1, 'print_freq': 100, 'outf': '../results/DN_X_imageNetAV_DN4_5_Way_5_Shot_K1'}DN_X(
  (BACKBONE): FourLayer_64F(
    (features): Sequential(
      (0): Conv2d(3, 64, kernel_size=(3, 3), stride=(1, 1), padding=(1, 1), bias=False)
      (1): BatchNorm2d(64, eps=1e-05, momentum=0.1, affine=True, track_running_stats=True)
      (2): LeakyReLU(negative_slope=0.2, inplace=True)
      (3): MaxPool2d(kernel_size=2, stride=2, padding=0, dilation=1, ceil_mode=False)
      (4): Conv2d(64, 64, kernel_size=(3, 3), stride=(1, 1), padding=(1, 1), bias=False)
      (5): BatchNorm2d(64, eps=1e-05, momentum=0.1, affine=True, track_running_stats=True)
      (6): LeakyReLU(negative_slope=0.2, inplace=True)
      (7): MaxPool2d(kernel_size=2, stride=2, padding=0, dilation=1, ceil_mode=False)
      (8): Conv2d(64, 64, kernel_size=(3, 3), stride=(1, 1), padding=(1, 1), bias=False)
      (9): BatchNorm2d(64, eps=1e-05, momentum=0.1, affine=True, track_running_stats=True)
      (10): LeakyReLU(negative_slope=0.2, inplace=True)
      (11): Conv2d(64, 64, kernel_size=(3, 3), stride=(1, 1), padding=(1, 1), bias=False)
      (12): BatchNorm2d(64, eps=1e-05, momentum=0.1, affine=True, track_running_stats=True)
      (13): LeakyReLU(negative_slope=0.2, inplace=True)
    )
    (criterion): CrossEntropyLoss()
    (knn): KNN_itc()
  )
)
===================================== Epoch 1 =====================================
Trainset: 10000
Valset: 1000
Testset: 800
{'JOB_ID': 'imagenet_av_2_k3_w5_s5', 'arch': 'DN_X', 'config': '../models/architectures/configs/DN4_AV.yaml', 'dengine': False, 'refit_dengine': False, 'dataset_dir': '../dataset/miniImageNet', 'data_name': 'imageNetAV', 'mode': 'train', 'resume': None, 'epochs': 30, 'ngpu': 1, 'print_freq': 100, 'outf': '../results/DN_X_imageNetAV_DN4_5_Way_5_Shot_K1'}DN_X(
  (BACKBONE): FourLayer_64F(
    (features): Sequential(
      (0): Conv2d(3, 64, kernel_size=(3, 3), stride=(1, 1), padding=(1, 1), bias=False)
      (1): BatchNorm2d(64, eps=1e-05, momentum=0.1, affine=True, track_running_stats=True)
      (2): LeakyReLU(negative_slope=0.2, inplace=True)
      (3): MaxPool2d(kernel_size=2, stride=2, padding=0, dilation=1, ceil_mode=False)
      (4): Conv2d(64, 64, kernel_size=(3, 3), stride=(1, 1), padding=(1, 1), bias=False)
      (5): BatchNorm2d(64, eps=1e-05, momentum=0.1, affine=True, track_running_stats=True)
      (6): LeakyReLU(negative_slope=0.2, inplace=True)
      (7): MaxPool2d(kernel_size=2, stride=2, padding=0, dilation=1, ceil_mode=False)
      (8): Conv2d(64, 64, kernel_size=(3, 3), stride=(1, 1), padding=(1, 1), bias=False)
      (9): BatchNorm2d(64, eps=1e-05, momentum=0.1, affine=True, track_running_stats=True)
      (10): LeakyReLU(negative_slope=0.2, inplace=True)
      (11): Conv2d(64, 64, kernel_size=(3, 3), stride=(1, 1), padding=(1, 1), bias=False)
      (12): BatchNorm2d(64, eps=1e-05, momentum=0.1, affine=True, track_running_stats=True)
      (13): LeakyReLU(negative_slope=0.2, inplace=True)
    )
    (criterion): CrossEntropyLoss()
    (knn): KNN_itc()
  )
)
===================================== Epoch 1 =====================================
Trainset: 10000
Valset: 1000
Testset: 800
