Namespace(arch='DN_X', config='../models/architectures/configs/DN4_DA.yaml', dengine=False, refit_dengine=False, dataset_dir='../dataset/miniImageNet', data_name='test', mode='test', resume='', epochs=1, ngpu=1, print_freq=100, outf='../results/DN_X_test_DN4_5_Way_5_Shot_K5')DN_X(
  (BACKBONE): FourLayer_64F(
    (features): Sequential(
      (0): Conv2d(3, 64, kernel_size=(3, 3), stride=(1, 1), padding=(1, 1), bias=False)
      (1): BatchNorm2d(64, eps=1e-05, momentum=0.1, affine=True, track_running_stats=True)
      (2): LeakyReLU(negative_slope=0.2, inplace=True)
      (3): MaxPool2d(kernel_size=2, stride=2, padding=0, dilation=1, ceil_mode=False)
      (4): Conv2d(64, 64, kernel_size=(3, 3), stride=(1, 1), padding=(1, 1), bias=False)
      (5): BatchNorm2d(64, eps=1e-05, momentum=0.1, affine=True, track_running_stats=True)
      (6): LeakyReLU(negative_slope=0.2, inplace=True)
      (7): MaxPool2d(kernel_size=2, stride=2, padding=0, dilation=1, ceil_mode=False)
      (8): Conv2d(64, 64, kernel_size=(3, 3), stride=(1, 1), padding=(1, 1), bias=False)
      (9): BatchNorm2d(64, eps=1e-05, momentum=0.1, affine=True, track_running_stats=True)
      (10): LeakyReLU(negative_slope=0.2, inplace=True)
      (11): Conv2d(64, 64, kernel_size=(3, 3), stride=(1, 1), padding=(1, 1), bias=False)
      (12): BatchNorm2d(64, eps=1e-05, momentum=0.1, affine=True, track_running_stats=True)
      (13): LeakyReLU(negative_slope=0.2, inplace=True)
    )
    (criterion): CrossEntropyLoss()
  )
  (DE): RandomForestHead()
)
===================================== Round 0 =====================================
Testset: 600-------------0
Test-(0): [100/600]	Time 0.127 (0.134)	Loss 16.860 (10.971)	Prec@1 34.0 (38.138614654541016)
Namespace(arch='DN_X', config='../models/architectures/configs/DN4_DA.yaml', dengine=False, refit_dengine=False, dataset_dir='../dataset/miniImageNet', data_name='test', mode='test', resume='../results/models/dn4__miniImageNet_epoch_23.pth.tar', epochs=1, ngpu=1, print_freq=100, outf='../results/DN_X_test_DN4_5_Way_5_Shot_K5')=> loaded checkpoint '../results/models/dn4__miniImageNet_epoch_23.pth.tar' (epoch 23)
DN_X(
  (BACKBONE): FourLayer_64F(
    (features): Sequential(
      (0): Conv2d(3, 64, kernel_size=(3, 3), stride=(1, 1), padding=(1, 1), bias=False)
      (1): BatchNorm2d(64, eps=1e-05, momentum=0.1, affine=True, track_running_stats=True)
      (2): LeakyReLU(negative_slope=0.2, inplace=True)
      (3): MaxPool2d(kernel_size=2, stride=2, padding=0, dilation=1, ceil_mode=False)
      (4): Conv2d(64, 64, kernel_size=(3, 3), stride=(1, 1), padding=(1, 1), bias=False)
      (5): BatchNorm2d(64, eps=1e-05, momentum=0.1, affine=True, track_running_stats=True)
      (6): LeakyReLU(negative_slope=0.2, inplace=True)
      (7): MaxPool2d(kernel_size=2, stride=2, padding=0, dilation=1, ceil_mode=False)
      (8): Conv2d(64, 64, kernel_size=(3, 3), stride=(1, 1), padding=(1, 1), bias=False)
      (9): BatchNorm2d(64, eps=1e-05, momentum=0.1, affine=True, track_running_stats=True)
      (10): LeakyReLU(negative_slope=0.2, inplace=True)
      (11): Conv2d(64, 64, kernel_size=(3, 3), stride=(1, 1), padding=(1, 1), bias=False)
      (12): BatchNorm2d(64, eps=1e-05, momentum=0.1, affine=True, track_running_stats=True)
      (13): LeakyReLU(negative_slope=0.2, inplace=True)
    )
    (criterion): CrossEntropyLoss()
  )
  (DE): RandomForestHead()
)
===================================== Round 0 =====================================
Testset: 600-------------0
Test-(23): [100/600]	Time 0.111 (0.141)	Loss 1.610 (1.352)	Prec@1 60.0 (65.20791625976562)
…
Test-(23): [200/600]	Time 0.132 (0.135)	Loss 1.245 (1.273)	Prec@1 66.0 (63.13433074951172)

Test-(23): [300/600]	Time 0.114 (0.133)	Loss 1.225 (1.270)	Prec@1 68.0 (63.49501419067383)
Namespace(arch='DN_X', config='../models/architectures/configs/DN4_DA.yaml', dengine=True, refit_dengine=True, dataset_dir='../dataset/miniImageNet', data_name='test', mode='test', resume='../results/models/dn4__miniImageNet_epoch_23.pth.tar', epochs=1, ngpu=1, print_freq=100, outf='../results/DN_X_test_DN4_5_Way_5_Shot_K5')=> loaded checkpoint '../results/models/dn4__miniImageNet_epoch_23.pth.tar' (epoch 23)
DN_X(
  (BACKBONE): FourLayer_64F(
    (features): Sequential(
      (0): Conv2d(3, 64, kernel_size=(3, 3), stride=(1, 1), padding=(1, 1), bias=False)
      (1): BatchNorm2d(64, eps=1e-05, momentum=0.1, affine=True, track_running_stats=True)
      (2): LeakyReLU(negative_slope=0.2, inplace=True)
      (3): MaxPool2d(kernel_size=2, stride=2, padding=0, dilation=1, ceil_mode=False)
      (4): Conv2d(64, 64, kernel_size=(3, 3), stride=(1, 1), padding=(1, 1), bias=False)
      (5): BatchNorm2d(64, eps=1e-05, momentum=0.1, affine=True, track_running_stats=True)
      (6): LeakyReLU(negative_slope=0.2, inplace=True)
      (7): MaxPool2d(kernel_size=2, stride=2, padding=0, dilation=1, ceil_mode=False)
      (8): Conv2d(64, 64, kernel_size=(3, 3), stride=(1, 1), padding=(1, 1), bias=False)
      (9): BatchNorm2d(64, eps=1e-05, momentum=0.1, affine=True, track_running_stats=True)
      (10): LeakyReLU(negative_slope=0.2, inplace=True)
      (11): Conv2d(64, 64, kernel_size=(3, 3), stride=(1, 1), padding=(1, 1), bias=False)
      (12): BatchNorm2d(64, eps=1e-05, momentum=0.1, affine=True, track_running_stats=True)
      (13): LeakyReLU(negative_slope=0.2, inplace=True)
    )
    (criterion): CrossEntropyLoss()
  )
  (DE): XGBHead()
)
Trainset: 10000
Valset: 800
Testset: 600
===================================== Round 0 =====================================
Testset: 600-------------0
Test-(23): [100/600]	Time 0.136 (0.157)	Loss 1.225 (1.261)	Prec@1 68.0 (64.35643768310547)
…
 * Prec@1 63.350 Best_prec1 64.017Test accuracy= 63.349998474121094 h= 0.7342115640640259

Aver_accuracy= 63.608001708984375 Aver_h= 0.7267064809799194
Namespace(arch='DN_X', config='../models/architectures/configs/DN7_DA.yaml', dengine=True, refit_dengine=True, dataset_dir='../dataset/StanfordDogs/', data_name='test', mode='test', resume='../results/models/dn7da_stanfordogs_5_5_k3_epoch_27.pth.tar', epochs=1, ngpu=1, print_freq=100, outf='../results/DN_X_test_DN4_5_Way_5_Shot_K5')=> loaded checkpoint '../results/models/dn7da_stanfordogs_5_5_k3_epoch_27.pth.tar' (epoch 27)
DN_X(
  (BACKBONE): SevenLayer_64F(
    (features): Sequential(
      (0): Conv2d(3, 64, kernel_size=(3, 3), stride=(1, 1), padding=(1, 1), bias=False)
      (1): BatchNorm2d(64, eps=1e-05, momentum=0.1, affine=True, track_running_stats=True)
      (2): LeakyReLU(negative_slope=0.2, inplace=True)
      (3): MaxPool2d(kernel_size=2, stride=2, padding=0, dilation=1, ceil_mode=False)
      (4): Conv2d(64, 64, kernel_size=(3, 3), stride=(1, 1), padding=(1, 1), bias=False)
      (5): BatchNorm2d(64, eps=1e-05, momentum=0.1, affine=True, track_running_stats=True)
      (6): LeakyReLU(negative_slope=0.2, inplace=True)
      (7): MaxPool2d(kernel_size=2, stride=2, padding=0, dilation=1, ceil_mode=False)
      (8): Conv2d(64, 64, kernel_size=(3, 3), stride=(1, 1), padding=(1, 1), bias=False)
      (9): BatchNorm2d(64, eps=1e-05, momentum=0.1, affine=True, track_running_stats=True)
      (10): LeakyReLU(negative_slope=0.2, inplace=True)
      (11): Conv2d(64, 64, kernel_size=(3, 3), stride=(1, 1), padding=(1, 1), bias=False)
      (12): BatchNorm2d(64, eps=1e-05, momentum=0.1, affine=True, track_running_stats=True)
      (13): LeakyReLU(negative_slope=0.2, inplace=True)
      (14): Conv2d(64, 32, kernel_size=(3, 3), stride=(1, 1), padding=(1, 1), bias=False)
      (15): BatchNorm2d(32, eps=1e-05, momentum=0.1, affine=True, track_running_stats=True)
      (16): LeakyReLU(negative_slope=0.2, inplace=True)
      (17): Conv2d(32, 16, kernel_size=(3, 3), stride=(1, 1), padding=(1, 1), bias=False)
      (18): BatchNorm2d(16, eps=1e-05, momentum=0.1, affine=True, track_running_stats=True)
      (19): LeakyReLU(negative_slope=0.2, inplace=True)
      (20): Conv2d(16, 8, kernel_size=(3, 3), stride=(1, 1), padding=(1, 1), bias=False)
      (21): BatchNorm2d(8, eps=1e-05, momentum=0.1, affine=True, track_running_stats=True)
      (22): LeakyReLU(negative_slope=0.2, inplace=True)
      (23): MaxPool2d(kernel_size=2, stride=2, padding=0, dilation=1, ceil_mode=False)
    )
    (criterion): CrossEntropyLoss()
  )
  (DE): XGBHead()
)
Trainset: 10000
Valset: 600
Testset: 600
===================================== Round 0 =====================================
…
