{'JOB_ID': 'imagenet_av_2_k3_w5_s5', 'arch': 'SN_X', 'config': '../models/architectures/configs/DN4_AV.yaml', 'dengine': False, 'refit_dengine': False, 'dataset_dir': '../dataset/miniImageNet', 'data_name': 'imageNetAVC_AVQ', 'mode': 'train', 'resume': None, 'epochs': 30, 'ngpu': 1, 'print_freq': 100, 'outf': '../results/SN_X_imageNetAVC_AVQ_SNX_5_Way_1_Shot_K3'}SN_X(
  (BACKBONE): FourLayer_64F(
    (features): Sequential(
      (0): Conv2d(3, 64, kernel_size=(3, 3), stride=(1, 1), padding=(1, 1), bias=False)
      (1): BatchNorm2d(64, eps=1e-05, momentum=0.1, affine=True, track_running_stats=True)
      (2): LeakyReLU(negative_slope=0.2, inplace=True)
      (3): MaxPool2d(kernel_size=2, stride=2, padding=0, dilation=1, ceil_mode=False)
      (4): Conv2d(64, 64, kernel_size=(3, 3), stride=(1, 1), padding=(1, 1), bias=False)
      (5): BatchNorm2d(64, eps=1e-05, momentum=0.1, affine=True, track_running_stats=True)
      (6): LeakyReLU(negative_slope=0.2, inplace=True)
      (7): MaxPool2d(kernel_size=2, stride=2, padding=0, dilation=1, ceil_mode=False)
      (8): Conv2d(64, 64, kernel_size=(3, 3), stride=(1, 1), padding=(1, 1), bias=False)
      (9): BatchNorm2d(64, eps=1e-05, momentum=0.1, affine=True, track_running_stats=True)
      (10): LeakyReLU(negative_slope=0.2, inplace=True)
      (11): Conv2d(64, 64, kernel_size=(3, 3), stride=(1, 1), padding=(1, 1), bias=False)
      (12): BatchNorm2d(64, eps=1e-05, momentum=0.1, affine=True, track_running_stats=True)
      (13): LeakyReLU(negative_slope=0.2, inplace=True)
    )
    (criterion): CrossEntropyLoss()
    (knn): KNN_itc()
  )
)
===================================== Epoch 0 =====================================
Trainset: 2500
Valset: 800
Testset: 800
{'JOB_ID': 'imagenet_av_2_k3_w5_s5', 'arch': 'SN_X', 'config': '../models/architectures/configs/DN4_AV.yaml', 'dengine': False, 'refit_dengine': False, 'dataset_dir': '../dataset/miniImageNet', 'data_name': 'imageNetAVC_AVQ', 'mode': 'train', 'resume': None, 'epochs': 30, 'ngpu': 1, 'print_freq': 100, 'outf': '../results/SN_X_imageNetAVC_AVQ_SNX_5_Way_1_Shot_K3'}SN_X(
  (BACKBONE): FourLayer_64F(
    (features): Sequential(
      (0): Conv2d(3, 64, kernel_size=(3, 3), stride=(1, 1), padding=(1, 1), bias=False)
      (1): BatchNorm2d(64, eps=1e-05, momentum=0.1, affine=True, track_running_stats=True)
      (2): LeakyReLU(negative_slope=0.2, inplace=True)
      (3): MaxPool2d(kernel_size=2, stride=2, padding=0, dilation=1, ceil_mode=False)
      (4): Conv2d(64, 64, kernel_size=(3, 3), stride=(1, 1), padding=(1, 1), bias=False)
      (5): BatchNorm2d(64, eps=1e-05, momentum=0.1, affine=True, track_running_stats=True)
      (6): LeakyReLU(negative_slope=0.2, inplace=True)
      (7): MaxPool2d(kernel_size=2, stride=2, padding=0, dilation=1, ceil_mode=False)
      (8): Conv2d(64, 64, kernel_size=(3, 3), stride=(1, 1), padding=(1, 1), bias=False)
      (9): BatchNorm2d(64, eps=1e-05, momentum=0.1, affine=True, track_running_stats=True)
      (10): LeakyReLU(negative_slope=0.2, inplace=True)
      (11): Conv2d(64, 64, kernel_size=(3, 3), stride=(1, 1), padding=(1, 1), bias=False)
      (12): BatchNorm2d(64, eps=1e-05, momentum=0.1, affine=True, track_running_stats=True)
      (13): LeakyReLU(negative_slope=0.2, inplace=True)
    )
    (criterion): CrossEntropyLoss()
    (knn): KNN_itc()
  )
)
===================================== Epoch 0 =====================================
Trainset: 2500
Valset: 800
Testset: 800
{'JOB_ID': 'imagenet_av_2_k3_w5_s5', 'arch': 'SN_X', 'config': '../models/architectures/configs/DN4_AV.yaml', 'dengine': False, 'refit_dengine': False, 'dataset_dir': '../dataset/miniImageNet', 'data_name': 'imageNetAVC_AVQ', 'mode': 'train', 'resume': None, 'epochs': 30, 'ngpu': 1, 'print_freq': 100, 'outf': '../results/SN_X_imageNetAVC_AVQ_SNX_5_Way_1_Shot_K3'}SN_X(
  (BACKBONE): FourLayer_64F(
    (features): Sequential(
      (0): Conv2d(3, 64, kernel_size=(3, 3), stride=(1, 1), padding=(1, 1), bias=False)
      (1): BatchNorm2d(64, eps=1e-05, momentum=0.1, affine=True, track_running_stats=True)
      (2): LeakyReLU(negative_slope=0.2, inplace=True)
      (3): MaxPool2d(kernel_size=2, stride=2, padding=0, dilation=1, ceil_mode=False)
      (4): Conv2d(64, 64, kernel_size=(3, 3), stride=(1, 1), padding=(1, 1), bias=False)
      (5): BatchNorm2d(64, eps=1e-05, momentum=0.1, affine=True, track_running_stats=True)
      (6): LeakyReLU(negative_slope=0.2, inplace=True)
      (7): MaxPool2d(kernel_size=2, stride=2, padding=0, dilation=1, ceil_mode=False)
      (8): Conv2d(64, 64, kernel_size=(3, 3), stride=(1, 1), padding=(1, 1), bias=False)
      (9): BatchNorm2d(64, eps=1e-05, momentum=0.1, affine=True, track_running_stats=True)
      (10): LeakyReLU(negative_slope=0.2, inplace=True)
      (11): Conv2d(64, 64, kernel_size=(3, 3), stride=(1, 1), padding=(1, 1), bias=False)
      (12): BatchNorm2d(64, eps=1e-05, momentum=0.1, affine=True, track_running_stats=True)
      (13): LeakyReLU(negative_slope=0.2, inplace=True)
    )
    (criterion): CrossEntropyLoss()
    (knn): KNN_itc()
  )
)
===================================== Epoch 0 =====================================
Trainset: 2500
Valset: 800
Testset: 800
{'JOB_ID': 'imagenet_av_2_k3_w5_s5', 'arch': 'SN_X', 'config': '../models/architectures/configs/DN4_AV.yaml', 'dengine': False, 'refit_dengine': False, 'dataset_dir': '../dataset/miniImageNet', 'data_name': 'imageNetAVC_AVQ', 'mode': 'train', 'resume': None, 'epochs': 30, 'ngpu': 1, 'print_freq': 100, 'outf': '../results/SN_X_imageNetAVC_AVQ_SNX_5_Way_1_Shot_K3'}SN_X(
  (BACKBONE): FourLayer_64F(
    (features): Sequential(
      (0): Conv2d(3, 64, kernel_size=(3, 3), stride=(1, 1), padding=(1, 1), bias=False)
      (1): BatchNorm2d(64, eps=1e-05, momentum=0.1, affine=True, track_running_stats=True)
      (2): LeakyReLU(negative_slope=0.2, inplace=True)
      (3): MaxPool2d(kernel_size=2, stride=2, padding=0, dilation=1, ceil_mode=False)
      (4): Conv2d(64, 64, kernel_size=(3, 3), stride=(1, 1), padding=(1, 1), bias=False)
      (5): BatchNorm2d(64, eps=1e-05, momentum=0.1, affine=True, track_running_stats=True)
      (6): LeakyReLU(negative_slope=0.2, inplace=True)
      (7): MaxPool2d(kernel_size=2, stride=2, padding=0, dilation=1, ceil_mode=False)
      (8): Conv2d(64, 64, kernel_size=(3, 3), stride=(1, 1), padding=(1, 1), bias=False)
      (9): BatchNorm2d(64, eps=1e-05, momentum=0.1, affine=True, track_running_stats=True)
      (10): LeakyReLU(negative_slope=0.2, inplace=True)
      (11): Conv2d(64, 64, kernel_size=(3, 3), stride=(1, 1), padding=(1, 1), bias=False)
      (12): BatchNorm2d(64, eps=1e-05, momentum=0.1, affine=True, track_running_stats=True)
      (13): LeakyReLU(negative_slope=0.2, inplace=True)
    )
    (criterion): CrossEntropyLoss()
    (knn): KNN_itc()
  )
)
===================================== Epoch 0 =====================================
Trainset: 2500
Valset: 800
Testset: 800
{'JOB_ID': 'imagenet_av_2_k3_w5_s5', 'arch': 'SN_X', 'config': '../models/architectures/configs/DN4_AV.yaml', 'dengine': False, 'refit_dengine': False, 'dataset_dir': '../dataset/miniImageNet', 'data_name': 'imageNetAVC_AVQ', 'mode': 'train', 'resume': None, 'epochs': 30, 'ngpu': 1, 'print_freq': 100, 'outf': '../results/SN_X_imageNetAVC_AVQ_SNX_5_Way_1_Shot_K3'}SN_X(
  (BACKBONE): FourLayer_64F(
    (features): Sequential(
      (0): Conv2d(3, 64, kernel_size=(3, 3), stride=(1, 1), padding=(1, 1), bias=False)
      (1): BatchNorm2d(64, eps=1e-05, momentum=0.1, affine=True, track_running_stats=True)
      (2): LeakyReLU(negative_slope=0.2, inplace=True)
      (3): MaxPool2d(kernel_size=2, stride=2, padding=0, dilation=1, ceil_mode=False)
      (4): Conv2d(64, 64, kernel_size=(3, 3), stride=(1, 1), padding=(1, 1), bias=False)
      (5): BatchNorm2d(64, eps=1e-05, momentum=0.1, affine=True, track_running_stats=True)
      (6): LeakyReLU(negative_slope=0.2, inplace=True)
      (7): MaxPool2d(kernel_size=2, stride=2, padding=0, dilation=1, ceil_mode=False)
      (8): Conv2d(64, 64, kernel_size=(3, 3), stride=(1, 1), padding=(1, 1), bias=False)
      (9): BatchNorm2d(64, eps=1e-05, momentum=0.1, affine=True, track_running_stats=True)
      (10): LeakyReLU(negative_slope=0.2, inplace=True)
      (11): Conv2d(64, 64, kernel_size=(3, 3), stride=(1, 1), padding=(1, 1), bias=False)
      (12): BatchNorm2d(64, eps=1e-05, momentum=0.1, affine=True, track_running_stats=True)
      (13): LeakyReLU(negative_slope=0.2, inplace=True)
    )
    (criterion): CrossEntropyLoss()
    (knn): KNN_itc()
  )
)
===================================== Epoch 0 =====================================
Trainset: 2500
Valset: 800
Testset: 800
{'JOB_ID': 'imagenet_av_2_k3_w5_s5', 'arch': 'SN_X', 'config': '../models/architectures/configs/SN4_AV.yaml', 'dengine': False, 'refit_dengine': False, 'dataset_dir': '../dataset/miniImageNet', 'data_name': 'imageNetAVC_AVQ', 'mode': 'train', 'resume': None, 'epochs': 30, 'ngpu': 1, 'print_freq': 100, 'outf': '../results/SN_X_imageNetAVC_AVQ_SNX_5_Way_1_Shot_K3'}SN_X(
  (BACKBONE): SiameseNetwork(
    (features): Sequential(
      (0): Conv2d(3, 64, kernel_size=(3, 3), stride=(1, 1), padding=(1, 1), bias=False)
      (1): BatchNorm2d(64, eps=1e-05, momentum=0.1, affine=True, track_running_stats=True)
      (2): LeakyReLU(negative_slope=0.2, inplace=True)
      (3): MaxPool2d(kernel_size=2, stride=2, padding=0, dilation=1, ceil_mode=False)
      (4): Conv2d(64, 64, kernel_size=(3, 3), stride=(1, 1), padding=(1, 1), bias=False)
      (5): BatchNorm2d(64, eps=1e-05, momentum=0.1, affine=True, track_running_stats=True)
      (6): LeakyReLU(negative_slope=0.2, inplace=True)
      (7): MaxPool2d(kernel_size=2, stride=2, padding=0, dilation=1, ceil_mode=False)
      (8): Conv2d(64, 64, kernel_size=(3, 3), stride=(1, 1), padding=(1, 1), bias=False)
      (9): BatchNorm2d(64, eps=1e-05, momentum=0.1, affine=True, track_running_stats=True)
      (10): LeakyReLU(negative_slope=0.2, inplace=True)
      (11): Conv2d(64, 64, kernel_size=(3, 3), stride=(1, 1), padding=(1, 1), bias=False)
      (12): BatchNorm2d(64, eps=1e-05, momentum=0.1, affine=True, track_running_stats=True)
      (13): LeakyReLU(negative_slope=0.2, inplace=True)
    )
    (criterion): NPlusOneTupletLoss()
    (knn): KNN_itc()
  )
)
===================================== Epoch 0 =====================================
Trainset: 2500
Valset: 800
Testset: 800
{'JOB_ID': 'imagenet_av_2_k3_w5_s5', 'arch': 'SN_X', 'config': '../models/architectures/configs/SN4_AV.yaml', 'dengine': False, 'refit_dengine': False, 'dataset_dir': '../dataset/miniImageNet', 'data_name': 'imageNetAVC_AVQ', 'mode': 'train', 'resume': None, 'epochs': 30, 'ngpu': 1, 'print_freq': 100, 'outf': '../results/SN_X_imageNetAVC_AVQ_SNX_5_Way_1_Shot_K3'}SN_X(
  (BACKBONE): SiameseNetwork(
    (features): Sequential(
      (0): Conv2d(3, 64, kernel_size=(3, 3), stride=(1, 1), padding=(1, 1), bias=False)
      (1): BatchNorm2d(64, eps=1e-05, momentum=0.1, affine=True, track_running_stats=True)
      (2): LeakyReLU(negative_slope=0.2, inplace=True)
      (3): MaxPool2d(kernel_size=2, stride=2, padding=0, dilation=1, ceil_mode=False)
      (4): Conv2d(64, 64, kernel_size=(3, 3), stride=(1, 1), padding=(1, 1), bias=False)
      (5): BatchNorm2d(64, eps=1e-05, momentum=0.1, affine=True, track_running_stats=True)
      (6): LeakyReLU(negative_slope=0.2, inplace=True)
      (7): MaxPool2d(kernel_size=2, stride=2, padding=0, dilation=1, ceil_mode=False)
      (8): Conv2d(64, 64, kernel_size=(3, 3), stride=(1, 1), padding=(1, 1), bias=False)
      (9): BatchNorm2d(64, eps=1e-05, momentum=0.1, affine=True, track_running_stats=True)
      (10): LeakyReLU(negative_slope=0.2, inplace=True)
      (11): Conv2d(64, 64, kernel_size=(3, 3), stride=(1, 1), padding=(1, 1), bias=False)
      (12): BatchNorm2d(64, eps=1e-05, momentum=0.1, affine=True, track_running_stats=True)
      (13): LeakyReLU(negative_slope=0.2, inplace=True)
    )
    (criterion): NPlusOneTupletLoss()
    (knn): KNN_itc()
  )
)
===================================== Epoch 0 =====================================
Trainset: 2500
Valset: 800
Testset: 800
{'JOB_ID': 'imagenet_av_2_k3_w5_s5', 'arch': 'SN_X', 'config': '../models/architectures/configs/SN4_AV.yaml', 'dengine': False, 'refit_dengine': False, 'dataset_dir': '../dataset/miniImageNet', 'data_name': 'imageNetAVC_AVQ', 'mode': 'train', 'resume': None, 'epochs': 30, 'ngpu': 1, 'print_freq': 100, 'outf': '../results/SN_X_imageNetAVC_AVQ_SNX_5_Way_1_Shot_K3'}SN_X(
  (BACKBONE): SiameseNetwork(
    (features): Sequential(
      (0): Conv2d(3, 64, kernel_size=(3, 3), stride=(1, 1), padding=(1, 1), bias=False)
      (1): BatchNorm2d(64, eps=1e-05, momentum=0.1, affine=True, track_running_stats=True)
      (2): LeakyReLU(negative_slope=0.2, inplace=True)
      (3): MaxPool2d(kernel_size=2, stride=2, padding=0, dilation=1, ceil_mode=False)
      (4): Conv2d(64, 64, kernel_size=(3, 3), stride=(1, 1), padding=(1, 1), bias=False)
      (5): BatchNorm2d(64, eps=1e-05, momentum=0.1, affine=True, track_running_stats=True)
      (6): LeakyReLU(negative_slope=0.2, inplace=True)
      (7): MaxPool2d(kernel_size=2, stride=2, padding=0, dilation=1, ceil_mode=False)
      (8): Conv2d(64, 64, kernel_size=(3, 3), stride=(1, 1), padding=(1, 1), bias=False)
      (9): BatchNorm2d(64, eps=1e-05, momentum=0.1, affine=True, track_running_stats=True)
      (10): LeakyReLU(negative_slope=0.2, inplace=True)
      (11): Conv2d(64, 64, kernel_size=(3, 3), stride=(1, 1), padding=(1, 1), bias=False)
      (12): BatchNorm2d(64, eps=1e-05, momentum=0.1, affine=True, track_running_stats=True)
      (13): LeakyReLU(negative_slope=0.2, inplace=True)
    )
    (criterion): NPlusOneTupletLoss()
    (knn): KNN_itc()
  )
)
===================================== Epoch 0 =====================================
Trainset: 2500
Valset: 800
Testset: 800
{'JOB_ID': 'imagenet_av_2_k3_w5_s5', 'arch': 'SN_X', 'config': '../models/architectures/configs/SN4_AV.yaml', 'dengine': False, 'refit_dengine': False, 'dataset_dir': '../dataset/miniImageNet', 'data_name': 'imageNetAVC_AVQ', 'mode': 'train', 'resume': None, 'epochs': 30, 'ngpu': 1, 'print_freq': 100, 'outf': '../results/SN_X_imageNetAVC_AVQ_SNX_5_Way_1_Shot_K3'}SN_X(
  (BACKBONE): SiameseNetwork(
    (features): Sequential(
      (0): Conv2d(3, 64, kernel_size=(3, 3), stride=(1, 1), padding=(1, 1), bias=False)
      (1): BatchNorm2d(64, eps=1e-05, momentum=0.1, affine=True, track_running_stats=True)
      (2): LeakyReLU(negative_slope=0.2, inplace=True)
      (3): MaxPool2d(kernel_size=2, stride=2, padding=0, dilation=1, ceil_mode=False)
      (4): Conv2d(64, 64, kernel_size=(3, 3), stride=(1, 1), padding=(1, 1), bias=False)
      (5): BatchNorm2d(64, eps=1e-05, momentum=0.1, affine=True, track_running_stats=True)
      (6): LeakyReLU(negative_slope=0.2, inplace=True)
      (7): MaxPool2d(kernel_size=2, stride=2, padding=0, dilation=1, ceil_mode=False)
      (8): Conv2d(64, 64, kernel_size=(3, 3), stride=(1, 1), padding=(1, 1), bias=False)
      (9): BatchNorm2d(64, eps=1e-05, momentum=0.1, affine=True, track_running_stats=True)
      (10): LeakyReLU(negative_slope=0.2, inplace=True)
      (11): Conv2d(64, 64, kernel_size=(3, 3), stride=(1, 1), padding=(1, 1), bias=False)
      (12): BatchNorm2d(64, eps=1e-05, momentum=0.1, affine=True, track_running_stats=True)
      (13): LeakyReLU(negative_slope=0.2, inplace=True)
    )
    (criterion): NPlusOneTupletLoss()
    (knn): KNN_itc()
  )
)
===================================== Epoch 0 =====================================
Trainset: 2500
Valset: 800
Testset: 800
Eposide-(0): [100/2500]	Time 0.909 (1.094)	Data 0.000 (0.162)	Loss nan (nan)	Prec@1 20.000 (20.132)
Eposide-(0): [200/2500]	Time 0.894 (1.017)	Data 0.000 (0.082)	Loss nan (nan)	Prec@1 20.000 (20.066)
{'JOB_ID': 'imagenet_av_2_k3_w5_s5', 'arch': 'SN_X', 'config': '../models/architectures/configs/SN4_AV.yaml', 'dengine': False, 'refit_dengine': False, 'dataset_dir': '../dataset/miniImageNet', 'data_name': 'imageNetAVC_AVQ', 'mode': 'train', 'resume': None, 'epochs': 30, 'ngpu': 1, 'print_freq': 100, 'outf': '../results/SN_X_imageNetAVC_AVQ_SNX_5_Way_1_Shot_K3'}SN_X(
  (BACKBONE): SiameseNetwork(
    (features): Sequential(
      (0): Conv2d(3, 64, kernel_size=(3, 3), stride=(1, 1), padding=(1, 1), bias=False)
      (1): BatchNorm2d(64, eps=1e-05, momentum=0.1, affine=True, track_running_stats=True)
      (2): LeakyReLU(negative_slope=0.2, inplace=True)
      (3): MaxPool2d(kernel_size=2, stride=2, padding=0, dilation=1, ceil_mode=False)
      (4): Conv2d(64, 64, kernel_size=(3, 3), stride=(1, 1), padding=(1, 1), bias=False)
      (5): BatchNorm2d(64, eps=1e-05, momentum=0.1, affine=True, track_running_stats=True)
      (6): LeakyReLU(negative_slope=0.2, inplace=True)
      (7): MaxPool2d(kernel_size=2, stride=2, padding=0, dilation=1, ceil_mode=False)
      (8): Conv2d(64, 64, kernel_size=(3, 3), stride=(1, 1), padding=(1, 1), bias=False)
      (9): BatchNorm2d(64, eps=1e-05, momentum=0.1, affine=True, track_running_stats=True)
      (10): LeakyReLU(negative_slope=0.2, inplace=True)
      (11): Conv2d(64, 64, kernel_size=(3, 3), stride=(1, 1), padding=(1, 1), bias=False)
      (12): BatchNorm2d(64, eps=1e-05, momentum=0.1, affine=True, track_running_stats=True)
      (13): LeakyReLU(negative_slope=0.2, inplace=True)
    )
    (criterion): NPlusOneTupletLoss()
    (knn): KNN_itc()
  )
)
===================================== Epoch 0 =====================================
Trainset: 2500
Valset: 800
Testset: 800
{'JOB_ID': 'imagenet_av_2_k3_w5_s5', 'arch': 'SN_X', 'config': '../models/architectures/configs/SN4_AV.yaml', 'dengine': False, 'refit_dengine': False, 'dataset_dir': '../dataset/miniImageNet', 'data_name': 'imageNetAVC_AVQ', 'mode': 'train', 'resume': None, 'epochs': 30, 'ngpu': 1, 'print_freq': 100, 'outf': '../results/SN_X_imageNetAVC_AVQ_SNX_5_Way_1_Shot_K3'}SN_X(
  (BACKBONE): SiameseNetwork(
    (features): Sequential(
      (0): Conv2d(3, 64, kernel_size=(3, 3), stride=(1, 1), padding=(1, 1), bias=False)
      (1): BatchNorm2d(64, eps=1e-05, momentum=0.1, affine=True, track_running_stats=True)
      (2): LeakyReLU(negative_slope=0.2, inplace=True)
      (3): MaxPool2d(kernel_size=2, stride=2, padding=0, dilation=1, ceil_mode=False)
      (4): Conv2d(64, 64, kernel_size=(3, 3), stride=(1, 1), padding=(1, 1), bias=False)
      (5): BatchNorm2d(64, eps=1e-05, momentum=0.1, affine=True, track_running_stats=True)
      (6): LeakyReLU(negative_slope=0.2, inplace=True)
      (7): MaxPool2d(kernel_size=2, stride=2, padding=0, dilation=1, ceil_mode=False)
      (8): Conv2d(64, 64, kernel_size=(3, 3), stride=(1, 1), padding=(1, 1), bias=False)
      (9): BatchNorm2d(64, eps=1e-05, momentum=0.1, affine=True, track_running_stats=True)
      (10): LeakyReLU(negative_slope=0.2, inplace=True)
      (11): Conv2d(64, 64, kernel_size=(3, 3), stride=(1, 1), padding=(1, 1), bias=False)
      (12): BatchNorm2d(64, eps=1e-05, momentum=0.1, affine=True, track_running_stats=True)
      (13): LeakyReLU(negative_slope=0.2, inplace=True)
    )
    (criterion): NPlusOneTupletLoss()
    (knn): KNN_itc()
  )
)
===================================== Epoch 0 =====================================
Trainset: 2500
Valset: 800
Testset: 800
{'JOB_ID': 'imagenet_av_2_k3_w5_s5', 'arch': 'SN_X', 'config': '../models/architectures/configs/SN4_AV.yaml', 'dengine': False, 'refit_dengine': False, 'dataset_dir': '../dataset/miniImageNet', 'data_name': 'imageNetAVC_AVQ', 'mode': 'train', 'resume': None, 'epochs': 30, 'ngpu': 1, 'print_freq': 100, 'outf': '../results/SN_X_imageNetAVC_AVQ_SNX_5_Way_1_Shot_K3'}SN_X(
  (BACKBONE): SiameseNetwork(
    (features): Sequential(
      (0): Conv2d(3, 64, kernel_size=(3, 3), stride=(1, 1), padding=(1, 1), bias=False)
      (1): BatchNorm2d(64, eps=1e-05, momentum=0.1, affine=True, track_running_stats=True)
      (2): LeakyReLU(negative_slope=0.2, inplace=True)
      (3): MaxPool2d(kernel_size=2, stride=2, padding=0, dilation=1, ceil_mode=False)
      (4): Conv2d(64, 64, kernel_size=(3, 3), stride=(1, 1), padding=(1, 1), bias=False)
      (5): BatchNorm2d(64, eps=1e-05, momentum=0.1, affine=True, track_running_stats=True)
      (6): LeakyReLU(negative_slope=0.2, inplace=True)
      (7): MaxPool2d(kernel_size=2, stride=2, padding=0, dilation=1, ceil_mode=False)
      (8): Conv2d(64, 64, kernel_size=(3, 3), stride=(1, 1), padding=(1, 1), bias=False)
      (9): BatchNorm2d(64, eps=1e-05, momentum=0.1, affine=True, track_running_stats=True)
      (10): LeakyReLU(negative_slope=0.2, inplace=True)
      (11): Conv2d(64, 64, kernel_size=(3, 3), stride=(1, 1), padding=(1, 1), bias=False)
      (12): BatchNorm2d(64, eps=1e-05, momentum=0.1, affine=True, track_running_stats=True)
      (13): LeakyReLU(negative_slope=0.2, inplace=True)
    )
    (criterion): NPlusOneTupletLoss()
    (knn): KNN_itc()
  )
)
===================================== Epoch 0 =====================================
Trainset: 2500
Valset: 800
Testset: 800
{'JOB_ID': 'imagenet_av_2_k3_w5_s5', 'arch': 'SN_X', 'config': '../models/architectures/configs/SN4_AV.yaml', 'dengine': False, 'refit_dengine': False, 'dataset_dir': '../dataset/miniImageNet', 'data_name': 'imageNetAVC_AVQ', 'mode': 'train', 'resume': None, 'epochs': 30, 'ngpu': 1, 'print_freq': 100, 'outf': '../results/SN_X_imageNetAVC_AVQ_SNX_5_Way_1_Shot_K3'}SN_X(
  (BACKBONE): SiameseNetwork(
    (features): Sequential(
      (0): Conv2d(3, 64, kernel_size=(3, 3), stride=(1, 1), padding=(1, 1), bias=False)
      (1): BatchNorm2d(64, eps=1e-05, momentum=0.1, affine=True, track_running_stats=True)
      (2): LeakyReLU(negative_slope=0.2, inplace=True)
      (3): MaxPool2d(kernel_size=2, stride=2, padding=0, dilation=1, ceil_mode=False)
      (4): Conv2d(64, 64, kernel_size=(3, 3), stride=(1, 1), padding=(1, 1), bias=False)
      (5): BatchNorm2d(64, eps=1e-05, momentum=0.1, affine=True, track_running_stats=True)
      (6): LeakyReLU(negative_slope=0.2, inplace=True)
      (7): MaxPool2d(kernel_size=2, stride=2, padding=0, dilation=1, ceil_mode=False)
      (8): Conv2d(64, 64, kernel_size=(3, 3), stride=(1, 1), padding=(1, 1), bias=False)
      (9): BatchNorm2d(64, eps=1e-05, momentum=0.1, affine=True, track_running_stats=True)
      (10): LeakyReLU(negative_slope=0.2, inplace=True)
      (11): Conv2d(64, 64, kernel_size=(3, 3), stride=(1, 1), padding=(1, 1), bias=False)
      (12): BatchNorm2d(64, eps=1e-05, momentum=0.1, affine=True, track_running_stats=True)
      (13): LeakyReLU(negative_slope=0.2, inplace=True)
    )
    (criterion): NPlusOneTupletLoss()
    (knn): KNN_itc()
  )
)
===================================== Epoch 0 =====================================
Trainset: 2500
Valset: 800
Testset: 800
{'JOB_ID': 'imagenet_av_2_k3_w5_s5', 'arch': 'SN_X', 'config': '../models/architectures/configs/SN4_AV.yaml', 'dengine': False, 'refit_dengine': False, 'dataset_dir': '../dataset/miniImageNet', 'data_name': 'imageNetAVC_AVQ', 'mode': 'train', 'resume': None, 'epochs': 30, 'ngpu': 1, 'print_freq': 100, 'outf': '../results/SN_X_imageNetAVC_AVQ_SNX_5_Way_1_Shot_K3'}SN_X(
  (BACKBONE): SiameseNetwork(
    (features): Sequential(
      (0): Conv2d(3, 64, kernel_size=(3, 3), stride=(1, 1), padding=(1, 1), bias=False)
      (1): BatchNorm2d(64, eps=1e-05, momentum=0.1, affine=True, track_running_stats=True)
      (2): LeakyReLU(negative_slope=0.2, inplace=True)
      (3): MaxPool2d(kernel_size=2, stride=2, padding=0, dilation=1, ceil_mode=False)
      (4): Conv2d(64, 64, kernel_size=(3, 3), stride=(1, 1), padding=(1, 1), bias=False)
      (5): BatchNorm2d(64, eps=1e-05, momentum=0.1, affine=True, track_running_stats=True)
      (6): LeakyReLU(negative_slope=0.2, inplace=True)
      (7): MaxPool2d(kernel_size=2, stride=2, padding=0, dilation=1, ceil_mode=False)
      (8): Conv2d(64, 64, kernel_size=(3, 3), stride=(1, 1), padding=(1, 1), bias=False)
      (9): BatchNorm2d(64, eps=1e-05, momentum=0.1, affine=True, track_running_stats=True)
      (10): LeakyReLU(negative_slope=0.2, inplace=True)
      (11): Conv2d(64, 64, kernel_size=(3, 3), stride=(1, 1), padding=(1, 1), bias=False)
      (12): BatchNorm2d(64, eps=1e-05, momentum=0.1, affine=True, track_running_stats=True)
      (13): LeakyReLU(negative_slope=0.2, inplace=True)
    )
    (criterion): NPlusOneTupletLoss()
    (knn): KNN_itc()
  )
)
===================================== Epoch 0 =====================================
Trainset: 2500
Valset: 800
Testset: 800
{'JOB_ID': 'imagenet_av_2_k3_w5_s5', 'arch': 'SN_X', 'config': '../models/architectures/configs/SN4_AV.yaml', 'dengine': False, 'refit_dengine': False, 'dataset_dir': '../dataset/miniImageNet', 'data_name': 'imageNetAVC_AVQ', 'mode': 'train', 'resume': None, 'epochs': 30, 'ngpu': 1, 'print_freq': 100, 'outf': '../results/SN_X_imageNetAVC_AVQ_SNX_5_Way_1_Shot_K3'}SN_X(
  (BACKBONE): SiameseNetwork(
    (features): Sequential(
      (0): Conv2d(3, 64, kernel_size=(3, 3), stride=(1, 1), padding=(1, 1), bias=False)
      (1): BatchNorm2d(64, eps=1e-05, momentum=0.1, affine=True, track_running_stats=True)
      (2): LeakyReLU(negative_slope=0.2, inplace=True)
      (3): MaxPool2d(kernel_size=2, stride=2, padding=0, dilation=1, ceil_mode=False)
      (4): Conv2d(64, 64, kernel_size=(3, 3), stride=(1, 1), padding=(1, 1), bias=False)
      (5): BatchNorm2d(64, eps=1e-05, momentum=0.1, affine=True, track_running_stats=True)
      (6): LeakyReLU(negative_slope=0.2, inplace=True)
      (7): MaxPool2d(kernel_size=2, stride=2, padding=0, dilation=1, ceil_mode=False)
      (8): Conv2d(64, 64, kernel_size=(3, 3), stride=(1, 1), padding=(1, 1), bias=False)
      (9): BatchNorm2d(64, eps=1e-05, momentum=0.1, affine=True, track_running_stats=True)
      (10): LeakyReLU(negative_slope=0.2, inplace=True)
      (11): Conv2d(64, 64, kernel_size=(3, 3), stride=(1, 1), padding=(1, 1), bias=False)
      (12): BatchNorm2d(64, eps=1e-05, momentum=0.1, affine=True, track_running_stats=True)
      (13): LeakyReLU(negative_slope=0.2, inplace=True)
    )
    (criterion): NPlusOneTupletLoss()
    (knn): KNN_itc()
  )
)
===================================== Epoch 0 =====================================
Trainset: 2500
Valset: 800
Testset: 800
{'JOB_ID': 'imagenet_av_2_k3_w5_s5', 'arch': 'SN_X', 'config': '../models/architectures/configs/SN4_AV.yaml', 'dengine': False, 'refit_dengine': False, 'dataset_dir': '../dataset/miniImageNet', 'data_name': 'imageNetAVC_AVQ', 'mode': 'train', 'resume': None, 'epochs': 30, 'ngpu': 1, 'print_freq': 100, 'outf': '../results/SN_X_imageNetAVC_AVQ_SNX_5_Way_1_Shot_K3'}SN_X(
  (BACKBONE): SiameseNetwork(
    (features): Sequential(
      (0): Conv2d(3, 64, kernel_size=(3, 3), stride=(1, 1), padding=(1, 1), bias=False)
      (1): BatchNorm2d(64, eps=1e-05, momentum=0.1, affine=True, track_running_stats=True)
      (2): LeakyReLU(negative_slope=0.2, inplace=True)
      (3): MaxPool2d(kernel_size=2, stride=2, padding=0, dilation=1, ceil_mode=False)
      (4): Conv2d(64, 64, kernel_size=(3, 3), stride=(1, 1), padding=(1, 1), bias=False)
      (5): BatchNorm2d(64, eps=1e-05, momentum=0.1, affine=True, track_running_stats=True)
      (6): LeakyReLU(negative_slope=0.2, inplace=True)
      (7): MaxPool2d(kernel_size=2, stride=2, padding=0, dilation=1, ceil_mode=False)
      (8): Conv2d(64, 64, kernel_size=(3, 3), stride=(1, 1), padding=(1, 1), bias=False)
      (9): BatchNorm2d(64, eps=1e-05, momentum=0.1, affine=True, track_running_stats=True)
      (10): LeakyReLU(negative_slope=0.2, inplace=True)
      (11): Conv2d(64, 64, kernel_size=(3, 3), stride=(1, 1), padding=(1, 1), bias=False)
      (12): BatchNorm2d(64, eps=1e-05, momentum=0.1, affine=True, track_running_stats=True)
      (13): LeakyReLU(negative_slope=0.2, inplace=True)
    )
    (criterion): NPlusOneTupletLoss()
    (knn): KNN_itc()
  )
)
===================================== Epoch 0 =====================================
Trainset: 2500
Valset: 800
Testset: 800
{'JOB_ID': 'imagenet_av_2_k3_w5_s5', 'arch': 'SN_X', 'config': '../models/architectures/configs/SN4_AV.yaml', 'dengine': False, 'refit_dengine': False, 'dataset_dir': '../dataset/miniImageNet', 'data_name': 'imageNetAVC_AVQ', 'mode': 'train', 'resume': None, 'epochs': 30, 'ngpu': 1, 'print_freq': 100, 'outf': '../results/SN_X_imageNetAVC_AVQ_SNX_5_Way_1_Shot_K3'}SN_X(
  (BACKBONE): SiameseNetwork(
    (features): Sequential(
      (0): Conv2d(3, 64, kernel_size=(3, 3), stride=(1, 1), padding=(1, 1), bias=False)
      (1): BatchNorm2d(64, eps=1e-05, momentum=0.1, affine=True, track_running_stats=True)
      (2): LeakyReLU(negative_slope=0.2, inplace=True)
      (3): MaxPool2d(kernel_size=2, stride=2, padding=0, dilation=1, ceil_mode=False)
      (4): Conv2d(64, 64, kernel_size=(3, 3), stride=(1, 1), padding=(1, 1), bias=False)
      (5): BatchNorm2d(64, eps=1e-05, momentum=0.1, affine=True, track_running_stats=True)
      (6): LeakyReLU(negative_slope=0.2, inplace=True)
      (7): MaxPool2d(kernel_size=2, stride=2, padding=0, dilation=1, ceil_mode=False)
      (8): Conv2d(64, 64, kernel_size=(3, 3), stride=(1, 1), padding=(1, 1), bias=False)
      (9): BatchNorm2d(64, eps=1e-05, momentum=0.1, affine=True, track_running_stats=True)
      (10): LeakyReLU(negative_slope=0.2, inplace=True)
      (11): Conv2d(64, 64, kernel_size=(3, 3), stride=(1, 1), padding=(1, 1), bias=False)
      (12): BatchNorm2d(64, eps=1e-05, momentum=0.1, affine=True, track_running_stats=True)
      (13): LeakyReLU(negative_slope=0.2, inplace=True)
    )
    (criterion): NPlusOneTupletLoss()
    (knn): KNN_itc()
  )
)
===================================== Epoch 0 =====================================
Trainset: 2500
Valset: 800
Testset: 800
{'JOB_ID': 'imagenet_av_2_k3_w5_s5', 'arch': 'SN_X', 'config': '../models/architectures/configs/SN4_AV.yaml', 'dengine': False, 'refit_dengine': False, 'dataset_dir': '../dataset/miniImageNet', 'data_name': 'imageNetAVC_AVQ', 'mode': 'train', 'resume': None, 'epochs': 30, 'ngpu': 1, 'print_freq': 100, 'outf': '../results/SN_X_imageNetAVC_AVQ_SNX_5_Way_1_Shot_K3'}SN_X(
  (BACKBONE): SiameseNetwork(
    (features): Sequential(
      (0): Conv2d(3, 64, kernel_size=(3, 3), stride=(1, 1), padding=(1, 1), bias=False)
      (1): BatchNorm2d(64, eps=1e-05, momentum=0.1, affine=True, track_running_stats=True)
      (2): LeakyReLU(negative_slope=0.2, inplace=True)
      (3): MaxPool2d(kernel_size=2, stride=2, padding=0, dilation=1, ceil_mode=False)
      (4): Conv2d(64, 64, kernel_size=(3, 3), stride=(1, 1), padding=(1, 1), bias=False)
      (5): BatchNorm2d(64, eps=1e-05, momentum=0.1, affine=True, track_running_stats=True)
      (6): LeakyReLU(negative_slope=0.2, inplace=True)
      (7): MaxPool2d(kernel_size=2, stride=2, padding=0, dilation=1, ceil_mode=False)
      (8): Conv2d(64, 64, kernel_size=(3, 3), stride=(1, 1), padding=(1, 1), bias=False)
      (9): BatchNorm2d(64, eps=1e-05, momentum=0.1, affine=True, track_running_stats=True)
      (10): LeakyReLU(negative_slope=0.2, inplace=True)
      (11): Conv2d(64, 64, kernel_size=(3, 3), stride=(1, 1), padding=(1, 1), bias=False)
      (12): BatchNorm2d(64, eps=1e-05, momentum=0.1, affine=True, track_running_stats=True)
      (13): LeakyReLU(negative_slope=0.2, inplace=True)
    )
    (criterion): NPlusOneTupletLoss()
    (knn): KNN_itc()
  )
)
===================================== Epoch 0 =====================================
Trainset: 2500
Valset: 800
Testset: 800
{'JOB_ID': 'imagenet_av_2_k3_w5_s5', 'arch': 'SN_X', 'config': '../models/architectures/configs/SN4_AV.yaml', 'dengine': False, 'refit_dengine': False, 'dataset_dir': '../dataset/miniImageNet', 'data_name': 'imageNetAVC_AVQ', 'mode': 'train', 'resume': None, 'epochs': 30, 'ngpu': 1, 'print_freq': 100, 'outf': '../results/SN_X_imageNetAVC_AVQ_SNX_5_Way_1_Shot_K3'}SN_X(
  (BACKBONE): SiameseNetwork(
    (features): Sequential(
      (0): Conv2d(3, 64, kernel_size=(3, 3), stride=(1, 1), padding=(1, 1), bias=False)
      (1): BatchNorm2d(64, eps=1e-05, momentum=0.1, affine=True, track_running_stats=True)
      (2): LeakyReLU(negative_slope=0.2, inplace=True)
      (3): MaxPool2d(kernel_size=2, stride=2, padding=0, dilation=1, ceil_mode=False)
      (4): Conv2d(64, 64, kernel_size=(3, 3), stride=(1, 1), padding=(1, 1), bias=False)
      (5): BatchNorm2d(64, eps=1e-05, momentum=0.1, affine=True, track_running_stats=True)
      (6): LeakyReLU(negative_slope=0.2, inplace=True)
      (7): MaxPool2d(kernel_size=2, stride=2, padding=0, dilation=1, ceil_mode=False)
      (8): Conv2d(64, 64, kernel_size=(3, 3), stride=(1, 1), padding=(1, 1), bias=False)
      (9): BatchNorm2d(64, eps=1e-05, momentum=0.1, affine=True, track_running_stats=True)
      (10): LeakyReLU(negative_slope=0.2, inplace=True)
      (11): Conv2d(64, 64, kernel_size=(3, 3), stride=(1, 1), padding=(1, 1), bias=False)
      (12): BatchNorm2d(64, eps=1e-05, momentum=0.1, affine=True, track_running_stats=True)
      (13): LeakyReLU(negative_slope=0.2, inplace=True)
    )
    (criterion): NPlusOneTupletLoss()
    (knn): KNN_itc()
  )
)
===================================== Epoch 0 =====================================
Trainset: 2500
Valset: 800
Testset: 800
{'JOB_ID': 'imagenet_av_2_k3_w5_s5', 'arch': 'SN_X', 'config': '../models/architectures/configs/SN4_AV.yaml', 'dengine': False, 'refit_dengine': False, 'dataset_dir': '../dataset/miniImageNet', 'data_name': 'imageNetAVC_AVQ', 'mode': 'train', 'resume': None, 'epochs': 30, 'ngpu': 1, 'print_freq': 100, 'outf': '../results/SN_X_imageNetAVC_AVQ_SNX_5_Way_1_Shot_K3'}SN_X(
  (BACKBONE): SiameseNetwork(
    (features): Sequential(
      (0): Conv2d(3, 64, kernel_size=(3, 3), stride=(1, 1), padding=(1, 1), bias=False)
      (1): BatchNorm2d(64, eps=1e-05, momentum=0.1, affine=True, track_running_stats=True)
      (2): LeakyReLU(negative_slope=0.2, inplace=True)
      (3): MaxPool2d(kernel_size=2, stride=2, padding=0, dilation=1, ceil_mode=False)
      (4): Conv2d(64, 64, kernel_size=(3, 3), stride=(1, 1), padding=(1, 1), bias=False)
      (5): BatchNorm2d(64, eps=1e-05, momentum=0.1, affine=True, track_running_stats=True)
      (6): LeakyReLU(negative_slope=0.2, inplace=True)
      (7): MaxPool2d(kernel_size=2, stride=2, padding=0, dilation=1, ceil_mode=False)
      (8): Conv2d(64, 64, kernel_size=(3, 3), stride=(1, 1), padding=(1, 1), bias=False)
      (9): BatchNorm2d(64, eps=1e-05, momentum=0.1, affine=True, track_running_stats=True)
      (10): LeakyReLU(negative_slope=0.2, inplace=True)
      (11): Conv2d(64, 64, kernel_size=(3, 3), stride=(1, 1), padding=(1, 1), bias=False)
      (12): BatchNorm2d(64, eps=1e-05, momentum=0.1, affine=True, track_running_stats=True)
      (13): LeakyReLU(negative_slope=0.2, inplace=True)
    )
    (criterion): NPlusOneTupletLoss()
    (knn): KNN_itc()
  )
)
===================================== Epoch 0 =====================================
Trainset: 2500
Valset: 800
Testset: 800
{'JOB_ID': 'imagenet_av_2_k3_w5_s5', 'arch': 'SN_X', 'config': '../models/architectures/configs/SN4_AV.yaml', 'dengine': False, 'refit_dengine': False, 'dataset_dir': '../dataset/miniImageNet', 'data_name': 'imageNetAVC_AVQ', 'mode': 'train', 'resume': None, 'epochs': 30, 'ngpu': 1, 'print_freq': 100, 'outf': '../results/SN_X_imageNetAVC_AVQ_SNX_5_Way_1_Shot_K3'}SN_X(
  (BACKBONE): SiameseNetwork(
    (features): Sequential(
      (0): Conv2d(3, 64, kernel_size=(3, 3), stride=(1, 1), padding=(1, 1), bias=False)
      (1): BatchNorm2d(64, eps=1e-05, momentum=0.1, affine=True, track_running_stats=True)
      (2): LeakyReLU(negative_slope=0.2, inplace=True)
      (3): MaxPool2d(kernel_size=2, stride=2, padding=0, dilation=1, ceil_mode=False)
      (4): Conv2d(64, 64, kernel_size=(3, 3), stride=(1, 1), padding=(1, 1), bias=False)
      (5): BatchNorm2d(64, eps=1e-05, momentum=0.1, affine=True, track_running_stats=True)
      (6): LeakyReLU(negative_slope=0.2, inplace=True)
      (7): MaxPool2d(kernel_size=2, stride=2, padding=0, dilation=1, ceil_mode=False)
      (8): Conv2d(64, 64, kernel_size=(3, 3), stride=(1, 1), padding=(1, 1), bias=False)
      (9): BatchNorm2d(64, eps=1e-05, momentum=0.1, affine=True, track_running_stats=True)
      (10): LeakyReLU(negative_slope=0.2, inplace=True)
      (11): Conv2d(64, 64, kernel_size=(3, 3), stride=(1, 1), padding=(1, 1), bias=False)
      (12): BatchNorm2d(64, eps=1e-05, momentum=0.1, affine=True, track_running_stats=True)
      (13): LeakyReLU(negative_slope=0.2, inplace=True)
    )
    (criterion): NPlusOneTupletLoss()
    (knn): KNN_itc()
  )
)
===================================== Epoch 0 =====================================
Trainset: 2500
Valset: 800
Testset: 800
{'JOB_ID': 'imagenet_av_2_k3_w5_s5', 'arch': 'SN_X', 'config': '../models/architectures/configs/SN4_AV.yaml', 'dengine': False, 'refit_dengine': False, 'dataset_dir': '../dataset/miniImageNet', 'data_name': 'imageNetAVC_AVQ', 'mode': 'train', 'resume': None, 'epochs': 30, 'ngpu': 1, 'print_freq': 100, 'outf': '../results/SN_X_imageNetAVC_AVQ_SNX_5_Way_1_Shot_K3'}SN_X(
  (BACKBONE): SiameseNetwork(
    (features): Sequential(
      (0): Conv2d(3, 64, kernel_size=(3, 3), stride=(1, 1), padding=(1, 1), bias=False)
      (1): BatchNorm2d(64, eps=1e-05, momentum=0.1, affine=True, track_running_stats=True)
      (2): LeakyReLU(negative_slope=0.2, inplace=True)
      (3): MaxPool2d(kernel_size=2, stride=2, padding=0, dilation=1, ceil_mode=False)
      (4): Conv2d(64, 64, kernel_size=(3, 3), stride=(1, 1), padding=(1, 1), bias=False)
      (5): BatchNorm2d(64, eps=1e-05, momentum=0.1, affine=True, track_running_stats=True)
      (6): LeakyReLU(negative_slope=0.2, inplace=True)
      (7): MaxPool2d(kernel_size=2, stride=2, padding=0, dilation=1, ceil_mode=False)
      (8): Conv2d(64, 64, kernel_size=(3, 3), stride=(1, 1), padding=(1, 1), bias=False)
      (9): BatchNorm2d(64, eps=1e-05, momentum=0.1, affine=True, track_running_stats=True)
      (10): LeakyReLU(negative_slope=0.2, inplace=True)
      (11): Conv2d(64, 64, kernel_size=(3, 3), stride=(1, 1), padding=(1, 1), bias=False)
      (12): BatchNorm2d(64, eps=1e-05, momentum=0.1, affine=True, track_running_stats=True)
      (13): LeakyReLU(negative_slope=0.2, inplace=True)
    )
    (criterion): NPlusOneTupletLoss()
    (knn): KNN_itc()
  )
)
===================================== Epoch 0 =====================================
Trainset: 2500
Valset: 800
Testset: 800
{'JOB_ID': 'imagenet_av_2_k3_w5_s5', 'arch': 'SN_X', 'config': '../models/architectures/configs/SN4_AV.yaml', 'dengine': False, 'refit_dengine': False, 'dataset_dir': '../dataset/miniImageNet', 'data_name': 'imageNetAVC_AVQ', 'mode': 'train', 'resume': None, 'epochs': 30, 'ngpu': 1, 'print_freq': 100, 'outf': '../results/SN_X_imageNetAVC_AVQ_SNX_5_Way_1_Shot_K3'}SN_X(
  (BACKBONE): SiameseNetwork(
    (features): Sequential(
      (0): Conv2d(3, 64, kernel_size=(3, 3), stride=(1, 1), padding=(1, 1), bias=False)
      (1): BatchNorm2d(64, eps=1e-05, momentum=0.1, affine=True, track_running_stats=True)
      (2): LeakyReLU(negative_slope=0.2, inplace=True)
      (3): MaxPool2d(kernel_size=2, stride=2, padding=0, dilation=1, ceil_mode=False)
      (4): Conv2d(64, 64, kernel_size=(3, 3), stride=(1, 1), padding=(1, 1), bias=False)
      (5): BatchNorm2d(64, eps=1e-05, momentum=0.1, affine=True, track_running_stats=True)
      (6): LeakyReLU(negative_slope=0.2, inplace=True)
      (7): MaxPool2d(kernel_size=2, stride=2, padding=0, dilation=1, ceil_mode=False)
      (8): Conv2d(64, 64, kernel_size=(3, 3), stride=(1, 1), padding=(1, 1), bias=False)
      (9): BatchNorm2d(64, eps=1e-05, momentum=0.1, affine=True, track_running_stats=True)
      (10): LeakyReLU(negative_slope=0.2, inplace=True)
      (11): Conv2d(64, 64, kernel_size=(3, 3), stride=(1, 1), padding=(1, 1), bias=False)
      (12): BatchNorm2d(64, eps=1e-05, momentum=0.1, affine=True, track_running_stats=True)
      (13): LeakyReLU(negative_slope=0.2, inplace=True)
    )
    (criterion): NPlusOneTupletLoss()
    (knn): KNN_itc()
  )
)
===================================== Epoch 0 =====================================
Trainset: 2500
Valset: 800
Testset: 800
{'JOB_ID': 'imagenet_av_2_k3_w5_s5', 'arch': 'SN_X', 'config': '../models/architectures/configs/SN4_AV.yaml', 'dengine': False, 'refit_dengine': False, 'dataset_dir': '../dataset/miniImageNet', 'data_name': 'imageNetAVC_AVQ', 'mode': 'train', 'resume': None, 'epochs': 30, 'ngpu': 1, 'print_freq': 100, 'outf': '../results/SN_X_imageNetAVC_AVQ_SNX_5_Way_1_Shot_K3'}SN_X(
  (BACKBONE): SiameseNetwork(
    (features): Sequential(
      (0): Conv2d(3, 64, kernel_size=(3, 3), stride=(1, 1), padding=(1, 1), bias=False)
      (1): BatchNorm2d(64, eps=1e-05, momentum=0.1, affine=True, track_running_stats=True)
      (2): LeakyReLU(negative_slope=0.2, inplace=True)
      (3): MaxPool2d(kernel_size=2, stride=2, padding=0, dilation=1, ceil_mode=False)
      (4): Conv2d(64, 64, kernel_size=(3, 3), stride=(1, 1), padding=(1, 1), bias=False)
      (5): BatchNorm2d(64, eps=1e-05, momentum=0.1, affine=True, track_running_stats=True)
      (6): LeakyReLU(negative_slope=0.2, inplace=True)
      (7): MaxPool2d(kernel_size=2, stride=2, padding=0, dilation=1, ceil_mode=False)
      (8): Conv2d(64, 64, kernel_size=(3, 3), stride=(1, 1), padding=(1, 1), bias=False)
      (9): BatchNorm2d(64, eps=1e-05, momentum=0.1, affine=True, track_running_stats=True)
      (10): LeakyReLU(negative_slope=0.2, inplace=True)
      (11): Conv2d(64, 64, kernel_size=(3, 3), stride=(1, 1), padding=(1, 1), bias=False)
      (12): BatchNorm2d(64, eps=1e-05, momentum=0.1, affine=True, track_running_stats=True)
      (13): LeakyReLU(negative_slope=0.2, inplace=True)
    )
    (criterion): NPlusOneTupletLoss()
    (knn): KNN_itc()
  )
)
===================================== Epoch 0 =====================================
Trainset: 2500
Valset: 800
Testset: 800
{'JOB_ID': 'imagenet_av_2_k3_w5_s5', 'arch': 'SN_X', 'config': '../models/architectures/configs/SN4_AV.yaml', 'dengine': False, 'refit_dengine': False, 'dataset_dir': '../dataset/miniImageNet', 'data_name': 'imageNetAVC_AVQ', 'mode': 'train', 'resume': None, 'epochs': 30, 'ngpu': 1, 'print_freq': 100, 'outf': '../results/SN_X_imageNetAVC_AVQ_SNX_5_Way_1_Shot_K3'}SN_X(
  (BACKBONE): SiameseNetwork(
    (features): Sequential(
      (0): Conv2d(3, 64, kernel_size=(3, 3), stride=(1, 1), padding=(1, 1), bias=False)
      (1): BatchNorm2d(64, eps=1e-05, momentum=0.1, affine=True, track_running_stats=True)
      (2): LeakyReLU(negative_slope=0.2, inplace=True)
      (3): MaxPool2d(kernel_size=2, stride=2, padding=0, dilation=1, ceil_mode=False)
      (4): Conv2d(64, 64, kernel_size=(3, 3), stride=(1, 1), padding=(1, 1), bias=False)
      (5): BatchNorm2d(64, eps=1e-05, momentum=0.1, affine=True, track_running_stats=True)
      (6): LeakyReLU(negative_slope=0.2, inplace=True)
      (7): MaxPool2d(kernel_size=2, stride=2, padding=0, dilation=1, ceil_mode=False)
      (8): Conv2d(64, 64, kernel_size=(3, 3), stride=(1, 1), padding=(1, 1), bias=False)
      (9): BatchNorm2d(64, eps=1e-05, momentum=0.1, affine=True, track_running_stats=True)
      (10): LeakyReLU(negative_slope=0.2, inplace=True)
      (11): Conv2d(64, 64, kernel_size=(3, 3), stride=(1, 1), padding=(1, 1), bias=False)
      (12): BatchNorm2d(64, eps=1e-05, momentum=0.1, affine=True, track_running_stats=True)
      (13): LeakyReLU(negative_slope=0.2, inplace=True)
    )
    (criterion): NPlusOneTupletLoss()
    (knn): KNN_itc()
  )
)
===================================== Epoch 0 =====================================
Trainset: 2500
Valset: 800
Testset: 800
{'JOB_ID': 'imagenet_av_2_k3_w5_s5', 'arch': 'SN_X', 'config': '../models/architectures/configs/SN4_AV.yaml', 'dengine': False, 'refit_dengine': False, 'dataset_dir': '../dataset/miniImageNet', 'data_name': 'imageNetAVC_AVQ', 'mode': 'train', 'resume': None, 'epochs': 30, 'ngpu': 1, 'print_freq': 100, 'outf': '../results/SN_X_imageNetAVC_AVQ_SNX_5_Way_1_Shot_K3'}SN_X(
  (BACKBONE): SiameseNetwork(
    (features): Sequential(
      (0): Conv2d(3, 64, kernel_size=(3, 3), stride=(1, 1), padding=(1, 1), bias=False)
      (1): BatchNorm2d(64, eps=1e-05, momentum=0.1, affine=True, track_running_stats=True)
      (2): LeakyReLU(negative_slope=0.2, inplace=True)
      (3): MaxPool2d(kernel_size=2, stride=2, padding=0, dilation=1, ceil_mode=False)
      (4): Conv2d(64, 64, kernel_size=(3, 3), stride=(1, 1), padding=(1, 1), bias=False)
      (5): BatchNorm2d(64, eps=1e-05, momentum=0.1, affine=True, track_running_stats=True)
      (6): LeakyReLU(negative_slope=0.2, inplace=True)
      (7): MaxPool2d(kernel_size=2, stride=2, padding=0, dilation=1, ceil_mode=False)
      (8): Conv2d(64, 64, kernel_size=(3, 3), stride=(1, 1), padding=(1, 1), bias=False)
      (9): BatchNorm2d(64, eps=1e-05, momentum=0.1, affine=True, track_running_stats=True)
      (10): LeakyReLU(negative_slope=0.2, inplace=True)
      (11): Conv2d(64, 64, kernel_size=(3, 3), stride=(1, 1), padding=(1, 1), bias=False)
      (12): BatchNorm2d(64, eps=1e-05, momentum=0.1, affine=True, track_running_stats=True)
      (13): LeakyReLU(negative_slope=0.2, inplace=True)
    )
    (criterion): NPlusOneTupletLoss()
    (knn): KNN_itc()
  )
)
===================================== Epoch 0 =====================================
Trainset: 2500
Valset: 800
Testset: 800
{'JOB_ID': 'imagenet_av_2_k3_w5_s5', 'arch': 'SN_X', 'config': '../models/architectures/configs/SN4_AV.yaml', 'dengine': False, 'refit_dengine': False, 'dataset_dir': '../dataset/miniImageNet', 'data_name': 'imageNetAVC_AVQ', 'mode': 'train', 'resume': None, 'epochs': 30, 'ngpu': 1, 'print_freq': 100, 'outf': '../results/SN_X_imageNetAVC_AVQ_SNX_5_Way_1_Shot_K3'}SN_X(
  (BACKBONE): SiameseNetwork(
    (features): Sequential(
      (0): Conv2d(3, 64, kernel_size=(3, 3), stride=(1, 1), padding=(1, 1), bias=False)
      (1): BatchNorm2d(64, eps=1e-05, momentum=0.1, affine=True, track_running_stats=True)
      (2): LeakyReLU(negative_slope=0.2, inplace=True)
      (3): MaxPool2d(kernel_size=2, stride=2, padding=0, dilation=1, ceil_mode=False)
      (4): Conv2d(64, 64, kernel_size=(3, 3), stride=(1, 1), padding=(1, 1), bias=False)
      (5): BatchNorm2d(64, eps=1e-05, momentum=0.1, affine=True, track_running_stats=True)
      (6): LeakyReLU(negative_slope=0.2, inplace=True)
      (7): MaxPool2d(kernel_size=2, stride=2, padding=0, dilation=1, ceil_mode=False)
      (8): Conv2d(64, 64, kernel_size=(3, 3), stride=(1, 1), padding=(1, 1), bias=False)
      (9): BatchNorm2d(64, eps=1e-05, momentum=0.1, affine=True, track_running_stats=True)
      (10): LeakyReLU(negative_slope=0.2, inplace=True)
      (11): Conv2d(64, 64, kernel_size=(3, 3), stride=(1, 1), padding=(1, 1), bias=False)
      (12): BatchNorm2d(64, eps=1e-05, momentum=0.1, affine=True, track_running_stats=True)
      (13): LeakyReLU(negative_slope=0.2, inplace=True)
    )
    (criterion): NPlusOneTupletLoss()
    (knn): KNN_itc()
  )
)
===================================== Epoch 0 =====================================
Trainset: 2500
Valset: 800
Testset: 800
Eposide-(0): [100/2500]	Time 0.897 (1.052)	Data 0.000 (0.152)	Loss nan (nan)	Prec@1 20.000 (20.079)
{'JOB_ID': 'imagenet_av_2_k3_w5_s5', 'arch': 'SN_X', 'config': '../models/architectures/configs/SN4_AV.yaml', 'dengine': False, 'refit_dengine': False, 'dataset_dir': '../dataset/miniImageNet', 'data_name': 'imageNetAVC_AVQ', 'mode': 'train', 'resume': None, 'epochs': 30, 'ngpu': 1, 'print_freq': 100, 'outf': '../results/SN_X_imageNetAVC_AVQ_SNX_5_Way_1_Shot_K3'}SN_X(
  (BACKBONE): SiameseNetwork(
    (features): Sequential(
      (0): Conv2d(3, 64, kernel_size=(3, 3), stride=(1, 1), padding=(1, 1), bias=False)
      (1): BatchNorm2d(64, eps=1e-05, momentum=0.1, affine=True, track_running_stats=True)
      (2): LeakyReLU(negative_slope=0.2, inplace=True)
      (3): MaxPool2d(kernel_size=2, stride=2, padding=0, dilation=1, ceil_mode=False)
      (4): Conv2d(64, 64, kernel_size=(3, 3), stride=(1, 1), padding=(1, 1), bias=False)
      (5): BatchNorm2d(64, eps=1e-05, momentum=0.1, affine=True, track_running_stats=True)
      (6): LeakyReLU(negative_slope=0.2, inplace=True)
      (7): MaxPool2d(kernel_size=2, stride=2, padding=0, dilation=1, ceil_mode=False)
      (8): Conv2d(64, 64, kernel_size=(3, 3), stride=(1, 1), padding=(1, 1), bias=False)
      (9): BatchNorm2d(64, eps=1e-05, momentum=0.1, affine=True, track_running_stats=True)
      (10): LeakyReLU(negative_slope=0.2, inplace=True)
      (11): Conv2d(64, 64, kernel_size=(3, 3), stride=(1, 1), padding=(1, 1), bias=False)
      (12): BatchNorm2d(64, eps=1e-05, momentum=0.1, affine=True, track_running_stats=True)
      (13): LeakyReLU(negative_slope=0.2, inplace=True)
    )
    (criterion): NPlusOneTupletLoss()
    (knn): KNN_itc()
  )
)
===================================== Epoch 0 =====================================
Trainset: 2500
Valset: 800
Testset: 800
{'JOB_ID': 'imagenet_av_2_k3_w5_s5', 'arch': 'SN_X', 'config': '../models/architectures/configs/SN4_AV.yaml', 'dengine': False, 'refit_dengine': False, 'dataset_dir': '../dataset/miniImageNet', 'data_name': 'imageNetAVC_AVQ', 'mode': 'train', 'resume': None, 'epochs': 30, 'ngpu': 1, 'print_freq': 100, 'outf': '../results/SN_X_imageNetAVC_AVQ_SNX_5_Way_1_Shot_K3'}SN_X(
  (BACKBONE): SiameseNetwork(
    (features): Sequential(
      (0): Conv2d(3, 64, kernel_size=(3, 3), stride=(1, 1), padding=(1, 1), bias=False)
      (1): BatchNorm2d(64, eps=1e-05, momentum=0.1, affine=True, track_running_stats=True)
      (2): LeakyReLU(negative_slope=0.2, inplace=True)
      (3): MaxPool2d(kernel_size=2, stride=2, padding=0, dilation=1, ceil_mode=False)
      (4): Conv2d(64, 64, kernel_size=(3, 3), stride=(1, 1), padding=(1, 1), bias=False)
      (5): BatchNorm2d(64, eps=1e-05, momentum=0.1, affine=True, track_running_stats=True)
      (6): LeakyReLU(negative_slope=0.2, inplace=True)
      (7): MaxPool2d(kernel_size=2, stride=2, padding=0, dilation=1, ceil_mode=False)
      (8): Conv2d(64, 64, kernel_size=(3, 3), stride=(1, 1), padding=(1, 1), bias=False)
      (9): BatchNorm2d(64, eps=1e-05, momentum=0.1, affine=True, track_running_stats=True)
      (10): LeakyReLU(negative_slope=0.2, inplace=True)
      (11): Conv2d(64, 64, kernel_size=(3, 3), stride=(1, 1), padding=(1, 1), bias=False)
      (12): BatchNorm2d(64, eps=1e-05, momentum=0.1, affine=True, track_running_stats=True)
      (13): LeakyReLU(negative_slope=0.2, inplace=True)
    )
    (criterion): NPlusOneTupletLoss()
    (knn): KNN_itc()
  )
)
===================================== Epoch 0 =====================================
Trainset: 2500
Valset: 800
Testset: 800
{'JOB_ID': 'imagenet_av_2_k3_w5_s5', 'arch': 'SN_X', 'config': '../models/architectures/configs/SN4_AV.yaml', 'dengine': False, 'refit_dengine': False, 'dataset_dir': '../dataset/miniImageNet', 'data_name': 'imageNetAVC_AVQ', 'mode': 'train', 'resume': None, 'epochs': 30, 'ngpu': 1, 'print_freq': 100, 'outf': '../results/SN_X_imageNetAVC_AVQ_SNX_5_Way_1_Shot_K3'}SN_X(
  (BACKBONE): SiameseNetwork(
    (features): Sequential(
      (0): Conv2d(3, 64, kernel_size=(3, 3), stride=(1, 1), padding=(1, 1), bias=False)
      (1): BatchNorm2d(64, eps=1e-05, momentum=0.1, affine=True, track_running_stats=True)
      (2): LeakyReLU(negative_slope=0.2, inplace=True)
      (3): MaxPool2d(kernel_size=2, stride=2, padding=0, dilation=1, ceil_mode=False)
      (4): Conv2d(64, 64, kernel_size=(3, 3), stride=(1, 1), padding=(1, 1), bias=False)
      (5): BatchNorm2d(64, eps=1e-05, momentum=0.1, affine=True, track_running_stats=True)
      (6): LeakyReLU(negative_slope=0.2, inplace=True)
      (7): MaxPool2d(kernel_size=2, stride=2, padding=0, dilation=1, ceil_mode=False)
      (8): Conv2d(64, 64, kernel_size=(3, 3), stride=(1, 1), padding=(1, 1), bias=False)
      (9): BatchNorm2d(64, eps=1e-05, momentum=0.1, affine=True, track_running_stats=True)
      (10): LeakyReLU(negative_slope=0.2, inplace=True)
      (11): Conv2d(64, 64, kernel_size=(3, 3), stride=(1, 1), padding=(1, 1), bias=False)
      (12): BatchNorm2d(64, eps=1e-05, momentum=0.1, affine=True, track_running_stats=True)
      (13): LeakyReLU(negative_slope=0.2, inplace=True)
    )
    (criterion): NPlusOneTupletLoss()
    (knn): KNN_itc()
  )
)
===================================== Epoch 0 =====================================
Trainset: 2500
Valset: 800
Testset: 800
{'JOB_ID': 'imagenet_av_2_k3_w5_s5', 'arch': 'SN_X', 'config': '../models/architectures/configs/SN4_AV.yaml', 'dengine': False, 'refit_dengine': False, 'dataset_dir': '../dataset/miniImageNet', 'data_name': 'imageNetAVC_AVQ', 'mode': 'train', 'resume': None, 'epochs': 30, 'ngpu': 1, 'print_freq': 100, 'outf': '../results/SN_X_imageNetAVC_AVQ_SNX_5_Way_1_Shot_K3'}SN_X(
  (BACKBONE): SiameseNetwork(
    (features): Sequential(
      (0): Conv2d(3, 64, kernel_size=(3, 3), stride=(1, 1), padding=(1, 1), bias=False)
      (1): BatchNorm2d(64, eps=1e-05, momentum=0.1, affine=True, track_running_stats=True)
      (2): LeakyReLU(negative_slope=0.2, inplace=True)
      (3): MaxPool2d(kernel_size=2, stride=2, padding=0, dilation=1, ceil_mode=False)
      (4): Conv2d(64, 64, kernel_size=(3, 3), stride=(1, 1), padding=(1, 1), bias=False)
      (5): BatchNorm2d(64, eps=1e-05, momentum=0.1, affine=True, track_running_stats=True)
      (6): LeakyReLU(negative_slope=0.2, inplace=True)
      (7): MaxPool2d(kernel_size=2, stride=2, padding=0, dilation=1, ceil_mode=False)
      (8): Conv2d(64, 64, kernel_size=(3, 3), stride=(1, 1), padding=(1, 1), bias=False)
      (9): BatchNorm2d(64, eps=1e-05, momentum=0.1, affine=True, track_running_stats=True)
      (10): LeakyReLU(negative_slope=0.2, inplace=True)
      (11): Conv2d(64, 64, kernel_size=(3, 3), stride=(1, 1), padding=(1, 1), bias=False)
      (12): BatchNorm2d(64, eps=1e-05, momentum=0.1, affine=True, track_running_stats=True)
      (13): LeakyReLU(negative_slope=0.2, inplace=True)
    )
    (criterion): NPlusOneTupletLoss()
    (knn): KNN_itc()
  )
)
===================================== Epoch 0 =====================================
Trainset: 2500
Valset: 800
Testset: 800
{'JOB_ID': 'imagenet_av_2_k3_w5_s5', 'arch': 'SN_X', 'config': '../models/architectures/configs/SN4_AV.yaml', 'dengine': False, 'refit_dengine': False, 'dataset_dir': '../dataset/miniImageNet', 'data_name': 'imageNetAVC_AVQ', 'mode': 'train', 'resume': None, 'epochs': 30, 'ngpu': 1, 'print_freq': 100, 'outf': '../results/SN_X_imageNetAVC_AVQ_SNX_5_Way_1_Shot_K3'}SN_X(
  (BACKBONE): SiameseNetwork(
    (features): Sequential(
      (0): Conv2d(3, 64, kernel_size=(3, 3), stride=(1, 1), padding=(1, 1), bias=False)
      (1): BatchNorm2d(64, eps=1e-05, momentum=0.1, affine=True, track_running_stats=True)
      (2): LeakyReLU(negative_slope=0.2, inplace=True)
      (3): MaxPool2d(kernel_size=2, stride=2, padding=0, dilation=1, ceil_mode=False)
      (4): Conv2d(64, 64, kernel_size=(3, 3), stride=(1, 1), padding=(1, 1), bias=False)
      (5): BatchNorm2d(64, eps=1e-05, momentum=0.1, affine=True, track_running_stats=True)
      (6): LeakyReLU(negative_slope=0.2, inplace=True)
      (7): MaxPool2d(kernel_size=2, stride=2, padding=0, dilation=1, ceil_mode=False)
      (8): Conv2d(64, 64, kernel_size=(3, 3), stride=(1, 1), padding=(1, 1), bias=False)
      (9): BatchNorm2d(64, eps=1e-05, momentum=0.1, affine=True, track_running_stats=True)
      (10): LeakyReLU(negative_slope=0.2, inplace=True)
      (11): Conv2d(64, 64, kernel_size=(3, 3), stride=(1, 1), padding=(1, 1), bias=False)
      (12): BatchNorm2d(64, eps=1e-05, momentum=0.1, affine=True, track_running_stats=True)
      (13): LeakyReLU(negative_slope=0.2, inplace=True)
    )
    (criterion): NPlusOneTupletLoss()
    (knn): KNN_itc()
  )
)
===================================== Epoch 0 =====================================
Trainset: 2500
Valset: 800
Testset: 800
{'JOB_ID': 'imagenet_av_2_k3_w5_s5', 'arch': 'SN_X', 'config': '../models/architectures/configs/SN4_AV.yaml', 'dengine': False, 'refit_dengine': False, 'dataset_dir': '../dataset/miniImageNet', 'data_name': 'imageNetAVC_AVQ', 'mode': 'train', 'resume': None, 'epochs': 30, 'ngpu': 1, 'print_freq': 100, 'outf': '../results/SN_X_imageNetAVC_AVQ_SNX_5_Way_1_Shot_K3'}SN_X(
  (BACKBONE): SiameseNetwork(
    (features): Sequential(
      (0): Conv2d(3, 64, kernel_size=(3, 3), stride=(1, 1), padding=(1, 1), bias=False)
      (1): BatchNorm2d(64, eps=1e-05, momentum=0.1, affine=True, track_running_stats=True)
      (2): LeakyReLU(negative_slope=0.2, inplace=True)
      (3): MaxPool2d(kernel_size=2, stride=2, padding=0, dilation=1, ceil_mode=False)
      (4): Conv2d(64, 64, kernel_size=(3, 3), stride=(1, 1), padding=(1, 1), bias=False)
      (5): BatchNorm2d(64, eps=1e-05, momentum=0.1, affine=True, track_running_stats=True)
      (6): LeakyReLU(negative_slope=0.2, inplace=True)
      (7): MaxPool2d(kernel_size=2, stride=2, padding=0, dilation=1, ceil_mode=False)
      (8): Conv2d(64, 64, kernel_size=(3, 3), stride=(1, 1), padding=(1, 1), bias=False)
      (9): BatchNorm2d(64, eps=1e-05, momentum=0.1, affine=True, track_running_stats=True)
      (10): LeakyReLU(negative_slope=0.2, inplace=True)
      (11): Conv2d(64, 64, kernel_size=(3, 3), stride=(1, 1), padding=(1, 1), bias=False)
      (12): BatchNorm2d(64, eps=1e-05, momentum=0.1, affine=True, track_running_stats=True)
      (13): LeakyReLU(negative_slope=0.2, inplace=True)
    )
    (criterion): NPlusOneTupletLoss()
    (knn): KNN_itc()
  )
)
===================================== Epoch 0 =====================================
Trainset: 2500
Valset: 800
Testset: 800
{'JOB_ID': 'imagenet_av_2_k3_w5_s5', 'arch': 'SN_X', 'config': '../models/architectures/configs/SN4_AV.yaml', 'dengine': False, 'refit_dengine': False, 'dataset_dir': '../dataset/miniImageNet', 'data_name': 'imageNetAVC_AVQ', 'mode': 'train', 'resume': None, 'epochs': 30, 'ngpu': 1, 'print_freq': 100, 'outf': '../results/SN_X_imageNetAVC_AVQ_SNX_5_Way_1_Shot_K3'}SN_X(
  (BACKBONE): SiameseNetwork(
    (features): Sequential(
      (0): Conv2d(3, 64, kernel_size=(3, 3), stride=(1, 1), padding=(1, 1), bias=False)
      (1): BatchNorm2d(64, eps=1e-05, momentum=0.1, affine=True, track_running_stats=True)
      (2): LeakyReLU(negative_slope=0.2, inplace=True)
      (3): MaxPool2d(kernel_size=2, stride=2, padding=0, dilation=1, ceil_mode=False)
      (4): Conv2d(64, 64, kernel_size=(3, 3), stride=(1, 1), padding=(1, 1), bias=False)
      (5): BatchNorm2d(64, eps=1e-05, momentum=0.1, affine=True, track_running_stats=True)
      (6): LeakyReLU(negative_slope=0.2, inplace=True)
      (7): MaxPool2d(kernel_size=2, stride=2, padding=0, dilation=1, ceil_mode=False)
      (8): Conv2d(64, 64, kernel_size=(3, 3), stride=(1, 1), padding=(1, 1), bias=False)
      (9): BatchNorm2d(64, eps=1e-05, momentum=0.1, affine=True, track_running_stats=True)
      (10): LeakyReLU(negative_slope=0.2, inplace=True)
      (11): Conv2d(64, 64, kernel_size=(3, 3), stride=(1, 1), padding=(1, 1), bias=False)
      (12): BatchNorm2d(64, eps=1e-05, momentum=0.1, affine=True, track_running_stats=True)
      (13): LeakyReLU(negative_slope=0.2, inplace=True)
    )
    (criterion): NPlusOneTupletLoss()
    (knn): KNN_itc()
  )
)
===================================== Epoch 0 =====================================
Trainset: 2500
Valset: 800
Testset: 800
{'JOB_ID': 'imagenet_av_2_k3_w5_s5', 'arch': 'SN_X', 'config': '../models/architectures/configs/SN4_AV.yaml', 'dengine': False, 'refit_dengine': False, 'dataset_dir': '../dataset/miniImageNet', 'data_name': 'imageNetAVC_AVQ', 'mode': 'train', 'resume': None, 'epochs': 30, 'ngpu': 1, 'print_freq': 100, 'outf': '../results/SN_X_imageNetAVC_AVQ_SNX_5_Way_1_Shot_K3'}SN_X(
  (BACKBONE): SiameseNetwork(
    (features): Sequential(
      (0): Conv2d(3, 64, kernel_size=(3, 3), stride=(1, 1), padding=(1, 1), bias=False)
      (1): BatchNorm2d(64, eps=1e-05, momentum=0.1, affine=True, track_running_stats=True)
      (2): LeakyReLU(negative_slope=0.2, inplace=True)
      (3): MaxPool2d(kernel_size=2, stride=2, padding=0, dilation=1, ceil_mode=False)
      (4): Conv2d(64, 64, kernel_size=(3, 3), stride=(1, 1), padding=(1, 1), bias=False)
      (5): BatchNorm2d(64, eps=1e-05, momentum=0.1, affine=True, track_running_stats=True)
      (6): LeakyReLU(negative_slope=0.2, inplace=True)
      (7): MaxPool2d(kernel_size=2, stride=2, padding=0, dilation=1, ceil_mode=False)
      (8): Conv2d(64, 64, kernel_size=(3, 3), stride=(1, 1), padding=(1, 1), bias=False)
      (9): BatchNorm2d(64, eps=1e-05, momentum=0.1, affine=True, track_running_stats=True)
      (10): LeakyReLU(negative_slope=0.2, inplace=True)
      (11): Conv2d(64, 64, kernel_size=(3, 3), stride=(1, 1), padding=(1, 1), bias=False)
      (12): BatchNorm2d(64, eps=1e-05, momentum=0.1, affine=True, track_running_stats=True)
      (13): LeakyReLU(negative_slope=0.2, inplace=True)
    )
    (criterion): NPlusOneTupletLoss()
    (knn): KNN_itc()
  )
)
===================================== Epoch 0 =====================================
Trainset: 2500
Valset: 800
Testset: 800
{'JOB_ID': 'imagenet_av_2_k3_w5_s5', 'arch': 'SN_X', 'config': '../models/architectures/configs/SN4_AV.yaml', 'dengine': False, 'refit_dengine': False, 'dataset_dir': '../dataset/miniImageNet', 'data_name': 'imageNetAVC_AVQ', 'mode': 'train', 'resume': None, 'epochs': 30, 'ngpu': 1, 'print_freq': 100, 'outf': '../results/SN_X_imageNetAVC_AVQ_SNX_5_Way_1_Shot_K3'}SN_X(
  (BACKBONE): SiameseNetwork(
    (features): Sequential(
      (0): Conv2d(3, 64, kernel_size=(3, 3), stride=(1, 1), padding=(1, 1), bias=False)
      (1): BatchNorm2d(64, eps=1e-05, momentum=0.1, affine=True, track_running_stats=True)
      (2): LeakyReLU(negative_slope=0.2, inplace=True)
      (3): MaxPool2d(kernel_size=2, stride=2, padding=0, dilation=1, ceil_mode=False)
      (4): Conv2d(64, 64, kernel_size=(3, 3), stride=(1, 1), padding=(1, 1), bias=False)
      (5): BatchNorm2d(64, eps=1e-05, momentum=0.1, affine=True, track_running_stats=True)
      (6): LeakyReLU(negative_slope=0.2, inplace=True)
      (7): MaxPool2d(kernel_size=2, stride=2, padding=0, dilation=1, ceil_mode=False)
      (8): Conv2d(64, 64, kernel_size=(3, 3), stride=(1, 1), padding=(1, 1), bias=False)
      (9): BatchNorm2d(64, eps=1e-05, momentum=0.1, affine=True, track_running_stats=True)
      (10): LeakyReLU(negative_slope=0.2, inplace=True)
      (11): Conv2d(64, 64, kernel_size=(3, 3), stride=(1, 1), padding=(1, 1), bias=False)
      (12): BatchNorm2d(64, eps=1e-05, momentum=0.1, affine=True, track_running_stats=True)
      (13): LeakyReLU(negative_slope=0.2, inplace=True)
    )
    (criterion): NPlusOneTupletLoss()
    (knn): KNN_itc()
  )
)
===================================== Epoch 0 =====================================
Trainset: 2500
Valset: 800
Testset: 800
{'JOB_ID': 'imagenet_av_2_k3_w5_s5', 'arch': 'SN_X', 'config': '../models/architectures/configs/SN4_AV.yaml', 'dengine': False, 'refit_dengine': False, 'dataset_dir': '../dataset/miniImageNet', 'data_name': 'imageNetAVC_AVQ', 'mode': 'train', 'resume': None, 'epochs': 30, 'ngpu': 1, 'print_freq': 100, 'outf': '../results/SN_X_imageNetAVC_AVQ_SNX_5_Way_1_Shot_K3'}SN_X(
  (BACKBONE): SiameseNetwork(
    (features): Sequential(
      (0): Conv2d(3, 64, kernel_size=(3, 3), stride=(1, 1), padding=(1, 1), bias=False)
      (1): BatchNorm2d(64, eps=1e-05, momentum=0.1, affine=True, track_running_stats=True)
      (2): LeakyReLU(negative_slope=0.2, inplace=True)
      (3): MaxPool2d(kernel_size=2, stride=2, padding=0, dilation=1, ceil_mode=False)
      (4): Conv2d(64, 64, kernel_size=(3, 3), stride=(1, 1), padding=(1, 1), bias=False)
      (5): BatchNorm2d(64, eps=1e-05, momentum=0.1, affine=True, track_running_stats=True)
      (6): LeakyReLU(negative_slope=0.2, inplace=True)
      (7): MaxPool2d(kernel_size=2, stride=2, padding=0, dilation=1, ceil_mode=False)
      (8): Conv2d(64, 64, kernel_size=(3, 3), stride=(1, 1), padding=(1, 1), bias=False)
      (9): BatchNorm2d(64, eps=1e-05, momentum=0.1, affine=True, track_running_stats=True)
      (10): LeakyReLU(negative_slope=0.2, inplace=True)
      (11): Conv2d(64, 64, kernel_size=(3, 3), stride=(1, 1), padding=(1, 1), bias=False)
      (12): BatchNorm2d(64, eps=1e-05, momentum=0.1, affine=True, track_running_stats=True)
      (13): LeakyReLU(negative_slope=0.2, inplace=True)
    )
    (criterion): NPlusOneTupletLoss()
    (knn): KNN_itc()
  )
)
===================================== Epoch 0 =====================================
Trainset: 2500
Valset: 800
Testset: 800
{'JOB_ID': 'imagenet_av_2_k3_w5_s5', 'arch': 'SN_X', 'config': '../models/architectures/configs/SN4_AV.yaml', 'dengine': False, 'refit_dengine': False, 'dataset_dir': '../dataset/miniImageNet', 'data_name': 'imageNetAVC_AVQ', 'mode': 'train', 'resume': None, 'epochs': 30, 'ngpu': 1, 'print_freq': 100, 'outf': '../results/SN_X_imageNetAVC_AVQ_SNX_5_Way_1_Shot_K3'}SN_X(
  (BACKBONE): SiameseNetwork(
    (features): Sequential(
      (0): Conv2d(3, 64, kernel_size=(3, 3), stride=(1, 1), padding=(1, 1), bias=False)
      (1): BatchNorm2d(64, eps=1e-05, momentum=0.1, affine=True, track_running_stats=True)
      (2): LeakyReLU(negative_slope=0.2, inplace=True)
      (3): MaxPool2d(kernel_size=2, stride=2, padding=0, dilation=1, ceil_mode=False)
      (4): Conv2d(64, 64, kernel_size=(3, 3), stride=(1, 1), padding=(1, 1), bias=False)
      (5): BatchNorm2d(64, eps=1e-05, momentum=0.1, affine=True, track_running_stats=True)
      (6): LeakyReLU(negative_slope=0.2, inplace=True)
      (7): MaxPool2d(kernel_size=2, stride=2, padding=0, dilation=1, ceil_mode=False)
      (8): Conv2d(64, 64, kernel_size=(3, 3), stride=(1, 1), padding=(1, 1), bias=False)
      (9): BatchNorm2d(64, eps=1e-05, momentum=0.1, affine=True, track_running_stats=True)
      (10): LeakyReLU(negative_slope=0.2, inplace=True)
      (11): Conv2d(64, 64, kernel_size=(3, 3), stride=(1, 1), padding=(1, 1), bias=False)
      (12): BatchNorm2d(64, eps=1e-05, momentum=0.1, affine=True, track_running_stats=True)
      (13): LeakyReLU(negative_slope=0.2, inplace=True)
    )
    (criterion): NPlusOneTupletLoss()
    (knn): KNN_itc()
  )
)
===================================== Epoch 0 =====================================
Trainset: 2500
Valset: 800
Testset: 800
{'JOB_ID': 'imagenet_av_2_k3_w5_s5', 'arch': 'SN_X', 'config': '../models/architectures/configs/SN4_AV.yaml', 'dengine': False, 'refit_dengine': False, 'dataset_dir': '../dataset/miniImageNet', 'data_name': 'imageNetAVC_AVQ', 'mode': 'train', 'resume': None, 'epochs': 30, 'ngpu': 1, 'print_freq': 100, 'outf': '../results/SN_X_imageNetAVC_AVQ_SNX_5_Way_1_Shot_K3'}SN_X(
  (BACKBONE): SiameseNetwork(
    (features): Sequential(
      (0): Conv2d(3, 64, kernel_size=(3, 3), stride=(1, 1), padding=(1, 1), bias=False)
      (1): BatchNorm2d(64, eps=1e-05, momentum=0.1, affine=True, track_running_stats=True)
      (2): LeakyReLU(negative_slope=0.2, inplace=True)
      (3): MaxPool2d(kernel_size=2, stride=2, padding=0, dilation=1, ceil_mode=False)
      (4): Conv2d(64, 64, kernel_size=(3, 3), stride=(1, 1), padding=(1, 1), bias=False)
      (5): BatchNorm2d(64, eps=1e-05, momentum=0.1, affine=True, track_running_stats=True)
      (6): LeakyReLU(negative_slope=0.2, inplace=True)
      (7): MaxPool2d(kernel_size=2, stride=2, padding=0, dilation=1, ceil_mode=False)
      (8): Conv2d(64, 64, kernel_size=(3, 3), stride=(1, 1), padding=(1, 1), bias=False)
      (9): BatchNorm2d(64, eps=1e-05, momentum=0.1, affine=True, track_running_stats=True)
      (10): LeakyReLU(negative_slope=0.2, inplace=True)
      (11): Conv2d(64, 64, kernel_size=(3, 3), stride=(1, 1), padding=(1, 1), bias=False)
      (12): BatchNorm2d(64, eps=1e-05, momentum=0.1, affine=True, track_running_stats=True)
      (13): LeakyReLU(negative_slope=0.2, inplace=True)
    )
    (criterion): NPlusOneTupletLoss()
    (knn): KNN_itc()
  )
)
===================================== Epoch 0 =====================================
Trainset: 2500
Valset: 800
Testset: 800
{'JOB_ID': 'imagenet_av_2_k3_w5_s5', 'arch': 'SN_X', 'config': '../models/architectures/configs/SN4_AV.yaml', 'dengine': False, 'refit_dengine': False, 'dataset_dir': '../dataset/miniImageNet', 'data_name': 'imageNetAVC_AVQ', 'mode': 'train', 'resume': None, 'epochs': 30, 'ngpu': 1, 'print_freq': 100, 'outf': '../results/SN_X_imageNetAVC_AVQ_SNX_5_Way_1_Shot_K3'}SN_X(
  (BACKBONE): SiameseNetwork(
    (features): Sequential(
      (0): Conv2d(3, 64, kernel_size=(3, 3), stride=(1, 1), padding=(1, 1), bias=False)
      (1): BatchNorm2d(64, eps=1e-05, momentum=0.1, affine=True, track_running_stats=True)
      (2): LeakyReLU(negative_slope=0.2, inplace=True)
      (3): MaxPool2d(kernel_size=2, stride=2, padding=0, dilation=1, ceil_mode=False)
      (4): Conv2d(64, 64, kernel_size=(3, 3), stride=(1, 1), padding=(1, 1), bias=False)
      (5): BatchNorm2d(64, eps=1e-05, momentum=0.1, affine=True, track_running_stats=True)
      (6): LeakyReLU(negative_slope=0.2, inplace=True)
      (7): MaxPool2d(kernel_size=2, stride=2, padding=0, dilation=1, ceil_mode=False)
      (8): Conv2d(64, 64, kernel_size=(3, 3), stride=(1, 1), padding=(1, 1), bias=False)
      (9): BatchNorm2d(64, eps=1e-05, momentum=0.1, affine=True, track_running_stats=True)
      (10): LeakyReLU(negative_slope=0.2, inplace=True)
      (11): Conv2d(64, 64, kernel_size=(3, 3), stride=(1, 1), padding=(1, 1), bias=False)
      (12): BatchNorm2d(64, eps=1e-05, momentum=0.1, affine=True, track_running_stats=True)
      (13): LeakyReLU(negative_slope=0.2, inplace=True)
    )
    (criterion): NPlusOneTupletLoss()
    (knn): KNN_itc()
  )
)
===================================== Epoch 0 =====================================
Trainset: 2500
Valset: 800
Testset: 800
{'JOB_ID': 'imagenet_av_2_k3_w5_s5', 'arch': 'SN_X', 'config': '../models/architectures/configs/SN4_AV.yaml', 'dengine': False, 'refit_dengine': False, 'dataset_dir': '../dataset/miniImageNet', 'data_name': 'imageNetAVC_AVQ', 'mode': 'train', 'resume': None, 'epochs': 30, 'ngpu': 1, 'print_freq': 100, 'outf': '../results/SN_X_imageNetAVC_AVQ_SNX_5_Way_1_Shot_K3'}SN_X(
  (BACKBONE): SiameseNetwork(
    (features): Sequential(
      (0): Conv2d(3, 64, kernel_size=(3, 3), stride=(1, 1), padding=(1, 1), bias=False)
      (1): BatchNorm2d(64, eps=1e-05, momentum=0.1, affine=True, track_running_stats=True)
      (2): LeakyReLU(negative_slope=0.2, inplace=True)
      (3): MaxPool2d(kernel_size=2, stride=2, padding=0, dilation=1, ceil_mode=False)
      (4): Conv2d(64, 64, kernel_size=(3, 3), stride=(1, 1), padding=(1, 1), bias=False)
      (5): BatchNorm2d(64, eps=1e-05, momentum=0.1, affine=True, track_running_stats=True)
      (6): LeakyReLU(negative_slope=0.2, inplace=True)
      (7): MaxPool2d(kernel_size=2, stride=2, padding=0, dilation=1, ceil_mode=False)
      (8): Conv2d(64, 64, kernel_size=(3, 3), stride=(1, 1), padding=(1, 1), bias=False)
      (9): BatchNorm2d(64, eps=1e-05, momentum=0.1, affine=True, track_running_stats=True)
      (10): LeakyReLU(negative_slope=0.2, inplace=True)
      (11): Conv2d(64, 64, kernel_size=(3, 3), stride=(1, 1), padding=(1, 1), bias=False)
      (12): BatchNorm2d(64, eps=1e-05, momentum=0.1, affine=True, track_running_stats=True)
      (13): LeakyReLU(negative_slope=0.2, inplace=True)
    )
    (criterion): NPlusOneTupletLoss()
    (knn): KNN_itc()
  )
)
===================================== Epoch 0 =====================================
Trainset: 2500
Valset: 800
Testset: 800
Eposide-(0): [100/2500]	Time 1.238 (1.001)	Data 0.001 (0.155)	Loss 0.286 (0.558)	Prec@1 20.000 (23.498)
{'JOB_ID': 'imagenet_av_2_k3_w5_s5', 'arch': 'SN_X', 'config': '../models/architectures/configs/SN4_AV.yaml', 'dengine': False, 'refit_dengine': False, 'dataset_dir': '../dataset/miniImageNet', 'data_name': 'imageNetAVC_AVQ', 'mode': 'train', 'resume': None, 'epochs': 30, 'ngpu': 1, 'print_freq': 100, 'outf': '../results/SN_X_imageNetAVC_AVQ_SNX_5_Way_1_Shot_K3'}SN_X(
  (BACKBONE): SiameseNetwork(
    (features): Sequential(
      (0): Conv2d(3, 64, kernel_size=(3, 3), stride=(1, 1), padding=(1, 1), bias=False)
      (1): BatchNorm2d(64, eps=1e-05, momentum=0.1, affine=True, track_running_stats=True)
      (2): LeakyReLU(negative_slope=0.2, inplace=True)
      (3): MaxPool2d(kernel_size=2, stride=2, padding=0, dilation=1, ceil_mode=False)
      (4): Conv2d(64, 64, kernel_size=(3, 3), stride=(1, 1), padding=(1, 1), bias=False)
      (5): BatchNorm2d(64, eps=1e-05, momentum=0.1, affine=True, track_running_stats=True)
      (6): LeakyReLU(negative_slope=0.2, inplace=True)
      (7): MaxPool2d(kernel_size=2, stride=2, padding=0, dilation=1, ceil_mode=False)
      (8): Conv2d(64, 64, kernel_size=(3, 3), stride=(1, 1), padding=(1, 1), bias=False)
      (9): BatchNorm2d(64, eps=1e-05, momentum=0.1, affine=True, track_running_stats=True)
      (10): LeakyReLU(negative_slope=0.2, inplace=True)
      (11): Conv2d(64, 64, kernel_size=(3, 3), stride=(1, 1), padding=(1, 1), bias=False)
      (12): BatchNorm2d(64, eps=1e-05, momentum=0.1, affine=True, track_running_stats=True)
      (13): LeakyReLU(negative_slope=0.2, inplace=True)
    )
    (criterion): NPlusOneTupletLoss()
    (knn): KNN_itc()
  )
)
===================================== Epoch 0 =====================================
Trainset: 2500
Valset: 800
Testset: 800
{'JOB_ID': 'imagenet_av_2_k3_w5_s5', 'arch': 'SN_X', 'config': '../models/architectures/configs/SN4_AV.yaml', 'dengine': False, 'refit_dengine': False, 'dataset_dir': '../dataset/miniImageNet', 'data_name': 'imageNetAVC_AVQ', 'mode': 'train', 'resume': None, 'epochs': 30, 'ngpu': 1, 'print_freq': 100, 'outf': '../results/SN_X_imageNetAVC_AVQ_SNX_5_Way_1_Shot_K3'}SN_X(
  (BACKBONE): SiameseNetwork(
    (features): Sequential(
      (0): Conv2d(3, 64, kernel_size=(3, 3), stride=(1, 1), padding=(1, 1), bias=False)
      (1): BatchNorm2d(64, eps=1e-05, momentum=0.1, affine=True, track_running_stats=True)
      (2): LeakyReLU(negative_slope=0.2, inplace=True)
      (3): MaxPool2d(kernel_size=2, stride=2, padding=0, dilation=1, ceil_mode=False)
      (4): Conv2d(64, 64, kernel_size=(3, 3), stride=(1, 1), padding=(1, 1), bias=False)
      (5): BatchNorm2d(64, eps=1e-05, momentum=0.1, affine=True, track_running_stats=True)
      (6): LeakyReLU(negative_slope=0.2, inplace=True)
      (7): MaxPool2d(kernel_size=2, stride=2, padding=0, dilation=1, ceil_mode=False)
      (8): Conv2d(64, 64, kernel_size=(3, 3), stride=(1, 1), padding=(1, 1), bias=False)
      (9): BatchNorm2d(64, eps=1e-05, momentum=0.1, affine=True, track_running_stats=True)
      (10): LeakyReLU(negative_slope=0.2, inplace=True)
      (11): Conv2d(64, 64, kernel_size=(3, 3), stride=(1, 1), padding=(1, 1), bias=False)
      (12): BatchNorm2d(64, eps=1e-05, momentum=0.1, affine=True, track_running_stats=True)
      (13): LeakyReLU(negative_slope=0.2, inplace=True)
    )
    (criterion): NPlusOneTupletLoss()
    (knn): KNN_itc()
  )
)
===================================== Epoch 0 =====================================
Trainset: 2500
Valset: 800
Testset: 800
{'JOB_ID': 'imagenet_av_2_k3_w5_s5', 'arch': 'SN_X', 'config': '../models/architectures/configs/SN4_AV.yaml', 'dengine': False, 'refit_dengine': False, 'dataset_dir': '../dataset/miniImageNet', 'data_name': 'imageNetAVC_AVQ', 'mode': 'train', 'resume': None, 'epochs': 30, 'ngpu': 1, 'print_freq': 100, 'outf': '../results/SN_X_imageNetAVC_AVQ_SNX_5_Way_1_Shot_K3'}SN_X(
  (BACKBONE): SiameseNetwork(
    (features): Sequential(
      (0): Conv2d(3, 64, kernel_size=(3, 3), stride=(1, 1), padding=(1, 1), bias=False)
      (1): BatchNorm2d(64, eps=1e-05, momentum=0.1, affine=True, track_running_stats=True)
      (2): LeakyReLU(negative_slope=0.2, inplace=True)
      (3): MaxPool2d(kernel_size=2, stride=2, padding=0, dilation=1, ceil_mode=False)
      (4): Conv2d(64, 64, kernel_size=(3, 3), stride=(1, 1), padding=(1, 1), bias=False)
      (5): BatchNorm2d(64, eps=1e-05, momentum=0.1, affine=True, track_running_stats=True)
      (6): LeakyReLU(negative_slope=0.2, inplace=True)
      (7): MaxPool2d(kernel_size=2, stride=2, padding=0, dilation=1, ceil_mode=False)
      (8): Conv2d(64, 64, kernel_size=(3, 3), stride=(1, 1), padding=(1, 1), bias=False)
      (9): BatchNorm2d(64, eps=1e-05, momentum=0.1, affine=True, track_running_stats=True)
      (10): LeakyReLU(negative_slope=0.2, inplace=True)
      (11): Conv2d(64, 64, kernel_size=(3, 3), stride=(1, 1), padding=(1, 1), bias=False)
      (12): BatchNorm2d(64, eps=1e-05, momentum=0.1, affine=True, track_running_stats=True)
      (13): LeakyReLU(negative_slope=0.2, inplace=True)
    )
    (criterion): NPlusOneTupletLoss()
    (knn): KNN_itc()
  )
)
===================================== Epoch 0 =====================================
Trainset: 2500
Valset: 800
Testset: 800
Eposide-(0): [100/2500]	Time 0.802 (0.993)	Data 0.000 (0.159)	Loss 0.075 (0.498)	Prec@1 22.667 (21.690)
{'JOB_ID': 'imagenet_av_2_k3_w5_s5', 'arch': 'SN_X', 'config': '../models/architectures/configs/SN4_AV.yaml', 'dengine': False, 'refit_dengine': False, 'dataset_dir': '../dataset/miniImageNet', 'data_name': 'imageNetAVC_AVQ', 'mode': 'train', 'resume': None, 'epochs': 30, 'ngpu': 1, 'print_freq': 100, 'outf': '../results/SN_X_imageNetAVC_AVQ_SNX_5_Way_1_Shot_K3'}SN_X(
  (BACKBONE): SiameseNetwork(
    (features): Sequential(
      (0): Conv2d(3, 64, kernel_size=(3, 3), stride=(1, 1), padding=(1, 1), bias=False)
      (1): BatchNorm2d(64, eps=1e-05, momentum=0.1, affine=True, track_running_stats=True)
      (2): LeakyReLU(negative_slope=0.2, inplace=True)
      (3): MaxPool2d(kernel_size=2, stride=2, padding=0, dilation=1, ceil_mode=False)
      (4): Conv2d(64, 64, kernel_size=(3, 3), stride=(1, 1), padding=(1, 1), bias=False)
      (5): BatchNorm2d(64, eps=1e-05, momentum=0.1, affine=True, track_running_stats=True)
      (6): LeakyReLU(negative_slope=0.2, inplace=True)
      (7): MaxPool2d(kernel_size=2, stride=2, padding=0, dilation=1, ceil_mode=False)
      (8): Conv2d(64, 64, kernel_size=(3, 3), stride=(1, 1), padding=(1, 1), bias=False)
      (9): BatchNorm2d(64, eps=1e-05, momentum=0.1, affine=True, track_running_stats=True)
      (10): LeakyReLU(negative_slope=0.2, inplace=True)
      (11): Conv2d(64, 64, kernel_size=(3, 3), stride=(1, 1), padding=(1, 1), bias=False)
      (12): BatchNorm2d(64, eps=1e-05, momentum=0.1, affine=True, track_running_stats=True)
      (13): LeakyReLU(negative_slope=0.2, inplace=True)
    )
    (criterion): NPlusOneTupletLoss()
    (knn): KNN_itc()
  )
)
===================================== Epoch 0 =====================================
Trainset: 2500
Valset: 800
Testset: 800
{'JOB_ID': 'imagenet_av_2_k3_w5_s5', 'arch': 'SN_X', 'config': '../models/architectures/configs/SN4_AV.yaml', 'dengine': False, 'refit_dengine': False, 'dataset_dir': '../dataset/miniImageNet', 'data_name': 'imageNetAVC_AVQ', 'mode': 'train', 'resume': None, 'epochs': 30, 'ngpu': 1, 'print_freq': 100, 'outf': '../results/SN_X_imageNetAVC_AVQ_SNX_5_Way_1_Shot_K3'}SN_X(
  (BACKBONE): SiameseNetwork(
    (features): Sequential(
      (0): Conv2d(3, 64, kernel_size=(3, 3), stride=(1, 1), padding=(1, 1), bias=False)
      (1): BatchNorm2d(64, eps=1e-05, momentum=0.1, affine=True, track_running_stats=True)
      (2): LeakyReLU(negative_slope=0.2, inplace=True)
      (3): MaxPool2d(kernel_size=2, stride=2, padding=0, dilation=1, ceil_mode=False)
      (4): Conv2d(64, 64, kernel_size=(3, 3), stride=(1, 1), padding=(1, 1), bias=False)
      (5): BatchNorm2d(64, eps=1e-05, momentum=0.1, affine=True, track_running_stats=True)
      (6): LeakyReLU(negative_slope=0.2, inplace=True)
      (7): MaxPool2d(kernel_size=2, stride=2, padding=0, dilation=1, ceil_mode=False)
      (8): Conv2d(64, 64, kernel_size=(3, 3), stride=(1, 1), padding=(1, 1), bias=False)
      (9): BatchNorm2d(64, eps=1e-05, momentum=0.1, affine=True, track_running_stats=True)
      (10): LeakyReLU(negative_slope=0.2, inplace=True)
      (11): Conv2d(64, 64, kernel_size=(3, 3), stride=(1, 1), padding=(1, 1), bias=False)
      (12): BatchNorm2d(64, eps=1e-05, momentum=0.1, affine=True, track_running_stats=True)
      (13): LeakyReLU(negative_slope=0.2, inplace=True)
    )
    (criterion): NPlusOneTupletLoss()
    (knn): KNN_itc()
  )
)
===================================== Epoch 0 =====================================
Trainset: 2500
Valset: 800
Testset: 800
{'JOB_ID': 'imagenet_av_2_k3_w5_s5', 'arch': 'SN_X', 'config': '../models/architectures/configs/SN4_AV.yaml', 'dengine': False, 'refit_dengine': False, 'dataset_dir': '../dataset/miniImageNet', 'data_name': 'imageNetAVC_AVQ', 'mode': 'train', 'resume': None, 'epochs': 30, 'ngpu': 1, 'print_freq': 100, 'outf': '../results/SN_X_imageNetAVC_AVQ_SNX_5_Way_1_Shot_K3'}SN_X(
  (BACKBONE): SiameseNetwork(
    (features): Sequential(
      (0): Conv2d(3, 64, kernel_size=(3, 3), stride=(1, 1), padding=(1, 1), bias=False)
      (1): BatchNorm2d(64, eps=1e-05, momentum=0.1, affine=True, track_running_stats=True)
      (2): LeakyReLU(negative_slope=0.2, inplace=True)
      (3): MaxPool2d(kernel_size=2, stride=2, padding=0, dilation=1, ceil_mode=False)
      (4): Conv2d(64, 64, kernel_size=(3, 3), stride=(1, 1), padding=(1, 1), bias=False)
      (5): BatchNorm2d(64, eps=1e-05, momentum=0.1, affine=True, track_running_stats=True)
      (6): LeakyReLU(negative_slope=0.2, inplace=True)
      (7): MaxPool2d(kernel_size=2, stride=2, padding=0, dilation=1, ceil_mode=False)
      (8): Conv2d(64, 64, kernel_size=(3, 3), stride=(1, 1), padding=(1, 1), bias=False)
      (9): BatchNorm2d(64, eps=1e-05, momentum=0.1, affine=True, track_running_stats=True)
      (10): LeakyReLU(negative_slope=0.2, inplace=True)
      (11): Conv2d(64, 64, kernel_size=(3, 3), stride=(1, 1), padding=(1, 1), bias=False)
      (12): BatchNorm2d(64, eps=1e-05, momentum=0.1, affine=True, track_running_stats=True)
      (13): LeakyReLU(negative_slope=0.2, inplace=True)
    )
    (criterion): NPlusOneTupletLoss()
    (knn): KNN_itc()
  )
)
===================================== Epoch 0 =====================================
Trainset: 2500
Valset: 800
Testset: 800
{'JOB_ID': 'imagenet_av_2_k3_w5_s5', 'arch': 'SN_X', 'config': '../models/architectures/configs/SN4_AV.yaml', 'dengine': False, 'refit_dengine': False, 'dataset_dir': '../dataset/miniImageNet', 'data_name': 'imageNetAVC_AVQ', 'mode': 'train', 'resume': None, 'epochs': 30, 'ngpu': 1, 'print_freq': 100, 'outf': '../results/SN_X_imageNetAVC_AVQ_SNX_5_Way_1_Shot_K3'}SN_X(
  (BACKBONE): SiameseNetwork(
    (features): Sequential(
      (0): Conv2d(3, 64, kernel_size=(3, 3), stride=(1, 1), padding=(1, 1), bias=False)
      (1): BatchNorm2d(64, eps=1e-05, momentum=0.1, affine=True, track_running_stats=True)
      (2): LeakyReLU(negative_slope=0.2, inplace=True)
      (3): MaxPool2d(kernel_size=2, stride=2, padding=0, dilation=1, ceil_mode=False)
      (4): Conv2d(64, 64, kernel_size=(3, 3), stride=(1, 1), padding=(1, 1), bias=False)
      (5): BatchNorm2d(64, eps=1e-05, momentum=0.1, affine=True, track_running_stats=True)
      (6): LeakyReLU(negative_slope=0.2, inplace=True)
      (7): MaxPool2d(kernel_size=2, stride=2, padding=0, dilation=1, ceil_mode=False)
      (8): Conv2d(64, 64, kernel_size=(3, 3), stride=(1, 1), padding=(1, 1), bias=False)
      (9): BatchNorm2d(64, eps=1e-05, momentum=0.1, affine=True, track_running_stats=True)
      (10): LeakyReLU(negative_slope=0.2, inplace=True)
      (11): Conv2d(64, 64, kernel_size=(3, 3), stride=(1, 1), padding=(1, 1), bias=False)
      (12): BatchNorm2d(64, eps=1e-05, momentum=0.1, affine=True, track_running_stats=True)
      (13): LeakyReLU(negative_slope=0.2, inplace=True)
    )
    (criterion): NPlusOneTupletLoss()
    (knn): KNN_itc()
  )
)
===================================== Epoch 0 =====================================
Trainset: 2500
Valset: 800
Testset: 800
Eposide-(0): [100/2500]	Time 0.851 (1.001)	Data 0.000 (0.164)	Loss 2.561 (11.627)	Prec@1 16.000 (24.634)
…
Eposide-(0): [1300/2500]	Time 0.865 (0.866)	Data 0.000 (0.013)	Loss 2.200 (2.975)	Prec@1 25.333 (24.660)
Eposide-(0): [1400/2500]	Time 0.857 (0.865)	Data 0.000 (0.012)	Loss 2.191 (2.920)	Prec@1 33.333 (24.839)
{'JOB_ID': 'imagenet_av_2_k3_w5_s5', 'arch': 'SN_X', 'config': '../models/architectures/configs/SN4_AV.yaml', 'dengine': False, 'refit_dengine': False, 'dataset_dir': '../dataset/miniImageNet', 'data_name': 'imageNetAVC_AVQ', 'mode': 'train', 'resume': None, 'epochs': 30, 'ngpu': 1, 'print_freq': 100, 'outf': '../results/SN_X_imageNetAVC_AVQ_SNX_5_Way_1_Shot_K3'}SN_X(
  (BACKBONE): SiameseNetwork(
    (features): Sequential(
      (0): Conv2d(3, 64, kernel_size=(3, 3), stride=(1, 1), padding=(1, 1), bias=False)
      (1): BatchNorm2d(64, eps=1e-05, momentum=0.1, affine=True, track_running_stats=True)
      (2): LeakyReLU(negative_slope=0.2, inplace=True)
      (3): MaxPool2d(kernel_size=2, stride=2, padding=0, dilation=1, ceil_mode=False)
      (4): Conv2d(64, 64, kernel_size=(3, 3), stride=(1, 1), padding=(1, 1), bias=False)
      (5): BatchNorm2d(64, eps=1e-05, momentum=0.1, affine=True, track_running_stats=True)
      (6): LeakyReLU(negative_slope=0.2, inplace=True)
      (7): MaxPool2d(kernel_size=2, stride=2, padding=0, dilation=1, ceil_mode=False)
      (8): Conv2d(64, 64, kernel_size=(3, 3), stride=(1, 1), padding=(1, 1), bias=False)
      (9): BatchNorm2d(64, eps=1e-05, momentum=0.1, affine=True, track_running_stats=True)
      (10): LeakyReLU(negative_slope=0.2, inplace=True)
      (11): Conv2d(64, 64, kernel_size=(3, 3), stride=(1, 1), padding=(1, 1), bias=False)
      (12): BatchNorm2d(64, eps=1e-05, momentum=0.1, affine=True, track_running_stats=True)
      (13): LeakyReLU(negative_slope=0.2, inplace=True)
    )
    (criterion): NPlusOneTupletLoss()
    (knn): KNN_itc()
  )
)
===================================== Epoch 0 =====================================
Trainset: 2500
Valset: 800
Testset: 800
{'JOB_ID': 'imagenet_av_2_k3_w5_s5', 'arch': 'SN_X', 'config': '../models/architectures/configs/SN4_AV.yaml', 'dengine': False, 'refit_dengine': False, 'dataset_dir': '../dataset/miniImageNet', 'data_name': 'imageNetAVC_AVQ', 'mode': 'train', 'resume': None, 'epochs': 30, 'ngpu': 1, 'print_freq': 100, 'outf': '../results/SN_X_imageNetAVC_AVQ_SNX_5_Way_1_Shot_K3'}SN_X(
  (BACKBONE): SiameseNetwork(
    (features): Sequential(
      (0): Conv2d(3, 64, kernel_size=(3, 3), stride=(1, 1), padding=(1, 1), bias=False)
      (1): BatchNorm2d(64, eps=1e-05, momentum=0.1, affine=True, track_running_stats=True)
      (2): LeakyReLU(negative_slope=0.2, inplace=True)
      (3): MaxPool2d(kernel_size=2, stride=2, padding=0, dilation=1, ceil_mode=False)
      (4): Conv2d(64, 64, kernel_size=(3, 3), stride=(1, 1), padding=(1, 1), bias=False)
      (5): BatchNorm2d(64, eps=1e-05, momentum=0.1, affine=True, track_running_stats=True)
      (6): LeakyReLU(negative_slope=0.2, inplace=True)
      (7): MaxPool2d(kernel_size=2, stride=2, padding=0, dilation=1, ceil_mode=False)
      (8): Conv2d(64, 64, kernel_size=(3, 3), stride=(1, 1), padding=(1, 1), bias=False)
      (9): BatchNorm2d(64, eps=1e-05, momentum=0.1, affine=True, track_running_stats=True)
      (10): LeakyReLU(negative_slope=0.2, inplace=True)
      (11): Conv2d(64, 64, kernel_size=(3, 3), stride=(1, 1), padding=(1, 1), bias=False)
      (12): BatchNorm2d(64, eps=1e-05, momentum=0.1, affine=True, track_running_stats=True)
      (13): LeakyReLU(negative_slope=0.2, inplace=True)
    )
    (criterion): NPlusOneTupletLoss()
    (knn): KNN_itc()
  )
)
===================================== Epoch 0 =====================================
Trainset: 2500
Valset: 800
Testset: 800
