Namespace(arch='DN_X', config='../models/architectures/configs/DN4_DA.yaml', dengine=False, refit_dengine=False, dataset_dir='../dataset/miniImageNet', data_name='test', mode='test', resume='../results/models/dn4__miniImageNet_epoch_23.pth.tar', epochs=1, ngpu=1, print_freq=100, outf='../results/DN_X_test_DN4_5_Way_1_Shot_K1')=> loaded checkpoint '../results/models/dn4__miniImageNet_epoch_23.pth.tar' (epoch 23)
DN_X(
  (BACKBONE): FourLayer_64F(
    (features): Sequential(
      (0): Conv2d(3, 64, kernel_size=(3, 3), stride=(1, 1), padding=(1, 1), bias=False)
      (1): BatchNorm2d(64, eps=1e-05, momentum=0.1, affine=True, track_running_stats=True)
      (2): LeakyReLU(negative_slope=0.2, inplace=True)
      (3): MaxPool2d(kernel_size=2, stride=2, padding=0, dilation=1, ceil_mode=False)
      (4): Conv2d(64, 64, kernel_size=(3, 3), stride=(1, 1), padding=(1, 1), bias=False)
      (5): BatchNorm2d(64, eps=1e-05, momentum=0.1, affine=True, track_running_stats=True)
      (6): LeakyReLU(negative_slope=0.2, inplace=True)
      (7): MaxPool2d(kernel_size=2, stride=2, padding=0, dilation=1, ceil_mode=False)
      (8): Conv2d(64, 64, kernel_size=(3, 3), stride=(1, 1), padding=(1, 1), bias=False)
      (9): BatchNorm2d(64, eps=1e-05, momentum=0.1, affine=True, track_running_stats=True)
      (10): LeakyReLU(negative_slope=0.2, inplace=True)
      (11): Conv2d(64, 64, kernel_size=(3, 3), stride=(1, 1), padding=(1, 1), bias=False)
      (12): BatchNorm2d(64, eps=1e-05, momentum=0.1, affine=True, track_running_stats=True)
      (13): LeakyReLU(negative_slope=0.2, inplace=True)
    )
    (criterion): CrossEntropyLoss()
  )
  (DE): XGBHead()
)
===================================== Round 0 =====================================
Testset: 600-------------0
Test-(23): [100/600]	Time 0.058 (0.092)	Loss 2.070 (1.407)	Prec@1 20.0 (46.37623596191406)

Test-(23): [200/600]	Time 0.056 (0.086)	Loss 1.166 (1.402)	Prec@1 62.0 (46.636817932128906)
…
 * Prec@1 46.310 Best_prec1 46.163Test accuracy= 46.310001373291016 h= 0.8311001658439636
===================================== Round 2 =====================================
Testset: 600-------------2Namespace(arch='DN_X', config='../models/architectures/configs/DN4_DA.yaml', dengine=True, refit_dengine=True, dataset_dir='../dataset/miniImageNet', data_name='test', mode='test', resume='../results/models/dn4__miniImageNet_epoch_23.pth.tar', epochs=1, ngpu=1, print_freq=100, outf='../results/DN_X_test_DN4_5_Way_1_Shot_K1')=> loaded checkpoint '../results/models/dn4__miniImageNet_epoch_23.pth.tar' (epoch 23)
DN_X(
  (BACKBONE): FourLayer_64F(
    (features): Sequential(
      (0): Conv2d(3, 64, kernel_size=(3, 3), stride=(1, 1), padding=(1, 1), bias=False)
      (1): BatchNorm2d(64, eps=1e-05, momentum=0.1, affine=True, track_running_stats=True)
      (2): LeakyReLU(negative_slope=0.2, inplace=True)
      (3): MaxPool2d(kernel_size=2, stride=2, padding=0, dilation=1, ceil_mode=False)
      (4): Conv2d(64, 64, kernel_size=(3, 3), stride=(1, 1), padding=(1, 1), bias=False)
      (5): BatchNorm2d(64, eps=1e-05, momentum=0.1, affine=True, track_running_stats=True)
      (6): LeakyReLU(negative_slope=0.2, inplace=True)
      (7): MaxPool2d(kernel_size=2, stride=2, padding=0, dilation=1, ceil_mode=False)
      (8): Conv2d(64, 64, kernel_size=(3, 3), stride=(1, 1), padding=(1, 1), bias=False)
      (9): BatchNorm2d(64, eps=1e-05, momentum=0.1, affine=True, track_running_stats=True)
      (10): LeakyReLU(negative_slope=0.2, inplace=True)
      (11): Conv2d(64, 64, kernel_size=(3, 3), stride=(1, 1), padding=(1, 1), bias=False)
      (12): BatchNorm2d(64, eps=1e-05, momentum=0.1, affine=True, track_running_stats=True)
      (13): LeakyReLU(negative_slope=0.2, inplace=True)
    )
    (criterion): CrossEntropyLoss()
  )
  (DE): XGBHead()
)
Trainset: 10000
Valset: 800
Testset: 600
Namespace(arch='DN_X', config='../models/architectures/configs/DN4_DA.yaml', dengine=True, refit_dengine=True, dataset_dir='../dataset/miniImageNet', data_name='test', mode='test', resume='../results/models/dn4__miniImageNet_epoch_23.pth.tar', epochs=1, ngpu=1, print_freq=100, outf='../results/DN_X_test_DN4_5_Way_1_Shot_K1')=> loaded checkpoint '../results/models/dn4__miniImageNet_epoch_23.pth.tar' (epoch 23)
DN_X(
  (BACKBONE): FourLayer_64F(
    (features): Sequential(
      (0): Conv2d(3, 64, kernel_size=(3, 3), stride=(1, 1), padding=(1, 1), bias=False)
      (1): BatchNorm2d(64, eps=1e-05, momentum=0.1, affine=True, track_running_stats=True)
      (2): LeakyReLU(negative_slope=0.2, inplace=True)
      (3): MaxPool2d(kernel_size=2, stride=2, padding=0, dilation=1, ceil_mode=False)
      (4): Conv2d(64, 64, kernel_size=(3, 3), stride=(1, 1), padding=(1, 1), bias=False)
      (5): BatchNorm2d(64, eps=1e-05, momentum=0.1, affine=True, track_running_stats=True)
      (6): LeakyReLU(negative_slope=0.2, inplace=True)
      (7): MaxPool2d(kernel_size=2, stride=2, padding=0, dilation=1, ceil_mode=False)
      (8): Conv2d(64, 64, kernel_size=(3, 3), stride=(1, 1), padding=(1, 1), bias=False)
      (9): BatchNorm2d(64, eps=1e-05, momentum=0.1, affine=True, track_running_stats=True)
      (10): LeakyReLU(negative_slope=0.2, inplace=True)
      (11): Conv2d(64, 64, kernel_size=(3, 3), stride=(1, 1), padding=(1, 1), bias=False)
      (12): BatchNorm2d(64, eps=1e-05, momentum=0.1, affine=True, track_running_stats=True)
      (13): LeakyReLU(negative_slope=0.2, inplace=True)
    )
    (criterion): CrossEntropyLoss()
  )
  (DE): XGBHead()
)
Trainset: 10000
Valset: 800
Testset: 600
===================================== Round 0 =====================================
Testset: 600-------------0Namespace(arch='DN_X', config='../models/architectures/configs/DN4_DA.yaml', dengine=True, refit_dengine=False, dataset_dir='../dataset/miniImageNet', data_name='test', mode='test', resume='../results/models/dn4__miniImageNet_epoch_23.pth.tar', epochs=1, ngpu=1, print_freq=100, outf='../results/DN_X_test_DN4_5_Way_1_Shot_K1')=> loaded checkpoint '../results/models/dn4__miniImageNet_epoch_23.pth.tar' (epoch 23)
DN_X(
  (BACKBONE): FourLayer_64F(
    (features): Sequential(
      (0): Conv2d(3, 64, kernel_size=(3, 3), stride=(1, 1), padding=(1, 1), bias=False)
      (1): BatchNorm2d(64, eps=1e-05, momentum=0.1, affine=True, track_running_stats=True)
      (2): LeakyReLU(negative_slope=0.2, inplace=True)
      (3): MaxPool2d(kernel_size=2, stride=2, padding=0, dilation=1, ceil_mode=False)
      (4): Conv2d(64, 64, kernel_size=(3, 3), stride=(1, 1), padding=(1, 1), bias=False)
      (5): BatchNorm2d(64, eps=1e-05, momentum=0.1, affine=True, track_running_stats=True)
      (6): LeakyReLU(negative_slope=0.2, inplace=True)
      (7): MaxPool2d(kernel_size=2, stride=2, padding=0, dilation=1, ceil_mode=False)
      (8): Conv2d(64, 64, kernel_size=(3, 3), stride=(1, 1), padding=(1, 1), bias=False)
      (9): BatchNorm2d(64, eps=1e-05, momentum=0.1, affine=True, track_running_stats=True)
      (10): LeakyReLU(negative_slope=0.2, inplace=True)
      (11): Conv2d(64, 64, kernel_size=(3, 3), stride=(1, 1), padding=(1, 1), bias=False)
      (12): BatchNorm2d(64, eps=1e-05, momentum=0.1, affine=True, track_running_stats=True)
      (13): LeakyReLU(negative_slope=0.2, inplace=True)
    )
    (criterion): CrossEntropyLoss()
  )
  (DE): XGBHead()
)
Trainset: 10000
Valset: 800
Testset: 600
===================================== Round 0 =====================================
Testset: 600-------------0Namespace(arch='DN_X', config='../models/architectures/configs/DN4_DA.yaml', dengine=True, refit_dengine=True, dataset_dir='../dataset/miniImageNet', data_name='test', mode='test', resume='../results/models/dn4__miniImageNet_epoch_23.pth.tar', epochs=1, ngpu=1, print_freq=100, outf='../results/DN_X_test_DN4_5_Way_1_Shot_K1')=> loaded checkpoint '../results/models/dn4__miniImageNet_epoch_23.pth.tar' (epoch 23)
DN_X(
  (BACKBONE): FourLayer_64F(
    (features): Sequential(
      (0): Conv2d(3, 64, kernel_size=(3, 3), stride=(1, 1), padding=(1, 1), bias=False)
      (1): BatchNorm2d(64, eps=1e-05, momentum=0.1, affine=True, track_running_stats=True)
      (2): LeakyReLU(negative_slope=0.2, inplace=True)
      (3): MaxPool2d(kernel_size=2, stride=2, padding=0, dilation=1, ceil_mode=False)
      (4): Conv2d(64, 64, kernel_size=(3, 3), stride=(1, 1), padding=(1, 1), bias=False)
      (5): BatchNorm2d(64, eps=1e-05, momentum=0.1, affine=True, track_running_stats=True)
      (6): LeakyReLU(negative_slope=0.2, inplace=True)
      (7): MaxPool2d(kernel_size=2, stride=2, padding=0, dilation=1, ceil_mode=False)
      (8): Conv2d(64, 64, kernel_size=(3, 3), stride=(1, 1), padding=(1, 1), bias=False)
      (9): BatchNorm2d(64, eps=1e-05, momentum=0.1, affine=True, track_running_stats=True)
      (10): LeakyReLU(negative_slope=0.2, inplace=True)
      (11): Conv2d(64, 64, kernel_size=(3, 3), stride=(1, 1), padding=(1, 1), bias=False)
      (12): BatchNorm2d(64, eps=1e-05, momentum=0.1, affine=True, track_running_stats=True)
      (13): LeakyReLU(negative_slope=0.2, inplace=True)
    )
    (criterion): CrossEntropyLoss()
  )
  (DE): XGBHead()
)
Trainset: 10000
Valset: 800
Testset: 600
Namespace(arch='DN_X', config='../models/architectures/configs/DN4_DA.yaml', dengine=True, refit_dengine=True, dataset_dir='../dataset/miniImageNet', data_name='test', mode='test', resume='../results/models/dn4__miniImageNet_epoch_23.pth.tar', epochs=1, ngpu=1, print_freq=100, outf='../results/DN_X_test_DN4_5_Way_1_Shot_K1')=> loaded checkpoint '../results/models/dn4__miniImageNet_epoch_23.pth.tar' (epoch 23)
DN_X(
  (BACKBONE): FourLayer_64F(
    (features): Sequential(
      (0): Conv2d(3, 64, kernel_size=(3, 3), stride=(1, 1), padding=(1, 1), bias=False)
      (1): BatchNorm2d(64, eps=1e-05, momentum=0.1, affine=True, track_running_stats=True)
      (2): LeakyReLU(negative_slope=0.2, inplace=True)
      (3): MaxPool2d(kernel_size=2, stride=2, padding=0, dilation=1, ceil_mode=False)
      (4): Conv2d(64, 64, kernel_size=(3, 3), stride=(1, 1), padding=(1, 1), bias=False)
      (5): BatchNorm2d(64, eps=1e-05, momentum=0.1, affine=True, track_running_stats=True)
      (6): LeakyReLU(negative_slope=0.2, inplace=True)
      (7): MaxPool2d(kernel_size=2, stride=2, padding=0, dilation=1, ceil_mode=False)
      (8): Conv2d(64, 64, kernel_size=(3, 3), stride=(1, 1), padding=(1, 1), bias=False)
      (9): BatchNorm2d(64, eps=1e-05, momentum=0.1, affine=True, track_running_stats=True)
      (10): LeakyReLU(negative_slope=0.2, inplace=True)
      (11): Conv2d(64, 64, kernel_size=(3, 3), stride=(1, 1), padding=(1, 1), bias=False)
      (12): BatchNorm2d(64, eps=1e-05, momentum=0.1, affine=True, track_running_stats=True)
      (13): LeakyReLU(negative_slope=0.2, inplace=True)
    )
    (criterion): CrossEntropyLoss()
  )
  (DE): XGBHead()
)
Trainset: 10000
Valset: 800
Testset: 600
===================================== Round 0 =====================================
Testset: 600-------------0Namespace(arch='DN_X', config='../models/architectures/configs/DN4_DA.yaml', dengine=True, refit_dengine=True, dataset_dir='../dataset/miniImageNet', data_name='test', mode='test', resume='../results/models/dn4__miniImageNet_epoch_23.pth.tar', epochs=1, ngpu=1, print_freq=100, outf='../results/DN_X_test_DN4_5_Way_1_Shot_K1')=> loaded checkpoint '../results/models/dn4__miniImageNet_epoch_23.pth.tar' (epoch 23)
DN_X(
  (BACKBONE): FourLayer_64F(
    (features): Sequential(
      (0): Conv2d(3, 64, kernel_size=(3, 3), stride=(1, 1), padding=(1, 1), bias=False)
      (1): BatchNorm2d(64, eps=1e-05, momentum=0.1, affine=True, track_running_stats=True)
      (2): LeakyReLU(negative_slope=0.2, inplace=True)
      (3): MaxPool2d(kernel_size=2, stride=2, padding=0, dilation=1, ceil_mode=False)
      (4): Conv2d(64, 64, kernel_size=(3, 3), stride=(1, 1), padding=(1, 1), bias=False)
      (5): BatchNorm2d(64, eps=1e-05, momentum=0.1, affine=True, track_running_stats=True)
      (6): LeakyReLU(negative_slope=0.2, inplace=True)
      (7): MaxPool2d(kernel_size=2, stride=2, padding=0, dilation=1, ceil_mode=False)
      (8): Conv2d(64, 64, kernel_size=(3, 3), stride=(1, 1), padding=(1, 1), bias=False)
      (9): BatchNorm2d(64, eps=1e-05, momentum=0.1, affine=True, track_running_stats=True)
      (10): LeakyReLU(negative_slope=0.2, inplace=True)
      (11): Conv2d(64, 64, kernel_size=(3, 3), stride=(1, 1), padding=(1, 1), bias=False)
      (12): BatchNorm2d(64, eps=1e-05, momentum=0.1, affine=True, track_running_stats=True)
      (13): LeakyReLU(negative_slope=0.2, inplace=True)
    )
    (criterion): CrossEntropyLoss()
  )
  (DE): XGBHead()
)
Trainset: 10000
Valset: 800
Testset: 600
Namespace(arch='DN_X', config='../models/architectures/configs/DN4_DA.yaml', dengine=True, refit_dengine=True, dataset_dir='../dataset/miniImageNet', data_name='test', mode='test', resume='../results/models/dn4__miniImageNet_epoch_23.pth.tar', epochs=1, ngpu=1, print_freq=100, outf='../results/DN_X_test_DN4_5_Way_1_Shot_K1')=> loaded checkpoint '../results/models/dn4__miniImageNet_epoch_23.pth.tar' (epoch 23)
DN_X(
  (BACKBONE): FourLayer_64F(
    (features): Sequential(
      (0): Conv2d(3, 64, kernel_size=(3, 3), stride=(1, 1), padding=(1, 1), bias=False)
      (1): BatchNorm2d(64, eps=1e-05, momentum=0.1, affine=True, track_running_stats=True)
      (2): LeakyReLU(negative_slope=0.2, inplace=True)
      (3): MaxPool2d(kernel_size=2, stride=2, padding=0, dilation=1, ceil_mode=False)
      (4): Conv2d(64, 64, kernel_size=(3, 3), stride=(1, 1), padding=(1, 1), bias=False)
      (5): BatchNorm2d(64, eps=1e-05, momentum=0.1, affine=True, track_running_stats=True)
      (6): LeakyReLU(negative_slope=0.2, inplace=True)
      (7): MaxPool2d(kernel_size=2, stride=2, padding=0, dilation=1, ceil_mode=False)
      (8): Conv2d(64, 64, kernel_size=(3, 3), stride=(1, 1), padding=(1, 1), bias=False)
      (9): BatchNorm2d(64, eps=1e-05, momentum=0.1, affine=True, track_running_stats=True)
      (10): LeakyReLU(negative_slope=0.2, inplace=True)
      (11): Conv2d(64, 64, kernel_size=(3, 3), stride=(1, 1), padding=(1, 1), bias=False)
      (12): BatchNorm2d(64, eps=1e-05, momentum=0.1, affine=True, track_running_stats=True)
      (13): LeakyReLU(negative_slope=0.2, inplace=True)
    )
    (criterion): CrossEntropyLoss()
  )
  (DE): XGBHead()
)
Trainset: 10000
Valset: 800
Testset: 600
Namespace(arch='DN_X', config='../models/architectures/configs/DN4_DA.yaml', dengine=True, refit_dengine=True, dataset_dir='../dataset/miniImageNet', data_name='test', mode='test', resume='../results/models/dn4__miniImageNet_epoch_23.pth.tar', epochs=1, ngpu=1, print_freq=100, outf='../results/DN_X_test_DN4_5_Way_1_Shot_K1')=> loaded checkpoint '../results/models/dn4__miniImageNet_epoch_23.pth.tar' (epoch 23)
DN_X(
  (BACKBONE): FourLayer_64F(
    (features): Sequential(
      (0): Conv2d(3, 64, kernel_size=(3, 3), stride=(1, 1), padding=(1, 1), bias=False)
      (1): BatchNorm2d(64, eps=1e-05, momentum=0.1, affine=True, track_running_stats=True)
      (2): LeakyReLU(negative_slope=0.2, inplace=True)
      (3): MaxPool2d(kernel_size=2, stride=2, padding=0, dilation=1, ceil_mode=False)
      (4): Conv2d(64, 64, kernel_size=(3, 3), stride=(1, 1), padding=(1, 1), bias=False)
      (5): BatchNorm2d(64, eps=1e-05, momentum=0.1, affine=True, track_running_stats=True)
      (6): LeakyReLU(negative_slope=0.2, inplace=True)
      (7): MaxPool2d(kernel_size=2, stride=2, padding=0, dilation=1, ceil_mode=False)
      (8): Conv2d(64, 64, kernel_size=(3, 3), stride=(1, 1), padding=(1, 1), bias=False)
      (9): BatchNorm2d(64, eps=1e-05, momentum=0.1, affine=True, track_running_stats=True)
      (10): LeakyReLU(negative_slope=0.2, inplace=True)
      (11): Conv2d(64, 64, kernel_size=(3, 3), stride=(1, 1), padding=(1, 1), bias=False)
      (12): BatchNorm2d(64, eps=1e-05, momentum=0.1, affine=True, track_running_stats=True)
      (13): LeakyReLU(negative_slope=0.2, inplace=True)
    )
    (criterion): CrossEntropyLoss()
  )
  (DE): XGBHead()
)
Trainset: 10000
Valset: 800
Testset: 600
===================================== Round 0 =====================================
Testset: 600-------------0Namespace(arch='DN_X', config='../models/architectures/configs/DN4_DA.yaml', dengine=True, refit_dengine=True, dataset_dir='../dataset/miniImageNet', data_name='test', mode='test', resume='../results/models/dn4__miniImageNet_epoch_23.pth.tar', epochs=1, ngpu=1, print_freq=100, outf='../results/DN_X_test_DN4_5_Way_1_Shot_K1')=> loaded checkpoint '../results/models/dn4__miniImageNet_epoch_23.pth.tar' (epoch 23)
DN_X(
  (BACKBONE): FourLayer_64F(
    (features): Sequential(
      (0): Conv2d(3, 64, kernel_size=(3, 3), stride=(1, 1), padding=(1, 1), bias=False)
      (1): BatchNorm2d(64, eps=1e-05, momentum=0.1, affine=True, track_running_stats=True)
      (2): LeakyReLU(negative_slope=0.2, inplace=True)
      (3): MaxPool2d(kernel_size=2, stride=2, padding=0, dilation=1, ceil_mode=False)
      (4): Conv2d(64, 64, kernel_size=(3, 3), stride=(1, 1), padding=(1, 1), bias=False)
      (5): BatchNorm2d(64, eps=1e-05, momentum=0.1, affine=True, track_running_stats=True)
      (6): LeakyReLU(negative_slope=0.2, inplace=True)
      (7): MaxPool2d(kernel_size=2, stride=2, padding=0, dilation=1, ceil_mode=False)
      (8): Conv2d(64, 64, kernel_size=(3, 3), stride=(1, 1), padding=(1, 1), bias=False)
      (9): BatchNorm2d(64, eps=1e-05, momentum=0.1, affine=True, track_running_stats=True)
      (10): LeakyReLU(negative_slope=0.2, inplace=True)
      (11): Conv2d(64, 64, kernel_size=(3, 3), stride=(1, 1), padding=(1, 1), bias=False)
      (12): BatchNorm2d(64, eps=1e-05, momentum=0.1, affine=True, track_running_stats=True)
      (13): LeakyReLU(negative_slope=0.2, inplace=True)
    )
    (criterion): CrossEntropyLoss()
  )
  (DE): XGBHead()
)
Trainset: 10000
Valset: 800
Testset: 600
Namespace(arch='DN_X', config='../models/architectures/configs/DN4_DA.yaml', dengine=True, refit_dengine=True, dataset_dir='../dataset/miniImageNet', data_name='test', mode='test', resume='../results/models/dn4__miniImageNet_epoch_23.pth.tar', epochs=1, ngpu=1, print_freq=100, outf='../results/DN_X_test_DN4_5_Way_1_Shot_K1')=> loaded checkpoint '../results/models/dn4__miniImageNet_epoch_23.pth.tar' (epoch 23)
DN_X(
  (BACKBONE): FourLayer_64F(
    (features): Sequential(
      (0): Conv2d(3, 64, kernel_size=(3, 3), stride=(1, 1), padding=(1, 1), bias=False)
      (1): BatchNorm2d(64, eps=1e-05, momentum=0.1, affine=True, track_running_stats=True)
      (2): LeakyReLU(negative_slope=0.2, inplace=True)
      (3): MaxPool2d(kernel_size=2, stride=2, padding=0, dilation=1, ceil_mode=False)
      (4): Conv2d(64, 64, kernel_size=(3, 3), stride=(1, 1), padding=(1, 1), bias=False)
      (5): BatchNorm2d(64, eps=1e-05, momentum=0.1, affine=True, track_running_stats=True)
      (6): LeakyReLU(negative_slope=0.2, inplace=True)
      (7): MaxPool2d(kernel_size=2, stride=2, padding=0, dilation=1, ceil_mode=False)
      (8): Conv2d(64, 64, kernel_size=(3, 3), stride=(1, 1), padding=(1, 1), bias=False)
      (9): BatchNorm2d(64, eps=1e-05, momentum=0.1, affine=True, track_running_stats=True)
      (10): LeakyReLU(negative_slope=0.2, inplace=True)
      (11): Conv2d(64, 64, kernel_size=(3, 3), stride=(1, 1), padding=(1, 1), bias=False)
      (12): BatchNorm2d(64, eps=1e-05, momentum=0.1, affine=True, track_running_stats=True)
      (13): LeakyReLU(negative_slope=0.2, inplace=True)
    )
    (criterion): CrossEntropyLoss()
  )
  (DE): XGBHead()
)
Trainset: 10000
Valset: 800
Testset: 600
Namespace(arch='DN_X', config='../models/architectures/configs/DN4_DA.yaml', dengine=True, refit_dengine=True, dataset_dir='../dataset/miniImageNet', data_name='test', mode='test', resume='../results/models/dn4__miniImageNet_epoch_23.pth.tar', epochs=1, ngpu=1, print_freq=100, outf='../results/DN_X_test_DN4_5_Way_1_Shot_K1')=> loaded checkpoint '../results/models/dn4__miniImageNet_epoch_23.pth.tar' (epoch 23)
DN_X(
  (BACKBONE): FourLayer_64F(
    (features): Sequential(
      (0): Conv2d(3, 64, kernel_size=(3, 3), stride=(1, 1), padding=(1, 1), bias=False)
      (1): BatchNorm2d(64, eps=1e-05, momentum=0.1, affine=True, track_running_stats=True)
      (2): LeakyReLU(negative_slope=0.2, inplace=True)
      (3): MaxPool2d(kernel_size=2, stride=2, padding=0, dilation=1, ceil_mode=False)
      (4): Conv2d(64, 64, kernel_size=(3, 3), stride=(1, 1), padding=(1, 1), bias=False)
      (5): BatchNorm2d(64, eps=1e-05, momentum=0.1, affine=True, track_running_stats=True)
      (6): LeakyReLU(negative_slope=0.2, inplace=True)
      (7): MaxPool2d(kernel_size=2, stride=2, padding=0, dilation=1, ceil_mode=False)
      (8): Conv2d(64, 64, kernel_size=(3, 3), stride=(1, 1), padding=(1, 1), bias=False)
      (9): BatchNorm2d(64, eps=1e-05, momentum=0.1, affine=True, track_running_stats=True)
      (10): LeakyReLU(negative_slope=0.2, inplace=True)
      (11): Conv2d(64, 64, kernel_size=(3, 3), stride=(1, 1), padding=(1, 1), bias=False)
      (12): BatchNorm2d(64, eps=1e-05, momentum=0.1, affine=True, track_running_stats=True)
      (13): LeakyReLU(negative_slope=0.2, inplace=True)
    )
    (criterion): CrossEntropyLoss()
  )
  (DE): XGBHead()
)
Trainset: 10000
Valset: 800
Testset: 600
Namespace(arch='DN_X', config='../models/architectures/configs/DN4_DA.yaml', dengine=True, refit_dengine=True, dataset_dir='../dataset/miniImageNet', data_name='test', mode='test', resume='../results/models/dn4__miniImageNet_epoch_23.pth.tar', epochs=1, ngpu=1, print_freq=100, outf='../results/DN_X_test_DN4_5_Way_1_Shot_K1')=> loaded checkpoint '../results/models/dn4__miniImageNet_epoch_23.pth.tar' (epoch 23)
DN_X(
  (BACKBONE): FourLayer_64F(
    (features): Sequential(
      (0): Conv2d(3, 64, kernel_size=(3, 3), stride=(1, 1), padding=(1, 1), bias=False)
      (1): BatchNorm2d(64, eps=1e-05, momentum=0.1, affine=True, track_running_stats=True)
      (2): LeakyReLU(negative_slope=0.2, inplace=True)
      (3): MaxPool2d(kernel_size=2, stride=2, padding=0, dilation=1, ceil_mode=False)
      (4): Conv2d(64, 64, kernel_size=(3, 3), stride=(1, 1), padding=(1, 1), bias=False)
      (5): BatchNorm2d(64, eps=1e-05, momentum=0.1, affine=True, track_running_stats=True)
      (6): LeakyReLU(negative_slope=0.2, inplace=True)
      (7): MaxPool2d(kernel_size=2, stride=2, padding=0, dilation=1, ceil_mode=False)
      (8): Conv2d(64, 64, kernel_size=(3, 3), stride=(1, 1), padding=(1, 1), bias=False)
      (9): BatchNorm2d(64, eps=1e-05, momentum=0.1, affine=True, track_running_stats=True)
      (10): LeakyReLU(negative_slope=0.2, inplace=True)
      (11): Conv2d(64, 64, kernel_size=(3, 3), stride=(1, 1), padding=(1, 1), bias=False)
      (12): BatchNorm2d(64, eps=1e-05, momentum=0.1, affine=True, track_running_stats=True)
      (13): LeakyReLU(negative_slope=0.2, inplace=True)
    )
    (criterion): CrossEntropyLoss()
  )
  (DE): XGBHead()
)
Trainset: 10000
Valset: 800
Testset: 600
Namespace(arch='DN_X', config='../models/architectures/configs/DN4_DA.yaml', dengine=True, refit_dengine=True, dataset_dir='../dataset/miniImageNet', data_name='test', mode='test', resume='../results/models/dn4__miniImageNet_epoch_23.pth.tar', epochs=1, ngpu=1, print_freq=100, outf='../results/DN_X_test_DN4_5_Way_1_Shot_K1')=> loaded checkpoint '../results/models/dn4__miniImageNet_epoch_23.pth.tar' (epoch 23)
DN_X(
  (BACKBONE): FourLayer_64F(
    (features): Sequential(
      (0): Conv2d(3, 64, kernel_size=(3, 3), stride=(1, 1), padding=(1, 1), bias=False)
      (1): BatchNorm2d(64, eps=1e-05, momentum=0.1, affine=True, track_running_stats=True)
      (2): LeakyReLU(negative_slope=0.2, inplace=True)
      (3): MaxPool2d(kernel_size=2, stride=2, padding=0, dilation=1, ceil_mode=False)
      (4): Conv2d(64, 64, kernel_size=(3, 3), stride=(1, 1), padding=(1, 1), bias=False)
      (5): BatchNorm2d(64, eps=1e-05, momentum=0.1, affine=True, track_running_stats=True)
      (6): LeakyReLU(negative_slope=0.2, inplace=True)
      (7): MaxPool2d(kernel_size=2, stride=2, padding=0, dilation=1, ceil_mode=False)
      (8): Conv2d(64, 64, kernel_size=(3, 3), stride=(1, 1), padding=(1, 1), bias=False)
      (9): BatchNorm2d(64, eps=1e-05, momentum=0.1, affine=True, track_running_stats=True)
      (10): LeakyReLU(negative_slope=0.2, inplace=True)
      (11): Conv2d(64, 64, kernel_size=(3, 3), stride=(1, 1), padding=(1, 1), bias=False)
      (12): BatchNorm2d(64, eps=1e-05, momentum=0.1, affine=True, track_running_stats=True)
      (13): LeakyReLU(negative_slope=0.2, inplace=True)
    )
    (criterion): CrossEntropyLoss()
  )
  (DE): XGBHead()
)
Trainset: 10000
Valset: 800
Testset: 600
Namespace(arch='DN_X', config='../models/architectures/configs/DN4_DA.yaml', dengine=True, refit_dengine=True, dataset_dir='../dataset/miniImageNet', data_name='test', mode='test', resume='../results/models/dn4__miniImageNet_epoch_23.pth.tar', epochs=1, ngpu=1, print_freq=100, outf='../results/DN_X_test_DN4_5_Way_1_Shot_K1')=> loaded checkpoint '../results/models/dn4__miniImageNet_epoch_23.pth.tar' (epoch 23)
DN_X(
  (BACKBONE): FourLayer_64F(
    (features): Sequential(
      (0): Conv2d(3, 64, kernel_size=(3, 3), stride=(1, 1), padding=(1, 1), bias=False)
      (1): BatchNorm2d(64, eps=1e-05, momentum=0.1, affine=True, track_running_stats=True)
      (2): LeakyReLU(negative_slope=0.2, inplace=True)
      (3): MaxPool2d(kernel_size=2, stride=2, padding=0, dilation=1, ceil_mode=False)
      (4): Conv2d(64, 64, kernel_size=(3, 3), stride=(1, 1), padding=(1, 1), bias=False)
      (5): BatchNorm2d(64, eps=1e-05, momentum=0.1, affine=True, track_running_stats=True)
      (6): LeakyReLU(negative_slope=0.2, inplace=True)
      (7): MaxPool2d(kernel_size=2, stride=2, padding=0, dilation=1, ceil_mode=False)
      (8): Conv2d(64, 64, kernel_size=(3, 3), stride=(1, 1), padding=(1, 1), bias=False)
      (9): BatchNorm2d(64, eps=1e-05, momentum=0.1, affine=True, track_running_stats=True)
      (10): LeakyReLU(negative_slope=0.2, inplace=True)
      (11): Conv2d(64, 64, kernel_size=(3, 3), stride=(1, 1), padding=(1, 1), bias=False)
      (12): BatchNorm2d(64, eps=1e-05, momentum=0.1, affine=True, track_running_stats=True)
      (13): LeakyReLU(negative_slope=0.2, inplace=True)
    )
    (criterion): CrossEntropyLoss()
  )
  (DE): XGBHead()
)
Trainset: 10000
Valset: 800
Testset: 600
Namespace(arch='DN_X', config='../models/architectures/configs/DN4_DA.yaml', dengine=True, refit_dengine=True, dataset_dir='../dataset/miniImageNet', data_name='test', mode='test', resume='../results/models/dn4__miniImageNet_epoch_23.pth.tar', epochs=1, ngpu=1, print_freq=100, outf='../results/DN_X_test_DN4_5_Way_1_Shot_K1')=> loaded checkpoint '../results/models/dn4__miniImageNet_epoch_23.pth.tar' (epoch 23)
DN_X(
  (BACKBONE): FourLayer_64F(
    (features): Sequential(
      (0): Conv2d(3, 64, kernel_size=(3, 3), stride=(1, 1), padding=(1, 1), bias=False)
      (1): BatchNorm2d(64, eps=1e-05, momentum=0.1, affine=True, track_running_stats=True)
      (2): LeakyReLU(negative_slope=0.2, inplace=True)
      (3): MaxPool2d(kernel_size=2, stride=2, padding=0, dilation=1, ceil_mode=False)
      (4): Conv2d(64, 64, kernel_size=(3, 3), stride=(1, 1), padding=(1, 1), bias=False)
      (5): BatchNorm2d(64, eps=1e-05, momentum=0.1, affine=True, track_running_stats=True)
      (6): LeakyReLU(negative_slope=0.2, inplace=True)
      (7): MaxPool2d(kernel_size=2, stride=2, padding=0, dilation=1, ceil_mode=False)
      (8): Conv2d(64, 64, kernel_size=(3, 3), stride=(1, 1), padding=(1, 1), bias=False)
      (9): BatchNorm2d(64, eps=1e-05, momentum=0.1, affine=True, track_running_stats=True)
      (10): LeakyReLU(negative_slope=0.2, inplace=True)
      (11): Conv2d(64, 64, kernel_size=(3, 3), stride=(1, 1), padding=(1, 1), bias=False)
      (12): BatchNorm2d(64, eps=1e-05, momentum=0.1, affine=True, track_running_stats=True)
      (13): LeakyReLU(negative_slope=0.2, inplace=True)
    )
    (criterion): CrossEntropyLoss()
  )
  (DE): XGBHead()
)
Trainset: 10000
Valset: 800
Testset: 600
Namespace(arch='DN_X', config='../models/architectures/configs/DN4_DA.yaml', dengine=True, refit_dengine=True, dataset_dir='../dataset/miniImageNet', data_name='test', mode='test', resume='../results/models/dn4__miniImageNet_epoch_23.pth.tar', epochs=1, ngpu=1, print_freq=100, outf='../results/DN_X_test_DN4_5_Way_1_Shot_K1')=> loaded checkpoint '../results/models/dn4__miniImageNet_epoch_23.pth.tar' (epoch 23)
DN_X(
  (BACKBONE): FourLayer_64F(
    (features): Sequential(
      (0): Conv2d(3, 64, kernel_size=(3, 3), stride=(1, 1), padding=(1, 1), bias=False)
      (1): BatchNorm2d(64, eps=1e-05, momentum=0.1, affine=True, track_running_stats=True)
      (2): LeakyReLU(negative_slope=0.2, inplace=True)
      (3): MaxPool2d(kernel_size=2, stride=2, padding=0, dilation=1, ceil_mode=False)
      (4): Conv2d(64, 64, kernel_size=(3, 3), stride=(1, 1), padding=(1, 1), bias=False)
      (5): BatchNorm2d(64, eps=1e-05, momentum=0.1, affine=True, track_running_stats=True)
      (6): LeakyReLU(negative_slope=0.2, inplace=True)
      (7): MaxPool2d(kernel_size=2, stride=2, padding=0, dilation=1, ceil_mode=False)
      (8): Conv2d(64, 64, kernel_size=(3, 3), stride=(1, 1), padding=(1, 1), bias=False)
      (9): BatchNorm2d(64, eps=1e-05, momentum=0.1, affine=True, track_running_stats=True)
      (10): LeakyReLU(negative_slope=0.2, inplace=True)
      (11): Conv2d(64, 64, kernel_size=(3, 3), stride=(1, 1), padding=(1, 1), bias=False)
      (12): BatchNorm2d(64, eps=1e-05, momentum=0.1, affine=True, track_running_stats=True)
      (13): LeakyReLU(negative_slope=0.2, inplace=True)
    )
    (criterion): CrossEntropyLoss()
  )
  (DE): XGBHead()
)
Trainset: 10000
Valset: 800
Testset: 600
Namespace(arch='DN_X', config='../models/architectures/configs/DN4_DA.yaml', dengine=True, refit_dengine=True, dataset_dir='../dataset/miniImageNet', data_name='test', mode='test', resume='../results/models/dn4__miniImageNet_epoch_23.pth.tar', epochs=1, ngpu=1, print_freq=100, outf='../results/DN_X_test_DN4_5_Way_1_Shot_K1')=> loaded checkpoint '../results/models/dn4__miniImageNet_epoch_23.pth.tar' (epoch 23)
DN_X(
  (BACKBONE): FourLayer_64F(
    (features): Sequential(
      (0): Conv2d(3, 64, kernel_size=(3, 3), stride=(1, 1), padding=(1, 1), bias=False)
      (1): BatchNorm2d(64, eps=1e-05, momentum=0.1, affine=True, track_running_stats=True)
      (2): LeakyReLU(negative_slope=0.2, inplace=True)
      (3): MaxPool2d(kernel_size=2, stride=2, padding=0, dilation=1, ceil_mode=False)
      (4): Conv2d(64, 64, kernel_size=(3, 3), stride=(1, 1), padding=(1, 1), bias=False)
      (5): BatchNorm2d(64, eps=1e-05, momentum=0.1, affine=True, track_running_stats=True)
      (6): LeakyReLU(negative_slope=0.2, inplace=True)
      (7): MaxPool2d(kernel_size=2, stride=2, padding=0, dilation=1, ceil_mode=False)
      (8): Conv2d(64, 64, kernel_size=(3, 3), stride=(1, 1), padding=(1, 1), bias=False)
      (9): BatchNorm2d(64, eps=1e-05, momentum=0.1, affine=True, track_running_stats=True)
      (10): LeakyReLU(negative_slope=0.2, inplace=True)
      (11): Conv2d(64, 64, kernel_size=(3, 3), stride=(1, 1), padding=(1, 1), bias=False)
      (12): BatchNorm2d(64, eps=1e-05, momentum=0.1, affine=True, track_running_stats=True)
      (13): LeakyReLU(negative_slope=0.2, inplace=True)
    )
    (criterion): CrossEntropyLoss()
  )
  (DE): XGBHead()
)
Trainset: 10000
Valset: 800
Testset: 600
Namespace(arch='DN_X', config='../models/architectures/configs/DN4_DA.yaml', dengine=True, refit_dengine=True, dataset_dir='../dataset/miniImageNet', data_name='test', mode='test', resume='../results/models/dn4__miniImageNet_epoch_23.pth.tar', epochs=1, ngpu=1, print_freq=100, outf='../results/DN_X_test_DN4_5_Way_1_Shot_K1')=> loaded checkpoint '../results/models/dn4__miniImageNet_epoch_23.pth.tar' (epoch 23)
DN_X(
  (BACKBONE): FourLayer_64F(
    (features): Sequential(
      (0): Conv2d(3, 64, kernel_size=(3, 3), stride=(1, 1), padding=(1, 1), bias=False)
      (1): BatchNorm2d(64, eps=1e-05, momentum=0.1, affine=True, track_running_stats=True)
      (2): LeakyReLU(negative_slope=0.2, inplace=True)
      (3): MaxPool2d(kernel_size=2, stride=2, padding=0, dilation=1, ceil_mode=False)
      (4): Conv2d(64, 64, kernel_size=(3, 3), stride=(1, 1), padding=(1, 1), bias=False)
      (5): BatchNorm2d(64, eps=1e-05, momentum=0.1, affine=True, track_running_stats=True)
      (6): LeakyReLU(negative_slope=0.2, inplace=True)
      (7): MaxPool2d(kernel_size=2, stride=2, padding=0, dilation=1, ceil_mode=False)
      (8): Conv2d(64, 64, kernel_size=(3, 3), stride=(1, 1), padding=(1, 1), bias=False)
      (9): BatchNorm2d(64, eps=1e-05, momentum=0.1, affine=True, track_running_stats=True)
      (10): LeakyReLU(negative_slope=0.2, inplace=True)
      (11): Conv2d(64, 64, kernel_size=(3, 3), stride=(1, 1), padding=(1, 1), bias=False)
      (12): BatchNorm2d(64, eps=1e-05, momentum=0.1, affine=True, track_running_stats=True)
      (13): LeakyReLU(negative_slope=0.2, inplace=True)
    )
    (criterion): CrossEntropyLoss()
  )
  (DE): XGBHead()
)
Trainset: 10000
Valset: 800
Testset: 600
Namespace(arch='DN_X', config='../models/architectures/configs/DN4_DA.yaml', dengine=True, refit_dengine=True, dataset_dir='../dataset/miniImageNet', data_name='test', mode='test', resume='../results/models/dn4__miniImageNet_epoch_23.pth.tar', epochs=1, ngpu=1, print_freq=100, outf='../results/DN_X_test_DN4_5_Way_1_Shot_K1')=> loaded checkpoint '../results/models/dn4__miniImageNet_epoch_23.pth.tar' (epoch 23)
DN_X(
  (BACKBONE): FourLayer_64F(
    (features): Sequential(
      (0): Conv2d(3, 64, kernel_size=(3, 3), stride=(1, 1), padding=(1, 1), bias=False)
      (1): BatchNorm2d(64, eps=1e-05, momentum=0.1, affine=True, track_running_stats=True)
      (2): LeakyReLU(negative_slope=0.2, inplace=True)
      (3): MaxPool2d(kernel_size=2, stride=2, padding=0, dilation=1, ceil_mode=False)
      (4): Conv2d(64, 64, kernel_size=(3, 3), stride=(1, 1), padding=(1, 1), bias=False)
      (5): BatchNorm2d(64, eps=1e-05, momentum=0.1, affine=True, track_running_stats=True)
      (6): LeakyReLU(negative_slope=0.2, inplace=True)
      (7): MaxPool2d(kernel_size=2, stride=2, padding=0, dilation=1, ceil_mode=False)
      (8): Conv2d(64, 64, kernel_size=(3, 3), stride=(1, 1), padding=(1, 1), bias=False)
      (9): BatchNorm2d(64, eps=1e-05, momentum=0.1, affine=True, track_running_stats=True)
      (10): LeakyReLU(negative_slope=0.2, inplace=True)
      (11): Conv2d(64, 64, kernel_size=(3, 3), stride=(1, 1), padding=(1, 1), bias=False)
      (12): BatchNorm2d(64, eps=1e-05, momentum=0.1, affine=True, track_running_stats=True)
      (13): LeakyReLU(negative_slope=0.2, inplace=True)
    )
    (criterion): CrossEntropyLoss()
  )
  (DE): XGBHead()
)
Trainset: 10000
Valset: 800
Testset: 600
Namespace(arch='DN_X', config='../models/architectures/configs/DN4_DA.yaml', dengine=True, refit_dengine=True, dataset_dir='../dataset/miniImageNet', data_name='test', mode='test', resume='../results/models/dn4__miniImageNet_epoch_23.pth.tar', epochs=1, ngpu=1, print_freq=100, outf='../results/DN_X_test_DN4_5_Way_1_Shot_K1')=> loaded checkpoint '../results/models/dn4__miniImageNet_epoch_23.pth.tar' (epoch 23)
DN_X(
  (BACKBONE): FourLayer_64F(
    (features): Sequential(
      (0): Conv2d(3, 64, kernel_size=(3, 3), stride=(1, 1), padding=(1, 1), bias=False)
      (1): BatchNorm2d(64, eps=1e-05, momentum=0.1, affine=True, track_running_stats=True)
      (2): LeakyReLU(negative_slope=0.2, inplace=True)
      (3): MaxPool2d(kernel_size=2, stride=2, padding=0, dilation=1, ceil_mode=False)
      (4): Conv2d(64, 64, kernel_size=(3, 3), stride=(1, 1), padding=(1, 1), bias=False)
      (5): BatchNorm2d(64, eps=1e-05, momentum=0.1, affine=True, track_running_stats=True)
      (6): LeakyReLU(negative_slope=0.2, inplace=True)
      (7): MaxPool2d(kernel_size=2, stride=2, padding=0, dilation=1, ceil_mode=False)
      (8): Conv2d(64, 64, kernel_size=(3, 3), stride=(1, 1), padding=(1, 1), bias=False)
      (9): BatchNorm2d(64, eps=1e-05, momentum=0.1, affine=True, track_running_stats=True)
      (10): LeakyReLU(negative_slope=0.2, inplace=True)
      (11): Conv2d(64, 64, kernel_size=(3, 3), stride=(1, 1), padding=(1, 1), bias=False)
      (12): BatchNorm2d(64, eps=1e-05, momentum=0.1, affine=True, track_running_stats=True)
      (13): LeakyReLU(negative_slope=0.2, inplace=True)
    )
    (criterion): CrossEntropyLoss()
  )
  (DE): XGBHead()
)
Trainset: 10000
Valset: 800
Testset: 600
Namespace(arch='DN_X', config='../models/architectures/configs/DN4_DA.yaml', dengine=True, refit_dengine=True, dataset_dir='../dataset/miniImageNet', data_name='test', mode='test', resume='../results/models/dn4__miniImageNet_epoch_23.pth.tar', epochs=1, ngpu=1, print_freq=100, outf='../results/DN_X_test_DN4_5_Way_1_Shot_K1')=> loaded checkpoint '../results/models/dn4__miniImageNet_epoch_23.pth.tar' (epoch 23)
DN_X(
  (BACKBONE): FourLayer_64F(
    (features): Sequential(
      (0): Conv2d(3, 64, kernel_size=(3, 3), stride=(1, 1), padding=(1, 1), bias=False)
      (1): BatchNorm2d(64, eps=1e-05, momentum=0.1, affine=True, track_running_stats=True)
      (2): LeakyReLU(negative_slope=0.2, inplace=True)
      (3): MaxPool2d(kernel_size=2, stride=2, padding=0, dilation=1, ceil_mode=False)
      (4): Conv2d(64, 64, kernel_size=(3, 3), stride=(1, 1), padding=(1, 1), bias=False)
      (5): BatchNorm2d(64, eps=1e-05, momentum=0.1, affine=True, track_running_stats=True)
      (6): LeakyReLU(negative_slope=0.2, inplace=True)
      (7): MaxPool2d(kernel_size=2, stride=2, padding=0, dilation=1, ceil_mode=False)
      (8): Conv2d(64, 64, kernel_size=(3, 3), stride=(1, 1), padding=(1, 1), bias=False)
      (9): BatchNorm2d(64, eps=1e-05, momentum=0.1, affine=True, track_running_stats=True)
      (10): LeakyReLU(negative_slope=0.2, inplace=True)
      (11): Conv2d(64, 64, kernel_size=(3, 3), stride=(1, 1), padding=(1, 1), bias=False)
      (12): BatchNorm2d(64, eps=1e-05, momentum=0.1, affine=True, track_running_stats=True)
      (13): LeakyReLU(negative_slope=0.2, inplace=True)
    )
    (criterion): CrossEntropyLoss()
  )
  (DE): XGBHead()
)
Trainset: 10000
Valset: 800
Testset: 600
Namespace(arch='DN_X', config='../models/architectures/configs/DN4_DA.yaml', dengine=True, refit_dengine=True, dataset_dir='../dataset/miniImageNet', data_name='test', mode='test', resume='../results/models/dn4__miniImageNet_epoch_23.pth.tar', epochs=1, ngpu=1, print_freq=100, outf='../results/DN_X_test_DN4_5_Way_1_Shot_K1')=> loaded checkpoint '../results/models/dn4__miniImageNet_epoch_23.pth.tar' (epoch 23)
DN_X(
  (BACKBONE): FourLayer_64F(
    (features): Sequential(
      (0): Conv2d(3, 64, kernel_size=(3, 3), stride=(1, 1), padding=(1, 1), bias=False)
      (1): BatchNorm2d(64, eps=1e-05, momentum=0.1, affine=True, track_running_stats=True)
      (2): LeakyReLU(negative_slope=0.2, inplace=True)
      (3): MaxPool2d(kernel_size=2, stride=2, padding=0, dilation=1, ceil_mode=False)
      (4): Conv2d(64, 64, kernel_size=(3, 3), stride=(1, 1), padding=(1, 1), bias=False)
      (5): BatchNorm2d(64, eps=1e-05, momentum=0.1, affine=True, track_running_stats=True)
      (6): LeakyReLU(negative_slope=0.2, inplace=True)
      (7): MaxPool2d(kernel_size=2, stride=2, padding=0, dilation=1, ceil_mode=False)
      (8): Conv2d(64, 64, kernel_size=(3, 3), stride=(1, 1), padding=(1, 1), bias=False)
      (9): BatchNorm2d(64, eps=1e-05, momentum=0.1, affine=True, track_running_stats=True)
      (10): LeakyReLU(negative_slope=0.2, inplace=True)
      (11): Conv2d(64, 64, kernel_size=(3, 3), stride=(1, 1), padding=(1, 1), bias=False)
      (12): BatchNorm2d(64, eps=1e-05, momentum=0.1, affine=True, track_running_stats=True)
      (13): LeakyReLU(negative_slope=0.2, inplace=True)
    )
    (criterion): CrossEntropyLoss()
  )
  (DE): XGBHead()
)
Trainset: 10000
Valset: 800
Testset: 600
Namespace(arch='DN_X', config='../models/architectures/configs/DN4_DA.yaml', dengine=True, refit_dengine=True, dataset_dir='../dataset/miniImageNet', data_name='test', mode='test', resume='../results/models/dn4__miniImageNet_epoch_23.pth.tar', epochs=1, ngpu=1, print_freq=100, outf='../results/DN_X_test_DN4_5_Way_1_Shot_K1')=> loaded checkpoint '../results/models/dn4__miniImageNet_epoch_23.pth.tar' (epoch 23)
DN_X(
  (BACKBONE): FourLayer_64F(
    (features): Sequential(
      (0): Conv2d(3, 64, kernel_size=(3, 3), stride=(1, 1), padding=(1, 1), bias=False)
      (1): BatchNorm2d(64, eps=1e-05, momentum=0.1, affine=True, track_running_stats=True)
      (2): LeakyReLU(negative_slope=0.2, inplace=True)
      (3): MaxPool2d(kernel_size=2, stride=2, padding=0, dilation=1, ceil_mode=False)
      (4): Conv2d(64, 64, kernel_size=(3, 3), stride=(1, 1), padding=(1, 1), bias=False)
      (5): BatchNorm2d(64, eps=1e-05, momentum=0.1, affine=True, track_running_stats=True)
      (6): LeakyReLU(negative_slope=0.2, inplace=True)
      (7): MaxPool2d(kernel_size=2, stride=2, padding=0, dilation=1, ceil_mode=False)
      (8): Conv2d(64, 64, kernel_size=(3, 3), stride=(1, 1), padding=(1, 1), bias=False)
      (9): BatchNorm2d(64, eps=1e-05, momentum=0.1, affine=True, track_running_stats=True)
      (10): LeakyReLU(negative_slope=0.2, inplace=True)
      (11): Conv2d(64, 64, kernel_size=(3, 3), stride=(1, 1), padding=(1, 1), bias=False)
      (12): BatchNorm2d(64, eps=1e-05, momentum=0.1, affine=True, track_running_stats=True)
      (13): LeakyReLU(negative_slope=0.2, inplace=True)
    )
    (criterion): CrossEntropyLoss()
  )
  (DE): XGBHead()
)
Trainset: 10000
Valset: 800
Testset: 600
Namespace(arch='DN_X', config='../models/architectures/configs/DN4_DA.yaml', dengine=True, refit_dengine=True, dataset_dir='../dataset/miniImageNet', data_name='test', mode='test', resume='../results/models/dn4__miniImageNet_epoch_23.pth.tar', epochs=1, ngpu=1, print_freq=100, outf='../results/DN_X_test_DN4_5_Way_1_Shot_K1')=> loaded checkpoint '../results/models/dn4__miniImageNet_epoch_23.pth.tar' (epoch 23)
DN_X(
  (BACKBONE): FourLayer_64F(
    (features): Sequential(
      (0): Conv2d(3, 64, kernel_size=(3, 3), stride=(1, 1), padding=(1, 1), bias=False)
      (1): BatchNorm2d(64, eps=1e-05, momentum=0.1, affine=True, track_running_stats=True)
      (2): LeakyReLU(negative_slope=0.2, inplace=True)
      (3): MaxPool2d(kernel_size=2, stride=2, padding=0, dilation=1, ceil_mode=False)
      (4): Conv2d(64, 64, kernel_size=(3, 3), stride=(1, 1), padding=(1, 1), bias=False)
      (5): BatchNorm2d(64, eps=1e-05, momentum=0.1, affine=True, track_running_stats=True)
      (6): LeakyReLU(negative_slope=0.2, inplace=True)
      (7): MaxPool2d(kernel_size=2, stride=2, padding=0, dilation=1, ceil_mode=False)
      (8): Conv2d(64, 64, kernel_size=(3, 3), stride=(1, 1), padding=(1, 1), bias=False)
      (9): BatchNorm2d(64, eps=1e-05, momentum=0.1, affine=True, track_running_stats=True)
      (10): LeakyReLU(negative_slope=0.2, inplace=True)
      (11): Conv2d(64, 64, kernel_size=(3, 3), stride=(1, 1), padding=(1, 1), bias=False)
      (12): BatchNorm2d(64, eps=1e-05, momentum=0.1, affine=True, track_running_stats=True)
      (13): LeakyReLU(negative_slope=0.2, inplace=True)
    )
    (criterion): CrossEntropyLoss()
  )
  (DE): XGBHead()
)
Trainset: 10000
Valset: 800
Testset: 600
Namespace(arch='DN_X', config='../models/architectures/configs/DN4_DA.yaml', dengine=True, refit_dengine=True, dataset_dir='../dataset/miniImageNet', data_name='test', mode='test', resume='../results/models/dn4__miniImageNet_epoch_23.pth.tar', epochs=1, ngpu=1, print_freq=100, outf='../results/DN_X_test_DN4_5_Way_1_Shot_K1')=> loaded checkpoint '../results/models/dn4__miniImageNet_epoch_23.pth.tar' (epoch 23)
DN_X(
  (BACKBONE): FourLayer_64F(
    (features): Sequential(
      (0): Conv2d(3, 64, kernel_size=(3, 3), stride=(1, 1), padding=(1, 1), bias=False)
      (1): BatchNorm2d(64, eps=1e-05, momentum=0.1, affine=True, track_running_stats=True)
      (2): LeakyReLU(negative_slope=0.2, inplace=True)
      (3): MaxPool2d(kernel_size=2, stride=2, padding=0, dilation=1, ceil_mode=False)
      (4): Conv2d(64, 64, kernel_size=(3, 3), stride=(1, 1), padding=(1, 1), bias=False)
      (5): BatchNorm2d(64, eps=1e-05, momentum=0.1, affine=True, track_running_stats=True)
      (6): LeakyReLU(negative_slope=0.2, inplace=True)
      (7): MaxPool2d(kernel_size=2, stride=2, padding=0, dilation=1, ceil_mode=False)
      (8): Conv2d(64, 64, kernel_size=(3, 3), stride=(1, 1), padding=(1, 1), bias=False)
      (9): BatchNorm2d(64, eps=1e-05, momentum=0.1, affine=True, track_running_stats=True)
      (10): LeakyReLU(negative_slope=0.2, inplace=True)
      (11): Conv2d(64, 64, kernel_size=(3, 3), stride=(1, 1), padding=(1, 1), bias=False)
      (12): BatchNorm2d(64, eps=1e-05, momentum=0.1, affine=True, track_running_stats=True)
      (13): LeakyReLU(negative_slope=0.2, inplace=True)
    )
    (criterion): CrossEntropyLoss()
  )
  (DE): XGBHead()
)
Trainset: 10000
Valset: 800
Testset: 600
Namespace(arch='DN_X', config='../models/architectures/configs/DN4_DA.yaml', dengine=True, refit_dengine=True, dataset_dir='../dataset/miniImageNet', data_name='test', mode='test', resume='../results/models/dn4__miniImageNet_epoch_23.pth.tar', epochs=1, ngpu=1, print_freq=100, outf='../results/DN_X_test_DN4_5_Way_1_Shot_K1')=> loaded checkpoint '../results/models/dn4__miniImageNet_epoch_23.pth.tar' (epoch 23)
DN_X(
  (BACKBONE): FourLayer_64F(
    (features): Sequential(
      (0): Conv2d(3, 64, kernel_size=(3, 3), stride=(1, 1), padding=(1, 1), bias=False)
      (1): BatchNorm2d(64, eps=1e-05, momentum=0.1, affine=True, track_running_stats=True)
      (2): LeakyReLU(negative_slope=0.2, inplace=True)
      (3): MaxPool2d(kernel_size=2, stride=2, padding=0, dilation=1, ceil_mode=False)
      (4): Conv2d(64, 64, kernel_size=(3, 3), stride=(1, 1), padding=(1, 1), bias=False)
      (5): BatchNorm2d(64, eps=1e-05, momentum=0.1, affine=True, track_running_stats=True)
      (6): LeakyReLU(negative_slope=0.2, inplace=True)
      (7): MaxPool2d(kernel_size=2, stride=2, padding=0, dilation=1, ceil_mode=False)
      (8): Conv2d(64, 64, kernel_size=(3, 3), stride=(1, 1), padding=(1, 1), bias=False)
      (9): BatchNorm2d(64, eps=1e-05, momentum=0.1, affine=True, track_running_stats=True)
      (10): LeakyReLU(negative_slope=0.2, inplace=True)
      (11): Conv2d(64, 64, kernel_size=(3, 3), stride=(1, 1), padding=(1, 1), bias=False)
      (12): BatchNorm2d(64, eps=1e-05, momentum=0.1, affine=True, track_running_stats=True)
      (13): LeakyReLU(negative_slope=0.2, inplace=True)
    )
    (criterion): CrossEntropyLoss()
  )
  (DE): XGBHead()
)
Trainset: 10000
Valset: 800
Testset: 600
Namespace(arch='DN_X', config='../models/architectures/configs/DN4_DA.yaml', dengine=True, refit_dengine=True, dataset_dir='../dataset/miniImageNet', data_name='test', mode='test', resume='../results/models/dn4__miniImageNet_epoch_23.pth.tar', epochs=1, ngpu=1, print_freq=100, outf='../results/DN_X_test_DN4_5_Way_1_Shot_K1')=> loaded checkpoint '../results/models/dn4__miniImageNet_epoch_23.pth.tar' (epoch 23)
DN_X(
  (BACKBONE): FourLayer_64F(
    (features): Sequential(
      (0): Conv2d(3, 64, kernel_size=(3, 3), stride=(1, 1), padding=(1, 1), bias=False)
      (1): BatchNorm2d(64, eps=1e-05, momentum=0.1, affine=True, track_running_stats=True)
      (2): LeakyReLU(negative_slope=0.2, inplace=True)
      (3): MaxPool2d(kernel_size=2, stride=2, padding=0, dilation=1, ceil_mode=False)
      (4): Conv2d(64, 64, kernel_size=(3, 3), stride=(1, 1), padding=(1, 1), bias=False)
      (5): BatchNorm2d(64, eps=1e-05, momentum=0.1, affine=True, track_running_stats=True)
      (6): LeakyReLU(negative_slope=0.2, inplace=True)
      (7): MaxPool2d(kernel_size=2, stride=2, padding=0, dilation=1, ceil_mode=False)
      (8): Conv2d(64, 64, kernel_size=(3, 3), stride=(1, 1), padding=(1, 1), bias=False)
      (9): BatchNorm2d(64, eps=1e-05, momentum=0.1, affine=True, track_running_stats=True)
      (10): LeakyReLU(negative_slope=0.2, inplace=True)
      (11): Conv2d(64, 64, kernel_size=(3, 3), stride=(1, 1), padding=(1, 1), bias=False)
      (12): BatchNorm2d(64, eps=1e-05, momentum=0.1, affine=True, track_running_stats=True)
      (13): LeakyReLU(negative_slope=0.2, inplace=True)
    )
    (criterion): CrossEntropyLoss()
  )
  (DE): XGBHead()
)
Trainset: 10000
Valset: 800
Testset: 600
Namespace(arch='DN_X', config='../models/architectures/configs/DN4_DA.yaml', dengine=True, refit_dengine=True, dataset_dir='../dataset/miniImageNet', data_name='test', mode='test', resume='../results/models/dn4__miniImageNet_epoch_23.pth.tar', epochs=1, ngpu=1, print_freq=100, outf='../results/DN_X_test_DN4_5_Way_1_Shot_K1')=> loaded checkpoint '../results/models/dn4__miniImageNet_epoch_23.pth.tar' (epoch 23)
DN_X(
  (BACKBONE): FourLayer_64F(
    (features): Sequential(
      (0): Conv2d(3, 64, kernel_size=(3, 3), stride=(1, 1), padding=(1, 1), bias=False)
      (1): BatchNorm2d(64, eps=1e-05, momentum=0.1, affine=True, track_running_stats=True)
      (2): LeakyReLU(negative_slope=0.2, inplace=True)
      (3): MaxPool2d(kernel_size=2, stride=2, padding=0, dilation=1, ceil_mode=False)
      (4): Conv2d(64, 64, kernel_size=(3, 3), stride=(1, 1), padding=(1, 1), bias=False)
      (5): BatchNorm2d(64, eps=1e-05, momentum=0.1, affine=True, track_running_stats=True)
      (6): LeakyReLU(negative_slope=0.2, inplace=True)
      (7): MaxPool2d(kernel_size=2, stride=2, padding=0, dilation=1, ceil_mode=False)
      (8): Conv2d(64, 64, kernel_size=(3, 3), stride=(1, 1), padding=(1, 1), bias=False)
      (9): BatchNorm2d(64, eps=1e-05, momentum=0.1, affine=True, track_running_stats=True)
      (10): LeakyReLU(negative_slope=0.2, inplace=True)
      (11): Conv2d(64, 64, kernel_size=(3, 3), stride=(1, 1), padding=(1, 1), bias=False)
      (12): BatchNorm2d(64, eps=1e-05, momentum=0.1, affine=True, track_running_stats=True)
      (13): LeakyReLU(negative_slope=0.2, inplace=True)
    )
    (criterion): CrossEntropyLoss()
  )
  (DE): XGBHead()
)
Trainset: 10000
Valset: 800
Testset: 600
Namespace(arch='DN_X', config='../models/architectures/configs/DN4_DA.yaml', dengine=True, refit_dengine=True, dataset_dir='../dataset/miniImageNet', data_name='test', mode='test', resume='../results/models/dn4__miniImageNet_epoch_23.pth.tar', epochs=1, ngpu=1, print_freq=100, outf='../results/DN_X_test_DN4_5_Way_1_Shot_K1')=> loaded checkpoint '../results/models/dn4__miniImageNet_epoch_23.pth.tar' (epoch 23)
DN_X(
  (BACKBONE): FourLayer_64F(
    (features): Sequential(
      (0): Conv2d(3, 64, kernel_size=(3, 3), stride=(1, 1), padding=(1, 1), bias=False)
      (1): BatchNorm2d(64, eps=1e-05, momentum=0.1, affine=True, track_running_stats=True)
      (2): LeakyReLU(negative_slope=0.2, inplace=True)
      (3): MaxPool2d(kernel_size=2, stride=2, padding=0, dilation=1, ceil_mode=False)
      (4): Conv2d(64, 64, kernel_size=(3, 3), stride=(1, 1), padding=(1, 1), bias=False)
      (5): BatchNorm2d(64, eps=1e-05, momentum=0.1, affine=True, track_running_stats=True)
      (6): LeakyReLU(negative_slope=0.2, inplace=True)
      (7): MaxPool2d(kernel_size=2, stride=2, padding=0, dilation=1, ceil_mode=False)
      (8): Conv2d(64, 64, kernel_size=(3, 3), stride=(1, 1), padding=(1, 1), bias=False)
      (9): BatchNorm2d(64, eps=1e-05, momentum=0.1, affine=True, track_running_stats=True)
      (10): LeakyReLU(negative_slope=0.2, inplace=True)
      (11): Conv2d(64, 64, kernel_size=(3, 3), stride=(1, 1), padding=(1, 1), bias=False)
      (12): BatchNorm2d(64, eps=1e-05, momentum=0.1, affine=True, track_running_stats=True)
      (13): LeakyReLU(negative_slope=0.2, inplace=True)
    )
    (criterion): CrossEntropyLoss()
  )
  (DE): XGBHead()
)
Trainset: 10000
Valset: 800
Testset: 600
Namespace(arch='DN_X', config='../models/architectures/configs/DN4_DA.yaml', dengine=True, refit_dengine=True, dataset_dir='../dataset/miniImageNet', data_name='test', mode='test', resume='../results/models/dn4__miniImageNet_epoch_23.pth.tar', epochs=1, ngpu=1, print_freq=100, outf='../results/DN_X_test_DN4_5_Way_1_Shot_K1')=> loaded checkpoint '../results/models/dn4__miniImageNet_epoch_23.pth.tar' (epoch 23)
DN_X(
  (BACKBONE): FourLayer_64F(
    (features): Sequential(
      (0): Conv2d(3, 64, kernel_size=(3, 3), stride=(1, 1), padding=(1, 1), bias=False)
      (1): BatchNorm2d(64, eps=1e-05, momentum=0.1, affine=True, track_running_stats=True)
      (2): LeakyReLU(negative_slope=0.2, inplace=True)
      (3): MaxPool2d(kernel_size=2, stride=2, padding=0, dilation=1, ceil_mode=False)
      (4): Conv2d(64, 64, kernel_size=(3, 3), stride=(1, 1), padding=(1, 1), bias=False)
      (5): BatchNorm2d(64, eps=1e-05, momentum=0.1, affine=True, track_running_stats=True)
      (6): LeakyReLU(negative_slope=0.2, inplace=True)
      (7): MaxPool2d(kernel_size=2, stride=2, padding=0, dilation=1, ceil_mode=False)
      (8): Conv2d(64, 64, kernel_size=(3, 3), stride=(1, 1), padding=(1, 1), bias=False)
      (9): BatchNorm2d(64, eps=1e-05, momentum=0.1, affine=True, track_running_stats=True)
      (10): LeakyReLU(negative_slope=0.2, inplace=True)
      (11): Conv2d(64, 64, kernel_size=(3, 3), stride=(1, 1), padding=(1, 1), bias=False)
      (12): BatchNorm2d(64, eps=1e-05, momentum=0.1, affine=True, track_running_stats=True)
      (13): LeakyReLU(negative_slope=0.2, inplace=True)
    )
    (criterion): CrossEntropyLoss()
  )
  (DE): XGBHead()
)
Trainset: 10000
Valset: 800
Testset: 600
Namespace(arch='DN_X', config='../models/architectures/configs/DN4_DA.yaml', dengine=True, refit_dengine=True, dataset_dir='../dataset/miniImageNet', data_name='test', mode='test', resume='../results/models/dn4__miniImageNet_epoch_23.pth.tar', epochs=1, ngpu=1, print_freq=100, outf='../results/DN_X_test_DN4_5_Way_1_Shot_K1')=> loaded checkpoint '../results/models/dn4__miniImageNet_epoch_23.pth.tar' (epoch 23)
DN_X(
  (BACKBONE): FourLayer_64F(
    (features): Sequential(
      (0): Conv2d(3, 64, kernel_size=(3, 3), stride=(1, 1), padding=(1, 1), bias=False)
      (1): BatchNorm2d(64, eps=1e-05, momentum=0.1, affine=True, track_running_stats=True)
      (2): LeakyReLU(negative_slope=0.2, inplace=True)
      (3): MaxPool2d(kernel_size=2, stride=2, padding=0, dilation=1, ceil_mode=False)
      (4): Conv2d(64, 64, kernel_size=(3, 3), stride=(1, 1), padding=(1, 1), bias=False)
      (5): BatchNorm2d(64, eps=1e-05, momentum=0.1, affine=True, track_running_stats=True)
      (6): LeakyReLU(negative_slope=0.2, inplace=True)
      (7): MaxPool2d(kernel_size=2, stride=2, padding=0, dilation=1, ceil_mode=False)
      (8): Conv2d(64, 64, kernel_size=(3, 3), stride=(1, 1), padding=(1, 1), bias=False)
      (9): BatchNorm2d(64, eps=1e-05, momentum=0.1, affine=True, track_running_stats=True)
      (10): LeakyReLU(negative_slope=0.2, inplace=True)
      (11): Conv2d(64, 64, kernel_size=(3, 3), stride=(1, 1), padding=(1, 1), bias=False)
      (12): BatchNorm2d(64, eps=1e-05, momentum=0.1, affine=True, track_running_stats=True)
      (13): LeakyReLU(negative_slope=0.2, inplace=True)
    )
    (criterion): CrossEntropyLoss()
  )
  (DE): XGBHead()
)
Trainset: 10000
Valset: 800
Testset: 600
Namespace(arch='DN_X', config='../models/architectures/configs/DN4_DA.yaml', dengine=True, refit_dengine=True, dataset_dir='../dataset/miniImageNet', data_name='test', mode='test', resume='../results/models/dn4__miniImageNet_epoch_23.pth.tar', epochs=1, ngpu=1, print_freq=100, outf='../results/DN_X_test_DN4_5_Way_1_Shot_K1')=> loaded checkpoint '../results/models/dn4__miniImageNet_epoch_23.pth.tar' (epoch 23)
DN_X(
  (BACKBONE): FourLayer_64F(
    (features): Sequential(
      (0): Conv2d(3, 64, kernel_size=(3, 3), stride=(1, 1), padding=(1, 1), bias=False)
      (1): BatchNorm2d(64, eps=1e-05, momentum=0.1, affine=True, track_running_stats=True)
      (2): LeakyReLU(negative_slope=0.2, inplace=True)
      (3): MaxPool2d(kernel_size=2, stride=2, padding=0, dilation=1, ceil_mode=False)
      (4): Conv2d(64, 64, kernel_size=(3, 3), stride=(1, 1), padding=(1, 1), bias=False)
      (5): BatchNorm2d(64, eps=1e-05, momentum=0.1, affine=True, track_running_stats=True)
      (6): LeakyReLU(negative_slope=0.2, inplace=True)
      (7): MaxPool2d(kernel_size=2, stride=2, padding=0, dilation=1, ceil_mode=False)
      (8): Conv2d(64, 64, kernel_size=(3, 3), stride=(1, 1), padding=(1, 1), bias=False)
      (9): BatchNorm2d(64, eps=1e-05, momentum=0.1, affine=True, track_running_stats=True)
      (10): LeakyReLU(negative_slope=0.2, inplace=True)
      (11): Conv2d(64, 64, kernel_size=(3, 3), stride=(1, 1), padding=(1, 1), bias=False)
      (12): BatchNorm2d(64, eps=1e-05, momentum=0.1, affine=True, track_running_stats=True)
      (13): LeakyReLU(negative_slope=0.2, inplace=True)
    )
    (criterion): CrossEntropyLoss()
  )
  (DE): XGBHead()
)
Trainset: 10000
Valset: 800
Testset: 600
Namespace(arch='DN_X', config='../models/architectures/configs/DN4_DA.yaml', dengine=True, refit_dengine=True, dataset_dir='../dataset/miniImageNet', data_name='test', mode='test', resume='../results/models/dn4__miniImageNet_epoch_23.pth.tar', epochs=1, ngpu=1, print_freq=100, outf='../results/DN_X_test_DN4_5_Way_1_Shot_K1')=> loaded checkpoint '../results/models/dn4__miniImageNet_epoch_23.pth.tar' (epoch 23)
DN_X(
  (BACKBONE): FourLayer_64F(
    (features): Sequential(
      (0): Conv2d(3, 64, kernel_size=(3, 3), stride=(1, 1), padding=(1, 1), bias=False)
      (1): BatchNorm2d(64, eps=1e-05, momentum=0.1, affine=True, track_running_stats=True)
      (2): LeakyReLU(negative_slope=0.2, inplace=True)
      (3): MaxPool2d(kernel_size=2, stride=2, padding=0, dilation=1, ceil_mode=False)
      (4): Conv2d(64, 64, kernel_size=(3, 3), stride=(1, 1), padding=(1, 1), bias=False)
      (5): BatchNorm2d(64, eps=1e-05, momentum=0.1, affine=True, track_running_stats=True)
      (6): LeakyReLU(negative_slope=0.2, inplace=True)
      (7): MaxPool2d(kernel_size=2, stride=2, padding=0, dilation=1, ceil_mode=False)
      (8): Conv2d(64, 64, kernel_size=(3, 3), stride=(1, 1), padding=(1, 1), bias=False)
      (9): BatchNorm2d(64, eps=1e-05, momentum=0.1, affine=True, track_running_stats=True)
      (10): LeakyReLU(negative_slope=0.2, inplace=True)
      (11): Conv2d(64, 64, kernel_size=(3, 3), stride=(1, 1), padding=(1, 1), bias=False)
      (12): BatchNorm2d(64, eps=1e-05, momentum=0.1, affine=True, track_running_stats=True)
      (13): LeakyReLU(negative_slope=0.2, inplace=True)
    )
    (criterion): CrossEntropyLoss()
  )
  (DE): XGBHead()
)
Trainset: 10000
Valset: 800
Testset: 600
Namespace(arch='DN_X', config='../models/architectures/configs/DN4_DA.yaml', dengine=True, refit_dengine=True, dataset_dir='../dataset/miniImageNet', data_name='test', mode='test', resume='../results/models/dn4__miniImageNet_epoch_23.pth.tar', epochs=1, ngpu=1, print_freq=100, outf='../results/DN_X_test_DN4_5_Way_1_Shot_K1')=> loaded checkpoint '../results/models/dn4__miniImageNet_epoch_23.pth.tar' (epoch 23)
DN_X(
  (BACKBONE): FourLayer_64F(
    (features): Sequential(
      (0): Conv2d(3, 64, kernel_size=(3, 3), stride=(1, 1), padding=(1, 1), bias=False)
      (1): BatchNorm2d(64, eps=1e-05, momentum=0.1, affine=True, track_running_stats=True)
      (2): LeakyReLU(negative_slope=0.2, inplace=True)
      (3): MaxPool2d(kernel_size=2, stride=2, padding=0, dilation=1, ceil_mode=False)
      (4): Conv2d(64, 64, kernel_size=(3, 3), stride=(1, 1), padding=(1, 1), bias=False)
      (5): BatchNorm2d(64, eps=1e-05, momentum=0.1, affine=True, track_running_stats=True)
      (6): LeakyReLU(negative_slope=0.2, inplace=True)
      (7): MaxPool2d(kernel_size=2, stride=2, padding=0, dilation=1, ceil_mode=False)
      (8): Conv2d(64, 64, kernel_size=(3, 3), stride=(1, 1), padding=(1, 1), bias=False)
      (9): BatchNorm2d(64, eps=1e-05, momentum=0.1, affine=True, track_running_stats=True)
      (10): LeakyReLU(negative_slope=0.2, inplace=True)
      (11): Conv2d(64, 64, kernel_size=(3, 3), stride=(1, 1), padding=(1, 1), bias=False)
      (12): BatchNorm2d(64, eps=1e-05, momentum=0.1, affine=True, track_running_stats=True)
      (13): LeakyReLU(negative_slope=0.2, inplace=True)
    )
    (criterion): CrossEntropyLoss()
  )
  (DE): XGBHead()
)
Trainset: 10000
Valset: 800
Testset: 600
Namespace(arch='DN_X', config='../models/architectures/configs/DN4_DA.yaml', dengine=True, refit_dengine=True, dataset_dir='../dataset/miniImageNet', data_name='test', mode='test', resume='../results/models/dn4__miniImageNet_epoch_23.pth.tar', epochs=1, ngpu=1, print_freq=100, outf='../results/DN_X_test_DN4_5_Way_1_Shot_K1')=> loaded checkpoint '../results/models/dn4__miniImageNet_epoch_23.pth.tar' (epoch 23)
DN_X(
  (BACKBONE): FourLayer_64F(
    (features): Sequential(
      (0): Conv2d(3, 64, kernel_size=(3, 3), stride=(1, 1), padding=(1, 1), bias=False)
      (1): BatchNorm2d(64, eps=1e-05, momentum=0.1, affine=True, track_running_stats=True)
      (2): LeakyReLU(negative_slope=0.2, inplace=True)
      (3): MaxPool2d(kernel_size=2, stride=2, padding=0, dilation=1, ceil_mode=False)
      (4): Conv2d(64, 64, kernel_size=(3, 3), stride=(1, 1), padding=(1, 1), bias=False)
      (5): BatchNorm2d(64, eps=1e-05, momentum=0.1, affine=True, track_running_stats=True)
      (6): LeakyReLU(negative_slope=0.2, inplace=True)
      (7): MaxPool2d(kernel_size=2, stride=2, padding=0, dilation=1, ceil_mode=False)
      (8): Conv2d(64, 64, kernel_size=(3, 3), stride=(1, 1), padding=(1, 1), bias=False)
      (9): BatchNorm2d(64, eps=1e-05, momentum=0.1, affine=True, track_running_stats=True)
      (10): LeakyReLU(negative_slope=0.2, inplace=True)
      (11): Conv2d(64, 64, kernel_size=(3, 3), stride=(1, 1), padding=(1, 1), bias=False)
      (12): BatchNorm2d(64, eps=1e-05, momentum=0.1, affine=True, track_running_stats=True)
      (13): LeakyReLU(negative_slope=0.2, inplace=True)
    )
    (criterion): CrossEntropyLoss()
  )
  (DE): XGBHead()
)
Trainset: 10000
Valset: 800
Testset: 600
Namespace(arch='DN_X', config='../models/architectures/configs/DN4_DA.yaml', dengine=True, refit_dengine=True, dataset_dir='../dataset/miniImageNet', data_name='test', mode='test', resume='../results/models/dn4__miniImageNet_epoch_23.pth.tar', epochs=1, ngpu=1, print_freq=100, outf='../results/DN_X_test_DN4_5_Way_1_Shot_K1')=> loaded checkpoint '../results/models/dn4__miniImageNet_epoch_23.pth.tar' (epoch 23)
DN_X(
  (BACKBONE): FourLayer_64F(
    (features): Sequential(
      (0): Conv2d(3, 64, kernel_size=(3, 3), stride=(1, 1), padding=(1, 1), bias=False)
      (1): BatchNorm2d(64, eps=1e-05, momentum=0.1, affine=True, track_running_stats=True)
      (2): LeakyReLU(negative_slope=0.2, inplace=True)
      (3): MaxPool2d(kernel_size=2, stride=2, padding=0, dilation=1, ceil_mode=False)
      (4): Conv2d(64, 64, kernel_size=(3, 3), stride=(1, 1), padding=(1, 1), bias=False)
      (5): BatchNorm2d(64, eps=1e-05, momentum=0.1, affine=True, track_running_stats=True)
      (6): LeakyReLU(negative_slope=0.2, inplace=True)
      (7): MaxPool2d(kernel_size=2, stride=2, padding=0, dilation=1, ceil_mode=False)
      (8): Conv2d(64, 64, kernel_size=(3, 3), stride=(1, 1), padding=(1, 1), bias=False)
      (9): BatchNorm2d(64, eps=1e-05, momentum=0.1, affine=True, track_running_stats=True)
      (10): LeakyReLU(negative_slope=0.2, inplace=True)
      (11): Conv2d(64, 64, kernel_size=(3, 3), stride=(1, 1), padding=(1, 1), bias=False)
      (12): BatchNorm2d(64, eps=1e-05, momentum=0.1, affine=True, track_running_stats=True)
      (13): LeakyReLU(negative_slope=0.2, inplace=True)
    )
    (criterion): CrossEntropyLoss()
  )
  (DE): XGBHead()
)
Trainset: 10000
Valset: 800
Testset: 600
Namespace(arch='DN_X', config='../models/architectures/configs/DN4_DA.yaml', dengine=True, refit_dengine=True, dataset_dir='../dataset/miniImageNet', data_name='test', mode='test', resume='../results/models/dn4__miniImageNet_epoch_23.pth.tar', epochs=1, ngpu=1, print_freq=100, outf='../results/DN_X_test_DN4_5_Way_1_Shot_K1')=> loaded checkpoint '../results/models/dn4__miniImageNet_epoch_23.pth.tar' (epoch 23)
DN_X(
  (BACKBONE): FourLayer_64F(
    (features): Sequential(
      (0): Conv2d(3, 64, kernel_size=(3, 3), stride=(1, 1), padding=(1, 1), bias=False)
      (1): BatchNorm2d(64, eps=1e-05, momentum=0.1, affine=True, track_running_stats=True)
      (2): LeakyReLU(negative_slope=0.2, inplace=True)
      (3): MaxPool2d(kernel_size=2, stride=2, padding=0, dilation=1, ceil_mode=False)
      (4): Conv2d(64, 64, kernel_size=(3, 3), stride=(1, 1), padding=(1, 1), bias=False)
      (5): BatchNorm2d(64, eps=1e-05, momentum=0.1, affine=True, track_running_stats=True)
      (6): LeakyReLU(negative_slope=0.2, inplace=True)
      (7): MaxPool2d(kernel_size=2, stride=2, padding=0, dilation=1, ceil_mode=False)
      (8): Conv2d(64, 64, kernel_size=(3, 3), stride=(1, 1), padding=(1, 1), bias=False)
      (9): BatchNorm2d(64, eps=1e-05, momentum=0.1, affine=True, track_running_stats=True)
      (10): LeakyReLU(negative_slope=0.2, inplace=True)
      (11): Conv2d(64, 64, kernel_size=(3, 3), stride=(1, 1), padding=(1, 1), bias=False)
      (12): BatchNorm2d(64, eps=1e-05, momentum=0.1, affine=True, track_running_stats=True)
      (13): LeakyReLU(negative_slope=0.2, inplace=True)
    )
    (criterion): CrossEntropyLoss()
  )
  (DE): XGBHead()
)
Trainset: 10000
Valset: 800
Testset: 600
Namespace(arch='DN_X', config='../models/architectures/configs/DN4_DA.yaml', dengine=True, refit_dengine=True, dataset_dir='../dataset/miniImageNet', data_name='test', mode='test', resume='../results/models/dn4__miniImageNet_epoch_23.pth.tar', epochs=1, ngpu=1, print_freq=100, outf='../results/DN_X_test_DN4_5_Way_1_Shot_K1')=> loaded checkpoint '../results/models/dn4__miniImageNet_epoch_23.pth.tar' (epoch 23)
DN_X(
  (BACKBONE): FourLayer_64F(
    (features): Sequential(
      (0): Conv2d(3, 64, kernel_size=(3, 3), stride=(1, 1), padding=(1, 1), bias=False)
      (1): BatchNorm2d(64, eps=1e-05, momentum=0.1, affine=True, track_running_stats=True)
      (2): LeakyReLU(negative_slope=0.2, inplace=True)
      (3): MaxPool2d(kernel_size=2, stride=2, padding=0, dilation=1, ceil_mode=False)
      (4): Conv2d(64, 64, kernel_size=(3, 3), stride=(1, 1), padding=(1, 1), bias=False)
      (5): BatchNorm2d(64, eps=1e-05, momentum=0.1, affine=True, track_running_stats=True)
      (6): LeakyReLU(negative_slope=0.2, inplace=True)
      (7): MaxPool2d(kernel_size=2, stride=2, padding=0, dilation=1, ceil_mode=False)
      (8): Conv2d(64, 64, kernel_size=(3, 3), stride=(1, 1), padding=(1, 1), bias=False)
      (9): BatchNorm2d(64, eps=1e-05, momentum=0.1, affine=True, track_running_stats=True)
      (10): LeakyReLU(negative_slope=0.2, inplace=True)
      (11): Conv2d(64, 64, kernel_size=(3, 3), stride=(1, 1), padding=(1, 1), bias=False)
      (12): BatchNorm2d(64, eps=1e-05, momentum=0.1, affine=True, track_running_stats=True)
      (13): LeakyReLU(negative_slope=0.2, inplace=True)
    )
    (criterion): CrossEntropyLoss()
  )
  (DE): XGBHead()
)
Trainset: 10000
Valset: 800
Testset: 600
Namespace(arch='DN_X', config='../models/architectures/configs/DN4_DA.yaml', dengine=True, refit_dengine=True, dataset_dir='../dataset/miniImageNet', data_name='test', mode='test', resume='../results/models/dn4__miniImageNet_epoch_23.pth.tar', epochs=1, ngpu=1, print_freq=100, outf='../results/DN_X_test_DN4_5_Way_1_Shot_K1')=> loaded checkpoint '../results/models/dn4__miniImageNet_epoch_23.pth.tar' (epoch 23)
DN_X(
  (BACKBONE): FourLayer_64F(
    (features): Sequential(
      (0): Conv2d(3, 64, kernel_size=(3, 3), stride=(1, 1), padding=(1, 1), bias=False)
      (1): BatchNorm2d(64, eps=1e-05, momentum=0.1, affine=True, track_running_stats=True)
      (2): LeakyReLU(negative_slope=0.2, inplace=True)
      (3): MaxPool2d(kernel_size=2, stride=2, padding=0, dilation=1, ceil_mode=False)
      (4): Conv2d(64, 64, kernel_size=(3, 3), stride=(1, 1), padding=(1, 1), bias=False)
      (5): BatchNorm2d(64, eps=1e-05, momentum=0.1, affine=True, track_running_stats=True)
      (6): LeakyReLU(negative_slope=0.2, inplace=True)
      (7): MaxPool2d(kernel_size=2, stride=2, padding=0, dilation=1, ceil_mode=False)
      (8): Conv2d(64, 64, kernel_size=(3, 3), stride=(1, 1), padding=(1, 1), bias=False)
      (9): BatchNorm2d(64, eps=1e-05, momentum=0.1, affine=True, track_running_stats=True)
      (10): LeakyReLU(negative_slope=0.2, inplace=True)
      (11): Conv2d(64, 64, kernel_size=(3, 3), stride=(1, 1), padding=(1, 1), bias=False)
      (12): BatchNorm2d(64, eps=1e-05, momentum=0.1, affine=True, track_running_stats=True)
      (13): LeakyReLU(negative_slope=0.2, inplace=True)
    )
    (criterion): CrossEntropyLoss()
  )
  (DE): XGBHead()
)
Trainset: 10000
Valset: 800
Testset: 600
Namespace(arch='DN_X', config='../models/architectures/configs/DN4_DA.yaml', dengine=True, refit_dengine=True, dataset_dir='../dataset/miniImageNet', data_name='test', mode='test', resume='../results/models/dn4__miniImageNet_epoch_23.pth.tar', epochs=1, ngpu=1, print_freq=100, outf='../results/DN_X_test_DN4_5_Way_1_Shot_K1')=> loaded checkpoint '../results/models/dn4__miniImageNet_epoch_23.pth.tar' (epoch 23)
DN_X(
  (BACKBONE): FourLayer_64F(
    (features): Sequential(
      (0): Conv2d(3, 64, kernel_size=(3, 3), stride=(1, 1), padding=(1, 1), bias=False)
      (1): BatchNorm2d(64, eps=1e-05, momentum=0.1, affine=True, track_running_stats=True)
      (2): LeakyReLU(negative_slope=0.2, inplace=True)
      (3): MaxPool2d(kernel_size=2, stride=2, padding=0, dilation=1, ceil_mode=False)
      (4): Conv2d(64, 64, kernel_size=(3, 3), stride=(1, 1), padding=(1, 1), bias=False)
      (5): BatchNorm2d(64, eps=1e-05, momentum=0.1, affine=True, track_running_stats=True)
      (6): LeakyReLU(negative_slope=0.2, inplace=True)
      (7): MaxPool2d(kernel_size=2, stride=2, padding=0, dilation=1, ceil_mode=False)
      (8): Conv2d(64, 64, kernel_size=(3, 3), stride=(1, 1), padding=(1, 1), bias=False)
      (9): BatchNorm2d(64, eps=1e-05, momentum=0.1, affine=True, track_running_stats=True)
      (10): LeakyReLU(negative_slope=0.2, inplace=True)
      (11): Conv2d(64, 64, kernel_size=(3, 3), stride=(1, 1), padding=(1, 1), bias=False)
      (12): BatchNorm2d(64, eps=1e-05, momentum=0.1, affine=True, track_running_stats=True)
      (13): LeakyReLU(negative_slope=0.2, inplace=True)
    )
    (criterion): CrossEntropyLoss()
  )
  (DE): XGBHead()
)
Trainset: 10000
Valset: 800
Testset: 600
Namespace(arch='DN_X', config='../models/architectures/configs/DN4_DA.yaml', dengine=True, refit_dengine=True, dataset_dir='../dataset/miniImageNet', data_name='test', mode='test', resume='../results/models/dn4__miniImageNet_epoch_23.pth.tar', epochs=1, ngpu=1, print_freq=100, outf='../results/DN_X_test_DN4_5_Way_1_Shot_K1')=> loaded checkpoint '../results/models/dn4__miniImageNet_epoch_23.pth.tar' (epoch 23)
DN_X(
  (BACKBONE): FourLayer_64F(
    (features): Sequential(
      (0): Conv2d(3, 64, kernel_size=(3, 3), stride=(1, 1), padding=(1, 1), bias=False)
      (1): BatchNorm2d(64, eps=1e-05, momentum=0.1, affine=True, track_running_stats=True)
      (2): LeakyReLU(negative_slope=0.2, inplace=True)
      (3): MaxPool2d(kernel_size=2, stride=2, padding=0, dilation=1, ceil_mode=False)
      (4): Conv2d(64, 64, kernel_size=(3, 3), stride=(1, 1), padding=(1, 1), bias=False)
      (5): BatchNorm2d(64, eps=1e-05, momentum=0.1, affine=True, track_running_stats=True)
      (6): LeakyReLU(negative_slope=0.2, inplace=True)
      (7): MaxPool2d(kernel_size=2, stride=2, padding=0, dilation=1, ceil_mode=False)
      (8): Conv2d(64, 64, kernel_size=(3, 3), stride=(1, 1), padding=(1, 1), bias=False)
      (9): BatchNorm2d(64, eps=1e-05, momentum=0.1, affine=True, track_running_stats=True)
      (10): LeakyReLU(negative_slope=0.2, inplace=True)
      (11): Conv2d(64, 64, kernel_size=(3, 3), stride=(1, 1), padding=(1, 1), bias=False)
      (12): BatchNorm2d(64, eps=1e-05, momentum=0.1, affine=True, track_running_stats=True)
      (13): LeakyReLU(negative_slope=0.2, inplace=True)
    )
    (criterion): CrossEntropyLoss()
  )
  (DE): XGBHead()
)
Trainset: 10000
Valset: 800
Testset: 600
===================================== Round 0 =====================================
Testset: 600-------------0Namespace(arch='DN_X', config='../models/architectures/configs/DN4_DA.yaml', dengine=True, refit_dengine=True, dataset_dir='../dataset/miniImageNet', data_name='test', mode='test', resume='../results/models/dn4__miniImageNet_epoch_23.pth.tar', epochs=1, ngpu=1, print_freq=100, outf='../results/DN_X_test_DN4_5_Way_1_Shot_K1')=> loaded checkpoint '../results/models/dn4__miniImageNet_epoch_23.pth.tar' (epoch 23)
DN_X(
  (BACKBONE): FourLayer_64F(
    (features): Sequential(
      (0): Conv2d(3, 64, kernel_size=(3, 3), stride=(1, 1), padding=(1, 1), bias=False)
      (1): BatchNorm2d(64, eps=1e-05, momentum=0.1, affine=True, track_running_stats=True)
      (2): LeakyReLU(negative_slope=0.2, inplace=True)
      (3): MaxPool2d(kernel_size=2, stride=2, padding=0, dilation=1, ceil_mode=False)
      (4): Conv2d(64, 64, kernel_size=(3, 3), stride=(1, 1), padding=(1, 1), bias=False)
      (5): BatchNorm2d(64, eps=1e-05, momentum=0.1, affine=True, track_running_stats=True)
      (6): LeakyReLU(negative_slope=0.2, inplace=True)
      (7): MaxPool2d(kernel_size=2, stride=2, padding=0, dilation=1, ceil_mode=False)
      (8): Conv2d(64, 64, kernel_size=(3, 3), stride=(1, 1), padding=(1, 1), bias=False)
      (9): BatchNorm2d(64, eps=1e-05, momentum=0.1, affine=True, track_running_stats=True)
      (10): LeakyReLU(negative_slope=0.2, inplace=True)
      (11): Conv2d(64, 64, kernel_size=(3, 3), stride=(1, 1), padding=(1, 1), bias=False)
      (12): BatchNorm2d(64, eps=1e-05, momentum=0.1, affine=True, track_running_stats=True)
      (13): LeakyReLU(negative_slope=0.2, inplace=True)
    )
    (criterion): CrossEntropyLoss()
  )
  (DE): XGBHead()
)
Trainset: 10000
Valset: 800
Testset: 600
===================================== Round 0 =====================================
Testset: 600-------------0Namespace(arch='DN_X', config='../models/architectures/configs/DN4_DA.yaml', dengine=True, refit_dengine=False, dataset_dir='../dataset/miniImageNet', data_name='test', mode='test', resume='../results/models/dn4__miniImageNet_epoch_23.pth.tar', epochs=1, ngpu=1, print_freq=100, outf='../results/DN_X_test_DN4_5_Way_1_Shot_K1')=> loaded checkpoint '../results/models/dn4__miniImageNet_epoch_23.pth.tar' (epoch 23)
DN_X(
  (BACKBONE): FourLayer_64F(
    (features): Sequential(
      (0): Conv2d(3, 64, kernel_size=(3, 3), stride=(1, 1), padding=(1, 1), bias=False)
      (1): BatchNorm2d(64, eps=1e-05, momentum=0.1, affine=True, track_running_stats=True)
      (2): LeakyReLU(negative_slope=0.2, inplace=True)
      (3): MaxPool2d(kernel_size=2, stride=2, padding=0, dilation=1, ceil_mode=False)
      (4): Conv2d(64, 64, kernel_size=(3, 3), stride=(1, 1), padding=(1, 1), bias=False)
      (5): BatchNorm2d(64, eps=1e-05, momentum=0.1, affine=True, track_running_stats=True)
      (6): LeakyReLU(negative_slope=0.2, inplace=True)
      (7): MaxPool2d(kernel_size=2, stride=2, padding=0, dilation=1, ceil_mode=False)
      (8): Conv2d(64, 64, kernel_size=(3, 3), stride=(1, 1), padding=(1, 1), bias=False)
      (9): BatchNorm2d(64, eps=1e-05, momentum=0.1, affine=True, track_running_stats=True)
      (10): LeakyReLU(negative_slope=0.2, inplace=True)
      (11): Conv2d(64, 64, kernel_size=(3, 3), stride=(1, 1), padding=(1, 1), bias=False)
      (12): BatchNorm2d(64, eps=1e-05, momentum=0.1, affine=True, track_running_stats=True)
      (13): LeakyReLU(negative_slope=0.2, inplace=True)
    )
    (criterion): CrossEntropyLoss()
  )
  (DE): XGBHead()
)
Trainset: 10000
Valset: 800
Testset: 600
===================================== Round 0 =====================================
Testset: 600-------------0
Test-(23): [100/600]	Time 0.128 (0.135)	Loss 1.625 (1.644)	Prec@1 28.0 (26.099010467529297)

Test-(23): [200/600]	Time 0.154 (0.130)	Loss 1.685 (1.643)	Prec@1 22.0 (26.16915512084961)
Namespace(arch='DN_X', config='../models/architectures/configs/DN4_DA.yaml', dengine=True, refit_dengine=True, dataset_dir='../dataset/miniImageNet', data_name='test', mode='test', resume='../results/models/dn4__miniImageNet_epoch_23.pth.tar', epochs=1, ngpu=1, print_freq=100, outf='../results/DN_X_test_DN4_5_Way_1_Shot_K1')=> loaded checkpoint '../results/models/dn4__miniImageNet_epoch_23.pth.tar' (epoch 23)
DN_X(
  (BACKBONE): FourLayer_64F(
    (features): Sequential(
      (0): Conv2d(3, 64, kernel_size=(3, 3), stride=(1, 1), padding=(1, 1), bias=False)
      (1): BatchNorm2d(64, eps=1e-05, momentum=0.1, affine=True, track_running_stats=True)
      (2): LeakyReLU(negative_slope=0.2, inplace=True)
      (3): MaxPool2d(kernel_size=2, stride=2, padding=0, dilation=1, ceil_mode=False)
      (4): Conv2d(64, 64, kernel_size=(3, 3), stride=(1, 1), padding=(1, 1), bias=False)
      (5): BatchNorm2d(64, eps=1e-05, momentum=0.1, affine=True, track_running_stats=True)
      (6): LeakyReLU(negative_slope=0.2, inplace=True)
      (7): MaxPool2d(kernel_size=2, stride=2, padding=0, dilation=1, ceil_mode=False)
      (8): Conv2d(64, 64, kernel_size=(3, 3), stride=(1, 1), padding=(1, 1), bias=False)
      (9): BatchNorm2d(64, eps=1e-05, momentum=0.1, affine=True, track_running_stats=True)
      (10): LeakyReLU(negative_slope=0.2, inplace=True)
      (11): Conv2d(64, 64, kernel_size=(3, 3), stride=(1, 1), padding=(1, 1), bias=False)
      (12): BatchNorm2d(64, eps=1e-05, momentum=0.1, affine=True, track_running_stats=True)
      (13): LeakyReLU(negative_slope=0.2, inplace=True)
    )
    (criterion): CrossEntropyLoss()
  )
  (DE): XGBHead()
)
Trainset: 10000
Valset: 800
Testset: 600
Namespace(arch='DN_X', config='../models/architectures/configs/DN4_DA.yaml', dengine=True, refit_dengine=True, dataset_dir='../dataset/miniImageNet', data_name='test', mode='test', resume='../results/models/dn4__miniImageNet_epoch_23.pth.tar', epochs=1, ngpu=1, print_freq=100, outf='../results/DN_X_test_DN4_5_Way_1_Shot_K1')=> loaded checkpoint '../results/models/dn4__miniImageNet_epoch_23.pth.tar' (epoch 23)
DN_X(
  (BACKBONE): FourLayer_64F(
    (features): Sequential(
      (0): Conv2d(3, 64, kernel_size=(3, 3), stride=(1, 1), padding=(1, 1), bias=False)
      (1): BatchNorm2d(64, eps=1e-05, momentum=0.1, affine=True, track_running_stats=True)
      (2): LeakyReLU(negative_slope=0.2, inplace=True)
      (3): MaxPool2d(kernel_size=2, stride=2, padding=0, dilation=1, ceil_mode=False)
      (4): Conv2d(64, 64, kernel_size=(3, 3), stride=(1, 1), padding=(1, 1), bias=False)
      (5): BatchNorm2d(64, eps=1e-05, momentum=0.1, affine=True, track_running_stats=True)
      (6): LeakyReLU(negative_slope=0.2, inplace=True)
      (7): MaxPool2d(kernel_size=2, stride=2, padding=0, dilation=1, ceil_mode=False)
      (8): Conv2d(64, 64, kernel_size=(3, 3), stride=(1, 1), padding=(1, 1), bias=False)
      (9): BatchNorm2d(64, eps=1e-05, momentum=0.1, affine=True, track_running_stats=True)
      (10): LeakyReLU(negative_slope=0.2, inplace=True)
      (11): Conv2d(64, 64, kernel_size=(3, 3), stride=(1, 1), padding=(1, 1), bias=False)
      (12): BatchNorm2d(64, eps=1e-05, momentum=0.1, affine=True, track_running_stats=True)
      (13): LeakyReLU(negative_slope=0.2, inplace=True)
    )
    (criterion): CrossEntropyLoss()
  )
  (DE): XGBHead()
)
Trainset: 10000
Valset: 800
Testset: 600
===================================== Round 0 =====================================
Testset: 600-------------0Namespace(arch='DN_X', config='../models/architectures/configs/DN4_DA.yaml', dengine=True, refit_dengine=True, dataset_dir='../dataset/miniImageNet', data_name='test', mode='test', resume='../results/models/dn4__miniImageNet_epoch_23.pth.tar', epochs=1, ngpu=1, print_freq=100, outf='../results/DN_X_test_DN4_5_Way_1_Shot_K1')=> loaded checkpoint '../results/models/dn4__miniImageNet_epoch_23.pth.tar' (epoch 23)
DN_X(
  (BACKBONE): FourLayer_64F(
    (features): Sequential(
      (0): Conv2d(3, 64, kernel_size=(3, 3), stride=(1, 1), padding=(1, 1), bias=False)
      (1): BatchNorm2d(64, eps=1e-05, momentum=0.1, affine=True, track_running_stats=True)
      (2): LeakyReLU(negative_slope=0.2, inplace=True)
      (3): MaxPool2d(kernel_size=2, stride=2, padding=0, dilation=1, ceil_mode=False)
      (4): Conv2d(64, 64, kernel_size=(3, 3), stride=(1, 1), padding=(1, 1), bias=False)
      (5): BatchNorm2d(64, eps=1e-05, momentum=0.1, affine=True, track_running_stats=True)
      (6): LeakyReLU(negative_slope=0.2, inplace=True)
      (7): MaxPool2d(kernel_size=2, stride=2, padding=0, dilation=1, ceil_mode=False)
      (8): Conv2d(64, 64, kernel_size=(3, 3), stride=(1, 1), padding=(1, 1), bias=False)
      (9): BatchNorm2d(64, eps=1e-05, momentum=0.1, affine=True, track_running_stats=True)
      (10): LeakyReLU(negative_slope=0.2, inplace=True)
      (11): Conv2d(64, 64, kernel_size=(3, 3), stride=(1, 1), padding=(1, 1), bias=False)
      (12): BatchNorm2d(64, eps=1e-05, momentum=0.1, affine=True, track_running_stats=True)
      (13): LeakyReLU(negative_slope=0.2, inplace=True)
    )
    (criterion): CrossEntropyLoss()
  )
  (DE): XGBHead()
)
Trainset: 10000
Valset: 800
Testset: 600
Namespace(arch='DN_X', config='../models/architectures/configs/DN4_DA.yaml', dengine=True, refit_dengine=False, dataset_dir='../dataset/miniImageNet', data_name='test', mode='test', resume='../results/models/dn4__miniImageNet_epoch_23.pth.tar', epochs=1, ngpu=1, print_freq=100, outf='../results/DN_X_test_DN4_5_Way_1_Shot_K1')=> loaded checkpoint '../results/models/dn4__miniImageNet_epoch_23.pth.tar' (epoch 23)
DN_X(
  (BACKBONE): FourLayer_64F(
    (features): Sequential(
      (0): Conv2d(3, 64, kernel_size=(3, 3), stride=(1, 1), padding=(1, 1), bias=False)
      (1): BatchNorm2d(64, eps=1e-05, momentum=0.1, affine=True, track_running_stats=True)
      (2): LeakyReLU(negative_slope=0.2, inplace=True)
      (3): MaxPool2d(kernel_size=2, stride=2, padding=0, dilation=1, ceil_mode=False)
      (4): Conv2d(64, 64, kernel_size=(3, 3), stride=(1, 1), padding=(1, 1), bias=False)
      (5): BatchNorm2d(64, eps=1e-05, momentum=0.1, affine=True, track_running_stats=True)
      (6): LeakyReLU(negative_slope=0.2, inplace=True)
      (7): MaxPool2d(kernel_size=2, stride=2, padding=0, dilation=1, ceil_mode=False)
      (8): Conv2d(64, 64, kernel_size=(3, 3), stride=(1, 1), padding=(1, 1), bias=False)
      (9): BatchNorm2d(64, eps=1e-05, momentum=0.1, affine=True, track_running_stats=True)
      (10): LeakyReLU(negative_slope=0.2, inplace=True)
      (11): Conv2d(64, 64, kernel_size=(3, 3), stride=(1, 1), padding=(1, 1), bias=False)
      (12): BatchNorm2d(64, eps=1e-05, momentum=0.1, affine=True, track_running_stats=True)
      (13): LeakyReLU(negative_slope=0.2, inplace=True)
    )
    (criterion): CrossEntropyLoss()
  )
  (DE): XGBHead()
)
Trainset: 10000
Valset: 800
Testset: 600
===================================== Round 0 =====================================
Testset: 600-------------0
Test-(23): [100/600]	Time 0.114 (0.136)	Loss 1.665 (1.679)	Prec@1 24.0 (22.613861083984375)

Test-(23): [200/600]	Time 0.142 (0.131)	Loss 1.705 (1.680)	Prec@1 20.0 (22.517414093017578)
Namespace(arch='DN_X', config='../models/architectures/configs/DN4_DA.yaml', dengine=True, refit_dengine=True, dataset_dir='../dataset/miniImageNet', data_name='test', mode='test', resume='../results/models/dn4__miniImageNet_epoch_23.pth.tar', epochs=1, ngpu=1, print_freq=100, outf='../results/DN_X_test_DN4_5_Way_1_Shot_K1')=> loaded checkpoint '../results/models/dn4__miniImageNet_epoch_23.pth.tar' (epoch 23)
DN_X(
  (BACKBONE): FourLayer_64F(
    (features): Sequential(
      (0): Conv2d(3, 64, kernel_size=(3, 3), stride=(1, 1), padding=(1, 1), bias=False)
      (1): BatchNorm2d(64, eps=1e-05, momentum=0.1, affine=True, track_running_stats=True)
      (2): LeakyReLU(negative_slope=0.2, inplace=True)
      (3): MaxPool2d(kernel_size=2, stride=2, padding=0, dilation=1, ceil_mode=False)
      (4): Conv2d(64, 64, kernel_size=(3, 3), stride=(1, 1), padding=(1, 1), bias=False)
      (5): BatchNorm2d(64, eps=1e-05, momentum=0.1, affine=True, track_running_stats=True)
      (6): LeakyReLU(negative_slope=0.2, inplace=True)
      (7): MaxPool2d(kernel_size=2, stride=2, padding=0, dilation=1, ceil_mode=False)
      (8): Conv2d(64, 64, kernel_size=(3, 3), stride=(1, 1), padding=(1, 1), bias=False)
      (9): BatchNorm2d(64, eps=1e-05, momentum=0.1, affine=True, track_running_stats=True)
      (10): LeakyReLU(negative_slope=0.2, inplace=True)
      (11): Conv2d(64, 64, kernel_size=(3, 3), stride=(1, 1), padding=(1, 1), bias=False)
      (12): BatchNorm2d(64, eps=1e-05, momentum=0.1, affine=True, track_running_stats=True)
      (13): LeakyReLU(negative_slope=0.2, inplace=True)
    )
    (criterion): CrossEntropyLoss()
  )
  (DE): XGBHead()
)
Trainset: 10000
Valset: 800
Testset: 600
===================================== Round 0 =====================================
Testset: 600-------------0Namespace(arch='DN_X', config='../models/architectures/configs/DN4_DA.yaml', dengine=True, refit_dengine=False, dataset_dir='../dataset/miniImageNet', data_name='test', mode='test', resume='../results/models/dn4__miniImageNet_epoch_23.pth.tar', epochs=1, ngpu=1, print_freq=100, outf='../results/DN_X_test_DN4_5_Way_1_Shot_K1')=> loaded checkpoint '../results/models/dn4__miniImageNet_epoch_23.pth.tar' (epoch 23)
DN_X(
  (BACKBONE): FourLayer_64F(
    (features): Sequential(
      (0): Conv2d(3, 64, kernel_size=(3, 3), stride=(1, 1), padding=(1, 1), bias=False)
      (1): BatchNorm2d(64, eps=1e-05, momentum=0.1, affine=True, track_running_stats=True)
      (2): LeakyReLU(negative_slope=0.2, inplace=True)
      (3): MaxPool2d(kernel_size=2, stride=2, padding=0, dilation=1, ceil_mode=False)
      (4): Conv2d(64, 64, kernel_size=(3, 3), stride=(1, 1), padding=(1, 1), bias=False)
      (5): BatchNorm2d(64, eps=1e-05, momentum=0.1, affine=True, track_running_stats=True)
      (6): LeakyReLU(negative_slope=0.2, inplace=True)
      (7): MaxPool2d(kernel_size=2, stride=2, padding=0, dilation=1, ceil_mode=False)
      (8): Conv2d(64, 64, kernel_size=(3, 3), stride=(1, 1), padding=(1, 1), bias=False)
      (9): BatchNorm2d(64, eps=1e-05, momentum=0.1, affine=True, track_running_stats=True)
      (10): LeakyReLU(negative_slope=0.2, inplace=True)
      (11): Conv2d(64, 64, kernel_size=(3, 3), stride=(1, 1), padding=(1, 1), bias=False)
      (12): BatchNorm2d(64, eps=1e-05, momentum=0.1, affine=True, track_running_stats=True)
      (13): LeakyReLU(negative_slope=0.2, inplace=True)
    )
    (criterion): CrossEntropyLoss()
  )
  (DE): XGBHead()
)
Trainset: 10000
Valset: 800
Testset: 600
===================================== Round 0 =====================================
Testset: 600-------------0Namespace(arch='DN_X', config='../models/architectures/configs/DN4_DA.yaml', dengine=True, refit_dengine=True, dataset_dir='../dataset/miniImageNet', data_name='test', mode='test', resume='../results/models/dn4__miniImageNet_epoch_23.pth.tar', epochs=1, ngpu=1, print_freq=100, outf='../results/DN_X_test_DN4_5_Way_1_Shot_K1')=> loaded checkpoint '../results/models/dn4__miniImageNet_epoch_23.pth.tar' (epoch 23)
DN_X(
  (BACKBONE): FourLayer_64F(
    (features): Sequential(
      (0): Conv2d(3, 64, kernel_size=(3, 3), stride=(1, 1), padding=(1, 1), bias=False)
      (1): BatchNorm2d(64, eps=1e-05, momentum=0.1, affine=True, track_running_stats=True)
      (2): LeakyReLU(negative_slope=0.2, inplace=True)
      (3): MaxPool2d(kernel_size=2, stride=2, padding=0, dilation=1, ceil_mode=False)
      (4): Conv2d(64, 64, kernel_size=(3, 3), stride=(1, 1), padding=(1, 1), bias=False)
      (5): BatchNorm2d(64, eps=1e-05, momentum=0.1, affine=True, track_running_stats=True)
      (6): LeakyReLU(negative_slope=0.2, inplace=True)
      (7): MaxPool2d(kernel_size=2, stride=2, padding=0, dilation=1, ceil_mode=False)
      (8): Conv2d(64, 64, kernel_size=(3, 3), stride=(1, 1), padding=(1, 1), bias=False)
      (9): BatchNorm2d(64, eps=1e-05, momentum=0.1, affine=True, track_running_stats=True)
      (10): LeakyReLU(negative_slope=0.2, inplace=True)
      (11): Conv2d(64, 64, kernel_size=(3, 3), stride=(1, 1), padding=(1, 1), bias=False)
      (12): BatchNorm2d(64, eps=1e-05, momentum=0.1, affine=True, track_running_stats=True)
      (13): LeakyReLU(negative_slope=0.2, inplace=True)
    )
    (criterion): CrossEntropyLoss()
  )
  (DE): XGBHead()
)
Trainset: 10000
Valset: 800
Testset: 600
Namespace(arch='DN_X', config='../models/architectures/configs/DN4_DA.yaml', dengine=True, refit_dengine=True, dataset_dir='../dataset/miniImageNet', data_name='test', mode='test', resume='../results/models/dn4__miniImageNet_epoch_23.pth.tar', epochs=1, ngpu=1, print_freq=100, outf='../results/DN_X_test_DN4_5_Way_1_Shot_K1')=> loaded checkpoint '../results/models/dn4__miniImageNet_epoch_23.pth.tar' (epoch 23)
DN_X(
  (BACKBONE): FourLayer_64F(
    (features): Sequential(
      (0): Conv2d(3, 64, kernel_size=(3, 3), stride=(1, 1), padding=(1, 1), bias=False)
      (1): BatchNorm2d(64, eps=1e-05, momentum=0.1, affine=True, track_running_stats=True)
      (2): LeakyReLU(negative_slope=0.2, inplace=True)
      (3): MaxPool2d(kernel_size=2, stride=2, padding=0, dilation=1, ceil_mode=False)
      (4): Conv2d(64, 64, kernel_size=(3, 3), stride=(1, 1), padding=(1, 1), bias=False)
      (5): BatchNorm2d(64, eps=1e-05, momentum=0.1, affine=True, track_running_stats=True)
      (6): LeakyReLU(negative_slope=0.2, inplace=True)
      (7): MaxPool2d(kernel_size=2, stride=2, padding=0, dilation=1, ceil_mode=False)
      (8): Conv2d(64, 64, kernel_size=(3, 3), stride=(1, 1), padding=(1, 1), bias=False)
      (9): BatchNorm2d(64, eps=1e-05, momentum=0.1, affine=True, track_running_stats=True)
      (10): LeakyReLU(negative_slope=0.2, inplace=True)
      (11): Conv2d(64, 64, kernel_size=(3, 3), stride=(1, 1), padding=(1, 1), bias=False)
      (12): BatchNorm2d(64, eps=1e-05, momentum=0.1, affine=True, track_running_stats=True)
      (13): LeakyReLU(negative_slope=0.2, inplace=True)
    )
    (criterion): CrossEntropyLoss()
  )
  (DE): XGBHead()
)
Trainset: 10000
Valset: 800
Testset: 600
Namespace(arch='DN_X', config='../models/architectures/configs/DN4_DA.yaml', dengine=True, refit_dengine=False, dataset_dir='../dataset/miniImageNet', data_name='test', mode='test', resume='../results/models/dn4__miniImageNet_epoch_23.pth.tar', epochs=1, ngpu=1, print_freq=100, outf='../results/DN_X_test_DN4_5_Way_1_Shot_K1')=> loaded checkpoint '../results/models/dn4__miniImageNet_epoch_23.pth.tar' (epoch 23)
DN_X(
  (BACKBONE): FourLayer_64F(
    (features): Sequential(
      (0): Conv2d(3, 64, kernel_size=(3, 3), stride=(1, 1), padding=(1, 1), bias=False)
      (1): BatchNorm2d(64, eps=1e-05, momentum=0.1, affine=True, track_running_stats=True)
      (2): LeakyReLU(negative_slope=0.2, inplace=True)
      (3): MaxPool2d(kernel_size=2, stride=2, padding=0, dilation=1, ceil_mode=False)
      (4): Conv2d(64, 64, kernel_size=(3, 3), stride=(1, 1), padding=(1, 1), bias=False)
      (5): BatchNorm2d(64, eps=1e-05, momentum=0.1, affine=True, track_running_stats=True)
      (6): LeakyReLU(negative_slope=0.2, inplace=True)
      (7): MaxPool2d(kernel_size=2, stride=2, padding=0, dilation=1, ceil_mode=False)
      (8): Conv2d(64, 64, kernel_size=(3, 3), stride=(1, 1), padding=(1, 1), bias=False)
      (9): BatchNorm2d(64, eps=1e-05, momentum=0.1, affine=True, track_running_stats=True)
      (10): LeakyReLU(negative_slope=0.2, inplace=True)
      (11): Conv2d(64, 64, kernel_size=(3, 3), stride=(1, 1), padding=(1, 1), bias=False)
      (12): BatchNorm2d(64, eps=1e-05, momentum=0.1, affine=True, track_running_stats=True)
      (13): LeakyReLU(negative_slope=0.2, inplace=True)
    )
    (criterion): CrossEntropyLoss()
  )
  (DE): XGBHead()
)
Trainset: 10000
Valset: 800
Testset: 600
===================================== Round 0 =====================================
Testset: 600-------------0Namespace(arch='DN_X', config='../models/architectures/configs/DN4_DA.yaml', dengine=True, refit_dengine=True, dataset_dir='../dataset/miniImageNet', data_name='test', mode='test', resume='../results/models/dn4__miniImageNet_epoch_23.pth.tar', epochs=1, ngpu=1, print_freq=100, outf='../results/DN_X_test_DN4_5_Way_1_Shot_K1')=> loaded checkpoint '../results/models/dn4__miniImageNet_epoch_23.pth.tar' (epoch 23)
DN_X(
  (BACKBONE): FourLayer_64F(
    (features): Sequential(
      (0): Conv2d(3, 64, kernel_size=(3, 3), stride=(1, 1), padding=(1, 1), bias=False)
      (1): BatchNorm2d(64, eps=1e-05, momentum=0.1, affine=True, track_running_stats=True)
      (2): LeakyReLU(negative_slope=0.2, inplace=True)
      (3): MaxPool2d(kernel_size=2, stride=2, padding=0, dilation=1, ceil_mode=False)
      (4): Conv2d(64, 64, kernel_size=(3, 3), stride=(1, 1), padding=(1, 1), bias=False)
      (5): BatchNorm2d(64, eps=1e-05, momentum=0.1, affine=True, track_running_stats=True)
      (6): LeakyReLU(negative_slope=0.2, inplace=True)
      (7): MaxPool2d(kernel_size=2, stride=2, padding=0, dilation=1, ceil_mode=False)
      (8): Conv2d(64, 64, kernel_size=(3, 3), stride=(1, 1), padding=(1, 1), bias=False)
      (9): BatchNorm2d(64, eps=1e-05, momentum=0.1, affine=True, track_running_stats=True)
      (10): LeakyReLU(negative_slope=0.2, inplace=True)
      (11): Conv2d(64, 64, kernel_size=(3, 3), stride=(1, 1), padding=(1, 1), bias=False)
      (12): BatchNorm2d(64, eps=1e-05, momentum=0.1, affine=True, track_running_stats=True)
      (13): LeakyReLU(negative_slope=0.2, inplace=True)
    )
    (criterion): CrossEntropyLoss()
  )
  (DE): XGBHead()
)
Trainset: 10000
Valset: 800
Testset: 600
===================================== Round 0 =====================================
Testset: 600-------------0Namespace(arch='DN_X', config='../models/architectures/configs/DN4_DA.yaml', dengine=True, refit_dengine=False, dataset_dir='../dataset/miniImageNet', data_name='test', mode='test', resume='../results/models/dn4__miniImageNet_epoch_23.pth.tar', epochs=1, ngpu=1, print_freq=100, outf='../results/DN_X_test_DN4_5_Way_1_Shot_K1')=> loaded checkpoint '../results/models/dn4__miniImageNet_epoch_23.pth.tar' (epoch 23)
DN_X(
  (BACKBONE): FourLayer_64F(
    (features): Sequential(
      (0): Conv2d(3, 64, kernel_size=(3, 3), stride=(1, 1), padding=(1, 1), bias=False)
      (1): BatchNorm2d(64, eps=1e-05, momentum=0.1, affine=True, track_running_stats=True)
      (2): LeakyReLU(negative_slope=0.2, inplace=True)
      (3): MaxPool2d(kernel_size=2, stride=2, padding=0, dilation=1, ceil_mode=False)
      (4): Conv2d(64, 64, kernel_size=(3, 3), stride=(1, 1), padding=(1, 1), bias=False)
      (5): BatchNorm2d(64, eps=1e-05, momentum=0.1, affine=True, track_running_stats=True)
      (6): LeakyReLU(negative_slope=0.2, inplace=True)
      (7): MaxPool2d(kernel_size=2, stride=2, padding=0, dilation=1, ceil_mode=False)
      (8): Conv2d(64, 64, kernel_size=(3, 3), stride=(1, 1), padding=(1, 1), bias=False)
      (9): BatchNorm2d(64, eps=1e-05, momentum=0.1, affine=True, track_running_stats=True)
      (10): LeakyReLU(negative_slope=0.2, inplace=True)
      (11): Conv2d(64, 64, kernel_size=(3, 3), stride=(1, 1), padding=(1, 1), bias=False)
      (12): BatchNorm2d(64, eps=1e-05, momentum=0.1, affine=True, track_running_stats=True)
      (13): LeakyReLU(negative_slope=0.2, inplace=True)
    )
    (criterion): CrossEntropyLoss()
  )
  (DE): XGBHead()
)
Trainset: 10000
Valset: 800
Testset: 600
===================================== Round 0 =====================================
Testset: 600-------------0Namespace(arch='DN_X', config='../models/architectures/configs/DN4_DA.yaml', dengine=True, refit_dengine=True, dataset_dir='../dataset/miniImageNet', data_name='test', mode='test', resume='../results/models/dn4__miniImageNet_epoch_23.pth.tar', epochs=1, ngpu=1, print_freq=100, outf='../results/DN_X_test_DN4_5_Way_1_Shot_K1')=> loaded checkpoint '../results/models/dn4__miniImageNet_epoch_23.pth.tar' (epoch 23)
DN_X(
  (BACKBONE): FourLayer_64F(
    (features): Sequential(
      (0): Conv2d(3, 64, kernel_size=(3, 3), stride=(1, 1), padding=(1, 1), bias=False)
      (1): BatchNorm2d(64, eps=1e-05, momentum=0.1, affine=True, track_running_stats=True)
      (2): LeakyReLU(negative_slope=0.2, inplace=True)
      (3): MaxPool2d(kernel_size=2, stride=2, padding=0, dilation=1, ceil_mode=False)
      (4): Conv2d(64, 64, kernel_size=(3, 3), stride=(1, 1), padding=(1, 1), bias=False)
      (5): BatchNorm2d(64, eps=1e-05, momentum=0.1, affine=True, track_running_stats=True)
      (6): LeakyReLU(negative_slope=0.2, inplace=True)
      (7): MaxPool2d(kernel_size=2, stride=2, padding=0, dilation=1, ceil_mode=False)
      (8): Conv2d(64, 64, kernel_size=(3, 3), stride=(1, 1), padding=(1, 1), bias=False)
      (9): BatchNorm2d(64, eps=1e-05, momentum=0.1, affine=True, track_running_stats=True)
      (10): LeakyReLU(negative_slope=0.2, inplace=True)
      (11): Conv2d(64, 64, kernel_size=(3, 3), stride=(1, 1), padding=(1, 1), bias=False)
      (12): BatchNorm2d(64, eps=1e-05, momentum=0.1, affine=True, track_running_stats=True)
      (13): LeakyReLU(negative_slope=0.2, inplace=True)
    )
    (criterion): CrossEntropyLoss()
  )
  (DE): XGBHead()
)
Trainset: 10000
Valset: 800
Testset: 600
Namespace(arch='DN_X', config='../models/architectures/configs/DN4_DA.yaml', dengine=True, refit_dengine=True, dataset_dir='../dataset/miniImageNet', data_name='test', mode='test', resume='../results/models/dn4__miniImageNet_epoch_23.pth.tar', epochs=1, ngpu=1, print_freq=100, outf='../results/DN_X_test_DN4_5_Way_1_Shot_K1')=> loaded checkpoint '../results/models/dn4__miniImageNet_epoch_23.pth.tar' (epoch 23)
DN_X(
  (BACKBONE): FourLayer_64F(
    (features): Sequential(
      (0): Conv2d(3, 64, kernel_size=(3, 3), stride=(1, 1), padding=(1, 1), bias=False)
      (1): BatchNorm2d(64, eps=1e-05, momentum=0.1, affine=True, track_running_stats=True)
      (2): LeakyReLU(negative_slope=0.2, inplace=True)
      (3): MaxPool2d(kernel_size=2, stride=2, padding=0, dilation=1, ceil_mode=False)
      (4): Conv2d(64, 64, kernel_size=(3, 3), stride=(1, 1), padding=(1, 1), bias=False)
      (5): BatchNorm2d(64, eps=1e-05, momentum=0.1, affine=True, track_running_stats=True)
      (6): LeakyReLU(negative_slope=0.2, inplace=True)
      (7): MaxPool2d(kernel_size=2, stride=2, padding=0, dilation=1, ceil_mode=False)
      (8): Conv2d(64, 64, kernel_size=(3, 3), stride=(1, 1), padding=(1, 1), bias=False)
      (9): BatchNorm2d(64, eps=1e-05, momentum=0.1, affine=True, track_running_stats=True)
      (10): LeakyReLU(negative_slope=0.2, inplace=True)
      (11): Conv2d(64, 64, kernel_size=(3, 3), stride=(1, 1), padding=(1, 1), bias=False)
      (12): BatchNorm2d(64, eps=1e-05, momentum=0.1, affine=True, track_running_stats=True)
      (13): LeakyReLU(negative_slope=0.2, inplace=True)
    )
    (criterion): CrossEntropyLoss()
  )
  (DE): XGBHead()
)
Trainset: 10000
Valset: 800
Testset: 600
Namespace(arch='DN_X', config='../models/architectures/configs/DN4_DA.yaml', dengine=True, refit_dengine=False, dataset_dir='../dataset/miniImageNet', data_name='test', mode='test', resume='../results/models/dn4__miniImageNet_epoch_23.pth.tar', epochs=1, ngpu=1, print_freq=100, outf='../results/DN_X_test_DN4_5_Way_1_Shot_K1')=> loaded checkpoint '../results/models/dn4__miniImageNet_epoch_23.pth.tar' (epoch 23)
DN_X(
  (BACKBONE): FourLayer_64F(
    (features): Sequential(
      (0): Conv2d(3, 64, kernel_size=(3, 3), stride=(1, 1), padding=(1, 1), bias=False)
      (1): BatchNorm2d(64, eps=1e-05, momentum=0.1, affine=True, track_running_stats=True)
      (2): LeakyReLU(negative_slope=0.2, inplace=True)
      (3): MaxPool2d(kernel_size=2, stride=2, padding=0, dilation=1, ceil_mode=False)
      (4): Conv2d(64, 64, kernel_size=(3, 3), stride=(1, 1), padding=(1, 1), bias=False)
      (5): BatchNorm2d(64, eps=1e-05, momentum=0.1, affine=True, track_running_stats=True)
      (6): LeakyReLU(negative_slope=0.2, inplace=True)
      (7): MaxPool2d(kernel_size=2, stride=2, padding=0, dilation=1, ceil_mode=False)
      (8): Conv2d(64, 64, kernel_size=(3, 3), stride=(1, 1), padding=(1, 1), bias=False)
      (9): BatchNorm2d(64, eps=1e-05, momentum=0.1, affine=True, track_running_stats=True)
      (10): LeakyReLU(negative_slope=0.2, inplace=True)
      (11): Conv2d(64, 64, kernel_size=(3, 3), stride=(1, 1), padding=(1, 1), bias=False)
      (12): BatchNorm2d(64, eps=1e-05, momentum=0.1, affine=True, track_running_stats=True)
      (13): LeakyReLU(negative_slope=0.2, inplace=True)
    )
    (criterion): CrossEntropyLoss()
  )
  (DE): XGBHead()
)
Trainset: 10000
Valset: 800
Testset: 600
===================================== Round 0 =====================================
Testset: 600-------------0Namespace(arch='DN_X', config='../models/architectures/configs/DN4_DA.yaml', dengine=True, refit_dengine=False, dataset_dir='../dataset/miniImageNet', data_name='test', mode='test', resume='../results/models/dn4__miniImageNet_epoch_23.pth.tar', epochs=1, ngpu=1, print_freq=100, outf='../results/DN_X_test_DN4_5_Way_1_Shot_K1')=> loaded checkpoint '../results/models/dn4__miniImageNet_epoch_23.pth.tar' (epoch 23)
DN_X(
  (BACKBONE): FourLayer_64F(
    (features): Sequential(
      (0): Conv2d(3, 64, kernel_size=(3, 3), stride=(1, 1), padding=(1, 1), bias=False)
      (1): BatchNorm2d(64, eps=1e-05, momentum=0.1, affine=True, track_running_stats=True)
      (2): LeakyReLU(negative_slope=0.2, inplace=True)
      (3): MaxPool2d(kernel_size=2, stride=2, padding=0, dilation=1, ceil_mode=False)
      (4): Conv2d(64, 64, kernel_size=(3, 3), stride=(1, 1), padding=(1, 1), bias=False)
      (5): BatchNorm2d(64, eps=1e-05, momentum=0.1, affine=True, track_running_stats=True)
      (6): LeakyReLU(negative_slope=0.2, inplace=True)
      (7): MaxPool2d(kernel_size=2, stride=2, padding=0, dilation=1, ceil_mode=False)
      (8): Conv2d(64, 64, kernel_size=(3, 3), stride=(1, 1), padding=(1, 1), bias=False)
      (9): BatchNorm2d(64, eps=1e-05, momentum=0.1, affine=True, track_running_stats=True)
      (10): LeakyReLU(negative_slope=0.2, inplace=True)
      (11): Conv2d(64, 64, kernel_size=(3, 3), stride=(1, 1), padding=(1, 1), bias=False)
      (12): BatchNorm2d(64, eps=1e-05, momentum=0.1, affine=True, track_running_stats=True)
      (13): LeakyReLU(negative_slope=0.2, inplace=True)
    )
    (criterion): CrossEntropyLoss()
  )
  (DE): XGBHead()
)
Trainset: 10000
Valset: 800
Testset: 600
===================================== Round 0 =====================================
Testset: 600-------------0Namespace(arch='DN_X', config='../models/architectures/configs/DN4_DA.yaml', dengine=True, refit_dengine=True, dataset_dir='../dataset/miniImageNet', data_name='test', mode='test', resume='../results/models/dn4__miniImageNet_epoch_23.pth.tar', epochs=1, ngpu=1, print_freq=100, outf='../results/DN_X_test_DN4_5_Way_1_Shot_K1')=> loaded checkpoint '../results/models/dn4__miniImageNet_epoch_23.pth.tar' (epoch 23)
DN_X(
  (BACKBONE): FourLayer_64F(
    (features): Sequential(
      (0): Conv2d(3, 64, kernel_size=(3, 3), stride=(1, 1), padding=(1, 1), bias=False)
      (1): BatchNorm2d(64, eps=1e-05, momentum=0.1, affine=True, track_running_stats=True)
      (2): LeakyReLU(negative_slope=0.2, inplace=True)
      (3): MaxPool2d(kernel_size=2, stride=2, padding=0, dilation=1, ceil_mode=False)
      (4): Conv2d(64, 64, kernel_size=(3, 3), stride=(1, 1), padding=(1, 1), bias=False)
      (5): BatchNorm2d(64, eps=1e-05, momentum=0.1, affine=True, track_running_stats=True)
      (6): LeakyReLU(negative_slope=0.2, inplace=True)
      (7): MaxPool2d(kernel_size=2, stride=2, padding=0, dilation=1, ceil_mode=False)
      (8): Conv2d(64, 64, kernel_size=(3, 3), stride=(1, 1), padding=(1, 1), bias=False)
      (9): BatchNorm2d(64, eps=1e-05, momentum=0.1, affine=True, track_running_stats=True)
      (10): LeakyReLU(negative_slope=0.2, inplace=True)
      (11): Conv2d(64, 64, kernel_size=(3, 3), stride=(1, 1), padding=(1, 1), bias=False)
      (12): BatchNorm2d(64, eps=1e-05, momentum=0.1, affine=True, track_running_stats=True)
      (13): LeakyReLU(negative_slope=0.2, inplace=True)
    )
    (criterion): CrossEntropyLoss()
  )
  (DE): XGBHead()
)
Trainset: 10000
Valset: 800
Testset: 600
===================================== Round 0 =====================================
Testset: 600-------------0Namespace(arch='DN_X', config='../models/architectures/configs/DN4_DA.yaml', dengine=True, refit_dengine=False, dataset_dir='../dataset/miniImageNet', data_name='test', mode='test', resume='../results/models/dn4__miniImageNet_epoch_23.pth.tar', epochs=1, ngpu=1, print_freq=100, outf='../results/DN_X_test_DN4_5_Way_1_Shot_K1')=> loaded checkpoint '../results/models/dn4__miniImageNet_epoch_23.pth.tar' (epoch 23)
DN_X(
  (BACKBONE): FourLayer_64F(
    (features): Sequential(
      (0): Conv2d(3, 64, kernel_size=(3, 3), stride=(1, 1), padding=(1, 1), bias=False)
      (1): BatchNorm2d(64, eps=1e-05, momentum=0.1, affine=True, track_running_stats=True)
      (2): LeakyReLU(negative_slope=0.2, inplace=True)
      (3): MaxPool2d(kernel_size=2, stride=2, padding=0, dilation=1, ceil_mode=False)
      (4): Conv2d(64, 64, kernel_size=(3, 3), stride=(1, 1), padding=(1, 1), bias=False)
      (5): BatchNorm2d(64, eps=1e-05, momentum=0.1, affine=True, track_running_stats=True)
      (6): LeakyReLU(negative_slope=0.2, inplace=True)
      (7): MaxPool2d(kernel_size=2, stride=2, padding=0, dilation=1, ceil_mode=False)
      (8): Conv2d(64, 64, kernel_size=(3, 3), stride=(1, 1), padding=(1, 1), bias=False)
      (9): BatchNorm2d(64, eps=1e-05, momentum=0.1, affine=True, track_running_stats=True)
      (10): LeakyReLU(negative_slope=0.2, inplace=True)
      (11): Conv2d(64, 64, kernel_size=(3, 3), stride=(1, 1), padding=(1, 1), bias=False)
      (12): BatchNorm2d(64, eps=1e-05, momentum=0.1, affine=True, track_running_stats=True)
      (13): LeakyReLU(negative_slope=0.2, inplace=True)
    )
    (criterion): CrossEntropyLoss()
  )
  (DE): XGBHead()
)
Namespace(arch='DN_X', config='../models/architectures/configs/DN4_DA.yaml', dengine=True, refit_dengine=True, dataset_dir='../dataset/miniImageNet', data_name='test', mode='test', resume='../results/models/dn4__miniImageNet_epoch_23.pth.tar', epochs=1, ngpu=1, print_freq=100, outf='../results/DN_X_test_DN4_5_Way_1_Shot_K1')=> loaded checkpoint '../results/models/dn4__miniImageNet_epoch_23.pth.tar' (epoch 23)
DN_X(
  (BACKBONE): FourLayer_64F(
    (features): Sequential(
      (0): Conv2d(3, 64, kernel_size=(3, 3), stride=(1, 1), padding=(1, 1), bias=False)
      (1): BatchNorm2d(64, eps=1e-05, momentum=0.1, affine=True, track_running_stats=True)
      (2): LeakyReLU(negative_slope=0.2, inplace=True)
      (3): MaxPool2d(kernel_size=2, stride=2, padding=0, dilation=1, ceil_mode=False)
      (4): Conv2d(64, 64, kernel_size=(3, 3), stride=(1, 1), padding=(1, 1), bias=False)
      (5): BatchNorm2d(64, eps=1e-05, momentum=0.1, affine=True, track_running_stats=True)
      (6): LeakyReLU(negative_slope=0.2, inplace=True)
      (7): MaxPool2d(kernel_size=2, stride=2, padding=0, dilation=1, ceil_mode=False)
      (8): Conv2d(64, 64, kernel_size=(3, 3), stride=(1, 1), padding=(1, 1), bias=False)
      (9): BatchNorm2d(64, eps=1e-05, momentum=0.1, affine=True, track_running_stats=True)
      (10): LeakyReLU(negative_slope=0.2, inplace=True)
      (11): Conv2d(64, 64, kernel_size=(3, 3), stride=(1, 1), padding=(1, 1), bias=False)
      (12): BatchNorm2d(64, eps=1e-05, momentum=0.1, affine=True, track_running_stats=True)
      (13): LeakyReLU(negative_slope=0.2, inplace=True)
    )
    (criterion): CrossEntropyLoss()
  )
  (DE): XGBHead()
)
Trainset: 10000
Valset: 800
Testset: 600
===================================== Round 0 =====================================
Testset: 600-------------0
Test-(23): [100/600]	Time 0.150 (0.142)	Loss 1.565 (1.500)	Prec@1 34.0 (40.51485061645508)
…
Test-(23): [100/600]	Time 0.080 (0.089)	Loss 1.830 (1.444)	Prec@1 38.0 (46.336631774902344)

Test-(23): [200/600]	Time 0.069 (0.086)	Loss 1.367 (1.432)	Prec@1 46.0 (45.71144485473633)
Namespace(arch='DN_X', config='../models/architectures/configs/DN4_DA.yaml', dengine=True, refit_dengine=True, dataset_dir='../dataset/miniImageNet', data_name='test', mode='test', resume='../results/models/dn4__miniImageNet_epoch_23.pth.tar', epochs=1, ngpu=1, print_freq=100, outf='../results/DN_X_test_DN4_5_Way_1_Shot_K1')=> loaded checkpoint '../results/models/dn4__miniImageNet_epoch_23.pth.tar' (epoch 23)
DN_X(
  (BACKBONE): FourLayer_64F(
    (features): Sequential(
      (0): Conv2d(3, 64, kernel_size=(3, 3), stride=(1, 1), padding=(1, 1), bias=False)
      (1): BatchNorm2d(64, eps=1e-05, momentum=0.1, affine=True, track_running_stats=True)
      (2): LeakyReLU(negative_slope=0.2, inplace=True)
      (3): MaxPool2d(kernel_size=2, stride=2, padding=0, dilation=1, ceil_mode=False)
      (4): Conv2d(64, 64, kernel_size=(3, 3), stride=(1, 1), padding=(1, 1), bias=False)
      (5): BatchNorm2d(64, eps=1e-05, momentum=0.1, affine=True, track_running_stats=True)
      (6): LeakyReLU(negative_slope=0.2, inplace=True)
      (7): MaxPool2d(kernel_size=2, stride=2, padding=0, dilation=1, ceil_mode=False)
      (8): Conv2d(64, 64, kernel_size=(3, 3), stride=(1, 1), padding=(1, 1), bias=False)
      (9): BatchNorm2d(64, eps=1e-05, momentum=0.1, affine=True, track_running_stats=True)
      (10): LeakyReLU(negative_slope=0.2, inplace=True)
      (11): Conv2d(64, 64, kernel_size=(3, 3), stride=(1, 1), padding=(1, 1), bias=False)
      (12): BatchNorm2d(64, eps=1e-05, momentum=0.1, affine=True, track_running_stats=True)
      (13): LeakyReLU(negative_slope=0.2, inplace=True)
    )
    (criterion): CrossEntropyLoss()
  )
  (DE): XGBHead()
)
Trainset: 10000
Valset: 800
Testset: 600
Namespace(arch='DN_X', config='../models/architectures/configs/DN4_DA.yaml', dengine=True, refit_dengine=True, dataset_dir='../dataset/miniImageNet', data_name='test', mode='test', resume='../results/models/dn4__miniImageNet_epoch_23.pth.tar', epochs=1, ngpu=1, print_freq=100, outf='../results/DN_X_test_DN4_5_Way_1_Shot_K1')=> loaded checkpoint '../results/models/dn4__miniImageNet_epoch_23.pth.tar' (epoch 23)
DN_X(
  (BACKBONE): FourLayer_64F(
    (features): Sequential(
      (0): Conv2d(3, 64, kernel_size=(3, 3), stride=(1, 1), padding=(1, 1), bias=False)
      (1): BatchNorm2d(64, eps=1e-05, momentum=0.1, affine=True, track_running_stats=True)
      (2): LeakyReLU(negative_slope=0.2, inplace=True)
      (3): MaxPool2d(kernel_size=2, stride=2, padding=0, dilation=1, ceil_mode=False)
      (4): Conv2d(64, 64, kernel_size=(3, 3), stride=(1, 1), padding=(1, 1), bias=False)
      (5): BatchNorm2d(64, eps=1e-05, momentum=0.1, affine=True, track_running_stats=True)
      (6): LeakyReLU(negative_slope=0.2, inplace=True)
      (7): MaxPool2d(kernel_size=2, stride=2, padding=0, dilation=1, ceil_mode=False)
      (8): Conv2d(64, 64, kernel_size=(3, 3), stride=(1, 1), padding=(1, 1), bias=False)
      (9): BatchNorm2d(64, eps=1e-05, momentum=0.1, affine=True, track_running_stats=True)
      (10): LeakyReLU(negative_slope=0.2, inplace=True)
      (11): Conv2d(64, 64, kernel_size=(3, 3), stride=(1, 1), padding=(1, 1), bias=False)
      (12): BatchNorm2d(64, eps=1e-05, momentum=0.1, affine=True, track_running_stats=True)
      (13): LeakyReLU(negative_slope=0.2, inplace=True)
    )
    (criterion): CrossEntropyLoss()
  )
  (DE): XGBHead()
)
Trainset: 10000
Valset: 800
Testset: 600
Namespace(arch='DN_X', config='../models/architectures/configs/DN4_DA.yaml', dengine=True, refit_dengine=True, dataset_dir='../dataset/miniImageNet', data_name='test', mode='test', resume='../results/models/dn4__miniImageNet_epoch_23.pth.tar', epochs=1, ngpu=1, print_freq=100, outf='../results/DN_X_test_DN4_5_Way_1_Shot_K1')=> loaded checkpoint '../results/models/dn4__miniImageNet_epoch_23.pth.tar' (epoch 23)
DN_X(
  (BACKBONE): FourLayer_64F(
    (features): Sequential(
      (0): Conv2d(3, 64, kernel_size=(3, 3), stride=(1, 1), padding=(1, 1), bias=False)
      (1): BatchNorm2d(64, eps=1e-05, momentum=0.1, affine=True, track_running_stats=True)
      (2): LeakyReLU(negative_slope=0.2, inplace=True)
      (3): MaxPool2d(kernel_size=2, stride=2, padding=0, dilation=1, ceil_mode=False)
      (4): Conv2d(64, 64, kernel_size=(3, 3), stride=(1, 1), padding=(1, 1), bias=False)
      (5): BatchNorm2d(64, eps=1e-05, momentum=0.1, affine=True, track_running_stats=True)
      (6): LeakyReLU(negative_slope=0.2, inplace=True)
      (7): MaxPool2d(kernel_size=2, stride=2, padding=0, dilation=1, ceil_mode=False)
      (8): Conv2d(64, 64, kernel_size=(3, 3), stride=(1, 1), padding=(1, 1), bias=False)
      (9): BatchNorm2d(64, eps=1e-05, momentum=0.1, affine=True, track_running_stats=True)
      (10): LeakyReLU(negative_slope=0.2, inplace=True)
      (11): Conv2d(64, 64, kernel_size=(3, 3), stride=(1, 1), padding=(1, 1), bias=False)
      (12): BatchNorm2d(64, eps=1e-05, momentum=0.1, affine=True, track_running_stats=True)
      (13): LeakyReLU(negative_slope=0.2, inplace=True)
    )
    (criterion): CrossEntropyLoss()
  )
  (DE): XGBHead()
)
Trainset: 10000
Valset: 800
Testset: 600
Namespace(arch='DN_X', config='../models/architectures/configs/DN4_DA.yaml', dengine=True, refit_dengine=True, dataset_dir='../dataset/miniImageNet', data_name='test', mode='test', resume='../results/models/dn4__miniImageNet_epoch_23.pth.tar', epochs=1, ngpu=1, print_freq=100, outf='../results/DN_X_test_DN4_5_Way_1_Shot_K1')=> loaded checkpoint '../results/models/dn4__miniImageNet_epoch_23.pth.tar' (epoch 23)
DN_X(
  (BACKBONE): FourLayer_64F(
    (features): Sequential(
      (0): Conv2d(3, 64, kernel_size=(3, 3), stride=(1, 1), padding=(1, 1), bias=False)
      (1): BatchNorm2d(64, eps=1e-05, momentum=0.1, affine=True, track_running_stats=True)
      (2): LeakyReLU(negative_slope=0.2, inplace=True)
      (3): MaxPool2d(kernel_size=2, stride=2, padding=0, dilation=1, ceil_mode=False)
      (4): Conv2d(64, 64, kernel_size=(3, 3), stride=(1, 1), padding=(1, 1), bias=False)
      (5): BatchNorm2d(64, eps=1e-05, momentum=0.1, affine=True, track_running_stats=True)
      (6): LeakyReLU(negative_slope=0.2, inplace=True)
      (7): MaxPool2d(kernel_size=2, stride=2, padding=0, dilation=1, ceil_mode=False)
      (8): Conv2d(64, 64, kernel_size=(3, 3), stride=(1, 1), padding=(1, 1), bias=False)
      (9): BatchNorm2d(64, eps=1e-05, momentum=0.1, affine=True, track_running_stats=True)
      (10): LeakyReLU(negative_slope=0.2, inplace=True)
      (11): Conv2d(64, 64, kernel_size=(3, 3), stride=(1, 1), padding=(1, 1), bias=False)
      (12): BatchNorm2d(64, eps=1e-05, momentum=0.1, affine=True, track_running_stats=True)
      (13): LeakyReLU(negative_slope=0.2, inplace=True)
    )
    (criterion): CrossEntropyLoss()
  )
  (DE): XGBHead()
)
Trainset: 10000
Valset: 800
Testset: 600
Namespace(arch='DN_X', config='../models/architectures/configs/DN4_DA.yaml', dengine=True, refit_dengine=True, dataset_dir='../dataset/miniImageNet', data_name='test', mode='test', resume='../results/models/dn4__miniImageNet_epoch_23.pth.tar', epochs=1, ngpu=1, print_freq=100, outf='../results/DN_X_test_DN4_5_Way_1_Shot_K1')=> loaded checkpoint '../results/models/dn4__miniImageNet_epoch_23.pth.tar' (epoch 23)
DN_X(
  (BACKBONE): FourLayer_64F(
    (features): Sequential(
      (0): Conv2d(3, 64, kernel_size=(3, 3), stride=(1, 1), padding=(1, 1), bias=False)
      (1): BatchNorm2d(64, eps=1e-05, momentum=0.1, affine=True, track_running_stats=True)
      (2): LeakyReLU(negative_slope=0.2, inplace=True)
      (3): MaxPool2d(kernel_size=2, stride=2, padding=0, dilation=1, ceil_mode=False)
      (4): Conv2d(64, 64, kernel_size=(3, 3), stride=(1, 1), padding=(1, 1), bias=False)
      (5): BatchNorm2d(64, eps=1e-05, momentum=0.1, affine=True, track_running_stats=True)
      (6): LeakyReLU(negative_slope=0.2, inplace=True)
      (7): MaxPool2d(kernel_size=2, stride=2, padding=0, dilation=1, ceil_mode=False)
      (8): Conv2d(64, 64, kernel_size=(3, 3), stride=(1, 1), padding=(1, 1), bias=False)
      (9): BatchNorm2d(64, eps=1e-05, momentum=0.1, affine=True, track_running_stats=True)
      (10): LeakyReLU(negative_slope=0.2, inplace=True)
      (11): Conv2d(64, 64, kernel_size=(3, 3), stride=(1, 1), padding=(1, 1), bias=False)
      (12): BatchNorm2d(64, eps=1e-05, momentum=0.1, affine=True, track_running_stats=True)
      (13): LeakyReLU(negative_slope=0.2, inplace=True)
    )
    (criterion): CrossEntropyLoss()
  )
  (DE): XGBHead()
)
Trainset: 10000
Valset: 800
Testset: 600
Namespace(arch='DN_X', config='../models/architectures/configs/DN4_DA.yaml', dengine=True, refit_dengine=True, dataset_dir='../dataset/miniImageNet', data_name='test', mode='test', resume='../results/models/dn4__miniImageNet_epoch_23.pth.tar', epochs=1, ngpu=1, print_freq=100, outf='../results/DN_X_test_DN4_5_Way_1_Shot_K1')=> loaded checkpoint '../results/models/dn4__miniImageNet_epoch_23.pth.tar' (epoch 23)
DN_X(
  (BACKBONE): FourLayer_64F(
    (features): Sequential(
      (0): Conv2d(3, 64, kernel_size=(3, 3), stride=(1, 1), padding=(1, 1), bias=False)
      (1): BatchNorm2d(64, eps=1e-05, momentum=0.1, affine=True, track_running_stats=True)
      (2): LeakyReLU(negative_slope=0.2, inplace=True)
      (3): MaxPool2d(kernel_size=2, stride=2, padding=0, dilation=1, ceil_mode=False)
      (4): Conv2d(64, 64, kernel_size=(3, 3), stride=(1, 1), padding=(1, 1), bias=False)
      (5): BatchNorm2d(64, eps=1e-05, momentum=0.1, affine=True, track_running_stats=True)
      (6): LeakyReLU(negative_slope=0.2, inplace=True)
      (7): MaxPool2d(kernel_size=2, stride=2, padding=0, dilation=1, ceil_mode=False)
      (8): Conv2d(64, 64, kernel_size=(3, 3), stride=(1, 1), padding=(1, 1), bias=False)
      (9): BatchNorm2d(64, eps=1e-05, momentum=0.1, affine=True, track_running_stats=True)
      (10): LeakyReLU(negative_slope=0.2, inplace=True)
      (11): Conv2d(64, 64, kernel_size=(3, 3), stride=(1, 1), padding=(1, 1), bias=False)
      (12): BatchNorm2d(64, eps=1e-05, momentum=0.1, affine=True, track_running_stats=True)
      (13): LeakyReLU(negative_slope=0.2, inplace=True)
    )
    (criterion): CrossEntropyLoss()
  )
  (DE): XGBHead()
)
Trainset: 10000
Valset: 800
Testset: 600
Namespace(arch='DN_X', config='../models/architectures/configs/DN4_DA.yaml', dengine=True, refit_dengine=True, dataset_dir='../dataset/miniImageNet', data_name='test', mode='test', resume='../results/models/dn4__miniImageNet_epoch_23.pth.tar', epochs=1, ngpu=1, print_freq=100, outf='../results/DN_X_test_DN4_5_Way_1_Shot_K1')=> loaded checkpoint '../results/models/dn4__miniImageNet_epoch_23.pth.tar' (epoch 23)
DN_X(
  (BACKBONE): FourLayer_64F(
    (features): Sequential(
      (0): Conv2d(3, 64, kernel_size=(3, 3), stride=(1, 1), padding=(1, 1), bias=False)
      (1): BatchNorm2d(64, eps=1e-05, momentum=0.1, affine=True, track_running_stats=True)
      (2): LeakyReLU(negative_slope=0.2, inplace=True)
      (3): MaxPool2d(kernel_size=2, stride=2, padding=0, dilation=1, ceil_mode=False)
      (4): Conv2d(64, 64, kernel_size=(3, 3), stride=(1, 1), padding=(1, 1), bias=False)
      (5): BatchNorm2d(64, eps=1e-05, momentum=0.1, affine=True, track_running_stats=True)
      (6): LeakyReLU(negative_slope=0.2, inplace=True)
      (7): MaxPool2d(kernel_size=2, stride=2, padding=0, dilation=1, ceil_mode=False)
      (8): Conv2d(64, 64, kernel_size=(3, 3), stride=(1, 1), padding=(1, 1), bias=False)
      (9): BatchNorm2d(64, eps=1e-05, momentum=0.1, affine=True, track_running_stats=True)
      (10): LeakyReLU(negative_slope=0.2, inplace=True)
      (11): Conv2d(64, 64, kernel_size=(3, 3), stride=(1, 1), padding=(1, 1), bias=False)
      (12): BatchNorm2d(64, eps=1e-05, momentum=0.1, affine=True, track_running_stats=True)
      (13): LeakyReLU(negative_slope=0.2, inplace=True)
    )
    (criterion): CrossEntropyLoss()
  )
  (DE): XGBHead()
)
Trainset: 10000
Valset: 800
Testset: 600
Namespace(arch='DN_X', config='../models/architectures/configs/DN4_DA.yaml', dengine=True, refit_dengine=True, dataset_dir='../dataset/miniImageNet', data_name='test', mode='test', resume='../results/models/dn4__miniImageNet_epoch_23.pth.tar', epochs=1, ngpu=1, print_freq=100, outf='../results/DN_X_test_DN4_5_Way_1_Shot_K1')=> loaded checkpoint '../results/models/dn4__miniImageNet_epoch_23.pth.tar' (epoch 23)
DN_X(
  (BACKBONE): FourLayer_64F(
    (features): Sequential(
      (0): Conv2d(3, 64, kernel_size=(3, 3), stride=(1, 1), padding=(1, 1), bias=False)
      (1): BatchNorm2d(64, eps=1e-05, momentum=0.1, affine=True, track_running_stats=True)
      (2): LeakyReLU(negative_slope=0.2, inplace=True)
      (3): MaxPool2d(kernel_size=2, stride=2, padding=0, dilation=1, ceil_mode=False)
      (4): Conv2d(64, 64, kernel_size=(3, 3), stride=(1, 1), padding=(1, 1), bias=False)
      (5): BatchNorm2d(64, eps=1e-05, momentum=0.1, affine=True, track_running_stats=True)
      (6): LeakyReLU(negative_slope=0.2, inplace=True)
      (7): MaxPool2d(kernel_size=2, stride=2, padding=0, dilation=1, ceil_mode=False)
      (8): Conv2d(64, 64, kernel_size=(3, 3), stride=(1, 1), padding=(1, 1), bias=False)
      (9): BatchNorm2d(64, eps=1e-05, momentum=0.1, affine=True, track_running_stats=True)
      (10): LeakyReLU(negative_slope=0.2, inplace=True)
      (11): Conv2d(64, 64, kernel_size=(3, 3), stride=(1, 1), padding=(1, 1), bias=False)
      (12): BatchNorm2d(64, eps=1e-05, momentum=0.1, affine=True, track_running_stats=True)
      (13): LeakyReLU(negative_slope=0.2, inplace=True)
    )
    (criterion): CrossEntropyLoss()
  )
  (DE): XGBHead()
)
Trainset: 10000
Valset: 800
Testset: 600
Namespace(arch='DN_X', config='../models/architectures/configs/DN4_DA.yaml', dengine=True, refit_dengine=True, dataset_dir='../dataset/miniImageNet', data_name='test', mode='test', resume='../results/models/dn4__miniImageNet_epoch_23.pth.tar', epochs=1, ngpu=1, print_freq=100, outf='../results/DN_X_test_DN4_5_Way_1_Shot_K1')=> loaded checkpoint '../results/models/dn4__miniImageNet_epoch_23.pth.tar' (epoch 23)
DN_X(
  (BACKBONE): FourLayer_64F(
    (features): Sequential(
      (0): Conv2d(3, 64, kernel_size=(3, 3), stride=(1, 1), padding=(1, 1), bias=False)
      (1): BatchNorm2d(64, eps=1e-05, momentum=0.1, affine=True, track_running_stats=True)
      (2): LeakyReLU(negative_slope=0.2, inplace=True)
      (3): MaxPool2d(kernel_size=2, stride=2, padding=0, dilation=1, ceil_mode=False)
      (4): Conv2d(64, 64, kernel_size=(3, 3), stride=(1, 1), padding=(1, 1), bias=False)
      (5): BatchNorm2d(64, eps=1e-05, momentum=0.1, affine=True, track_running_stats=True)
      (6): LeakyReLU(negative_slope=0.2, inplace=True)
      (7): MaxPool2d(kernel_size=2, stride=2, padding=0, dilation=1, ceil_mode=False)
      (8): Conv2d(64, 64, kernel_size=(3, 3), stride=(1, 1), padding=(1, 1), bias=False)
      (9): BatchNorm2d(64, eps=1e-05, momentum=0.1, affine=True, track_running_stats=True)
      (10): LeakyReLU(negative_slope=0.2, inplace=True)
      (11): Conv2d(64, 64, kernel_size=(3, 3), stride=(1, 1), padding=(1, 1), bias=False)
      (12): BatchNorm2d(64, eps=1e-05, momentum=0.1, affine=True, track_running_stats=True)
      (13): LeakyReLU(negative_slope=0.2, inplace=True)
    )
    (criterion): CrossEntropyLoss()
  )
  (DE): XGBHead()
)
Trainset: 10000
Valset: 800
Testset: 600
Namespace(arch='DN_X', config='../models/architectures/configs/DN4_DA.yaml', dengine=True, refit_dengine=True, dataset_dir='../dataset/miniImageNet', data_name='test', mode='test', resume='../results/models/dn4__miniImageNet_epoch_23.pth.tar', epochs=1, ngpu=1, print_freq=100, outf='../results/DN_X_test_DN4_5_Way_1_Shot_K1')=> loaded checkpoint '../results/models/dn4__miniImageNet_epoch_23.pth.tar' (epoch 23)
DN_X(
  (BACKBONE): FourLayer_64F(
    (features): Sequential(
      (0): Conv2d(3, 64, kernel_size=(3, 3), stride=(1, 1), padding=(1, 1), bias=False)
      (1): BatchNorm2d(64, eps=1e-05, momentum=0.1, affine=True, track_running_stats=True)
      (2): LeakyReLU(negative_slope=0.2, inplace=True)
      (3): MaxPool2d(kernel_size=2, stride=2, padding=0, dilation=1, ceil_mode=False)
      (4): Conv2d(64, 64, kernel_size=(3, 3), stride=(1, 1), padding=(1, 1), bias=False)
      (5): BatchNorm2d(64, eps=1e-05, momentum=0.1, affine=True, track_running_stats=True)
      (6): LeakyReLU(negative_slope=0.2, inplace=True)
      (7): MaxPool2d(kernel_size=2, stride=2, padding=0, dilation=1, ceil_mode=False)
      (8): Conv2d(64, 64, kernel_size=(3, 3), stride=(1, 1), padding=(1, 1), bias=False)
      (9): BatchNorm2d(64, eps=1e-05, momentum=0.1, affine=True, track_running_stats=True)
      (10): LeakyReLU(negative_slope=0.2, inplace=True)
      (11): Conv2d(64, 64, kernel_size=(3, 3), stride=(1, 1), padding=(1, 1), bias=False)
      (12): BatchNorm2d(64, eps=1e-05, momentum=0.1, affine=True, track_running_stats=True)
      (13): LeakyReLU(negative_slope=0.2, inplace=True)
    )
    (criterion): CrossEntropyLoss()
  )
  (DE): XGBHead()
)
Trainset: 10000
Valset: 800
Testset: 600
Namespace(arch='DN_X', config='../models/architectures/configs/DN4_DA.yaml', dengine=True, refit_dengine=True, dataset_dir='../dataset/miniImageNet', data_name='test', mode='test', resume='../results/models/dn4__miniImageNet_epoch_23.pth.tar', epochs=1, ngpu=1, print_freq=100, outf='../results/DN_X_test_DN4_5_Way_1_Shot_K1')=> loaded checkpoint '../results/models/dn4__miniImageNet_epoch_23.pth.tar' (epoch 23)
DN_X(
  (BACKBONE): FourLayer_64F(
    (features): Sequential(
      (0): Conv2d(3, 64, kernel_size=(3, 3), stride=(1, 1), padding=(1, 1), bias=False)
      (1): BatchNorm2d(64, eps=1e-05, momentum=0.1, affine=True, track_running_stats=True)
      (2): LeakyReLU(negative_slope=0.2, inplace=True)
      (3): MaxPool2d(kernel_size=2, stride=2, padding=0, dilation=1, ceil_mode=False)
      (4): Conv2d(64, 64, kernel_size=(3, 3), stride=(1, 1), padding=(1, 1), bias=False)
      (5): BatchNorm2d(64, eps=1e-05, momentum=0.1, affine=True, track_running_stats=True)
      (6): LeakyReLU(negative_slope=0.2, inplace=True)
      (7): MaxPool2d(kernel_size=2, stride=2, padding=0, dilation=1, ceil_mode=False)
      (8): Conv2d(64, 64, kernel_size=(3, 3), stride=(1, 1), padding=(1, 1), bias=False)
      (9): BatchNorm2d(64, eps=1e-05, momentum=0.1, affine=True, track_running_stats=True)
      (10): LeakyReLU(negative_slope=0.2, inplace=True)
      (11): Conv2d(64, 64, kernel_size=(3, 3), stride=(1, 1), padding=(1, 1), bias=False)
      (12): BatchNorm2d(64, eps=1e-05, momentum=0.1, affine=True, track_running_stats=True)
      (13): LeakyReLU(negative_slope=0.2, inplace=True)
    )
    (criterion): CrossEntropyLoss()
  )
  (DE): XGBHead()
)
Trainset: 10000
Valset: 800
Testset: 600
Namespace(arch='DN_X', config='../models/architectures/configs/DN4_DA.yaml', dengine=True, refit_dengine=True, dataset_dir='../dataset/miniImageNet', data_name='test', mode='test', resume='../results/models/dn4__miniImageNet_epoch_23.pth.tar', epochs=1, ngpu=1, print_freq=100, outf='../results/DN_X_test_DN4_5_Way_1_Shot_K1')=> loaded checkpoint '../results/models/dn4__miniImageNet_epoch_23.pth.tar' (epoch 23)
DN_X(
  (BACKBONE): FourLayer_64F(
    (features): Sequential(
      (0): Conv2d(3, 64, kernel_size=(3, 3), stride=(1, 1), padding=(1, 1), bias=False)
      (1): BatchNorm2d(64, eps=1e-05, momentum=0.1, affine=True, track_running_stats=True)
      (2): LeakyReLU(negative_slope=0.2, inplace=True)
      (3): MaxPool2d(kernel_size=2, stride=2, padding=0, dilation=1, ceil_mode=False)
      (4): Conv2d(64, 64, kernel_size=(3, 3), stride=(1, 1), padding=(1, 1), bias=False)
      (5): BatchNorm2d(64, eps=1e-05, momentum=0.1, affine=True, track_running_stats=True)
      (6): LeakyReLU(negative_slope=0.2, inplace=True)
      (7): MaxPool2d(kernel_size=2, stride=2, padding=0, dilation=1, ceil_mode=False)
      (8): Conv2d(64, 64, kernel_size=(3, 3), stride=(1, 1), padding=(1, 1), bias=False)
      (9): BatchNorm2d(64, eps=1e-05, momentum=0.1, affine=True, track_running_stats=True)
      (10): LeakyReLU(negative_slope=0.2, inplace=True)
      (11): Conv2d(64, 64, kernel_size=(3, 3), stride=(1, 1), padding=(1, 1), bias=False)
      (12): BatchNorm2d(64, eps=1e-05, momentum=0.1, affine=True, track_running_stats=True)
      (13): LeakyReLU(negative_slope=0.2, inplace=True)
    )
    (criterion): CrossEntropyLoss()
  )
  (DE): XGBHead()
)
Trainset: 10000
Valset: 800
Testset: 600
Namespace(arch='DN_X', config='../models/architectures/configs/DN4_DA.yaml', dengine=True, refit_dengine=True, dataset_dir='../dataset/miniImageNet', data_name='test', mode='test', resume='../results/models/dn4__miniImageNet_epoch_23.pth.tar', epochs=1, ngpu=1, print_freq=100, outf='../results/DN_X_test_DN4_5_Way_1_Shot_K1')=> loaded checkpoint '../results/models/dn4__miniImageNet_epoch_23.pth.tar' (epoch 23)
DN_X(
  (BACKBONE): FourLayer_64F(
    (features): Sequential(
      (0): Conv2d(3, 64, kernel_size=(3, 3), stride=(1, 1), padding=(1, 1), bias=False)
      (1): BatchNorm2d(64, eps=1e-05, momentum=0.1, affine=True, track_running_stats=True)
      (2): LeakyReLU(negative_slope=0.2, inplace=True)
      (3): MaxPool2d(kernel_size=2, stride=2, padding=0, dilation=1, ceil_mode=False)
      (4): Conv2d(64, 64, kernel_size=(3, 3), stride=(1, 1), padding=(1, 1), bias=False)
      (5): BatchNorm2d(64, eps=1e-05, momentum=0.1, affine=True, track_running_stats=True)
      (6): LeakyReLU(negative_slope=0.2, inplace=True)
      (7): MaxPool2d(kernel_size=2, stride=2, padding=0, dilation=1, ceil_mode=False)
      (8): Conv2d(64, 64, kernel_size=(3, 3), stride=(1, 1), padding=(1, 1), bias=False)
      (9): BatchNorm2d(64, eps=1e-05, momentum=0.1, affine=True, track_running_stats=True)
      (10): LeakyReLU(negative_slope=0.2, inplace=True)
      (11): Conv2d(64, 64, kernel_size=(3, 3), stride=(1, 1), padding=(1, 1), bias=False)
      (12): BatchNorm2d(64, eps=1e-05, momentum=0.1, affine=True, track_running_stats=True)
      (13): LeakyReLU(negative_slope=0.2, inplace=True)
    )
    (criterion): CrossEntropyLoss()
  )
  (DE): RandomForestHead()
)
Trainset: 10000
Valset: 800
Testset: 600
Namespace(arch='DN_X', config='../models/architectures/configs/DN4_DA.yaml', dengine=True, refit_dengine=True, dataset_dir='../dataset/miniImageNet', data_name='test', mode='test', resume='../results/models/dn4__miniImageNet_epoch_23.pth.tar', epochs=1, ngpu=1, print_freq=100, outf='../results/DN_X_test_DN4_5_Way_1_Shot_K1')=> loaded checkpoint '../results/models/dn4__miniImageNet_epoch_23.pth.tar' (epoch 23)
DN_X(
  (BACKBONE): FourLayer_64F(
    (features): Sequential(
      (0): Conv2d(3, 64, kernel_size=(3, 3), stride=(1, 1), padding=(1, 1), bias=False)
      (1): BatchNorm2d(64, eps=1e-05, momentum=0.1, affine=True, track_running_stats=True)
      (2): LeakyReLU(negative_slope=0.2, inplace=True)
      (3): MaxPool2d(kernel_size=2, stride=2, padding=0, dilation=1, ceil_mode=False)
      (4): Conv2d(64, 64, kernel_size=(3, 3), stride=(1, 1), padding=(1, 1), bias=False)
      (5): BatchNorm2d(64, eps=1e-05, momentum=0.1, affine=True, track_running_stats=True)
      (6): LeakyReLU(negative_slope=0.2, inplace=True)
      (7): MaxPool2d(kernel_size=2, stride=2, padding=0, dilation=1, ceil_mode=False)
      (8): Conv2d(64, 64, kernel_size=(3, 3), stride=(1, 1), padding=(1, 1), bias=False)
      (9): BatchNorm2d(64, eps=1e-05, momentum=0.1, affine=True, track_running_stats=True)
      (10): LeakyReLU(negative_slope=0.2, inplace=True)
      (11): Conv2d(64, 64, kernel_size=(3, 3), stride=(1, 1), padding=(1, 1), bias=False)
      (12): BatchNorm2d(64, eps=1e-05, momentum=0.1, affine=True, track_running_stats=True)
      (13): LeakyReLU(negative_slope=0.2, inplace=True)
    )
    (criterion): CrossEntropyLoss()
  )
  (DE): RandomForestHead()
)
Trainset: 10000
Valset: 800
Testset: 600
===================================== Round 0 =====================================
Testset: 600-------------0Namespace(arch='DN_X', config='../models/architectures/configs/DN4_DA.yaml', dengine=True, refit_dengine=False, dataset_dir='../dataset/miniImageNet', data_name='test', mode='test', resume='../results/models/dn4__miniImageNet_epoch_23.pth.tar', epochs=1, ngpu=1, print_freq=100, outf='../results/DN_X_test_DN4_5_Way_1_Shot_K1')=> loaded checkpoint '../results/models/dn4__miniImageNet_epoch_23.pth.tar' (epoch 23)
DN_X(
  (BACKBONE): FourLayer_64F(
    (features): Sequential(
      (0): Conv2d(3, 64, kernel_size=(3, 3), stride=(1, 1), padding=(1, 1), bias=False)
      (1): BatchNorm2d(64, eps=1e-05, momentum=0.1, affine=True, track_running_stats=True)
      (2): LeakyReLU(negative_slope=0.2, inplace=True)
      (3): MaxPool2d(kernel_size=2, stride=2, padding=0, dilation=1, ceil_mode=False)
      (4): Conv2d(64, 64, kernel_size=(3, 3), stride=(1, 1), padding=(1, 1), bias=False)
      (5): BatchNorm2d(64, eps=1e-05, momentum=0.1, affine=True, track_running_stats=True)
      (6): LeakyReLU(negative_slope=0.2, inplace=True)
      (7): MaxPool2d(kernel_size=2, stride=2, padding=0, dilation=1, ceil_mode=False)
      (8): Conv2d(64, 64, kernel_size=(3, 3), stride=(1, 1), padding=(1, 1), bias=False)
      (9): BatchNorm2d(64, eps=1e-05, momentum=0.1, affine=True, track_running_stats=True)
      (10): LeakyReLU(negative_slope=0.2, inplace=True)
      (11): Conv2d(64, 64, kernel_size=(3, 3), stride=(1, 1), padding=(1, 1), bias=False)
      (12): BatchNorm2d(64, eps=1e-05, momentum=0.1, affine=True, track_running_stats=True)
      (13): LeakyReLU(negative_slope=0.2, inplace=True)
    )
    (criterion): CrossEntropyLoss()
  )
  (DE): RandomForestHead()
)
Trainset: 10000
Valset: 800
Testset: 600
===================================== Round 0 =====================================
Testset: 600-------------0Namespace(arch='DN_X', config='../models/architectures/configs/DN4_DA.yaml', dengine=True, refit_dengine=False, dataset_dir='../dataset/miniImageNet', data_name='test', mode='test', resume='../results/models/dn4__miniImageNet_epoch_23.pth.tar', epochs=1, ngpu=1, print_freq=100, outf='../results/DN_X_test_DN4_5_Way_1_Shot_K1')=> loaded checkpoint '../results/models/dn4__miniImageNet_epoch_23.pth.tar' (epoch 23)
DN_X(
  (BACKBONE): FourLayer_64F(
    (features): Sequential(
      (0): Conv2d(3, 64, kernel_size=(3, 3), stride=(1, 1), padding=(1, 1), bias=False)
      (1): BatchNorm2d(64, eps=1e-05, momentum=0.1, affine=True, track_running_stats=True)
      (2): LeakyReLU(negative_slope=0.2, inplace=True)
      (3): MaxPool2d(kernel_size=2, stride=2, padding=0, dilation=1, ceil_mode=False)
      (4): Conv2d(64, 64, kernel_size=(3, 3), stride=(1, 1), padding=(1, 1), bias=False)
      (5): BatchNorm2d(64, eps=1e-05, momentum=0.1, affine=True, track_running_stats=True)
      (6): LeakyReLU(negative_slope=0.2, inplace=True)
      (7): MaxPool2d(kernel_size=2, stride=2, padding=0, dilation=1, ceil_mode=False)
      (8): Conv2d(64, 64, kernel_size=(3, 3), stride=(1, 1), padding=(1, 1), bias=False)
      (9): BatchNorm2d(64, eps=1e-05, momentum=0.1, affine=True, track_running_stats=True)
      (10): LeakyReLU(negative_slope=0.2, inplace=True)
      (11): Conv2d(64, 64, kernel_size=(3, 3), stride=(1, 1), padding=(1, 1), bias=False)
      (12): BatchNorm2d(64, eps=1e-05, momentum=0.1, affine=True, track_running_stats=True)
      (13): LeakyReLU(negative_slope=0.2, inplace=True)
    )
    (criterion): CrossEntropyLoss()
  )
  (DE): RandomForestHead()
)
Trainset: 10000
Valset: 800
Testset: 600
===================================== Round 0 =====================================
Testset: 600-------------0Namespace(arch='DN_X', config='../models/architectures/configs/DN4_DA.yaml', dengine=True, refit_dengine=False, dataset_dir='../dataset/miniImageNet', data_name='test', mode='test', resume='../results/models/dn4__miniImageNet_epoch_23.pth.tar', epochs=1, ngpu=1, print_freq=100, outf='../results/DN_X_test_DN4_5_Way_1_Shot_K1')=> loaded checkpoint '../results/models/dn4__miniImageNet_epoch_23.pth.tar' (epoch 23)
DN_X(
  (BACKBONE): FourLayer_64F(
    (features): Sequential(
      (0): Conv2d(3, 64, kernel_size=(3, 3), stride=(1, 1), padding=(1, 1), bias=False)
      (1): BatchNorm2d(64, eps=1e-05, momentum=0.1, affine=True, track_running_stats=True)
      (2): LeakyReLU(negative_slope=0.2, inplace=True)
      (3): MaxPool2d(kernel_size=2, stride=2, padding=0, dilation=1, ceil_mode=False)
      (4): Conv2d(64, 64, kernel_size=(3, 3), stride=(1, 1), padding=(1, 1), bias=False)
      (5): BatchNorm2d(64, eps=1e-05, momentum=0.1, affine=True, track_running_stats=True)
      (6): LeakyReLU(negative_slope=0.2, inplace=True)
      (7): MaxPool2d(kernel_size=2, stride=2, padding=0, dilation=1, ceil_mode=False)
      (8): Conv2d(64, 64, kernel_size=(3, 3), stride=(1, 1), padding=(1, 1), bias=False)
      (9): BatchNorm2d(64, eps=1e-05, momentum=0.1, affine=True, track_running_stats=True)
      (10): LeakyReLU(negative_slope=0.2, inplace=True)
      (11): Conv2d(64, 64, kernel_size=(3, 3), stride=(1, 1), padding=(1, 1), bias=False)
      (12): BatchNorm2d(64, eps=1e-05, momentum=0.1, affine=True, track_running_stats=True)
      (13): LeakyReLU(negative_slope=0.2, inplace=True)
    )
    (criterion): CrossEntropyLoss()
  )
  (DE): RandomForestHead()
)
Trainset: 10000
Valset: 800
Testset: 600
===================================== Round 0 =====================================
Testset: 600-------------0
Test-(23): [100/600]	Time 0.166 (0.165)	Loss 1.705 (1.705)	Prec@1 20.0 (20.0)
Namespace(arch='DN_X', config='../models/architectures/configs/DN4_DA.yaml', dengine=True, refit_dengine=False, dataset_dir='../dataset/miniImageNet', data_name='test', mode='test', resume='../results/models/dn4__miniImageNet_epoch_23.pth.tar', epochs=1, ngpu=1, print_freq=100, outf='../results/DN_X_test_DN4_5_Way_1_Shot_K1')=> loaded checkpoint '../results/models/dn4__miniImageNet_epoch_23.pth.tar' (epoch 23)
DN_X(
  (BACKBONE): FourLayer_64F(
    (features): Sequential(
      (0): Conv2d(3, 64, kernel_size=(3, 3), stride=(1, 1), padding=(1, 1), bias=False)
      (1): BatchNorm2d(64, eps=1e-05, momentum=0.1, affine=True, track_running_stats=True)
      (2): LeakyReLU(negative_slope=0.2, inplace=True)
      (3): MaxPool2d(kernel_size=2, stride=2, padding=0, dilation=1, ceil_mode=False)
      (4): Conv2d(64, 64, kernel_size=(3, 3), stride=(1, 1), padding=(1, 1), bias=False)
      (5): BatchNorm2d(64, eps=1e-05, momentum=0.1, affine=True, track_running_stats=True)
      (6): LeakyReLU(negative_slope=0.2, inplace=True)
      (7): MaxPool2d(kernel_size=2, stride=2, padding=0, dilation=1, ceil_mode=False)
      (8): Conv2d(64, 64, kernel_size=(3, 3), stride=(1, 1), padding=(1, 1), bias=False)
      (9): BatchNorm2d(64, eps=1e-05, momentum=0.1, affine=True, track_running_stats=True)
      (10): LeakyReLU(negative_slope=0.2, inplace=True)
      (11): Conv2d(64, 64, kernel_size=(3, 3), stride=(1, 1), padding=(1, 1), bias=False)
      (12): BatchNorm2d(64, eps=1e-05, momentum=0.1, affine=True, track_running_stats=True)
      (13): LeakyReLU(negative_slope=0.2, inplace=True)
    )
    (criterion): CrossEntropyLoss()
  )
  (DE): RandomForestHead()
)
Trainset: 10000
Valset: 800
Testset: 600
===================================== Round 0 =====================================
Testset: 600-------------0Namespace(arch='DN_X', config='../models/architectures/configs/DN4_DA.yaml', dengine=True, refit_dengine=True, dataset_dir='../dataset/miniImageNet', data_name='test', mode='test', resume='../results/models/dn4__miniImageNet_epoch_23.pth.tar', epochs=1, ngpu=1, print_freq=100, outf='../results/DN_X_test_DN4_5_Way_1_Shot_K1')=> loaded checkpoint '../results/models/dn4__miniImageNet_epoch_23.pth.tar' (epoch 23)
DN_X(
  (BACKBONE): FourLayer_64F(
    (features): Sequential(
      (0): Conv2d(3, 64, kernel_size=(3, 3), stride=(1, 1), padding=(1, 1), bias=False)
      (1): BatchNorm2d(64, eps=1e-05, momentum=0.1, affine=True, track_running_stats=True)
      (2): LeakyReLU(negative_slope=0.2, inplace=True)
      (3): MaxPool2d(kernel_size=2, stride=2, padding=0, dilation=1, ceil_mode=False)
      (4): Conv2d(64, 64, kernel_size=(3, 3), stride=(1, 1), padding=(1, 1), bias=False)
      (5): BatchNorm2d(64, eps=1e-05, momentum=0.1, affine=True, track_running_stats=True)
      (6): LeakyReLU(negative_slope=0.2, inplace=True)
      (7): MaxPool2d(kernel_size=2, stride=2, padding=0, dilation=1, ceil_mode=False)
      (8): Conv2d(64, 64, kernel_size=(3, 3), stride=(1, 1), padding=(1, 1), bias=False)
      (9): BatchNorm2d(64, eps=1e-05, momentum=0.1, affine=True, track_running_stats=True)
      (10): LeakyReLU(negative_slope=0.2, inplace=True)
      (11): Conv2d(64, 64, kernel_size=(3, 3), stride=(1, 1), padding=(1, 1), bias=False)
      (12): BatchNorm2d(64, eps=1e-05, momentum=0.1, affine=True, track_running_stats=True)
      (13): LeakyReLU(negative_slope=0.2, inplace=True)
    )
    (criterion): CrossEntropyLoss()
  )
  (DE): RandomForestHead()
)
Trainset: 10000
Valset: 800
Testset: 600
===================================== Round 0 =====================================
Testset: 600-------------0
Test-(23): [100/600]	Time 0.149 (0.152)	Loss 1.305 (1.445)	Prec@1 60.0 (46.01980209350586)
…
