Namespace(arch='DN_X', config='../models/architectures/configs/DN4_DA.yaml', dengine=False, refit_dengine=False, dataset_dir='../dataset/miniImageNet', data_name='test', mode='test', resume='../results/models/dn4__miniImageNet_epoch_23.pth.tar', epochs=1, ngpu=1, print_freq=100, outf='../results/DN_X_test_DN4_5_Way_5_Shot_K1')=> loaded checkpoint '../results/models/dn4__miniImageNet_epoch_23.pth.tar' (epoch 23)
DN_X(
  (BACKBONE): FourLayer_64F(
    (features): Sequential(
      (0): Conv2d(3, 64, kernel_size=(3, 3), stride=(1, 1), padding=(1, 1), bias=False)
      (1): BatchNorm2d(64, eps=1e-05, momentum=0.1, affine=True, track_running_stats=True)
      (2): LeakyReLU(negative_slope=0.2, inplace=True)
      (3): MaxPool2d(kernel_size=2, stride=2, padding=0, dilation=1, ceil_mode=False)
      (4): Conv2d(64, 64, kernel_size=(3, 3), stride=(1, 1), padding=(1, 1), bias=False)
      (5): BatchNorm2d(64, eps=1e-05, momentum=0.1, affine=True, track_running_stats=True)
      (6): LeakyReLU(negative_slope=0.2, inplace=True)
      (7): MaxPool2d(kernel_size=2, stride=2, padding=0, dilation=1, ceil_mode=False)
      (8): Conv2d(64, 64, kernel_size=(3, 3), stride=(1, 1), padding=(1, 1), bias=False)
      (9): BatchNorm2d(64, eps=1e-05, momentum=0.1, affine=True, track_running_stats=True)
      (10): LeakyReLU(negative_slope=0.2, inplace=True)
      (11): Conv2d(64, 64, kernel_size=(3, 3), stride=(1, 1), padding=(1, 1), bias=False)
      (12): BatchNorm2d(64, eps=1e-05, momentum=0.1, affine=True, track_running_stats=True)
      (13): LeakyReLU(negative_slope=0.2, inplace=True)
    )
    (criterion): CrossEntropyLoss()
  )
  (DE): XGBHead()
)
===================================== Round 0 =====================================
Testset: 600-------------0
Test-(23): [100/600]	Time 0.096 (0.123)	Loss 1.038 (0.997)	Prec@1 66.0 (64.21781921386719)

Test-(23): [200/600]	Time 0.164 (0.117)	Loss 1.555 (1.009)	Prec@1 58.0 (63.99005126953125)
…
 * Prec@1 63.747 Best_prec1 64.520Test accuracy= 63.746665954589844 h= 0.7350515127182007

Aver_accuracy= 64.2413330078125 Aver_h= 0.7306843161582947
Namespace(arch='DN_X', config='../models/architectures/configs/DN7_DA.yaml', dengine=True, refit_dengine=True, dataset_dir='../dataset/StanfordDogs/', data_name='test', mode='test', resume='../results/models/dn7da_stanfordogs_5_5_k3_epoch_27.pth.tar', epochs=1, ngpu=1, print_freq=100, outf='../results/DN_X_test_DN4_5_Way_5_Shot_K1')=> loaded checkpoint '../results/models/dn7da_stanfordogs_5_5_k3_epoch_27.pth.tar' (epoch 27)
DN_X(
  (BACKBONE): SevenLayer_64F(
    (features): Sequential(
      (0): Conv2d(3, 64, kernel_size=(3, 3), stride=(1, 1), padding=(1, 1), bias=False)
      (1): BatchNorm2d(64, eps=1e-05, momentum=0.1, affine=True, track_running_stats=True)
      (2): LeakyReLU(negative_slope=0.2, inplace=True)
      (3): MaxPool2d(kernel_size=2, stride=2, padding=0, dilation=1, ceil_mode=False)
      (4): Conv2d(64, 64, kernel_size=(3, 3), stride=(1, 1), padding=(1, 1), bias=False)
      (5): BatchNorm2d(64, eps=1e-05, momentum=0.1, affine=True, track_running_stats=True)
      (6): LeakyReLU(negative_slope=0.2, inplace=True)
      (7): MaxPool2d(kernel_size=2, stride=2, padding=0, dilation=1, ceil_mode=False)
      (8): Conv2d(64, 64, kernel_size=(3, 3), stride=(1, 1), padding=(1, 1), bias=False)
      (9): BatchNorm2d(64, eps=1e-05, momentum=0.1, affine=True, track_running_stats=True)
      (10): LeakyReLU(negative_slope=0.2, inplace=True)
      (11): Conv2d(64, 64, kernel_size=(3, 3), stride=(1, 1), padding=(1, 1), bias=False)
      (12): BatchNorm2d(64, eps=1e-05, momentum=0.1, affine=True, track_running_stats=True)
      (13): LeakyReLU(negative_slope=0.2, inplace=True)
      (14): Conv2d(64, 32, kernel_size=(3, 3), stride=(1, 1), padding=(1, 1), bias=False)
      (15): BatchNorm2d(32, eps=1e-05, momentum=0.1, affine=True, track_running_stats=True)
      (16): LeakyReLU(negative_slope=0.2, inplace=True)
      (17): Conv2d(32, 16, kernel_size=(3, 3), stride=(1, 1), padding=(1, 1), bias=False)
      (18): BatchNorm2d(16, eps=1e-05, momentum=0.1, affine=True, track_running_stats=True)
      (19): LeakyReLU(negative_slope=0.2, inplace=True)
      (20): Conv2d(16, 8, kernel_size=(3, 3), stride=(1, 1), padding=(1, 1), bias=False)
      (21): BatchNorm2d(8, eps=1e-05, momentum=0.1, affine=True, track_running_stats=True)
      (22): LeakyReLU(negative_slope=0.2, inplace=True)
      (23): MaxPool2d(kernel_size=2, stride=2, padding=0, dilation=1, ceil_mode=False)
    )
    (criterion): CrossEntropyLoss()
  )
  (DE): RandomForestHead()
)
Trainset: 10000
Valset: 600
Testset: 600
Namespace(arch='DN_X', config='../models/architectures/configs/DN7_DA.yaml', dengine=True, refit_dengine=True, dataset_dir='../dataset/StanfordDogs/', data_name='test', mode='test', resume='../results/models/dn7da_stanfordogs_5_5_k3_epoch_27.pth.tar', epochs=1, ngpu=1, print_freq=100, outf='../results/DN_X_test_DN4_5_Way_5_Shot_K1')=> loaded checkpoint '../results/models/dn7da_stanfordogs_5_5_k3_epoch_27.pth.tar' (epoch 27)
DN_X(
  (BACKBONE): SevenLayer_64F(
    (features): Sequential(
      (0): Conv2d(3, 64, kernel_size=(3, 3), stride=(1, 1), padding=(1, 1), bias=False)
      (1): BatchNorm2d(64, eps=1e-05, momentum=0.1, affine=True, track_running_stats=True)
      (2): LeakyReLU(negative_slope=0.2, inplace=True)
      (3): MaxPool2d(kernel_size=2, stride=2, padding=0, dilation=1, ceil_mode=False)
      (4): Conv2d(64, 64, kernel_size=(3, 3), stride=(1, 1), padding=(1, 1), bias=False)
      (5): BatchNorm2d(64, eps=1e-05, momentum=0.1, affine=True, track_running_stats=True)
      (6): LeakyReLU(negative_slope=0.2, inplace=True)
      (7): MaxPool2d(kernel_size=2, stride=2, padding=0, dilation=1, ceil_mode=False)
      (8): Conv2d(64, 64, kernel_size=(3, 3), stride=(1, 1), padding=(1, 1), bias=False)
      (9): BatchNorm2d(64, eps=1e-05, momentum=0.1, affine=True, track_running_stats=True)
      (10): LeakyReLU(negative_slope=0.2, inplace=True)
      (11): Conv2d(64, 64, kernel_size=(3, 3), stride=(1, 1), padding=(1, 1), bias=False)
      (12): BatchNorm2d(64, eps=1e-05, momentum=0.1, affine=True, track_running_stats=True)
      (13): LeakyReLU(negative_slope=0.2, inplace=True)
      (14): Conv2d(64, 32, kernel_size=(3, 3), stride=(1, 1), padding=(1, 1), bias=False)
      (15): BatchNorm2d(32, eps=1e-05, momentum=0.1, affine=True, track_running_stats=True)
      (16): LeakyReLU(negative_slope=0.2, inplace=True)
      (17): Conv2d(32, 16, kernel_size=(3, 3), stride=(1, 1), padding=(1, 1), bias=False)
      (18): BatchNorm2d(16, eps=1e-05, momentum=0.1, affine=True, track_running_stats=True)
      (19): LeakyReLU(negative_slope=0.2, inplace=True)
      (20): Conv2d(16, 8, kernel_size=(3, 3), stride=(1, 1), padding=(1, 1), bias=False)
      (21): BatchNorm2d(8, eps=1e-05, momentum=0.1, affine=True, track_running_stats=True)
      (22): LeakyReLU(negative_slope=0.2, inplace=True)
      (23): MaxPool2d(kernel_size=2, stride=2, padding=0, dilation=1, ceil_mode=False)
    )
    (criterion): CrossEntropyLoss()
  )
  (DE): RandomForestHead()
)
Trainset: 10000
Valset: 600
Testset: 600
Namespace(arch='DN_X', config='../models/architectures/configs/DN7_DA.yaml', dengine=True, refit_dengine=True, dataset_dir='../dataset/StanfordDogs/', data_name='test', mode='test', resume='../results/models/dn7da_stanfordogs_5_5_k3_epoch_27.pth.tar', epochs=1, ngpu=1, print_freq=100, outf='../results/DN_X_test_DN4_5_Way_5_Shot_K1')=> loaded checkpoint '../results/models/dn7da_stanfordogs_5_5_k3_epoch_27.pth.tar' (epoch 27)
DN_X(
  (BACKBONE): SevenLayer_64F(
    (features): Sequential(
      (0): Conv2d(3, 64, kernel_size=(3, 3), stride=(1, 1), padding=(1, 1), bias=False)
      (1): BatchNorm2d(64, eps=1e-05, momentum=0.1, affine=True, track_running_stats=True)
      (2): LeakyReLU(negative_slope=0.2, inplace=True)
      (3): MaxPool2d(kernel_size=2, stride=2, padding=0, dilation=1, ceil_mode=False)
      (4): Conv2d(64, 64, kernel_size=(3, 3), stride=(1, 1), padding=(1, 1), bias=False)
      (5): BatchNorm2d(64, eps=1e-05, momentum=0.1, affine=True, track_running_stats=True)
      (6): LeakyReLU(negative_slope=0.2, inplace=True)
      (7): MaxPool2d(kernel_size=2, stride=2, padding=0, dilation=1, ceil_mode=False)
      (8): Conv2d(64, 64, kernel_size=(3, 3), stride=(1, 1), padding=(1, 1), bias=False)
      (9): BatchNorm2d(64, eps=1e-05, momentum=0.1, affine=True, track_running_stats=True)
      (10): LeakyReLU(negative_slope=0.2, inplace=True)
      (11): Conv2d(64, 64, kernel_size=(3, 3), stride=(1, 1), padding=(1, 1), bias=False)
      (12): BatchNorm2d(64, eps=1e-05, momentum=0.1, affine=True, track_running_stats=True)
      (13): LeakyReLU(negative_slope=0.2, inplace=True)
      (14): Conv2d(64, 32, kernel_size=(3, 3), stride=(1, 1), padding=(1, 1), bias=False)
      (15): BatchNorm2d(32, eps=1e-05, momentum=0.1, affine=True, track_running_stats=True)
      (16): LeakyReLU(negative_slope=0.2, inplace=True)
      (17): Conv2d(32, 16, kernel_size=(3, 3), stride=(1, 1), padding=(1, 1), bias=False)
      (18): BatchNorm2d(16, eps=1e-05, momentum=0.1, affine=True, track_running_stats=True)
      (19): LeakyReLU(negative_slope=0.2, inplace=True)
      (20): Conv2d(16, 8, kernel_size=(3, 3), stride=(1, 1), padding=(1, 1), bias=False)
      (21): BatchNorm2d(8, eps=1e-05, momentum=0.1, affine=True, track_running_stats=True)
      (22): LeakyReLU(negative_slope=0.2, inplace=True)
      (23): MaxPool2d(kernel_size=2, stride=2, padding=0, dilation=1, ceil_mode=False)
    )
    (criterion): CrossEntropyLoss()
  )
  (DE): RandomForestHead()
)
Trainset: 10000
Valset: 600
Testset: 600
Namespace(arch='DN_X', config='../models/architectures/configs/DN7_DA.yaml', dengine=True, refit_dengine=True, dataset_dir='../dataset/StanfordDogs/', data_name='test', mode='test', resume='../results/models/dn7da_stanfordogs_5_5_k3_epoch_27.pth.tar', epochs=1, ngpu=1, print_freq=100, outf='../results/DN_X_test_DN4_5_Way_5_Shot_K1')=> loaded checkpoint '../results/models/dn7da_stanfordogs_5_5_k3_epoch_27.pth.tar' (epoch 27)
DN_X(
  (BACKBONE): SevenLayer_64F(
    (features): Sequential(
      (0): Conv2d(3, 64, kernel_size=(3, 3), stride=(1, 1), padding=(1, 1), bias=False)
      (1): BatchNorm2d(64, eps=1e-05, momentum=0.1, affine=True, track_running_stats=True)
      (2): LeakyReLU(negative_slope=0.2, inplace=True)
      (3): MaxPool2d(kernel_size=2, stride=2, padding=0, dilation=1, ceil_mode=False)
      (4): Conv2d(64, 64, kernel_size=(3, 3), stride=(1, 1), padding=(1, 1), bias=False)
      (5): BatchNorm2d(64, eps=1e-05, momentum=0.1, affine=True, track_running_stats=True)
      (6): LeakyReLU(negative_slope=0.2, inplace=True)
      (7): MaxPool2d(kernel_size=2, stride=2, padding=0, dilation=1, ceil_mode=False)
      (8): Conv2d(64, 64, kernel_size=(3, 3), stride=(1, 1), padding=(1, 1), bias=False)
      (9): BatchNorm2d(64, eps=1e-05, momentum=0.1, affine=True, track_running_stats=True)
      (10): LeakyReLU(negative_slope=0.2, inplace=True)
      (11): Conv2d(64, 64, kernel_size=(3, 3), stride=(1, 1), padding=(1, 1), bias=False)
      (12): BatchNorm2d(64, eps=1e-05, momentum=0.1, affine=True, track_running_stats=True)
      (13): LeakyReLU(negative_slope=0.2, inplace=True)
      (14): Conv2d(64, 32, kernel_size=(3, 3), stride=(1, 1), padding=(1, 1), bias=False)
      (15): BatchNorm2d(32, eps=1e-05, momentum=0.1, affine=True, track_running_stats=True)
      (16): LeakyReLU(negative_slope=0.2, inplace=True)
      (17): Conv2d(32, 16, kernel_size=(3, 3), stride=(1, 1), padding=(1, 1), bias=False)
      (18): BatchNorm2d(16, eps=1e-05, momentum=0.1, affine=True, track_running_stats=True)
      (19): LeakyReLU(negative_slope=0.2, inplace=True)
      (20): Conv2d(16, 8, kernel_size=(3, 3), stride=(1, 1), padding=(1, 1), bias=False)
      (21): BatchNorm2d(8, eps=1e-05, momentum=0.1, affine=True, track_running_stats=True)
      (22): LeakyReLU(negative_slope=0.2, inplace=True)
      (23): MaxPool2d(kernel_size=2, stride=2, padding=0, dilation=1, ceil_mode=False)
    )
    (criterion): CrossEntropyLoss()
  )
  (DE): RandomForestHead()
)
Trainset: 10000
Valset: 600
Testset: 600
===================================== Round 0 =====================================
…
