…
lower=-0.01, clamp_upper=0.01, print_freq=100, outf='../results/DN4_miniImageNet_DN4_DTR_5Way_5Shot_K3')
Namespace(dataset_dir='../dataset/miniImageNet/', data_name='miniImageNet', mode='train', resume='../results/DN4_miniImageNet_DN4_DTR_5Way_5Shot_K3/model_best.pth.tar', epochs=1, cuda=True, ngpu=1, nc=3, clamp_lower=-0.01, clamp_upper=0.01, print_freq=100, outf='../results/DN4_miniImageNet_DN4_DTR_5Way_5Shot_K3')
=> loaded checkpoint '../results/DN4_miniImageNet_DN4_DTR_5Way_5Shot_K3/model_best.pth.tar' (epoch 16)
DN4_DTR(
  (BACKBONE_2D): FourLayer_64F(
    (features): Sequential(
      (0): Conv2d(3, 64, kernel_size=(3, 3), stride=(1, 1), padding=(1, 1), bias=False)
      (1): BatchNorm2d(64, eps=1e-05, momentum=0.1, affine=True, track_running_stats=True)
      (2): LeakyReLU(negative_slope=0.2, inplace=True)
      (3): MaxPool2d(kernel_size=2, stride=2, padding=0, dilation=1, ceil_mode=False)
      (4): Conv2d(64, 64, kernel_size=(3, 3), stride=(1, 1), padding=(1, 1), bias=False)
      (5): BatchNorm2d(64, eps=1e-05, momentum=0.1, affine=True, track_running_stats=True)
      (6): LeakyReLU(negative_slope=0.2, inplace=True)
      (7): MaxPool2d(kernel_size=2, stride=2, padding=0, dilation=1, ceil_mode=False)
      (8): Conv2d(64, 64, kernel_size=(3, 3), stride=(1, 1), padding=(1, 1), bias=False)
      (9): BatchNorm2d(64, eps=1e-05, momentum=0.1, affine=True, track_running_stats=True)
      (10): LeakyReLU(negative_slope=0.2, inplace=True)
      (11): Conv2d(64, 64, kernel_size=(3, 3), stride=(1, 1), padding=(1, 1), bias=False)
      (12): BatchNorm2d(64, eps=1e-05, momentum=0.1, affine=True, track_running_stats=True)
      (13): LeakyReLU(negative_slope=0.2, inplace=True)
    )
    (criterion): CrossEntropyLoss()
  )
  (ENCODER): Encoder(
    (encoder_smax): Sequential(
      (0): Flatten(start_dim=1, end_dim=-1)
      (1): Linear(in_features=28224, out_features=512, bias=False)
      (2): LeakyReLU(negative_slope=0.2, inplace=True)
      (3): Dropout(p=0.2, inplace=False)
      (4): Linear(in_features=512, out_features=128, bias=False)
      (5): LeakyReLU(negative_slope=0.2, inplace=True)
      (6): Dropout(p=0.2, inplace=False)
      (7): Linear(in_features=128, out_features=5, bias=False)
      (8): Softmax(dim=1)
    )
    (encoder_conv): Sequential(
      (0): Conv2d(64, 32, kernel_size=(3, 3), stride=(1, 1), padding=(1, 1), bias=False)
      (1): BatchNorm2d(32, eps=1e-05, momentum=0.1, affine=True, track_running_stats=True)
      (2): LeakyReLU(negative_slope=0.2, inplace=True)
      (3): Conv2d(32, 16, kernel_size=(3, 3), stride=(1, 1), padding=(1, 1), bias=False)
      (4): BatchNorm2d(16, eps=1e-05, momentum=0.1, affine=True, track_running_stats=True)
      (5): LeakyReLU(negative_slope=0.2, inplace=True)
      (6): Conv2d(16, 8, kernel_size=(3, 3), stride=(1, 1), padding=(1, 1), bias=False)
      (7): BatchNorm2d(8, eps=1e-05, momentum=0.1, affine=True, track_running_stats=True)
      (8): LeakyReLU(negative_slope=0.2, inplace=True)
      (9): MaxPool2d(kernel_size=3, stride=3, padding=0, dilation=1, ceil_mode=False)
    )
  )
  (DT): XGBHead()
)
===================================== Epoch 0 =====================================
Namespace(dataset_dir='../dataset/miniImageNet/', data_name='miniImageNet', mode='train', resume='../results/DN4_miniImageNet_DN4_DTR_5Way_5Shot_K3/model_best.pth.tar', epochs=1, cuda=True, ngpu=1, nc=3, clamp_lower=-0.01, clamp_upper=0.01, print_freq=100, outf='../results/DN4_miniImageNet_DN4_DTR_5Way_5Shot_K3')
=> loaded checkpoint '../results/DN4_miniImageNet_DN4_DTR_5Way_5Shot_K3/model_best.pth.tar' (epoch 16)
DN4_DTR(
  (BACKBONE_2D): FourLayer_64F(
    (features): Sequential(
      (0): Conv2d(3, 64, kernel_size=(3, 3), stride=(1, 1), padding=(1, 1), bias=False)
      (1): BatchNorm2d(64, eps=1e-05, momentum=0.1, affine=True, track_running_stats=True)
      (2): LeakyReLU(negative_slope=0.2, inplace=True)
      (3): MaxPool2d(kernel_size=2, stride=2, padding=0, dilation=1, ceil_mode=False)
      (4): Conv2d(64, 64, kernel_size=(3, 3), stride=(1, 1), padding=(1, 1), bias=False)
      (5): BatchNorm2d(64, eps=1e-05, momentum=0.1, affine=True, track_running_stats=True)
      (6): LeakyReLU(negative_slope=0.2, inplace=True)
      (7): MaxPool2d(kernel_size=2, stride=2, padding=0, dilation=1, ceil_mode=False)
      (8): Conv2d(64, 64, kernel_size=(3, 3), stride=(1, 1), padding=(1, 1), bias=False)
      (9): BatchNorm2d(64, eps=1e-05, momentum=0.1, affine=True, track_running_stats=True)
      (10): LeakyReLU(negative_slope=0.2, inplace=True)
      (11): Conv2d(64, 64, kernel_size=(3, 3), stride=(1, 1), padding=(1, 1), bias=False)
      (12): BatchNorm2d(64, eps=1e-05, momentum=0.1, affine=True, track_running_stats=True)
      (13): LeakyReLU(negative_slope=0.2, inplace=True)
    )
    (criterion): CrossEntropyLoss()
  )
  (ENCODER): Encoder(
    (encoder_smax): Sequential(
      (0): Flatten(start_dim=1, end_dim=-1)
      (1): Linear(in_features=28224, out_features=512, bias=False)
      (2): LeakyReLU(negative_slope=0.2, inplace=True)
      (3): Dropout(p=0.2, inplace=False)
      (4): Linear(in_features=512, out_features=128, bias=False)
      (5): LeakyReLU(negative_slope=0.2, inplace=True)
      (6): Dropout(p=0.2, inplace=False)
      (7): Linear(in_features=128, out_features=5, bias=False)
      (8): Softmax(dim=1)
    )
    (encoder_conv): Sequential(
      (0): Conv2d(64, 32, kernel_size=(3, 3), stride=(1, 1), padding=(1, 1), bias=False)
      (1): BatchNorm2d(32, eps=1e-05, momentum=0.1, affine=True, track_running_stats=True)
      (2): LeakyReLU(negative_slope=0.2, inplace=True)
      (3): Conv2d(32, 16, kernel_size=(3, 3), stride=(1, 1), padding=(1, 1), bias=False)
      (4): BatchNorm2d(16, eps=1e-05, momentum=0.1, affine=True, track_running_stats=True)
      (5): LeakyReLU(negative_slope=0.2, inplace=True)
      (6): Conv2d(16, 8, kernel_size=(3, 3), stride=(1, 1), padding=(1, 1), bias=False)
      (7): BatchNorm2d(8, eps=1e-05, momentum=0.1, affine=True, track_running_stats=True)
      (8): LeakyReLU(negative_slope=0.2, inplace=True)
      (9): MaxPool2d(kernel_size=3, stride=3, padding=0, dilation=1, ceil_mode=False)
    )
  )
  (DT): XGBHead()
)
===================================== Epoch 0 =====================================
Namespace(dataset_dir='../dataset/miniImageNet/', data_name='miniImageNet', mode='train', resume='../results/DN4_miniImageNet_DN4_DTR_5Way_5Shot_K3/model_best.pth.tar', epochs=1, cuda=True, ngpu=1, nc=3, clamp_lower=-0.01, clamp_upper=0.01, print_freq=100, outf='../results/DN4_miniImageNet_DN4_DTR_5Way_5Shot_K3')
=> loaded checkpoint '../results/DN4_miniImageNet_DN4_DTR_5Way_5Shot_K3/model_best.pth.tar' (epoch 16)
DN4_DTR(
  (BACKBONE_2D): FourLayer_64F(
    (features): Sequential(
      (0): Conv2d(3, 64, kernel_size=(3, 3), stride=(1, 1), padding=(1, 1), bias=False)
      (1): BatchNorm2d(64, eps=1e-05, momentum=0.1, affine=True, track_running_stats=True)
      (2): LeakyReLU(negative_slope=0.2, inplace=True)
      (3): MaxPool2d(kernel_size=2, stride=2, padding=0, dilation=1, ceil_mode=False)
      (4): Conv2d(64, 64, kernel_size=(3, 3), stride=(1, 1), padding=(1, 1), bias=False)
      (5): BatchNorm2d(64, eps=1e-05, momentum=0.1, affine=True, track_running_stats=True)
      (6): LeakyReLU(negative_slope=0.2, inplace=True)
      (7): MaxPool2d(kernel_size=2, stride=2, padding=0, dilation=1, ceil_mode=False)
      (8): Conv2d(64, 64, kernel_size=(3, 3), stride=(1, 1), padding=(1, 1), bias=False)
      (9): BatchNorm2d(64, eps=1e-05, momentum=0.1, affine=True, track_running_stats=True)
      (10): LeakyReLU(negative_slope=0.2, inplace=True)
      (11): Conv2d(64, 64, kernel_size=(3, 3), stride=(1, 1), padding=(1, 1), bias=False)
      (12): BatchNorm2d(64, eps=1e-05, momentum=0.1, affine=True, track_running_stats=True)
      (13): LeakyReLU(negative_slope=0.2, inplace=True)
    )
    (criterion): CrossEntropyLoss()
  )
  (ENCODER): Encoder(
    (encoder_smax): Sequential(
      (0): Flatten(start_dim=1, end_dim=-1)
      (1): Linear(in_features=28224, out_features=512, bias=False)
      (2): LeakyReLU(negative_slope=0.2, inplace=True)
      (3): Dropout(p=0.2, inplace=False)
      (4): Linear(in_features=512, out_features=128, bias=False)
      (5): LeakyReLU(negative_slope=0.2, inplace=True)
      (6): Dropout(p=0.2, inplace=False)
      (7): Linear(in_features=128, out_features=5, bias=False)
      (8): Softmax(dim=1)
    )
    (encoder_conv): Sequential(
      (0): Conv2d(64, 32, kernel_size=(3, 3), stride=(1, 1), padding=(1, 1), bias=False)
      (1): BatchNorm2d(32, eps=1e-05, momentum=0.1, affine=True, track_running_stats=True)
      (2): LeakyReLU(negative_slope=0.2, inplace=True)
      (3): Conv2d(32, 16, kernel_size=(3, 3), stride=(1, 1), padding=(1, 1), bias=False)
      (4): BatchNorm2d(16, eps=1e-05, momentum=0.1, affine=True, track_running_stats=True)
      (5): LeakyReLU(negative_slope=0.2, inplace=True)
      (6): Conv2d(16, 8, kernel_size=(3, 3), stride=(1, 1), padding=(1, 1), bias=False)
      (7): BatchNorm2d(8, eps=1e-05, momentum=0.1, affine=True, track_running_stats=True)
      (8): LeakyReLU(negative_slope=0.2, inplace=True)
      (9): MaxPool2d(kernel_size=3, stride=3, padding=0, dilation=1, ceil_mode=False)
    )
  )
  (DT): XGBHead()
)
===================================== Epoch 0 =====================================
Namespace(dataset_dir='../dataset/miniImageNet/', data_name='miniImageNet', mode='train', resume='../results/DN4_miniImageNet_DN4_DTR_5Way_5Shot_K3/model_best.pth.tar', epochs=1, cuda=True, ngpu=1, nc=3, clamp_lower=-0.01, clamp_upper=0.01, print_freq=100, outf='../results/DN4_miniImageNet_DN4_DTR_5Way_5Shot_K3')
=> loaded checkpoint '../results/DN4_miniImageNet_DN4_DTR_5Way_5Shot_K3/model_best.pth.tar' (epoch 16)
DN4_DTR(
  (BACKBONE_2D): FourLayer_64F(
    (features): Sequential(
      (0): Conv2d(3, 64, kernel_size=(3, 3), stride=(1, 1), padding=(1, 1), bias=False)
      (1): BatchNorm2d(64, eps=1e-05, momentum=0.1, affine=True, track_running_stats=True)
      (2): LeakyReLU(negative_slope=0.2, inplace=True)
      (3): MaxPool2d(kernel_size=2, stride=2, padding=0, dilation=1, ceil_mode=False)
      (4): Conv2d(64, 64, kernel_size=(3, 3), stride=(1, 1), padding=(1, 1), bias=False)
      (5): BatchNorm2d(64, eps=1e-05, momentum=0.1, affine=True, track_running_stats=True)
      (6): LeakyReLU(negative_slope=0.2, inplace=True)
      (7): MaxPool2d(kernel_size=2, stride=2, padding=0, dilation=1, ceil_mode=False)
      (8): Conv2d(64, 64, kernel_size=(3, 3), stride=(1, 1), padding=(1, 1), bias=False)
      (9): BatchNorm2d(64, eps=1e-05, momentum=0.1, affine=True, track_running_stats=True)
      (10): LeakyReLU(negative_slope=0.2, inplace=True)
      (11): Conv2d(64, 64, kernel_size=(3, 3), stride=(1, 1), padding=(1, 1), bias=False)
      (12): BatchNorm2d(64, eps=1e-05, momentum=0.1, affine=True, track_running_stats=True)
      (13): LeakyReLU(negative_slope=0.2, inplace=True)
    )
    (criterion): CrossEntropyLoss()
  )
  (ENCODER): Encoder(
    (encoder_smax): Sequential(
      (0): Flatten(start_dim=1, end_dim=-1)
      (1): Linear(in_features=28224, out_features=512, bias=False)
      (2): LeakyReLU(negative_slope=0.2, inplace=True)
      (3): Dropout(p=0.2, inplace=False)
      (4): Linear(in_features=512, out_features=128, bias=False)
      (5): LeakyReLU(negative_slope=0.2, inplace=True)
      (6): Dropout(p=0.2, inplace=False)
      (7): Linear(in_features=128, out_features=5, bias=False)
      (8): Softmax(dim=1)
    )
    (encoder_conv): Sequential(
      (0): Conv2d(64, 32, kernel_size=(3, 3), stride=(1, 1), padding=(1, 1), bias=False)
      (1): BatchNorm2d(32, eps=1e-05, momentum=0.1, affine=True, track_running_stats=True)
      (2): LeakyReLU(negative_slope=0.2, inplace=True)
      (3): Conv2d(32, 16, kernel_size=(3, 3), stride=(1, 1), padding=(1, 1), bias=False)
      (4): BatchNorm2d(16, eps=1e-05, momentum=0.1, affine=True, track_running_stats=True)
      (5): LeakyReLU(negative_slope=0.2, inplace=True)
      (6): Conv2d(16, 8, kernel_size=(3, 3), stride=(1, 1), padding=(1, 1), bias=False)
      (7): BatchNorm2d(8, eps=1e-05, momentum=0.1, affine=True, track_running_stats=True)
      (8): LeakyReLU(negative_slope=0.2, inplace=True)
      (9): MaxPool2d(kernel_size=3, stride=3, padding=0, dilation=1, ceil_mode=False)
    )
  )
  (DT): XGBHead()
)
===================================== Epoch 0 =====================================
Namespace(dataset_dir='../dataset/miniImageNet/', data_name='miniImageNet', mode='train', resume='../results/DN4_miniImageNet_DN4_DTR_5Way_5Shot_K3/model_best.pth.tar', epochs=1, cuda=True, ngpu=1, nc=3, clamp_lower=-0.01, clamp_upper=0.01, print_freq=100, outf='../results/DN4_miniImageNet_DN4_DTR_5Way_5Shot_K3')
=> loaded checkpoint '../results/DN4_miniImageNet_DN4_DTR_5Way_5Shot_K3/model_best.pth.tar' (epoch 16)
DN4_DTR(
  (BACKBONE_2D): FourLayer_64F(
    (features): Sequential(
      (0): Conv2d(3, 64, kernel_size=(3, 3), stride=(1, 1), padding=(1, 1), bias=False)
      (1): BatchNorm2d(64, eps=1e-05, momentum=0.1, affine=True, track_running_stats=True)
      (2): LeakyReLU(negative_slope=0.2, inplace=True)
      (3): MaxPool2d(kernel_size=2, stride=2, padding=0, dilation=1, ceil_mode=False)
      (4): Conv2d(64, 64, kernel_size=(3, 3), stride=(1, 1), padding=(1, 1), bias=False)
      (5): BatchNorm2d(64, eps=1e-05, momentum=0.1, affine=True, track_running_stats=True)
      (6): LeakyReLU(negative_slope=0.2, inplace=True)
      (7): MaxPool2d(kernel_size=2, stride=2, padding=0, dilation=1, ceil_mode=False)
      (8): Conv2d(64, 64, kernel_size=(3, 3), stride=(1, 1), padding=(1, 1), bias=False)
      (9): BatchNorm2d(64, eps=1e-05, momentum=0.1, affine=True, track_running_stats=True)
      (10): LeakyReLU(negative_slope=0.2, inplace=True)
      (11): Conv2d(64, 64, kernel_size=(3, 3), stride=(1, 1), padding=(1, 1), bias=False)
      (12): BatchNorm2d(64, eps=1e-05, momentum=0.1, affine=True, track_running_stats=True)
      (13): LeakyReLU(negative_slope=0.2, inplace=True)
    )
    (criterion): CrossEntropyLoss()
  )
  (ENCODER): Encoder(
    (encoder_smax): Sequential(
      (0): Flatten(start_dim=1, end_dim=-1)
      (1): Linear(in_features=28224, out_features=512, bias=False)
      (2): LeakyReLU(negative_slope=0.2, inplace=True)
      (3): Dropout(p=0.2, inplace=False)
      (4): Linear(in_features=512, out_features=128, bias=False)
      (5): LeakyReLU(negative_slope=0.2, inplace=True)
      (6): Dropout(p=0.2, inplace=False)
      (7): Linear(in_features=128, out_features=5, bias=False)
      (8): Softmax(dim=1)
    )
    (encoder_conv): Sequential(
      (0): Conv2d(64, 32, kernel_size=(3, 3), stride=(1, 1), padding=(1, 1), bias=False)
      (1): BatchNorm2d(32, eps=1e-05, momentum=0.1, affine=True, track_running_stats=True)
      (2): LeakyReLU(negative_slope=0.2, inplace=True)
      (3): Conv2d(32, 16, kernel_size=(3, 3), stride=(1, 1), padding=(1, 1), bias=False)
      (4): BatchNorm2d(16, eps=1e-05, momentum=0.1, affine=True, track_running_stats=True)
      (5): LeakyReLU(negative_slope=0.2, inplace=True)
      (6): Conv2d(16, 8, kernel_size=(3, 3), stride=(1, 1), padding=(1, 1), bias=False)
      (7): BatchNorm2d(8, eps=1e-05, momentum=0.1, affine=True, track_running_stats=True)
      (8): LeakyReLU(negative_slope=0.2, inplace=True)
      (9): MaxPool2d(kernel_size=3, stride=3, padding=0, dilation=1, ceil_mode=False)
    )
  )
  (DT): XGBHead()
)
===================================== Epoch 0 =====================================
Trainset: 10000
Valset: 1000
Testset: 1000
Namespace(dataset_dir='../dataset/miniImageNet/', data_name='miniImageNet', mode='train', resume='../results/DN4_miniImageNet_DN4_DTR_5Way_5Shot_K3/model_best.pth.tar', epochs=1, cuda=True, ngpu=1, nc=3, clamp_lower=-0.01, clamp_upper=0.01, print_freq=100, outf='../results/DN4_miniImageNet_DN4_DTR_5Way_5Shot_K3')
=> loaded checkpoint '../results/DN4_miniImageNet_DN4_DTR_5Way_5Shot_K3/model_best.pth.tar' (epoch 16)
DN4_DTR(
  (BACKBONE_2D): FourLayer_64F(
    (features): Sequential(
      (0): Conv2d(3, 64, kernel_size=(3, 3), stride=(1, 1), padding=(1, 1), bias=False)
      (1): BatchNorm2d(64, eps=1e-05, momentum=0.1, affine=True, track_running_stats=True)
      (2): LeakyReLU(negative_slope=0.2, inplace=True)
      (3): MaxPool2d(kernel_size=2, stride=2, padding=0, dilation=1, ceil_mode=False)
      (4): Conv2d(64, 64, kernel_size=(3, 3), stride=(1, 1), padding=(1, 1), bias=False)
      (5): BatchNorm2d(64, eps=1e-05, momentum=0.1, affine=True, track_running_stats=True)
      (6): LeakyReLU(negative_slope=0.2, inplace=True)
      (7): MaxPool2d(kernel_size=2, stride=2, padding=0, dilation=1, ceil_mode=False)
      (8): Conv2d(64, 64, kernel_size=(3, 3), stride=(1, 1), padding=(1, 1), bias=False)
      (9): BatchNorm2d(64, eps=1e-05, momentum=0.1, affine=True, track_running_stats=True)
      (10): LeakyReLU(negative_slope=0.2, inplace=True)
      (11): Conv2d(64, 64, kernel_size=(3, 3), stride=(1, 1), padding=(1, 1), bias=False)
      (12): BatchNorm2d(64, eps=1e-05, momentum=0.1, affine=True, track_running_stats=True)
      (13): LeakyReLU(negative_slope=0.2, inplace=True)
    )
    (criterion): CrossEntropyLoss()
  )
  (ENCODER): Encoder(
    (encoder_smax): Sequential(
      (0): Flatten(start_dim=1, end_dim=-1)
      (1): Linear(in_features=28224, out_features=512, bias=False)
      (2): LeakyReLU(negative_slope=0.2, inplace=True)
      (3): Dropout(p=0.2, inplace=False)
      (4): Linear(in_features=512, out_features=128, bias=False)
      (5): LeakyReLU(negative_slope=0.2, inplace=True)
      (6): Dropout(p=0.2, inplace=False)
      (7): Linear(in_features=128, out_features=5, bias=False)
      (8): Softmax(dim=1)
    )
    (encoder_conv): Sequential(
      (0): Conv2d(64, 32, kernel_size=(3, 3), stride=(1, 1), padding=(1, 1), bias=False)
      (1): BatchNorm2d(32, eps=1e-05, momentum=0.1, affine=True, track_running_stats=True)
      (2): LeakyReLU(negative_slope=0.2, inplace=True)
      (3): Conv2d(32, 16, kernel_size=(3, 3), stride=(1, 1), padding=(1, 1), bias=False)
      (4): BatchNorm2d(16, eps=1e-05, momentum=0.1, affine=True, track_running_stats=True)
      (5): LeakyReLU(negative_slope=0.2, inplace=True)
      (6): Conv2d(16, 8, kernel_size=(3, 3), stride=(1, 1), padding=(1, 1), bias=False)
      (7): BatchNorm2d(8, eps=1e-05, momentum=0.1, affine=True, track_running_stats=True)
      (8): LeakyReLU(negative_slope=0.2, inplace=True)
      (9): MaxPool2d(kernel_size=3, stride=3, padding=0, dilation=1, ceil_mode=False)
    )
  )
  (DT): XGBHead()
)
===================================== Epoch 0 =====================================
Trainset: 10000
Valset: 1000
Testset: 1000
Namespace(dataset_dir='../dataset/miniImageNet/', data_name='miniImageNet', mode='train', resume='../results/DN4_miniImageNet_DN4_DTR_5Way_5Shot_K3/model_best.pth.tar', epochs=1, cuda=True, ngpu=1, nc=3, clamp_lower=-0.01, clamp_upper=0.01, print_freq=100, outf='../results/DN4_miniImageNet_DN4_DTR_5Way_5Shot_K3')
=> loaded checkpoint '../results/DN4_miniImageNet_DN4_DTR_5Way_5Shot_K3/model_best.pth.tar' (epoch 16)
DN4_DTR(
  (BACKBONE_2D): FourLayer_64F(
    (features): Sequential(
      (0): Conv2d(3, 64, kernel_size=(3, 3), stride=(1, 1), padding=(1, 1), bias=False)
      (1): BatchNorm2d(64, eps=1e-05, momentum=0.1, affine=True, track_running_stats=True)
      (2): LeakyReLU(negative_slope=0.2, inplace=True)
      (3): MaxPool2d(kernel_size=2, stride=2, padding=0, dilation=1, ceil_mode=False)
      (4): Conv2d(64, 64, kernel_size=(3, 3), stride=(1, 1), padding=(1, 1), bias=False)
      (5): BatchNorm2d(64, eps=1e-05, momentum=0.1, affine=True, track_running_stats=True)
      (6): LeakyReLU(negative_slope=0.2, inplace=True)
      (7): MaxPool2d(kernel_size=2, stride=2, padding=0, dilation=1, ceil_mode=False)
      (8): Conv2d(64, 64, kernel_size=(3, 3), stride=(1, 1), padding=(1, 1), bias=False)
      (9): BatchNorm2d(64, eps=1e-05, momentum=0.1, affine=True, track_running_stats=True)
      (10): LeakyReLU(negative_slope=0.2, inplace=True)
      (11): Conv2d(64, 64, kernel_size=(3, 3), stride=(1, 1), padding=(1, 1), bias=False)
      (12): BatchNorm2d(64, eps=1e-05, momentum=0.1, affine=True, track_running_stats=True)
      (13): LeakyReLU(negative_slope=0.2, inplace=True)
    )
    (criterion): CrossEntropyLoss()
  )
  (ENCODER): Encoder(
    (encoder_smax): Sequential(
      (0): Flatten(start_dim=1, end_dim=-1)
      (1): Linear(in_features=28224, out_features=512, bias=False)
      (2): LeakyReLU(negative_slope=0.2, inplace=True)
      (3): Dropout(p=0.2, inplace=False)
      (4): Linear(in_features=512, out_features=128, bias=False)
      (5): LeakyReLU(negative_slope=0.2, inplace=True)
      (6): Dropout(p=0.2, inplace=False)
      (7): Linear(in_features=128, out_features=5, bias=False)
      (8): Softmax(dim=1)
    )
    (encoder_conv): Sequential(
      (0): Conv2d(64, 32, kernel_size=(3, 3), stride=(1, 1), padding=(1, 1), bias=False)
      (1): BatchNorm2d(32, eps=1e-05, momentum=0.1, affine=True, track_running_stats=True)
      (2): LeakyReLU(negative_slope=0.2, inplace=True)
      (3): Conv2d(32, 16, kernel_size=(3, 3), stride=(1, 1), padding=(1, 1), bias=False)
      (4): BatchNorm2d(16, eps=1e-05, momentum=0.1, affine=True, track_running_stats=True)
      (5): LeakyReLU(negative_slope=0.2, inplace=True)
      (6): Conv2d(16, 8, kernel_size=(3, 3), stride=(1, 1), padding=(1, 1), bias=False)
      (7): BatchNorm2d(8, eps=1e-05, momentum=0.1, affine=True, track_running_stats=True)
      (8): LeakyReLU(negative_slope=0.2, inplace=True)
      (9): MaxPool2d(kernel_size=3, stride=3, padding=0, dilation=1, ceil_mode=False)
    )
  )
  (DT): XGBHead()
)
===================================== Epoch 0 =====================================
Trainset: 10000
Valset: 1000
Testset: 1000
Namespace(dataset_dir='../dataset/miniImageNet/', data_name='miniImageNet', mode='train', resume='../results/DN4_miniImageNet_DN4_DTR_5Way_5Shot_K3/model_best.pth.tar', epochs=1, cuda=True, ngpu=1, nc=3, clamp_lower=-0.01, clamp_upper=0.01, print_freq=100, outf='../results/DN4_miniImageNet_DN4_DTR_5Way_5Shot_K3')
=> loaded checkpoint '../results/DN4_miniImageNet_DN4_DTR_5Way_5Shot_K3/model_best.pth.tar' (epoch 16)
DN4_DTR(
  (BACKBONE_2D): FourLayer_64F(
    (features): Sequential(
      (0): Conv2d(3, 64, kernel_size=(3, 3), stride=(1, 1), padding=(1, 1), bias=False)
      (1): BatchNorm2d(64, eps=1e-05, momentum=0.1, affine=True, track_running_stats=True)
      (2): LeakyReLU(negative_slope=0.2, inplace=True)
      (3): MaxPool2d(kernel_size=2, stride=2, padding=0, dilation=1, ceil_mode=False)
      (4): Conv2d(64, 64, kernel_size=(3, 3), stride=(1, 1), padding=(1, 1), bias=False)
      (5): BatchNorm2d(64, eps=1e-05, momentum=0.1, affine=True, track_running_stats=True)
      (6): LeakyReLU(negative_slope=0.2, inplace=True)
      (7): MaxPool2d(kernel_size=2, stride=2, padding=0, dilation=1, ceil_mode=False)
      (8): Conv2d(64, 64, kernel_size=(3, 3), stride=(1, 1), padding=(1, 1), bias=False)
      (9): BatchNorm2d(64, eps=1e-05, momentum=0.1, affine=True, track_running_stats=True)
      (10): LeakyReLU(negative_slope=0.2, inplace=True)
      (11): Conv2d(64, 64, kernel_size=(3, 3), stride=(1, 1), padding=(1, 1), bias=False)
      (12): BatchNorm2d(64, eps=1e-05, momentum=0.1, affine=True, track_running_stats=True)
      (13): LeakyReLU(negative_slope=0.2, inplace=True)
    )
    (criterion): CrossEntropyLoss()
  )
  (ENCODER): Encoder(
    (encoder_smax): Sequential(
      (0): Flatten(start_dim=1, end_dim=-1)
      (1): Linear(in_features=28224, out_features=512, bias=False)
      (2): LeakyReLU(negative_slope=0.2, inplace=True)
      (3): Dropout(p=0.2, inplace=False)
      (4): Linear(in_features=512, out_features=128, bias=False)
      (5): LeakyReLU(negative_slope=0.2, inplace=True)
      (6): Dropout(p=0.2, inplace=False)
      (7): Linear(in_features=128, out_features=5, bias=False)
      (8): Softmax(dim=1)
    )
    (encoder_conv): Sequential(
      (0): Conv2d(64, 32, kernel_size=(3, 3), stride=(1, 1), padding=(1, 1), bias=False)
      (1): BatchNorm2d(32, eps=1e-05, momentum=0.1, affine=True, track_running_stats=True)
      (2): LeakyReLU(negative_slope=0.2, inplace=True)
      (3): Conv2d(32, 16, kernel_size=(3, 3), stride=(1, 1), padding=(1, 1), bias=False)
      (4): BatchNorm2d(16, eps=1e-05, momentum=0.1, affine=True, track_running_stats=True)
      (5): LeakyReLU(negative_slope=0.2, inplace=True)
      (6): Conv2d(16, 8, kernel_size=(3, 3), stride=(1, 1), padding=(1, 1), bias=False)
      (7): BatchNorm2d(8, eps=1e-05, momentum=0.1, affine=True, track_running_stats=True)
      (8): LeakyReLU(negative_slope=0.2, inplace=True)
      (9): MaxPool2d(kernel_size=3, stride=3, padding=0, dilation=1, ceil_mode=False)
    )
  )
  (DT): XGBHead()
)
===================================== Epoch 0 =====================================
Trainset: 10000
Valset: 1000
Testset: 1000
Namespace(dataset_dir='../dataset/miniImageNet/', data_name='miniImageNet', mode='train', resume='../results/DN4_miniImageNet_DN4_DTR_5Way_5Shot_K3/model_best.pth.tar', epochs=1, cuda=True, ngpu=1, nc=3, clamp_lower=-0.01, clamp_upper=0.01, print_freq=100, outf='../results/DN4_miniImageNet_DN4_DTR_5Way_5Shot_K3')
=> loaded checkpoint '../results/DN4_miniImageNet_DN4_DTR_5Way_5Shot_K3/model_best.pth.tar' (epoch 16)
DN4_DTR(
  (BACKBONE_2D): FourLayer_64F(
    (criterion): CrossEntropyLoss()
    (features): Sequential(
      (0): Conv2d(3, 64, kernel_size=(3, 3), stride=(1, 1), padding=(1, 1), bias=False)
      (1): BatchNorm2d(64, eps=1e-05, momentum=0.1, affine=True, track_running_stats=True)
      (2): LeakyReLU(negative_slope=0.2, inplace=True)
      (3): MaxPool2d(kernel_size=2, stride=2, padding=0, dilation=1, ceil_mode=False)
      (4): Conv2d(64, 64, kernel_size=(3, 3), stride=(1, 1), padding=(1, 1), bias=False)
      (5): BatchNorm2d(64, eps=1e-05, momentum=0.1, affine=True, track_running_stats=True)
      (6): LeakyReLU(negative_slope=0.2, inplace=True)
      (7): MaxPool2d(kernel_size=2, stride=2, padding=0, dilation=1, ceil_mode=False)
      (8): Conv2d(64, 64, kernel_size=(3, 3), stride=(1, 1), padding=(1, 1), bias=False)
      (9): BatchNorm2d(64, eps=1e-05, momentum=0.1, affine=True, track_running_stats=True)
      (10): LeakyReLU(negative_slope=0.2, inplace=True)
      (11): Conv2d(64, 64, kernel_size=(3, 3), stride=(1, 1), padding=(1, 1), bias=False)
      (12): BatchNorm2d(64, eps=1e-05, momentum=0.1, affine=True, track_running_stats=True)
      (13): LeakyReLU(negative_slope=0.2, inplace=True)
    )
  )
  (ENCODER): Encoder(
    (encoder_smax): Sequential(
      (0): Flatten(start_dim=1, end_dim=-1)
      (1): Linear(in_features=28224, out_features=512, bias=False)
      (2): LeakyReLU(negative_slope=0.2, inplace=True)
      (3): Dropout(p=0.2, inplace=False)
      (4): Linear(in_features=512, out_features=128, bias=False)
      (5): LeakyReLU(negative_slope=0.2, inplace=True)
      (6): Dropout(p=0.2, inplace=False)
      (7): Linear(in_features=128, out_features=5, bias=False)
      (8): Softmax(dim=1)
    )
    (encoder_conv): Sequential(
      (0): Conv2d(64, 32, kernel_size=(3, 3), stride=(1, 1), padding=(1, 1), bias=False)
      (1): BatchNorm2d(32, eps=1e-05, momentum=0.1, affine=True, track_running_stats=True)
      (2): LeakyReLU(negative_slope=0.2, inplace=True)
      (3): Conv2d(32, 16, kernel_size=(3, 3), stride=(1, 1), padding=(1, 1), bias=False)
      (4): BatchNorm2d(16, eps=1e-05, momentum=0.1, affine=True, track_running_stats=True)
      (5): LeakyReLU(negative_slope=0.2, inplace=True)
      (6): Conv2d(16, 8, kernel_size=(3, 3), stride=(1, 1), padding=(1, 1), bias=False)
      (7): BatchNorm2d(8, eps=1e-05, momentum=0.1, affine=True, track_running_stats=True)
      (8): LeakyReLU(negative_slope=0.2, inplace=True)
      (9): MaxPool2d(kernel_size=3, stride=3, padding=0, dilation=1, ceil_mode=False)
    )
  )
  (DT): XGBHead()
)
===================================== Epoch 0 =====================================
Trainset: 10000
Valset: 1000
Testset: 1000
Namespace(dataset_dir='../dataset/miniImageNet/', data_name='miniImageNet', mode='train', resume='../results/DN4_miniImageNet_DN4_DTR_5Way_5Shot_K3/model_best.pth.tar', epochs=1, cuda=True, ngpu=1, nc=3, clamp_lower=-0.01, clamp_upper=0.01, print_freq=100, outf='../results/DN4_miniImageNet_DN4_DTR_5Way_5Shot_K3')
=> loaded checkpoint '../results/DN4_miniImageNet_DN4_DTR_5Way_5Shot_K3/model_best.pth.tar' (epoch 16)
DN4_DTR(
  (BACKBONE_2D): FourLayer_64F(
    (features): Sequential(
      (0): Conv2d(3, 64, kernel_size=(3, 3), stride=(1, 1), padding=(1, 1), bias=False)
      (1): BatchNorm2d(64, eps=1e-05, momentum=0.1, affine=True, track_running_stats=True)
      (2): LeakyReLU(negative_slope=0.2, inplace=True)
      (3): MaxPool2d(kernel_size=2, stride=2, padding=0, dilation=1, ceil_mode=False)
      (4): Conv2d(64, 64, kernel_size=(3, 3), stride=(1, 1), padding=(1, 1), bias=False)
      (5): BatchNorm2d(64, eps=1e-05, momentum=0.1, affine=True, track_running_stats=True)
      (6): LeakyReLU(negative_slope=0.2, inplace=True)
      (7): MaxPool2d(kernel_size=2, stride=2, padding=0, dilation=1, ceil_mode=False)
      (8): Conv2d(64, 64, kernel_size=(3, 3), stride=(1, 1), padding=(1, 1), bias=False)
      (9): BatchNorm2d(64, eps=1e-05, momentum=0.1, affine=True, track_running_stats=True)
      (10): LeakyReLU(negative_slope=0.2, inplace=True)
      (11): Conv2d(64, 64, kernel_size=(3, 3), stride=(1, 1), padding=(1, 1), bias=False)
      (12): BatchNorm2d(64, eps=1e-05, momentum=0.1, affine=True, track_running_stats=True)
      (13): LeakyReLU(negative_slope=0.2, inplace=True)
    )
    (criterion): CrossEntropyLoss()
  )
  (ENCODER): Encoder(
    (encoder_smax): Sequential(
      (0): Flatten(start_dim=1, end_dim=-1)
      (1): Linear(in_features=28224, out_features=512, bias=False)
      (2): LeakyReLU(negative_slope=0.2, inplace=True)
      (3): Dropout(p=0.2, inplace=False)
      (4): Linear(in_features=512, out_features=128, bias=False)
      (5): LeakyReLU(negative_slope=0.2, inplace=True)
      (6): Dropout(p=0.2, inplace=False)
      (7): Linear(in_features=128, out_features=5, bias=False)
      (8): Softmax(dim=1)
    )
    (encoder_conv): Sequential(
      (0): Conv2d(64, 32, kernel_size=(3, 3), stride=(1, 1), padding=(1, 1), bias=False)
      (1): BatchNorm2d(32, eps=1e-05, momentum=0.1, affine=True, track_running_stats=True)
      (2): LeakyReLU(negative_slope=0.2, inplace=True)
      (3): Conv2d(32, 16, kernel_size=(3, 3), stride=(1, 1), padding=(1, 1), bias=False)
      (4): BatchNorm2d(16, eps=1e-05, momentum=0.1, affine=True, track_running_stats=True)
      (5): LeakyReLU(negative_slope=0.2, inplace=True)
      (6): Conv2d(16, 8, kernel_size=(3, 3), stride=(1, 1), padding=(1, 1), bias=False)
      (7): BatchNorm2d(8, eps=1e-05, momentum=0.1, affine=True, track_running_stats=True)
      (8): LeakyReLU(negative_slope=0.2, inplace=True)
      (9): MaxPool2d(kernel_size=3, stride=3, padding=0, dilation=1, ceil_mode=False)
    )
  )
  (DT): XGBHead()
)
===================================== Epoch 0 =====================================
Trainset: 10000
Valset: 1000
Testset: 1000
Namespace(dataset_dir='../dataset/miniImageNet/', data_name='miniImageNet', mode='train', resume='../results/DN4_miniImageNet_DN4_DTR_5Way_5Shot_K3/model_best.pth.tar', epochs=1, cuda=True, ngpu=1, nc=3, clamp_lower=-0.01, clamp_upper=0.01, print_freq=100, outf='../results/DN4_miniImageNet_DN4_DTR_5Way_5Shot_K3')
=> loaded checkpoint '../results/DN4_miniImageNet_DN4_DTR_5Way_5Shot_K3/model_best.pth.tar' (epoch 16)
DN4_DTR(
  (BACKBONE_2D): FourLayer_64F(
    (features): Sequential(
      (0): Conv2d(3, 64, kernel_size=(3, 3), stride=(1, 1), padding=(1, 1), bias=False)
      (1): BatchNorm2d(64, eps=1e-05, momentum=0.1, affine=True, track_running_stats=True)
      (2): LeakyReLU(negative_slope=0.2, inplace=True)
      (3): MaxPool2d(kernel_size=2, stride=2, padding=0, dilation=1, ceil_mode=False)
      (4): Conv2d(64, 64, kernel_size=(3, 3), stride=(1, 1), padding=(1, 1), bias=False)
      (5): BatchNorm2d(64, eps=1e-05, momentum=0.1, affine=True, track_running_stats=True)
      (6): LeakyReLU(negative_slope=0.2, inplace=True)
      (7): MaxPool2d(kernel_size=2, stride=2, padding=0, dilation=1, ceil_mode=False)
      (8): Conv2d(64, 64, kernel_size=(3, 3), stride=(1, 1), padding=(1, 1), bias=False)
      (9): BatchNorm2d(64, eps=1e-05, momentum=0.1, affine=True, track_running_stats=True)
      (10): LeakyReLU(negative_slope=0.2, inplace=True)
      (11): Conv2d(64, 64, kernel_size=(3, 3), stride=(1, 1), padding=(1, 1), bias=False)
      (12): BatchNorm2d(64, eps=1e-05, momentum=0.1, affine=True, track_running_stats=True)
      (13): LeakyReLU(negative_slope=0.2, inplace=True)
    )
    (criterion): CrossEntropyLoss()
  )
  (ENCODER): Encoder(
    (encoder_smax): Sequential(
      (0): Flatten(start_dim=1, end_dim=-1)
      (1): Linear(in_features=28224, out_features=512, bias=False)
      (2): LeakyReLU(negative_slope=0.2, inplace=True)
      (3): Dropout(p=0.2, inplace=False)
      (4): Linear(in_features=512, out_features=128, bias=False)
      (5): LeakyReLU(negative_slope=0.2, inplace=True)
      (6): Dropout(p=0.2, inplace=False)
      (7): Linear(in_features=128, out_features=5, bias=False)
      (8): Softmax(dim=1)
    )
    (encoder_conv): Sequential(
      (0): Conv2d(64, 32, kernel_size=(3, 3), stride=(1, 1), padding=(1, 1), bias=False)
      (1): BatchNorm2d(32, eps=1e-05, momentum=0.1, affine=True, track_running_stats=True)
      (2): LeakyReLU(negative_slope=0.2, inplace=True)
      (3): Conv2d(32, 16, kernel_size=(3, 3), stride=(1, 1), padding=(1, 1), bias=False)
      (4): BatchNorm2d(16, eps=1e-05, momentum=0.1, affine=True, track_running_stats=True)
      (5): LeakyReLU(negative_slope=0.2, inplace=True)
      (6): Conv2d(16, 8, kernel_size=(3, 3), stride=(1, 1), padding=(1, 1), bias=False)
      (7): BatchNorm2d(8, eps=1e-05, momentum=0.1, affine=True, track_running_stats=True)
      (8): LeakyReLU(negative_slope=0.2, inplace=True)
      (9): MaxPool2d(kernel_size=3, stride=3, padding=0, dilation=1, ceil_mode=False)
    )
  )
  (DT): XGBHead()
)
===================================== Epoch 0 =====================================
Namespace(dataset_dir='../dataset/miniImageNet/', data_name='miniImageNet', mode='train', resume='../results/DN4_miniImageNet_DN4_DTR_5Way_5Shot_K3/model_best.pth.tar', epochs=1, cuda=True, ngpu=1, nc=3, clamp_lower=-0.01, clamp_upper=0.01, print_freq=100, outf='../results/DN4_miniImageNet_DN4_DTR_5Way_5Shot_K3')
=> loaded checkpoint '../results/DN4_miniImageNet_DN4_DTR_5Way_5Shot_K3/model_best.pth.tar' (epoch 16)
DN4_DTR(
  (BACKBONE_2D): FourLayer_64F(
    (features): Sequential(
      (0): Conv2d(3, 64, kernel_size=(3, 3), stride=(1, 1), padding=(1, 1), bias=False)
      (1): BatchNorm2d(64, eps=1e-05, momentum=0.1, affine=True, track_running_stats=True)
      (2): LeakyReLU(negative_slope=0.2, inplace=True)
      (3): MaxPool2d(kernel_size=2, stride=2, padding=0, dilation=1, ceil_mode=False)
      (4): Conv2d(64, 64, kernel_size=(3, 3), stride=(1, 1), padding=(1, 1), bias=False)
      (5): BatchNorm2d(64, eps=1e-05, momentum=0.1, affine=True, track_running_stats=True)
      (6): LeakyReLU(negative_slope=0.2, inplace=True)
      (7): MaxPool2d(kernel_size=2, stride=2, padding=0, dilation=1, ceil_mode=False)
      (8): Conv2d(64, 64, kernel_size=(3, 3), stride=(1, 1), padding=(1, 1), bias=False)
      (9): BatchNorm2d(64, eps=1e-05, momentum=0.1, affine=True, track_running_stats=True)
      (10): LeakyReLU(negative_slope=0.2, inplace=True)
      (11): Conv2d(64, 64, kernel_size=(3, 3), stride=(1, 1), padding=(1, 1), bias=False)
      (12): BatchNorm2d(64, eps=1e-05, momentum=0.1, affine=True, track_running_stats=True)
      (13): LeakyReLU(negative_slope=0.2, inplace=True)
    )
    (criterion): CrossEntropyLoss()
  )
  (ENCODER): Encoder(
    (encoder_smax): Sequential(
      (0): Flatten(start_dim=1, end_dim=-1)
      (1): Linear(in_features=28224, out_features=512, bias=False)
      (2): LeakyReLU(negative_slope=0.2, inplace=True)
      (3): Dropout(p=0.2, inplace=False)
      (4): Linear(in_features=512, out_features=128, bias=False)
      (5): LeakyReLU(negative_slope=0.2, inplace=True)
      (6): Dropout(p=0.2, inplace=False)
      (7): Linear(in_features=128, out_features=5, bias=False)
      (8): Softmax(dim=1)
    )
    (encoder_conv): Sequential(
      (0): Conv2d(64, 32, kernel_size=(3, 3), stride=(1, 1), padding=(1, 1), bias=False)
      (1): BatchNorm2d(32, eps=1e-05, momentum=0.1, affine=True, track_running_stats=True)
      (2): LeakyReLU(negative_slope=0.2, inplace=True)
      (3): Conv2d(32, 16, kernel_size=(3, 3), stride=(1, 1), padding=(1, 1), bias=False)
      (4): BatchNorm2d(16, eps=1e-05, momentum=0.1, affine=True, track_running_stats=True)
      (5): LeakyReLU(negative_slope=0.2, inplace=True)
      (6): Conv2d(16, 8, kernel_size=(3, 3), stride=(1, 1), padding=(1, 1), bias=False)
      (7): BatchNorm2d(8, eps=1e-05, momentum=0.1, affine=True, track_running_stats=True)
      (8): LeakyReLU(negative_slope=0.2, inplace=True)
      (9): MaxPool2d(kernel_size=3, stride=3, padding=0, dilation=1, ceil_mode=False)
    )
  )
  (DT): XGBHead()
)
===================================== Epoch 0 =====================================
Trainset: 10000
Valset: 1000
Testset: 1000
Namespace(dataset_dir='../dataset/miniImageNet/', data_name='miniImageNet', mode='train', resume='../results/DN4_miniImageNet_DN4_DTR_5Way_5Shot_K3/model_best.pth.tar', epochs=1, cuda=True, ngpu=1, nc=3, clamp_lower=-0.01, clamp_upper=0.01, print_freq=100, outf='../results/DN4_miniImageNet_DN4_DTR_5Way_5Shot_K3')
=> loaded checkpoint '../results/DN4_miniImageNet_DN4_DTR_5Way_5Shot_K3/model_best.pth.tar' (epoch 16)
DN4_DTR(
  (BACKBONE_2D): FourLayer_64F(
    (features): Sequential(
      (0): Conv2d(3, 64, kernel_size=(3, 3), stride=(1, 1), padding=(1, 1), bias=False)
      (1): BatchNorm2d(64, eps=1e-05, momentum=0.1, affine=True, track_running_stats=True)
      (2): LeakyReLU(negative_slope=0.2, inplace=True)
      (3): MaxPool2d(kernel_size=2, stride=2, padding=0, dilation=1, ceil_mode=False)
      (4): Conv2d(64, 64, kernel_size=(3, 3), stride=(1, 1), padding=(1, 1), bias=False)
      (5): BatchNorm2d(64, eps=1e-05, momentum=0.1, affine=True, track_running_stats=True)
      (6): LeakyReLU(negative_slope=0.2, inplace=True)
      (7): MaxPool2d(kernel_size=2, stride=2, padding=0, dilation=1, ceil_mode=False)
      (8): Conv2d(64, 64, kernel_size=(3, 3), stride=(1, 1), padding=(1, 1), bias=False)
      (9): BatchNorm2d(64, eps=1e-05, momentum=0.1, affine=True, track_running_stats=True)
      (10): LeakyReLU(negative_slope=0.2, inplace=True)
      (11): Conv2d(64, 64, kernel_size=(3, 3), stride=(1, 1), padding=(1, 1), bias=False)
      (12): BatchNorm2d(64, eps=1e-05, momentum=0.1, affine=True, track_running_stats=True)
      (13): LeakyReLU(negative_slope=0.2, inplace=True)
    )
    (criterion): CrossEntropyLoss()
  )
  (ENCODER): Encoder(
    (encoder_smax): Sequential(
      (0): Flatten(start_dim=1, end_dim=-1)
      (1): Linear(in_features=40000, out_features=512, bias=False)
      (2): LeakyReLU(negative_slope=0.2, inplace=True)
      (3): Dropout(p=0.2, inplace=False)
      (4): Linear(in_features=512, out_features=128, bias=False)
      (5): LeakyReLU(negative_slope=0.2, inplace=True)
      (6): Dropout(p=0.2, inplace=False)
      (7): Linear(in_features=128, out_features=5, bias=False)
      (8): Softmax(dim=1)
    )
    (encoder_conv): Sequential(
      (0): Conv2d(64, 32, kernel_size=(3, 3), stride=(1, 1), padding=(1, 1), bias=False)
      (1): BatchNorm2d(32, eps=1e-05, momentum=0.1, affine=True, track_running_stats=True)
      (2): LeakyReLU(negative_slope=0.2, inplace=True)
      (3): Conv2d(32, 16, kernel_size=(3, 3), stride=(1, 1), padding=(1, 1), bias=False)
      (4): BatchNorm2d(16, eps=1e-05, momentum=0.1, affine=True, track_running_stats=True)
      (5): LeakyReLU(negative_slope=0.2, inplace=True)
      (6): Conv2d(16, 8, kernel_size=(3, 3), stride=(1, 1), padding=(1, 1), bias=False)
      (7): BatchNorm2d(8, eps=1e-05, momentum=0.1, affine=True, track_running_stats=True)
      (8): LeakyReLU(negative_slope=0.2, inplace=True)
      (9): MaxPool2d(kernel_size=3, stride=3, padding=0, dilation=1, ceil_mode=False)
    )
  )
  (DT): XGBHead()
)
===================================== Epoch 0 =====================================
Trainset: 10000
Valset: 1000
Testset: 1000
Namespace(dataset_dir='../dataset/miniImageNet/', data_name='miniImageNet', mode='train', resume='../results/DN4_miniImageNet_DN4_DTR_5Way_5Shot_K3/model_best.pth.tar', epochs=1, cuda=True, ngpu=1, nc=3, clamp_lower=-0.01, clamp_upper=0.01, print_freq=100, outf='../results/DN4_miniImageNet_DN4_DTR_5Way_5Shot_K3')
=> loaded checkpoint '../results/DN4_miniImageNet_DN4_DTR_5Way_5Shot_K3/model_best.pth.tar' (epoch 16)
DN4_DTR(
  (BACKBONE_2D): FourLayer_64F(
    (features): Sequential(
      (0): Conv2d(3, 64, kernel_size=(3, 3), stride=(1, 1), padding=(1, 1), bias=False)
      (1): BatchNorm2d(64, eps=1e-05, momentum=0.1, affine=True, track_running_stats=True)
      (2): LeakyReLU(negative_slope=0.2, inplace=True)
      (3): MaxPool2d(kernel_size=2, stride=2, padding=0, dilation=1, ceil_mode=False)
      (4): Conv2d(64, 64, kernel_size=(3, 3), stride=(1, 1), padding=(1, 1), bias=False)
      (5): BatchNorm2d(64, eps=1e-05, momentum=0.1, affine=True, track_running_stats=True)
      (6): LeakyReLU(negative_slope=0.2, inplace=True)
      (7): MaxPool2d(kernel_size=2, stride=2, padding=0, dilation=1, ceil_mode=False)
      (8): Conv2d(64, 64, kernel_size=(3, 3), stride=(1, 1), padding=(1, 1), bias=False)
      (9): BatchNorm2d(64, eps=1e-05, momentum=0.1, affine=True, track_running_stats=True)
      (10): LeakyReLU(negative_slope=0.2, inplace=True)
      (11): Conv2d(64, 64, kernel_size=(3, 3), stride=(1, 1), padding=(1, 1), bias=False)
      (12): BatchNorm2d(64, eps=1e-05, momentum=0.1, affine=True, track_running_stats=True)
      (13): LeakyReLU(negative_slope=0.2, inplace=True)
    )
    (criterion): CrossEntropyLoss()
  )
  (ENCODER): Encoder(
    (encoder_smax): Sequential(
      (0): Flatten(start_dim=1, end_dim=-1)
      (1): Linear(in_features=40000, out_features=512, bias=False)
      (2): LeakyReLU(negative_slope=0.2, inplace=True)
      (3): Dropout(p=0.2, inplace=False)
      (4): Linear(in_features=512, out_features=128, bias=False)
      (5): LeakyReLU(negative_slope=0.2, inplace=True)
      (6): Dropout(p=0.2, inplace=False)
      (7): Linear(in_features=128, out_features=5, bias=False)
      (8): Softmax(dim=1)
    )
    (encoder_conv): Sequential(
      (0): Conv2d(64, 32, kernel_size=(3, 3), stride=(1, 1), padding=(1, 1), bias=False)
      (1): BatchNorm2d(32, eps=1e-05, momentum=0.1, affine=True, track_running_stats=True)
      (2): LeakyReLU(negative_slope=0.2, inplace=True)
      (3): Conv2d(32, 16, kernel_size=(3, 3), stride=(1, 1), padding=(1, 1), bias=False)
      (4): BatchNorm2d(16, eps=1e-05, momentum=0.1, affine=True, track_running_stats=True)
      (5): LeakyReLU(negative_slope=0.2, inplace=True)
      (6): Conv2d(16, 8, kernel_size=(3, 3), stride=(1, 1), padding=(1, 1), bias=False)
      (7): BatchNorm2d(8, eps=1e-05, momentum=0.1, affine=True, track_running_stats=True)
      (8): LeakyReLU(negative_slope=0.2, inplace=True)
      (9): MaxPool2d(kernel_size=3, stride=3, padding=0, dilation=1, ceil_mode=False)
    )
  )
  (DT): XGBHead()
)
===================================== Epoch 0 =====================================
Trainset: 10000
Valset: 1000
Testset: 1000
Namespace(dataset_dir='../dataset/miniImageNet/', data_name='miniImageNet', mode='train', resume='../results/DN4_miniImageNet_DN4_DTR_5Way_5Shot_K3/model_best.pth.tar', epochs=1, cuda=True, ngpu=1, nc=3, clamp_lower=-0.01, clamp_upper=0.01, print_freq=100, outf='../results/DN4_miniImageNet_DN4_DTR_5Way_5Shot_K3')
=> loaded checkpoint '../results/DN4_miniImageNet_DN4_DTR_5Way_5Shot_K3/model_best.pth.tar' (epoch 16)
DN4_DTR(
  (BACKBONE_2D): FourLayer_64F(
    (features): Sequential(
      (0): Conv2d(3, 64, kernel_size=(3, 3), stride=(1, 1), padding=(1, 1), bias=False)
      (1): BatchNorm2d(64, eps=1e-05, momentum=0.1, affine=True, track_running_stats=True)
      (2): LeakyReLU(negative_slope=0.2, inplace=True)
      (3): MaxPool2d(kernel_size=2, stride=2, padding=0, dilation=1, ceil_mode=False)
      (4): Conv2d(64, 64, kernel_size=(3, 3), stride=(1, 1), padding=(1, 1), bias=False)
      (5): BatchNorm2d(64, eps=1e-05, momentum=0.1, affine=True, track_running_stats=True)
      (6): LeakyReLU(negative_slope=0.2, inplace=True)
      (7): MaxPool2d(kernel_size=2, stride=2, padding=0, dilation=1, ceil_mode=False)
      (8): Conv2d(64, 64, kernel_size=(3, 3), stride=(1, 1), padding=(1, 1), bias=False)
      (9): BatchNorm2d(64, eps=1e-05, momentum=0.1, affine=True, track_running_stats=True)
      (10): LeakyReLU(negative_slope=0.2, inplace=True)
      (11): Conv2d(64, 64, kernel_size=(3, 3), stride=(1, 1), padding=(1, 1), bias=False)
      (12): BatchNorm2d(64, eps=1e-05, momentum=0.1, affine=True, track_running_stats=True)
      (13): LeakyReLU(negative_slope=0.2, inplace=True)
    )
    (criterion): CrossEntropyLoss()
  )
  (ENCODER): Encoder(
    (encoder_smax): Sequential(
      (0): Flatten(start_dim=1, end_dim=-1)
      (1): Linear(in_features=40000, out_features=512, bias=False)
      (2): LeakyReLU(negative_slope=0.2, inplace=True)
      (3): Dropout(p=0.2, inplace=False)
      (4): Linear(in_features=512, out_features=128, bias=False)
      (5): LeakyReLU(negative_slope=0.2, inplace=True)
      (6): Dropout(p=0.2, inplace=False)
      (7): Linear(in_features=128, out_features=5, bias=False)
      (8): Softmax(dim=1)
    )
    (encoder_conv): Sequential(
      (0): Conv2d(64, 32, kernel_size=(3, 3), stride=(1, 1), padding=(1, 1), bias=False)
      (1): BatchNorm2d(32, eps=1e-05, momentum=0.1, affine=True, track_running_stats=True)
      (2): LeakyReLU(negative_slope=0.2, inplace=True)
      (3): Conv2d(32, 16, kernel_size=(3, 3), stride=(1, 1), padding=(1, 1), bias=False)
      (4): BatchNorm2d(16, eps=1e-05, momentum=0.1, affine=True, track_running_stats=True)
      (5): LeakyReLU(negative_slope=0.2, inplace=True)
      (6): Conv2d(16, 8, kernel_size=(3, 3), stride=(1, 1), padding=(1, 1), bias=False)
      (7): BatchNorm2d(8, eps=1e-05, momentum=0.1, affine=True, track_running_stats=True)
      (8): LeakyReLU(negative_slope=0.2, inplace=True)
      (9): MaxPool2d(kernel_size=3, stride=3, padding=0, dilation=1, ceil_mode=False)
    )
  )
  (DT): XGBHead()
)
===================================== Epoch 0 =====================================
Trainset: 10000
Valset: 1000
Testset: 1000
Namespace(dataset_dir='../dataset/miniImageNet/', data_name='miniImageNet', mode='train', resume='../results/DN4_miniImageNet_DN4_DTR_5Way_5Shot_K3/model_best.pth.tar', epochs=1, cuda=True, ngpu=1, nc=3, clamp_lower=-0.01, clamp_upper=0.01, print_freq=100, outf='../results/DN4_miniImageNet_DN4_DTR_5Way_5Shot_K3')
=> loaded checkpoint '../results/DN4_miniImageNet_DN4_DTR_5Way_5Shot_K3/model_best.pth.tar' (epoch 16)
DN4_DTR(
  (BACKBONE_2D): FourLayer_64F(
    (features): Sequential(
      (0): Conv2d(3, 64, kernel_size=(3, 3), stride=(1, 1), padding=(1, 1), bias=False)
      (1): BatchNorm2d(64, eps=1e-05, momentum=0.1, affine=True, track_running_stats=True)
      (2): LeakyReLU(negative_slope=0.2, inplace=True)
      (3): MaxPool2d(kernel_size=2, stride=2, padding=0, dilation=1, ceil_mode=False)
      (4): Conv2d(64, 64, kernel_size=(3, 3), stride=(1, 1), padding=(1, 1), bias=False)
      (5): BatchNorm2d(64, eps=1e-05, momentum=0.1, affine=True, track_running_stats=True)
      (6): LeakyReLU(negative_slope=0.2, inplace=True)
      (7): MaxPool2d(kernel_size=2, stride=2, padding=0, dilation=1, ceil_mode=False)
      (8): Conv2d(64, 64, kernel_size=(3, 3), stride=(1, 1), padding=(1, 1), bias=False)
      (9): BatchNorm2d(64, eps=1e-05, momentum=0.1, affine=True, track_running_stats=True)
      (10): LeakyReLU(negative_slope=0.2, inplace=True)
      (11): Conv2d(64, 64, kernel_size=(3, 3), stride=(1, 1), padding=(1, 1), bias=False)
      (12): BatchNorm2d(64, eps=1e-05, momentum=0.1, affine=True, track_running_stats=True)
      (13): LeakyReLU(negative_slope=0.2, inplace=True)
    )
    (criterion): CrossEntropyLoss()
  )
  (ENCODER): Encoder(
    (encoder_smax): Sequential(
      (0): Flatten(start_dim=1, end_dim=-1)
      (1): Linear(in_features=40000, out_features=512, bias=False)
      (2): LeakyReLU(negative_slope=0.2, inplace=True)
      (3): Dropout(p=0.2, inplace=False)
      (4): Linear(in_features=512, out_features=128, bias=False)
      (5): LeakyReLU(negative_slope=0.2, inplace=True)
      (6): Dropout(p=0.2, inplace=False)
      (7): Linear(in_features=128, out_features=5, bias=False)
      (8): Softmax(dim=1)
    )
    (encoder_conv): Sequential(
      (0): Conv2d(64, 32, kernel_size=(3, 3), stride=(1, 1), padding=(1, 1), bias=False)
      (1): BatchNorm2d(32, eps=1e-05, momentum=0.1, affine=True, track_running_stats=True)
      (2): LeakyReLU(negative_slope=0.2, inplace=True)
      (3): Conv2d(32, 16, kernel_size=(3, 3), stride=(1, 1), padding=(1, 1), bias=False)
      (4): BatchNorm2d(16, eps=1e-05, momentum=0.1, affine=True, track_running_stats=True)
      (5): LeakyReLU(negative_slope=0.2, inplace=True)
      (6): Conv2d(16, 8, kernel_size=(3, 3), stride=(1, 1), padding=(1, 1), bias=False)
      (7): BatchNorm2d(8, eps=1e-05, momentum=0.1, affine=True, track_running_stats=True)
      (8): LeakyReLU(negative_slope=0.2, inplace=True)
      (9): MaxPool2d(kernel_size=3, stride=3, padding=0, dilation=1, ceil_mode=False)
    )
  )
  (DT): XGBHead()
)
===================================== Epoch 0 =====================================
Trainset: 10000
Valset: 1000
Testset: 1000
Namespace(dataset_dir='../dataset/miniImageNet/', data_name='miniImageNet', mode='train', resume='../results/DN4_miniImageNet_DN4_DTR_5Way_5Shot_K3/model_best.pth.tar', epochs=1, cuda=True, ngpu=1, nc=3, clamp_lower=-0.01, clamp_upper=0.01, print_freq=100, outf='../results/DN4_miniImageNet_DN4_DTR_5Way_5Shot_K3')
=> loaded checkpoint '../results/DN4_miniImageNet_DN4_DTR_5Way_5Shot_K3/model_best.pth.tar' (epoch 16)
DN4_DTR(
  (BACKBONE_2D): FourLayer_64F(
    (features): Sequential(
      (0): Conv2d(3, 64, kernel_size=(3, 3), stride=(1, 1), padding=(1, 1), bias=False)
      (1): BatchNorm2d(64, eps=1e-05, momentum=0.1, affine=True, track_running_stats=True)
      (2): LeakyReLU(negative_slope=0.2, inplace=True)
      (3): MaxPool2d(kernel_size=2, stride=2, padding=0, dilation=1, ceil_mode=False)
      (4): Conv2d(64, 64, kernel_size=(3, 3), stride=(1, 1), padding=(1, 1), bias=False)
      (5): BatchNorm2d(64, eps=1e-05, momentum=0.1, affine=True, track_running_stats=True)
      (6): LeakyReLU(negative_slope=0.2, inplace=True)
      (7): MaxPool2d(kernel_size=2, stride=2, padding=0, dilation=1, ceil_mode=False)
      (8): Conv2d(64, 64, kernel_size=(3, 3), stride=(1, 1), padding=(1, 1), bias=False)
      (9): BatchNorm2d(64, eps=1e-05, momentum=0.1, affine=True, track_running_stats=True)
      (10): LeakyReLU(negative_slope=0.2, inplace=True)
      (11): Conv2d(64, 64, kernel_size=(3, 3), stride=(1, 1), padding=(1, 1), bias=False)
      (12): BatchNorm2d(64, eps=1e-05, momentum=0.1, affine=True, track_running_stats=True)
      (13): LeakyReLU(negative_slope=0.2, inplace=True)
    )
    (criterion): CrossEntropyLoss()
  )
  (ENCODER): Encoder(
    (encoder_smax): Sequential(
      (0): Flatten(start_dim=1, end_dim=-1)
      (1): Linear(in_features=40000, out_features=512, bias=False)
      (2): LeakyReLU(negative_slope=0.2, inplace=True)
      (3): Dropout(p=0.2, inplace=False)
      (4): Linear(in_features=512, out_features=128, bias=False)
      (5): LeakyReLU(negative_slope=0.2, inplace=True)
      (6): Dropout(p=0.2, inplace=False)
      (7): Linear(in_features=128, out_features=5, bias=False)
      (8): Softmax(dim=1)
    )
    (encoder_conv): Sequential(
      (0): Conv2d(64, 32, kernel_size=(3, 3), stride=(1, 1), padding=(1, 1), bias=False)
      (1): BatchNorm2d(32, eps=1e-05, momentum=0.1, affine=True, track_running_stats=True)
      (2): LeakyReLU(negative_slope=0.2, inplace=True)
      (3): Conv2d(32, 16, kernel_size=(3, 3), stride=(1, 1), padding=(1, 1), bias=False)
      (4): BatchNorm2d(16, eps=1e-05, momentum=0.1, affine=True, track_running_stats=True)
      (5): LeakyReLU(negative_slope=0.2, inplace=True)
      (6): Conv2d(16, 8, kernel_size=(3, 3), stride=(1, 1), padding=(1, 1), bias=False)
      (7): BatchNorm2d(8, eps=1e-05, momentum=0.1, affine=True, track_running_stats=True)
      (8): LeakyReLU(negative_slope=0.2, inplace=True)
      (9): MaxPool2d(kernel_size=3, stride=3, padding=0, dilation=1, ceil_mode=False)
    )
  )
  (DT): XGBHead()
)
===================================== Epoch 0 =====================================
Trainset: 10000
Valset: 1000
Testset: 1000
Namespace(dataset_dir='../dataset/miniImageNet/', data_name='miniImageNet', mode='train', resume='../results/DN4_miniImageNet_DN4_DTR_5Way_5Shot_K3/model_best.pth.tar', epochs=1, cuda=True, ngpu=1, nc=3, clamp_lower=-0.01, clamp_upper=0.01, print_freq=100, outf='../results/DN4_miniImageNet_DN4_DTR_5Way_5Shot_K3')
=> loaded checkpoint '../results/DN4_miniImageNet_DN4_DTR_5Way_5Shot_K3/model_best.pth.tar' (epoch 16)
DN4_DTR(
  (BACKBONE_2D): FourLayer_64F(
    (features): Sequential(
      (0): Conv2d(3, 64, kernel_size=(3, 3), stride=(1, 1), padding=(1, 1), bias=False)
      (1): BatchNorm2d(64, eps=1e-05, momentum=0.1, affine=True, track_running_stats=True)
      (2): LeakyReLU(negative_slope=0.2, inplace=True)
      (3): MaxPool2d(kernel_size=2, stride=2, padding=0, dilation=1, ceil_mode=False)
      (4): Conv2d(64, 64, kernel_size=(3, 3), stride=(1, 1), padding=(1, 1), bias=False)
      (5): BatchNorm2d(64, eps=1e-05, momentum=0.1, affine=True, track_running_stats=True)
      (6): LeakyReLU(negative_slope=0.2, inplace=True)
      (7): MaxPool2d(kernel_size=2, stride=2, padding=0, dilation=1, ceil_mode=False)
      (8): Conv2d(64, 64, kernel_size=(3, 3), stride=(1, 1), padding=(1, 1), bias=False)
      (9): BatchNorm2d(64, eps=1e-05, momentum=0.1, affine=True, track_running_stats=True)
      (10): LeakyReLU(negative_slope=0.2, inplace=True)
      (11): Conv2d(64, 64, kernel_size=(3, 3), stride=(1, 1), padding=(1, 1), bias=False)
      (12): BatchNorm2d(64, eps=1e-05, momentum=0.1, affine=True, track_running_stats=True)
      (13): LeakyReLU(negative_slope=0.2, inplace=True)
    )
    (criterion): CrossEntropyLoss()
  )
  (ENCODER): Encoder(
    (encoder_smax): Sequential(
      (0): Flatten(start_dim=1, end_dim=-1)
      (1): Linear(in_features=40000, out_features=512, bias=False)
      (2): LeakyReLU(negative_slope=0.2, inplace=True)
      (3): Dropout(p=0.2, inplace=False)
      (4): Linear(in_features=512, out_features=128, bias=False)
      (5): LeakyReLU(negative_slope=0.2, inplace=True)
      (6): Dropout(p=0.2, inplace=False)
      (7): Linear(in_features=128, out_features=5, bias=False)
      (8): Softmax(dim=1)
    )
    (encoder_conv): Sequential(
      (0): Conv2d(64, 32, kernel_size=(3, 3), stride=(1, 1), padding=(1, 1), bias=False)
      (1): BatchNorm2d(32, eps=1e-05, momentum=0.1, affine=True, track_running_stats=True)
      (2): LeakyReLU(negative_slope=0.2, inplace=True)
      (3): Conv2d(32, 16, kernel_size=(3, 3), stride=(1, 1), padding=(1, 1), bias=False)
      (4): BatchNorm2d(16, eps=1e-05, momentum=0.1, affine=True, track_running_stats=True)
      (5): LeakyReLU(negative_slope=0.2, inplace=True)
      (6): Conv2d(16, 8, kernel_size=(3, 3), stride=(1, 1), padding=(1, 1), bias=False)
      (7): BatchNorm2d(8, eps=1e-05, momentum=0.1, affine=True, track_running_stats=True)
      (8): LeakyReLU(negative_slope=0.2, inplace=True)
      (9): MaxPool2d(kernel_size=3, stride=3, padding=0, dilation=1, ceil_mode=False)
    )
  )
  (DT): XGBHead()
)
===================================== Epoch 0 =====================================
Trainset: 10000
Valset: 1000
Testset: 1000
Namespace(dataset_dir='../dataset/miniImageNet/', data_name='miniImageNet', mode='train', resume='../results/DN4_miniImageNet_DN4_DTR_5Way_5Shot_K3/model_best.pth.tar', epochs=1, cuda=True, ngpu=1, nc=3, clamp_lower=-0.01, clamp_upper=0.01, print_freq=100, outf='../results/DN4_miniImageNet_DN4_DTR_5Way_5Shot_K3')
=> loaded checkpoint '../results/DN4_miniImageNet_DN4_DTR_5Way_5Shot_K3/model_best.pth.tar' (epoch 16)
DN4_DTR(
  (BACKBONE_2D): FourLayer_64F(
    (features): Sequential(
      (0): Conv2d(3, 64, kernel_size=(3, 3), stride=(1, 1), padding=(1, 1), bias=False)
      (1): BatchNorm2d(64, eps=1e-05, momentum=0.1, affine=True, track_running_stats=True)
      (2): LeakyReLU(negative_slope=0.2, inplace=True)
      (3): MaxPool2d(kernel_size=2, stride=2, padding=0, dilation=1, ceil_mode=False)
      (4): Conv2d(64, 64, kernel_size=(3, 3), stride=(1, 1), padding=(1, 1), bias=False)
      (5): BatchNorm2d(64, eps=1e-05, momentum=0.1, affine=True, track_running_stats=True)
      (6): LeakyReLU(negative_slope=0.2, inplace=True)
      (7): MaxPool2d(kernel_size=2, stride=2, padding=0, dilation=1, ceil_mode=False)
      (8): Conv2d(64, 64, kernel_size=(3, 3), stride=(1, 1), padding=(1, 1), bias=False)
      (9): BatchNorm2d(64, eps=1e-05, momentum=0.1, affine=True, track_running_stats=True)
      (10): LeakyReLU(negative_slope=0.2, inplace=True)
      (11): Conv2d(64, 64, kernel_size=(3, 3), stride=(1, 1), padding=(1, 1), bias=False)
      (12): BatchNorm2d(64, eps=1e-05, momentum=0.1, affine=True, track_running_stats=True)
      (13): LeakyReLU(negative_slope=0.2, inplace=True)
    )
    (criterion): CrossEntropyLoss()
  )
  (ENCODER): Encoder(
    (encoder_smax): Sequential(
      (0): Flatten(start_dim=1, end_dim=-1)
      (1): Linear(in_features=40000, out_features=512, bias=False)
      (2): LeakyReLU(negative_slope=0.2, inplace=True)
      (3): Dropout(p=0.2, inplace=False)
      (4): Linear(in_features=512, out_features=128, bias=False)
      (5): LeakyReLU(negative_slope=0.2, inplace=True)
      (6): Dropout(p=0.2, inplace=False)
      (7): Linear(in_features=128, out_features=5, bias=False)
      (8): Softmax(dim=1)
    )
    (encoder_conv): Sequential(
      (0): Conv2d(64, 32, kernel_size=(3, 3), stride=(1, 1), padding=(1, 1), bias=False)
      (1): BatchNorm2d(32, eps=1e-05, momentum=0.1, affine=True, track_running_stats=True)
      (2): LeakyReLU(negative_slope=0.2, inplace=True)
      (3): Conv2d(32, 16, kernel_size=(3, 3), stride=(1, 1), padding=(1, 1), bias=False)
      (4): BatchNorm2d(16, eps=1e-05, momentum=0.1, affine=True, track_running_stats=True)
      (5): LeakyReLU(negative_slope=0.2, inplace=True)
      (6): Conv2d(16, 8, kernel_size=(3, 3), stride=(1, 1), padding=(1, 1), bias=False)
      (7): BatchNorm2d(8, eps=1e-05, momentum=0.1, affine=True, track_running_stats=True)
      (8): LeakyReLU(negative_slope=0.2, inplace=True)
      (9): MaxPool2d(kernel_size=3, stride=3, padding=0, dilation=1, ceil_mode=False)
    )
  )
  (DT): XGBHead()
)
===================================== Epoch 0 =====================================
Trainset: 10000
Valset: 1000
Testset: 1000
Namespace(dataset_dir='../dataset/miniImageNet/', data_name='miniImageNet', mode='train', resume='../results/DN4_miniImageNet_DN4_DTR_5Way_5Shot_K3/model_best.pth.tar', epochs=1, cuda=True, ngpu=1, nc=3, clamp_lower=-0.01, clamp_upper=0.01, print_freq=100, outf='../results/DN4_miniImageNet_DN4_DTR_5Way_5Shot_K3')
=> loaded checkpoint '../results/DN4_miniImageNet_DN4_DTR_5Way_5Shot_K3/model_best.pth.tar' (epoch 16)
DN4_DTR(
  (BACKBONE_2D): FourLayer_64F(
    (features): Sequential(
      (0): Conv2d(3, 64, kernel_size=(3, 3), stride=(1, 1), padding=(1, 1), bias=False)
      (1): BatchNorm2d(64, eps=1e-05, momentum=0.1, affine=True, track_running_stats=True)
      (2): LeakyReLU(negative_slope=0.2, inplace=True)
      (3): MaxPool2d(kernel_size=2, stride=2, padding=0, dilation=1, ceil_mode=False)
      (4): Conv2d(64, 64, kernel_size=(3, 3), stride=(1, 1), padding=(1, 1), bias=False)
      (5): BatchNorm2d(64, eps=1e-05, momentum=0.1, affine=True, track_running_stats=True)
      (6): LeakyReLU(negative_slope=0.2, inplace=True)
      (7): MaxPool2d(kernel_size=2, stride=2, padding=0, dilation=1, ceil_mode=False)
      (8): Conv2d(64, 64, kernel_size=(3, 3), stride=(1, 1), padding=(1, 1), bias=False)
      (9): BatchNorm2d(64, eps=1e-05, momentum=0.1, affine=True, track_running_stats=True)
      (10): LeakyReLU(negative_slope=0.2, inplace=True)
      (11): Conv2d(64, 64, kernel_size=(3, 3), stride=(1, 1), padding=(1, 1), bias=False)
      (12): BatchNorm2d(64, eps=1e-05, momentum=0.1, affine=True, track_running_stats=True)
      (13): LeakyReLU(negative_slope=0.2, inplace=True)
    )
    (criterion): CrossEntropyLoss()
  )
  (ENCODER): Encoder(
    (encoder_smax): Sequential(
      (0): Flatten(start_dim=1, end_dim=-1)
      (1): Linear(in_features=40000, out_features=512, bias=False)
      (2): LeakyReLU(negative_slope=0.2, inplace=True)
      (3): Dropout(p=0.2, inplace=False)
      (4): Linear(in_features=512, out_features=128, bias=False)
      (5): LeakyReLU(negative_slope=0.2, inplace=True)
      (6): Dropout(p=0.2, inplace=False)
      (7): Linear(in_features=128, out_features=5, bias=False)
      (8): Softmax(dim=1)
    )
    (encoder_conv): Sequential(
      (0): Conv2d(64, 32, kernel_size=(3, 3), stride=(1, 1), padding=(1, 1), bias=False)
      (1): BatchNorm2d(32, eps=1e-05, momentum=0.1, affine=True, track_running_stats=True)
      (2): LeakyReLU(negative_slope=0.2, inplace=True)
      (3): Conv2d(32, 16, kernel_size=(3, 3), stride=(1, 1), padding=(1, 1), bias=False)
      (4): BatchNorm2d(16, eps=1e-05, momentum=0.1, affine=True, track_running_stats=True)
      (5): LeakyReLU(negative_slope=0.2, inplace=True)
      (6): Conv2d(16, 8, kernel_size=(3, 3), stride=(1, 1), padding=(1, 1), bias=False)
      (7): BatchNorm2d(8, eps=1e-05, momentum=0.1, affine=True, track_running_stats=True)
      (8): LeakyReLU(negative_slope=0.2, inplace=True)
      (9): MaxPool2d(kernel_size=3, stride=3, padding=0, dilation=1, ceil_mode=False)
    )
  )
  (DT): XGBHead()
)
===================================== Epoch 0 =====================================
Trainset: 10000
Valset: 1000
Testset: 1000
Namespace(dataset_dir='../dataset/miniImageNet/', data_name='miniImageNet', mode='train', resume='../results/DN4_miniImageNet_DN4_DTR_5Way_5Shot_K3/model_best.pth.tar', epochs=1, cuda=True, ngpu=1, nc=3, clamp_lower=-0.01, clamp_upper=0.01, print_freq=100, outf='../results/DN4_miniImageNet_DN4_DTR_5Way_5Shot_K3')
=> loaded checkpoint '../results/DN4_miniImageNet_DN4_DTR_5Way_5Shot_K3/model_best.pth.tar' (epoch 16)
DN4_DTR(
  (BACKBONE_2D): FourLayer_64F(
    (features): Sequential(
      (0): Conv2d(3, 64, kernel_size=(3, 3), stride=(1, 1), padding=(1, 1), bias=False)
      (1): BatchNorm2d(64, eps=1e-05, momentum=0.1, affine=True, track_running_stats=True)
      (2): LeakyReLU(negative_slope=0.2, inplace=True)
      (3): MaxPool2d(kernel_size=2, stride=2, padding=0, dilation=1, ceil_mode=False)
      (4): Conv2d(64, 64, kernel_size=(3, 3), stride=(1, 1), padding=(1, 1), bias=False)
      (5): BatchNorm2d(64, eps=1e-05, momentum=0.1, affine=True, track_running_stats=True)
      (6): LeakyReLU(negative_slope=0.2, inplace=True)
      (7): MaxPool2d(kernel_size=2, stride=2, padding=0, dilation=1, ceil_mode=False)
      (8): Conv2d(64, 64, kernel_size=(3, 3), stride=(1, 1), padding=(1, 1), bias=False)
      (9): BatchNorm2d(64, eps=1e-05, momentum=0.1, affine=True, track_running_stats=True)
      (10): LeakyReLU(negative_slope=0.2, inplace=True)
      (11): Conv2d(64, 64, kernel_size=(3, 3), stride=(1, 1), padding=(1, 1), bias=False)
      (12): BatchNorm2d(64, eps=1e-05, momentum=0.1, affine=True, track_running_stats=True)
      (13): LeakyReLU(negative_slope=0.2, inplace=True)
    )
    (criterion): CrossEntropyLoss()
  )
  (ENCODER): Encoder(
    (encoder_smax): Sequential(
      (0): Flatten(start_dim=1, end_dim=-1)
      (1): Linear(in_features=40000, out_features=512, bias=False)
      (2): LeakyReLU(negative_slope=0.2, inplace=True)
      (3): Dropout(p=0.2, inplace=False)
      (4): Linear(in_features=512, out_features=128, bias=False)
      (5): LeakyReLU(negative_slope=0.2, inplace=True)
      (6): Dropout(p=0.2, inplace=False)
      (7): Linear(in_features=128, out_features=5, bias=False)
      (8): Softmax(dim=1)
    )
    (encoder_conv): Sequential(
      (0): Conv2d(64, 32, kernel_size=(3, 3), stride=(1, 1), padding=(1, 1), bias=False)
      (1): BatchNorm2d(32, eps=1e-05, momentum=0.1, affine=True, track_running_stats=True)
      (2): LeakyReLU(negative_slope=0.2, inplace=True)
      (3): Conv2d(32, 16, kernel_size=(3, 3), stride=(1, 1), padding=(1, 1), bias=False)
      (4): BatchNorm2d(16, eps=1e-05, momentum=0.1, affine=True, track_running_stats=True)
      (5): LeakyReLU(negative_slope=0.2, inplace=True)
      (6): Conv2d(16, 8, kernel_size=(3, 3), stride=(1, 1), padding=(1, 1), bias=False)
      (7): BatchNorm2d(8, eps=1e-05, momentum=0.1, affine=True, track_running_stats=True)
      (8): LeakyReLU(negative_slope=0.2, inplace=True)
      (9): MaxPool2d(kernel_size=3, stride=3, padding=0, dilation=1, ceil_mode=False)
    )
  )
  (DT): XGBHead()
)
===================================== Epoch 0 =====================================
Trainset: 1000
Valset: 1000
Testset: 1000
Namespace(dataset_dir='../dataset/miniImageNet/', data_name='miniImageNet', mode='train', resume='../results/DN4_miniImageNet_DN4_DTR_5Way_5Shot_K3/model_best.pth.tar', epochs=1, cuda=True, ngpu=1, nc=3, clamp_lower=-0.01, clamp_upper=0.01, print_freq=100, outf='../results/DN4_miniImageNet_DN4_DTR_5Way_5Shot_K3')
=> loaded checkpoint '../results/DN4_miniImageNet_DN4_DTR_5Way_5Shot_K3/model_best.pth.tar' (epoch 16)
DN4_DTR(
  (BACKBONE_2D): FourLayer_64F(
    (features): Sequential(
      (0): Conv2d(3, 64, kernel_size=(3, 3), stride=(1, 1), padding=(1, 1), bias=False)
      (1): BatchNorm2d(64, eps=1e-05, momentum=0.1, affine=True, track_running_stats=True)
      (2): LeakyReLU(negative_slope=0.2, inplace=True)
      (3): MaxPool2d(kernel_size=2, stride=2, padding=0, dilation=1, ceil_mode=False)
      (4): Conv2d(64, 64, kernel_size=(3, 3), stride=(1, 1), padding=(1, 1), bias=False)
      (5): BatchNorm2d(64, eps=1e-05, momentum=0.1, affine=True, track_running_stats=True)
      (6): LeakyReLU(negative_slope=0.2, inplace=True)
      (7): MaxPool2d(kernel_size=2, stride=2, padding=0, dilation=1, ceil_mode=False)
      (8): Conv2d(64, 64, kernel_size=(3, 3), stride=(1, 1), padding=(1, 1), bias=False)
      (9): BatchNorm2d(64, eps=1e-05, momentum=0.1, affine=True, track_running_stats=True)
      (10): LeakyReLU(negative_slope=0.2, inplace=True)
      (11): Conv2d(64, 64, kernel_size=(3, 3), stride=(1, 1), padding=(1, 1), bias=False)
      (12): BatchNorm2d(64, eps=1e-05, momentum=0.1, affine=True, track_running_stats=True)
      (13): LeakyReLU(negative_slope=0.2, inplace=True)
    )
    (criterion): CrossEntropyLoss()
  )
  (ENCODER): Encoder(
    (encoder_smax): Sequential(
      (0): Flatten(start_dim=1, end_dim=-1)
      (1): Linear(in_features=40000, out_features=512, bias=False)
      (2): LeakyReLU(negative_slope=0.2, inplace=True)
      (3): Dropout(p=0.2, inplace=False)
      (4): Linear(in_features=512, out_features=128, bias=False)
      (5): LeakyReLU(negative_slope=0.2, inplace=True)
      (6): Dropout(p=0.2, inplace=False)
      (7): Linear(in_features=128, out_features=5, bias=False)
      (8): Softmax(dim=1)
    )
    (encoder_conv): Sequential(
      (0): Conv2d(64, 32, kernel_size=(3, 3), stride=(1, 1), padding=(1, 1), bias=False)
      (1): BatchNorm2d(32, eps=1e-05, momentum=0.1, affine=True, track_running_stats=True)
      (2): LeakyReLU(negative_slope=0.2, inplace=True)
      (3): Conv2d(32, 16, kernel_size=(3, 3), stride=(1, 1), padding=(1, 1), bias=False)
      (4): BatchNorm2d(16, eps=1e-05, momentum=0.1, affine=True, track_running_stats=True)
      (5): LeakyReLU(negative_slope=0.2, inplace=True)
      (6): Conv2d(16, 8, kernel_size=(3, 3), stride=(1, 1), padding=(1, 1), bias=False)
      (7): BatchNorm2d(8, eps=1e-05, momentum=0.1, affine=True, track_running_stats=True)
      (8): LeakyReLU(negative_slope=0.2, inplace=True)
      (9): MaxPool2d(kernel_size=3, stride=3, padding=0, dilation=1, ceil_mode=False)
    )
  )
  (DT): XGBHead()
)
===================================== Epoch 0 =====================================
Trainset: 1000
Valset: 1000
Testset: 1000
Namespace(dataset_dir='../dataset/miniImageNet/', data_name='miniImageNet', mode='train', resume='../results/DN4_miniImageNet_DN4_DTR_5Way_5Shot_K3/model_best.pth.tar', epochs=1, cuda=True, ngpu=1, nc=3, clamp_lower=-0.01, clamp_upper=0.01, print_freq=100, outf='../results/DN4_miniImageNet_DN4_DTR_5Way_5Shot_K3')
=> loaded checkpoint '../results/DN4_miniImageNet_DN4_DTR_5Way_5Shot_K3/model_best.pth.tar' (epoch 16)
DN4_DTR(
  (BACKBONE_2D): FourLayer_64F(
    (features): Sequential(
      (0): Conv2d(3, 64, kernel_size=(3, 3), stride=(1, 1), padding=(1, 1), bias=False)
      (1): BatchNorm2d(64, eps=1e-05, momentum=0.1, affine=True, track_running_stats=True)
      (2): LeakyReLU(negative_slope=0.2, inplace=True)
      (3): MaxPool2d(kernel_size=2, stride=2, padding=0, dilation=1, ceil_mode=False)
      (4): Conv2d(64, 64, kernel_size=(3, 3), stride=(1, 1), padding=(1, 1), bias=False)
      (5): BatchNorm2d(64, eps=1e-05, momentum=0.1, affine=True, track_running_stats=True)
      (6): LeakyReLU(negative_slope=0.2, inplace=True)
      (7): MaxPool2d(kernel_size=2, stride=2, padding=0, dilation=1, ceil_mode=False)
      (8): Conv2d(64, 64, kernel_size=(3, 3), stride=(1, 1), padding=(1, 1), bias=False)
      (9): BatchNorm2d(64, eps=1e-05, momentum=0.1, affine=True, track_running_stats=True)
      (10): LeakyReLU(negative_slope=0.2, inplace=True)
      (11): Conv2d(64, 64, kernel_size=(3, 3), stride=(1, 1), padding=(1, 1), bias=False)
      (12): BatchNorm2d(64, eps=1e-05, momentum=0.1, affine=True, track_running_stats=True)
      (13): LeakyReLU(negative_slope=0.2, inplace=True)
    )
    (criterion): CrossEntropyLoss()
  )
  (ENCODER): Encoder(
    (encoder_smax): Sequential(
      (0): Flatten(start_dim=1, end_dim=-1)
      (1): Linear(in_features=40000, out_features=512, bias=False)
      (2): LeakyReLU(negative_slope=0.2, inplace=True)
      (3): Dropout(p=0.2, inplace=False)
      (4): Linear(in_features=512, out_features=128, bias=False)
      (5): LeakyReLU(negative_slope=0.2, inplace=True)
      (6): Dropout(p=0.2, inplace=False)
      (7): Linear(in_features=128, out_features=5, bias=False)
      (8): Softmax(dim=1)
    )
    (encoder_conv): Sequential(
      (0): Conv2d(64, 32, kernel_size=(3, 3), stride=(1, 1), padding=(1, 1), bias=False)
      (1): BatchNorm2d(32, eps=1e-05, momentum=0.1, affine=True, track_running_stats=True)
      (2): LeakyReLU(negative_slope=0.2, inplace=True)
      (3): Conv2d(32, 16, kernel_size=(3, 3), stride=(1, 1), padding=(1, 1), bias=False)
      (4): BatchNorm2d(16, eps=1e-05, momentum=0.1, affine=True, track_running_stats=True)
      (5): LeakyReLU(negative_slope=0.2, inplace=True)
      (6): Conv2d(16, 8, kernel_size=(3, 3), stride=(1, 1), padding=(1, 1), bias=False)
      (7): BatchNorm2d(8, eps=1e-05, momentum=0.1, affine=True, track_running_stats=True)
      (8): LeakyReLU(negative_slope=0.2, inplace=True)
      (9): MaxPool2d(kernel_size=3, stride=3, padding=0, dilation=1, ceil_mode=False)
    )
  )
  (DT): XGBHead()
)
===================================== Epoch 0 =====================================
Trainset: 1000
Valset: 1000
Testset: 1000
Namespace(dataset_dir='../dataset/miniImageNet/', data_name='miniImageNet', mode='train', resume='../results/DN4_miniImageNet_DN4_DTR_5Way_5Shot_K3/model_best.pth.tar', epochs=1, cuda=True, ngpu=1, nc=3, clamp_lower=-0.01, clamp_upper=0.01, print_freq=100, outf='../results/DN4_miniImageNet_DN4_DTR_5Way_5Shot_K3')
=> loaded checkpoint '../results/DN4_miniImageNet_DN4_DTR_5Way_5Shot_K3/model_best.pth.tar' (epoch 16)
DN4_DTR(
  (BACKBONE_2D): FourLayer_64F(
    (features): Sequential(
      (0): Conv2d(3, 64, kernel_size=(3, 3), stride=(1, 1), padding=(1, 1), bias=False)
      (1): BatchNorm2d(64, eps=1e-05, momentum=0.1, affine=True, track_running_stats=True)
      (2): LeakyReLU(negative_slope=0.2, inplace=True)
      (3): MaxPool2d(kernel_size=2, stride=2, padding=0, dilation=1, ceil_mode=False)
      (4): Conv2d(64, 64, kernel_size=(3, 3), stride=(1, 1), padding=(1, 1), bias=False)
      (5): BatchNorm2d(64, eps=1e-05, momentum=0.1, affine=True, track_running_stats=True)
      (6): LeakyReLU(negative_slope=0.2, inplace=True)
      (7): MaxPool2d(kernel_size=2, stride=2, padding=0, dilation=1, ceil_mode=False)
      (8): Conv2d(64, 64, kernel_size=(3, 3), stride=(1, 1), padding=(1, 1), bias=False)
      (9): BatchNorm2d(64, eps=1e-05, momentum=0.1, affine=True, track_running_stats=True)
      (10): LeakyReLU(negative_slope=0.2, inplace=True)
      (11): Conv2d(64, 64, kernel_size=(3, 3), stride=(1, 1), padding=(1, 1), bias=False)
      (12): BatchNorm2d(64, eps=1e-05, momentum=0.1, affine=True, track_running_stats=True)
      (13): LeakyReLU(negative_slope=0.2, inplace=True)
    )
    (criterion): CrossEntropyLoss()
  )
  (ENCODER): Encoder(
    (encoder_smax): Sequential(
      (0): Flatten(start_dim=1, end_dim=-1)
      (1): Linear(in_features=40000, out_features=512, bias=False)
      (2): LeakyReLU(negative_slope=0.2, inplace=True)
      (3): Dropout(p=0.2, inplace=False)
      (4): Linear(in_features=512, out_features=128, bias=False)
      (5): LeakyReLU(negative_slope=0.2, inplace=True)
      (6): Dropout(p=0.2, inplace=False)
      (7): Linear(in_features=128, out_features=5, bias=False)
      (8): Softmax(dim=1)
    )
    (encoder_conv): Sequential(
      (0): Conv2d(64, 32, kernel_size=(3, 3), stride=(1, 1), padding=(1, 1), bias=False)
      (1): BatchNorm2d(32, eps=1e-05, momentum=0.1, affine=True, track_running_stats=True)
      (2): LeakyReLU(negative_slope=0.2, inplace=True)
      (3): Conv2d(32, 16, kernel_size=(3, 3), stride=(1, 1), padding=(1, 1), bias=False)
      (4): BatchNorm2d(16, eps=1e-05, momentum=0.1, affine=True, track_running_stats=True)
      (5): LeakyReLU(negative_slope=0.2, inplace=True)
      (6): Conv2d(16, 8, kernel_size=(3, 3), stride=(1, 1), padding=(1, 1), bias=False)
      (7): BatchNorm2d(8, eps=1e-05, momentum=0.1, affine=True, track_running_stats=True)
      (8): LeakyReLU(negative_slope=0.2, inplace=True)
      (9): MaxPool2d(kernel_size=3, stride=3, padding=0, dilation=1, ceil_mode=False)
    )
  )
  (DT): XGBHead()
)
===================================== Epoch 0 =====================================
Trainset: 1000
Valset: 1000
Testset: 1000
Namespace(dataset_dir='../dataset/miniImageNet/', data_name='miniImageNet', mode='train', resume='../results/DN4_miniImageNet_DN4_DTR_5Way_5Shot_K3/model_best.pth.tar', epochs=1, cuda=True, ngpu=1, nc=3, clamp_lower=-0.01, clamp_upper=0.01, print_freq=100, outf='../results/DN4_miniImageNet_DN4_DTR_5Way_5Shot_K3')
=> loaded checkpoint '../results/DN4_miniImageNet_DN4_DTR_5Way_5Shot_K3/model_best.pth.tar' (epoch 16)
DN4_DTR(
  (BACKBONE_2D): FourLayer_64F(
    (features): Sequential(
      (0): Conv2d(3, 64, kernel_size=(3, 3), stride=(1, 1), padding=(1, 1), bias=False)
      (1): BatchNorm2d(64, eps=1e-05, momentum=0.1, affine=True, track_running_stats=True)
      (2): LeakyReLU(negative_slope=0.2, inplace=True)
      (3): MaxPool2d(kernel_size=2, stride=2, padding=0, dilation=1, ceil_mode=False)
      (4): Conv2d(64, 64, kernel_size=(3, 3), stride=(1, 1), padding=(1, 1), bias=False)
      (5): BatchNorm2d(64, eps=1e-05, momentum=0.1, affine=True, track_running_stats=True)
      (6): LeakyReLU(negative_slope=0.2, inplace=True)
      (7): MaxPool2d(kernel_size=2, stride=2, padding=0, dilation=1, ceil_mode=False)
      (8): Conv2d(64, 64, kernel_size=(3, 3), stride=(1, 1), padding=(1, 1), bias=False)
      (9): BatchNorm2d(64, eps=1e-05, momentum=0.1, affine=True, track_running_stats=True)
      (10): LeakyReLU(negative_slope=0.2, inplace=True)
      (11): Conv2d(64, 64, kernel_size=(3, 3), stride=(1, 1), padding=(1, 1), bias=False)
      (12): BatchNorm2d(64, eps=1e-05, momentum=0.1, affine=True, track_running_stats=True)
      (13): LeakyReLU(negative_slope=0.2, inplace=True)
    )
    (criterion): CrossEntropyLoss()
  )
  (ENCODER): Encoder(
    (encoder_smax): Sequential(
      (0): Flatten(start_dim=1, end_dim=-1)
      (1): Linear(in_features=40000, out_features=512, bias=False)
      (2): LeakyReLU(negative_slope=0.2, inplace=True)
      (3): Dropout(p=0.2, inplace=False)
      (4): Linear(in_features=512, out_features=128, bias=False)
      (5): LeakyReLU(negative_slope=0.2, inplace=True)
      (6): Dropout(p=0.2, inplace=False)
      (7): Linear(in_features=128, out_features=5, bias=False)
      (8): Softmax(dim=1)
    )
    (encoder_conv): Sequential(
      (0): Conv2d(64, 32, kernel_size=(3, 3), stride=(1, 1), padding=(1, 1), bias=False)
      (1): BatchNorm2d(32, eps=1e-05, momentum=0.1, affine=True, track_running_stats=True)
      (2): LeakyReLU(negative_slope=0.2, inplace=True)
      (3): Conv2d(32, 16, kernel_size=(3, 3), stride=(1, 1), padding=(1, 1), bias=False)
      (4): BatchNorm2d(16, eps=1e-05, momentum=0.1, affine=True, track_running_stats=True)
      (5): LeakyReLU(negative_slope=0.2, inplace=True)
      (6): Conv2d(16, 8, kernel_size=(3, 3), stride=(1, 1), padding=(1, 1), bias=False)
      (7): BatchNorm2d(8, eps=1e-05, momentum=0.1, affine=True, track_running_stats=True)
      (8): LeakyReLU(negative_slope=0.2, inplace=True)
      (9): MaxPool2d(kernel_size=3, stride=3, padding=0, dilation=1, ceil_mode=False)
    )
  )
  (DT): XGBHead()
)
===================================== Epoch 0 =====================================
Trainset: 1000
Valset: 1000
Testset: 1000
Namespace(dataset_dir='../dataset/miniImageNet/', data_name='miniImageNet', mode='train', resume='../results/DN4_miniImageNet_DN4_DTR_5Way_5Shot_K3/model_best.pth.tar', epochs=1, cuda=True, ngpu=1, nc=3, clamp_lower=-0.01, clamp_upper=0.01, print_freq=100, outf='../results/DN4_miniImageNet_DN4_DTR_5Way_5Shot_K3')
=> loaded checkpoint '../results/DN4_miniImageNet_DN4_DTR_5Way_5Shot_K3/model_best.pth.tar' (epoch 16)
DN4_DTR(
  (BACKBONE_2D): FourLayer_64F(
    (features): Sequential(
      (0): Conv2d(3, 64, kernel_size=(3, 3), stride=(1, 1), padding=(1, 1), bias=False)
      (1): BatchNorm2d(64, eps=1e-05, momentum=0.1, affine=True, track_running_stats=True)
      (2): LeakyReLU(negative_slope=0.2, inplace=True)
      (3): MaxPool2d(kernel_size=2, stride=2, padding=0, dilation=1, ceil_mode=False)
      (4): Conv2d(64, 64, kernel_size=(3, 3), stride=(1, 1), padding=(1, 1), bias=False)
      (5): BatchNorm2d(64, eps=1e-05, momentum=0.1, affine=True, track_running_stats=True)
      (6): LeakyReLU(negative_slope=0.2, inplace=True)
      (7): MaxPool2d(kernel_size=2, stride=2, padding=0, dilation=1, ceil_mode=False)
      (8): Conv2d(64, 64, kernel_size=(3, 3), stride=(1, 1), padding=(1, 1), bias=False)
      (9): BatchNorm2d(64, eps=1e-05, momentum=0.1, affine=True, track_running_stats=True)
      (10): LeakyReLU(negative_slope=0.2, inplace=True)
      (11): Conv2d(64, 64, kernel_size=(3, 3), stride=(1, 1), padding=(1, 1), bias=False)
      (12): BatchNorm2d(64, eps=1e-05, momentum=0.1, affine=True, track_running_stats=True)
      (13): LeakyReLU(negative_slope=0.2, inplace=True)
    )
    (criterion): CrossEntropyLoss()
  )
  (ENCODER): Encoder(
    (encoder_smax): Sequential(
      (0): Flatten(start_dim=1, end_dim=-1)
      (1): Linear(in_features=40000, out_features=512, bias=False)
      (2): LeakyReLU(negative_slope=0.2, inplace=True)
      (3): Dropout(p=0.2, inplace=False)
      (4): Linear(in_features=512, out_features=128, bias=False)
      (5): LeakyReLU(negative_slope=0.2, inplace=True)
      (6): Dropout(p=0.2, inplace=False)
      (7): Linear(in_features=128, out_features=5, bias=False)
      (8): Softmax(dim=1)
    )
    (encoder_conv): Sequential(
      (0): Conv2d(64, 32, kernel_size=(3, 3), stride=(1, 1), padding=(1, 1), bias=False)
      (1): BatchNorm2d(32, eps=1e-05, momentum=0.1, affine=True, track_running_stats=True)
      (2): LeakyReLU(negative_slope=0.2, inplace=True)
      (3): Conv2d(32, 16, kernel_size=(3, 3), stride=(1, 1), padding=(1, 1), bias=False)
      (4): BatchNorm2d(16, eps=1e-05, momentum=0.1, affine=True, track_running_stats=True)
      (5): LeakyReLU(negative_slope=0.2, inplace=True)
      (6): Conv2d(16, 8, kernel_size=(3, 3), stride=(1, 1), padding=(1, 1), bias=False)
      (7): BatchNorm2d(8, eps=1e-05, momentum=0.1, affine=True, track_running_stats=True)
      (8): LeakyReLU(negative_slope=0.2, inplace=True)
      (9): MaxPool2d(kernel_size=3, stride=3, padding=0, dilation=1, ceil_mode=False)
    )
  )
  (DT): XGBHead()
)
===================================== Epoch 0 =====================================
Trainset: 1000
Valset: 1000
Testset: 1000
Namespace(dataset_dir='../dataset/miniImageNet/', data_name='miniImageNet', mode='train', resume='../results/DN4_miniImageNet_DN4_DTR_5Way_5Shot_K3/model_best.pth.tar', epochs=1, cuda=True, ngpu=1, nc=3, clamp_lower=-0.01, clamp_upper=0.01, print_freq=100, outf='../results/DN4_miniImageNet_DN4_DTR_5Way_5Shot_K3')
=> loaded checkpoint '../results/DN4_miniImageNet_DN4_DTR_5Way_5Shot_K3/model_best.pth.tar' (epoch 16)
DN4_DTR(
  (BACKBONE_2D): FourLayer_64F(
    (features): Sequential(
      (0): Conv2d(3, 64, kernel_size=(3, 3), stride=(1, 1), padding=(1, 1), bias=False)
      (1): BatchNorm2d(64, eps=1e-05, momentum=0.1, affine=True, track_running_stats=True)
      (2): LeakyReLU(negative_slope=0.2, inplace=True)
      (3): MaxPool2d(kernel_size=2, stride=2, padding=0, dilation=1, ceil_mode=False)
      (4): Conv2d(64, 64, kernel_size=(3, 3), stride=(1, 1), padding=(1, 1), bias=False)
      (5): BatchNorm2d(64, eps=1e-05, momentum=0.1, affine=True, track_running_stats=True)
      (6): LeakyReLU(negative_slope=0.2, inplace=True)
      (7): MaxPool2d(kernel_size=2, stride=2, padding=0, dilation=1, ceil_mode=False)
      (8): Conv2d(64, 64, kernel_size=(3, 3), stride=(1, 1), padding=(1, 1), bias=False)
      (9): BatchNorm2d(64, eps=1e-05, momentum=0.1, affine=True, track_running_stats=True)
      (10): LeakyReLU(negative_slope=0.2, inplace=True)
      (11): Conv2d(64, 64, kernel_size=(3, 3), stride=(1, 1), padding=(1, 1), bias=False)
      (12): BatchNorm2d(64, eps=1e-05, momentum=0.1, affine=True, track_running_stats=True)
      (13): LeakyReLU(negative_slope=0.2, inplace=True)
    )
    (criterion): CrossEntropyLoss()
  )
  (ENCODER): Encoder(
    (encoder_smax): Sequential(
      (0): Flatten(start_dim=1, end_dim=-1)
      (1): Linear(in_features=40000, out_features=512, bias=False)
      (2): LeakyReLU(negative_slope=0.2, inplace=True)
      (3): Dropout(p=0.2, inplace=False)
      (4): Linear(in_features=512, out_features=128, bias=False)
      (5): LeakyReLU(negative_slope=0.2, inplace=True)
      (6): Dropout(p=0.2, inplace=False)
      (7): Linear(in_features=128, out_features=5, bias=False)
      (8): Softmax(dim=1)
    )
    (encoder_conv): Sequential(
      (0): Conv2d(64, 32, kernel_size=(3, 3), stride=(1, 1), padding=(1, 1), bias=False)
      (1): BatchNorm2d(32, eps=1e-05, momentum=0.1, affine=True, track_running_stats=True)
      (2): LeakyReLU(negative_slope=0.2, inplace=True)
      (3): Conv2d(32, 16, kernel_size=(3, 3), stride=(1, 1), padding=(1, 1), bias=False)
      (4): BatchNorm2d(16, eps=1e-05, momentum=0.1, affine=True, track_running_stats=True)
      (5): LeakyReLU(negative_slope=0.2, inplace=True)
      (6): Conv2d(16, 8, kernel_size=(3, 3), stride=(1, 1), padding=(1, 1), bias=False)
      (7): BatchNorm2d(8, eps=1e-05, momentum=0.1, affine=True, track_running_stats=True)
      (8): LeakyReLU(negative_slope=0.2, inplace=True)
      (9): MaxPool2d(kernel_size=3, stride=3, padding=0, dilation=1, ceil_mode=False)
    )
  )
  (DT): XGBHead()
)
===================================== Epoch 0 =====================================
Trainset: 1000
Valset: 1000
Testset: 1000
Namespace(dataset_dir='../dataset/miniImageNet/', data_name='miniImageNet', mode='train', resume='../results/DN4_miniImageNet_DN4_DTR_5Way_5Shot_K3/model_best.pth.tar', epochs=1, cuda=True, ngpu=1, nc=3, clamp_lower=-0.01, clamp_upper=0.01, print_freq=100, outf='../results/DN4_miniImageNet_DN4_DTR_5Way_5Shot_K3')
=> loaded checkpoint '../results/DN4_miniImageNet_DN4_DTR_5Way_5Shot_K3/model_best.pth.tar' (epoch 16)
DN4_DTR(
  (BACKBONE_2D): FourLayer_64F(
    (features): Sequential(
      (0): Conv2d(3, 64, kernel_size=(3, 3), stride=(1, 1), padding=(1, 1), bias=False)
      (1): BatchNorm2d(64, eps=1e-05, momentum=0.1, affine=True, track_running_stats=True)
      (2): LeakyReLU(negative_slope=0.2, inplace=True)
      (3): MaxPool2d(kernel_size=2, stride=2, padding=0, dilation=1, ceil_mode=False)
      (4): Conv2d(64, 64, kernel_size=(3, 3), stride=(1, 1), padding=(1, 1), bias=False)
      (5): BatchNorm2d(64, eps=1e-05, momentum=0.1, affine=True, track_running_stats=True)
      (6): LeakyReLU(negative_slope=0.2, inplace=True)
      (7): MaxPool2d(kernel_size=2, stride=2, padding=0, dilation=1, ceil_mode=False)
      (8): Conv2d(64, 64, kernel_size=(3, 3), stride=(1, 1), padding=(1, 1), bias=False)
      (9): BatchNorm2d(64, eps=1e-05, momentum=0.1, affine=True, track_running_stats=True)
      (10): LeakyReLU(negative_slope=0.2, inplace=True)
      (11): Conv2d(64, 64, kernel_size=(3, 3), stride=(1, 1), padding=(1, 1), bias=False)
      (12): BatchNorm2d(64, eps=1e-05, momentum=0.1, affine=True, track_running_stats=True)
      (13): LeakyReLU(negative_slope=0.2, inplace=True)
    )
    (criterion): CrossEntropyLoss()
  )
  (ENCODER): Encoder(
    (encoder_smax): Sequential(
      (0): Flatten(start_dim=1, end_dim=-1)
      (1): Linear(in_features=40000, out_features=512, bias=False)
      (2): LeakyReLU(negative_slope=0.2, inplace=True)
      (3): Dropout(p=0.2, inplace=False)
      (4): Linear(in_features=512, out_features=128, bias=False)
      (5): LeakyReLU(negative_slope=0.2, inplace=True)
      (6): Dropout(p=0.2, inplace=False)
      (7): Linear(in_features=128, out_features=5, bias=False)
      (8): Softmax(dim=1)
    )
    (encoder_conv): Sequential(
      (0): Conv2d(64, 32, kernel_size=(3, 3), stride=(1, 1), padding=(1, 1), bias=False)
      (1): BatchNorm2d(32, eps=1e-05, momentum=0.1, affine=True, track_running_stats=True)
      (2): LeakyReLU(negative_slope=0.2, inplace=True)
      (3): Conv2d(32, 16, kernel_size=(3, 3), stride=(1, 1), padding=(1, 1), bias=False)
      (4): BatchNorm2d(16, eps=1e-05, momentum=0.1, affine=True, track_running_stats=True)
      (5): LeakyReLU(negative_slope=0.2, inplace=True)
      (6): Conv2d(16, 8, kernel_size=(3, 3), stride=(1, 1), padding=(1, 1), bias=False)
      (7): BatchNorm2d(8, eps=1e-05, momentum=0.1, affine=True, track_running_stats=True)
      (8): LeakyReLU(negative_slope=0.2, inplace=True)
      (9): MaxPool2d(kernel_size=3, stride=3, padding=0, dilation=1, ceil_mode=False)
    )
  )
  (DT): XGBHead()
)
===================================== Epoch 0 =====================================
Trainset: 1000
Valset: 1000
Testset: 1000
Namespace(dataset_dir='../dataset/miniImageNet/', data_name='miniImageNet', mode='train', resume='../results/DN4_miniImageNet_DN4_DTR_5Way_5Shot_K3/model_best.pth.tar', epochs=1, cuda=True, ngpu=1, nc=3, clamp_lower=-0.01, clamp_upper=0.01, print_freq=100, outf='../results/DN4_miniImageNet_DN4_DTR_5Way_5Shot_K3')
=> loaded checkpoint '../results/DN4_miniImageNet_DN4_DTR_5Way_5Shot_K3/model_best.pth.tar' (epoch 16)
DN4_DTR(
  (BACKBONE_2D): FourLayer_64F(
    (features): Sequential(
      (0): Conv2d(3, 64, kernel_size=(3, 3), stride=(1, 1), padding=(1, 1), bias=False)
      (1): BatchNorm2d(64, eps=1e-05, momentum=0.1, affine=True, track_running_stats=True)
      (2): LeakyReLU(negative_slope=0.2, inplace=True)
      (3): MaxPool2d(kernel_size=2, stride=2, padding=0, dilation=1, ceil_mode=False)
      (4): Conv2d(64, 64, kernel_size=(3, 3), stride=(1, 1), padding=(1, 1), bias=False)
      (5): BatchNorm2d(64, eps=1e-05, momentum=0.1, affine=True, track_running_stats=True)
      (6): LeakyReLU(negative_slope=0.2, inplace=True)
      (7): MaxPool2d(kernel_size=2, stride=2, padding=0, dilation=1, ceil_mode=False)
      (8): Conv2d(64, 64, kernel_size=(3, 3), stride=(1, 1), padding=(1, 1), bias=False)
      (9): BatchNorm2d(64, eps=1e-05, momentum=0.1, affine=True, track_running_stats=True)
      (10): LeakyReLU(negative_slope=0.2, inplace=True)
      (11): Conv2d(64, 64, kernel_size=(3, 3), stride=(1, 1), padding=(1, 1), bias=False)
      (12): BatchNorm2d(64, eps=1e-05, momentum=0.1, affine=True, track_running_stats=True)
      (13): LeakyReLU(negative_slope=0.2, inplace=True)
    )
    (criterion): CrossEntropyLoss()
  )
  (ENCODER): Encoder(
    (encoder_smax): Sequential(
      (0): Flatten(start_dim=1, end_dim=-1)
      (1): Linear(in_features=40000, out_features=512, bias=False)
      (2): LeakyReLU(negative_slope=0.2, inplace=True)
      (3): Dropout(p=0.2, inplace=False)
      (4): Linear(in_features=512, out_features=128, bias=False)
      (5): LeakyReLU(negative_slope=0.2, inplace=True)
      (6): Dropout(p=0.2, inplace=False)
      (7): Linear(in_features=128, out_features=5, bias=False)
      (8): Softmax(dim=1)
    )
    (encoder_conv): Sequential(
      (0): Conv2d(64, 32, kernel_size=(3, 3), stride=(1, 1), padding=(1, 1), bias=False)
      (1): BatchNorm2d(32, eps=1e-05, momentum=0.1, affine=True, track_running_stats=True)
      (2): LeakyReLU(negative_slope=0.2, inplace=True)
      (3): Conv2d(32, 16, kernel_size=(3, 3), stride=(1, 1), padding=(1, 1), bias=False)
      (4): BatchNorm2d(16, eps=1e-05, momentum=0.1, affine=True, track_running_stats=True)
      (5): LeakyReLU(negative_slope=0.2, inplace=True)
      (6): Conv2d(16, 8, kernel_size=(3, 3), stride=(1, 1), padding=(1, 1), bias=False)
      (7): BatchNorm2d(8, eps=1e-05, momentum=0.1, affine=True, track_running_stats=True)
      (8): LeakyReLU(negative_slope=0.2, inplace=True)
      (9): MaxPool2d(kernel_size=3, stride=3, padding=0, dilation=1, ceil_mode=False)
    )
  )
  (DT): XGBHead()
)
===================================== Epoch 0 =====================================
Trainset: 1000
Valset: 1000
Testset: 1000
Namespace(dataset_dir='../dataset/miniImageNet/', data_name='miniImageNet', mode='train', resume='../results/DN4_miniImageNet_DN4_DTR_5Way_5Shot_K3/model_best.pth.tar', epochs=1, cuda=True, ngpu=1, nc=3, clamp_lower=-0.01, clamp_upper=0.01, print_freq=100, outf='../results/DN4_miniImageNet_DN4_DTR_5Way_5Shot_K3')
=> loaded checkpoint '../results/DN4_miniImageNet_DN4_DTR_5Way_5Shot_K3/model_best.pth.tar' (epoch 16)
DN4_DTR(
  (BACKBONE_2D): FourLayer_64F(
    (features): Sequential(
      (0): Conv2d(3, 64, kernel_size=(3, 3), stride=(1, 1), padding=(1, 1), bias=False)
      (1): BatchNorm2d(64, eps=1e-05, momentum=0.1, affine=True, track_running_stats=True)
      (2): LeakyReLU(negative_slope=0.2, inplace=True)
      (3): MaxPool2d(kernel_size=2, stride=2, padding=0, dilation=1, ceil_mode=False)
      (4): Conv2d(64, 64, kernel_size=(3, 3), stride=(1, 1), padding=(1, 1), bias=False)
      (5): BatchNorm2d(64, eps=1e-05, momentum=0.1, affine=True, track_running_stats=True)
      (6): LeakyReLU(negative_slope=0.2, inplace=True)
      (7): MaxPool2d(kernel_size=2, stride=2, padding=0, dilation=1, ceil_mode=False)
      (8): Conv2d(64, 64, kernel_size=(3, 3), stride=(1, 1), padding=(1, 1), bias=False)
      (9): BatchNorm2d(64, eps=1e-05, momentum=0.1, affine=True, track_running_stats=True)
      (10): LeakyReLU(negative_slope=0.2, inplace=True)
      (11): Conv2d(64, 64, kernel_size=(3, 3), stride=(1, 1), padding=(1, 1), bias=False)
      (12): BatchNorm2d(64, eps=1e-05, momentum=0.1, affine=True, track_running_stats=True)
      (13): LeakyReLU(negative_slope=0.2, inplace=True)
    )
    (criterion): CrossEntropyLoss()
  )
  (ENCODER): Encoder(
    (encoder_smax): Sequential(
      (0): Flatten(start_dim=1, end_dim=-1)
      (1): Linear(in_features=40000, out_features=512, bias=False)
      (2): LeakyReLU(negative_slope=0.2, inplace=True)
      (3): Dropout(p=0.2, inplace=False)
      (4): Linear(in_features=512, out_features=128, bias=False)
      (5): LeakyReLU(negative_slope=0.2, inplace=True)
      (6): Dropout(p=0.2, inplace=False)
      (7): Linear(in_features=128, out_features=5, bias=False)
      (8): Softmax(dim=1)
    )
    (encoder_conv): Sequential(
      (0): Conv2d(64, 32, kernel_size=(3, 3), stride=(1, 1), padding=(1, 1), bias=False)
      (1): BatchNorm2d(32, eps=1e-05, momentum=0.1, affine=True, track_running_stats=True)
      (2): LeakyReLU(negative_slope=0.2, inplace=True)
      (3): Conv2d(32, 16, kernel_size=(3, 3), stride=(1, 1), padding=(1, 1), bias=False)
      (4): BatchNorm2d(16, eps=1e-05, momentum=0.1, affine=True, track_running_stats=True)
      (5): LeakyReLU(negative_slope=0.2, inplace=True)
      (6): Conv2d(16, 8, kernel_size=(3, 3), stride=(1, 1), padding=(1, 1), bias=False)
      (7): BatchNorm2d(8, eps=1e-05, momentum=0.1, affine=True, track_running_stats=True)
      (8): LeakyReLU(negative_slope=0.2, inplace=True)
      (9): MaxPool2d(kernel_size=3, stride=3, padding=0, dilation=1, ceil_mode=False)
    )
  )
  (DT): XGBHead()
)
===================================== Epoch 0 =====================================
Trainset: 1000
Valset: 1000
Testset: 1000
Namespace(dataset_dir='../dataset/miniImageNet/', data_name='miniImageNet', mode='train', resume='../results/DN4_miniImageNet_DN4_DTR_5Way_5Shot_K3/model_best.pth.tar', epochs=1, cuda=True, ngpu=1, nc=3, clamp_lower=-0.01, clamp_upper=0.01, print_freq=100, outf='../results/DN4_miniImageNet_DN4_DTR_5Way_5Shot_K3')
=> loaded checkpoint '../results/DN4_miniImageNet_DN4_DTR_5Way_5Shot_K3/model_best.pth.tar' (epoch 16)
DN4_DTR(
  (BACKBONE_2D): FourLayer_64F(
    (features): Sequential(
      (0): Conv2d(3, 64, kernel_size=(3, 3), stride=(1, 1), padding=(1, 1), bias=False)
      (1): BatchNorm2d(64, eps=1e-05, momentum=0.1, affine=True, track_running_stats=True)
      (2): LeakyReLU(negative_slope=0.2, inplace=True)
      (3): MaxPool2d(kernel_size=2, stride=2, padding=0, dilation=1, ceil_mode=False)
      (4): Conv2d(64, 64, kernel_size=(3, 3), stride=(1, 1), padding=(1, 1), bias=False)
      (5): BatchNorm2d(64, eps=1e-05, momentum=0.1, affine=True, track_running_stats=True)
      (6): LeakyReLU(negative_slope=0.2, inplace=True)
      (7): MaxPool2d(kernel_size=2, stride=2, padding=0, dilation=1, ceil_mode=False)
      (8): Conv2d(64, 64, kernel_size=(3, 3), stride=(1, 1), padding=(1, 1), bias=False)
      (9): BatchNorm2d(64, eps=1e-05, momentum=0.1, affine=True, track_running_stats=True)
      (10): LeakyReLU(negative_slope=0.2, inplace=True)
      (11): Conv2d(64, 64, kernel_size=(3, 3), stride=(1, 1), padding=(1, 1), bias=False)
      (12): BatchNorm2d(64, eps=1e-05, momentum=0.1, affine=True, track_running_stats=True)
      (13): LeakyReLU(negative_slope=0.2, inplace=True)
    )
    (criterion): CrossEntropyLoss()
  )
  (ENCODER): Encoder(
    (encoder_smax): Sequential(
      (0): Flatten(start_dim=1, end_dim=-1)
      (1): Linear(in_features=40000, out_features=512, bias=False)
      (2): LeakyReLU(negative_slope=0.2, inplace=True)
      (3): Dropout(p=0.2, inplace=False)
      (4): Linear(in_features=512, out_features=128, bias=False)
      (5): LeakyReLU(negative_slope=0.2, inplace=True)
      (6): Dropout(p=0.2, inplace=False)
      (7): Linear(in_features=128, out_features=5, bias=False)
      (8): Softmax(dim=1)
    )
    (encoder_conv): Sequential(
      (0): Conv2d(64, 32, kernel_size=(3, 3), stride=(1, 1), padding=(1, 1), bias=False)
      (1): BatchNorm2d(32, eps=1e-05, momentum=0.1, affine=True, track_running_stats=True)
      (2): LeakyReLU(negative_slope=0.2, inplace=True)
      (3): Conv2d(32, 16, kernel_size=(3, 3), stride=(1, 1), padding=(1, 1), bias=False)
      (4): BatchNorm2d(16, eps=1e-05, momentum=0.1, affine=True, track_running_stats=True)
      (5): LeakyReLU(negative_slope=0.2, inplace=True)
      (6): Conv2d(16, 8, kernel_size=(3, 3), stride=(1, 1), padding=(1, 1), bias=False)
      (7): BatchNorm2d(8, eps=1e-05, momentum=0.1, affine=True, track_running_stats=True)
      (8): LeakyReLU(negative_slope=0.2, inplace=True)
      (9): MaxPool2d(kernel_size=3, stride=3, padding=0, dilation=1, ceil_mode=False)
    )
  )
  (DT): XGBHead()
)
===================================== Epoch 0 =====================================
Trainset: 1000
Valset: 1000
Testset: 1000
Namespace(dataset_dir='../dataset/miniImageNet/', data_name='miniImageNet', mode='train', resume='../results/DN4_miniImageNet_DN4_DTR_5Way_5Shot_K3/model_best.pth.tar', epochs=1, cuda=True, ngpu=1, nc=3, clamp_lower=-0.01, clamp_upper=0.01, print_freq=100, outf='../results/DN4_miniImageNet_DN4_DTR_5Way_5Shot_K3')
=> loaded checkpoint '../results/DN4_miniImageNet_DN4_DTR_5Way_5Shot_K3/model_best.pth.tar' (epoch 16)
DN4_DTR(
  (BACKBONE_2D): FourLayer_64F(
    (features): Sequential(
      (0): Conv2d(3, 64, kernel_size=(3, 3), stride=(1, 1), padding=(1, 1), bias=False)
      (1): BatchNorm2d(64, eps=1e-05, momentum=0.1, affine=True, track_running_stats=True)
      (2): LeakyReLU(negative_slope=0.2, inplace=True)
      (3): MaxPool2d(kernel_size=2, stride=2, padding=0, dilation=1, ceil_mode=False)
      (4): Conv2d(64, 64, kernel_size=(3, 3), stride=(1, 1), padding=(1, 1), bias=False)
      (5): BatchNorm2d(64, eps=1e-05, momentum=0.1, affine=True, track_running_stats=True)
      (6): LeakyReLU(negative_slope=0.2, inplace=True)
      (7): MaxPool2d(kernel_size=2, stride=2, padding=0, dilation=1, ceil_mode=False)
      (8): Conv2d(64, 64, kernel_size=(3, 3), stride=(1, 1), padding=(1, 1), bias=False)
      (9): BatchNorm2d(64, eps=1e-05, momentum=0.1, affine=True, track_running_stats=True)
      (10): LeakyReLU(negative_slope=0.2, inplace=True)
      (11): Conv2d(64, 64, kernel_size=(3, 3), stride=(1, 1), padding=(1, 1), bias=False)
      (12): BatchNorm2d(64, eps=1e-05, momentum=0.1, affine=True, track_running_stats=True)
      (13): LeakyReLU(negative_slope=0.2, inplace=True)
    )
    (criterion): CrossEntropyLoss()
  )
  (ENCODER): Encoder(
    (encoder_smax): Sequential(
      (0): Flatten(start_dim=1, end_dim=-1)
      (1): Linear(in_features=40000, out_features=512, bias=False)
      (2): LeakyReLU(negative_slope=0.2, inplace=True)
      (3): Dropout(p=0.2, inplace=False)
      (4): Linear(in_features=512, out_features=128, bias=False)
      (5): LeakyReLU(negative_slope=0.2, inplace=True)
      (6): Dropout(p=0.2, inplace=False)
      (7): Linear(in_features=128, out_features=5, bias=False)
      (8): Softmax(dim=1)
    )
    (encoder_conv): Sequential(
      (0): Conv2d(64, 32, kernel_size=(3, 3), stride=(1, 1), padding=(1, 1), bias=False)
      (1): BatchNorm2d(32, eps=1e-05, momentum=0.1, affine=True, track_running_stats=True)
      (2): LeakyReLU(negative_slope=0.2, inplace=True)
      (3): Conv2d(32, 16, kernel_size=(3, 3), stride=(1, 1), padding=(1, 1), bias=False)
      (4): BatchNorm2d(16, eps=1e-05, momentum=0.1, affine=True, track_running_stats=True)
      (5): LeakyReLU(negative_slope=0.2, inplace=True)
      (6): Conv2d(16, 8, kernel_size=(3, 3), stride=(1, 1), padding=(1, 1), bias=False)
      (7): BatchNorm2d(8, eps=1e-05, momentum=0.1, affine=True, track_running_stats=True)
      (8): LeakyReLU(negative_slope=0.2, inplace=True)
      (9): MaxPool2d(kernel_size=3, stride=3, padding=0, dilation=1, ceil_mode=False)
    )
  )
  (DT): XGBHead()
)
===================================== Epoch 0 =====================================
Trainset: 1000
Valset: 1000
Testset: 1000
Namespace(dataset_dir='../dataset/miniImageNet/', data_name='miniImageNet', mode='train', resume='../results/DN4_miniImageNet_DN4_DTR_5Way_5Shot_K3/model_best.pth.tar', epochs=1, cuda=True, ngpu=1, nc=3, clamp_lower=-0.01, clamp_upper=0.01, print_freq=100, outf='../results/DN4_miniImageNet_DN4_DTR_5Way_5Shot_K3')
=> loaded checkpoint '../results/DN4_miniImageNet_DN4_DTR_5Way_5Shot_K3/model_best.pth.tar' (epoch 16)
DN4_DTR(
  (BACKBONE_2D): FourLayer_64F(
    (features): Sequential(
      (0): Conv2d(3, 64, kernel_size=(3, 3), stride=(1, 1), padding=(1, 1), bias=False)
      (1): BatchNorm2d(64, eps=1e-05, momentum=0.1, affine=True, track_running_stats=True)
      (2): LeakyReLU(negative_slope=0.2, inplace=True)
      (3): MaxPool2d(kernel_size=2, stride=2, padding=0, dilation=1, ceil_mode=False)
      (4): Conv2d(64, 64, kernel_size=(3, 3), stride=(1, 1), padding=(1, 1), bias=False)
      (5): BatchNorm2d(64, eps=1e-05, momentum=0.1, affine=True, track_running_stats=True)
      (6): LeakyReLU(negative_slope=0.2, inplace=True)
      (7): MaxPool2d(kernel_size=2, stride=2, padding=0, dilation=1, ceil_mode=False)
      (8): Conv2d(64, 64, kernel_size=(3, 3), stride=(1, 1), padding=(1, 1), bias=False)
      (9): BatchNorm2d(64, eps=1e-05, momentum=0.1, affine=True, track_running_stats=True)
      (10): LeakyReLU(negative_slope=0.2, inplace=True)
      (11): Conv2d(64, 64, kernel_size=(3, 3), stride=(1, 1), padding=(1, 1), bias=False)
      (12): BatchNorm2d(64, eps=1e-05, momentum=0.1, affine=True, track_running_stats=True)
      (13): LeakyReLU(negative_slope=0.2, inplace=True)
    )
    (criterion): CrossEntropyLoss()
  )
  (ENCODER): Encoder(
    (encoder_smax): Sequential(
      (0): Flatten(start_dim=1, end_dim=-1)
      (1): Linear(in_features=40000, out_features=512, bias=False)
      (2): LeakyReLU(negative_slope=0.2, inplace=True)
      (3): Dropout(p=0.2, inplace=False)
      (4): Linear(in_features=512, out_features=128, bias=False)
      (5): LeakyReLU(negative_slope=0.2, inplace=True)
      (6): Dropout(p=0.2, inplace=False)
      (7): Linear(in_features=128, out_features=5, bias=False)
      (8): Softmax(dim=1)
    )
    (encoder_conv): Sequential(
      (0): Conv2d(64, 32, kernel_size=(3, 3), stride=(1, 1), padding=(1, 1), bias=False)
      (1): BatchNorm2d(32, eps=1e-05, momentum=0.1, affine=True, track_running_stats=True)
      (2): LeakyReLU(negative_slope=0.2, inplace=True)
      (3): Conv2d(32, 16, kernel_size=(3, 3), stride=(1, 1), padding=(1, 1), bias=False)
      (4): BatchNorm2d(16, eps=1e-05, momentum=0.1, affine=True, track_running_stats=True)
      (5): LeakyReLU(negative_slope=0.2, inplace=True)
      (6): Conv2d(16, 8, kernel_size=(3, 3), stride=(1, 1), padding=(1, 1), bias=False)
      (7): BatchNorm2d(8, eps=1e-05, momentum=0.1, affine=True, track_running_stats=True)
      (8): LeakyReLU(negative_slope=0.2, inplace=True)
      (9): MaxPool2d(kernel_size=3, stride=3, padding=0, dilation=1, ceil_mode=False)
    )
  )
  (DT): XGBHead()
)
===================================== Epoch 0 =====================================
Trainset: 1000
Valset: 1000
Testset: 1000
Namespace(dataset_dir='../dataset/miniImageNet/', data_name='miniImageNet', mode='train', resume='../results/DN4_miniImageNet_DN4_DTR_5Way_5Shot_K3/model_best.pth.tar', epochs=1, cuda=True, ngpu=1, nc=3, clamp_lower=-0.01, clamp_upper=0.01, print_freq=100, outf='../results/DN4_miniImageNet_DN4_DTR_5Way_5Shot_K3')
=> loaded checkpoint '../results/DN4_miniImageNet_DN4_DTR_5Way_5Shot_K3/model_best.pth.tar' (epoch 16)
DN4_DTR(
  (BACKBONE_2D): FourLayer_64F(
    (features): Sequential(
      (0): Conv2d(3, 64, kernel_size=(3, 3), stride=(1, 1), padding=(1, 1), bias=False)
      (1): BatchNorm2d(64, eps=1e-05, momentum=0.1, affine=True, track_running_stats=True)
      (2): LeakyReLU(negative_slope=0.2, inplace=True)
      (3): MaxPool2d(kernel_size=2, stride=2, padding=0, dilation=1, ceil_mode=False)
      (4): Conv2d(64, 64, kernel_size=(3, 3), stride=(1, 1), padding=(1, 1), bias=False)
      (5): BatchNorm2d(64, eps=1e-05, momentum=0.1, affine=True, track_running_stats=True)
      (6): LeakyReLU(negative_slope=0.2, inplace=True)
      (7): MaxPool2d(kernel_size=2, stride=2, padding=0, dilation=1, ceil_mode=False)
      (8): Conv2d(64, 64, kernel_size=(3, 3), stride=(1, 1), padding=(1, 1), bias=False)
      (9): BatchNorm2d(64, eps=1e-05, momentum=0.1, affine=True, track_running_stats=True)
      (10): LeakyReLU(negative_slope=0.2, inplace=True)
      (11): Conv2d(64, 64, kernel_size=(3, 3), stride=(1, 1), padding=(1, 1), bias=False)
      (12): BatchNorm2d(64, eps=1e-05, momentum=0.1, affine=True, track_running_stats=True)
      (13): LeakyReLU(negative_slope=0.2, inplace=True)
    )
    (criterion): CrossEntropyLoss()
  )
  (ENCODER): Encoder(
    (encoder_smax): Sequential(
      (0): Flatten(start_dim=1, end_dim=-1)
      (1): Linear(in_features=40000, out_features=512, bias=False)
      (2): LeakyReLU(negative_slope=0.2, inplace=True)
      (3): Dropout(p=0.2, inplace=False)
      (4): Linear(in_features=512, out_features=128, bias=False)
      (5): LeakyReLU(negative_slope=0.2, inplace=True)
      (6): Dropout(p=0.2, inplace=False)
      (7): Linear(in_features=128, out_features=5, bias=False)
      (8): Softmax(dim=1)
    )
    (encoder_conv): Sequential(
      (0): Conv2d(64, 32, kernel_size=(3, 3), stride=(1, 1), padding=(1, 1), bias=False)
      (1): BatchNorm2d(32, eps=1e-05, momentum=0.1, affine=True, track_running_stats=True)
      (2): LeakyReLU(negative_slope=0.2, inplace=True)
      (3): Conv2d(32, 16, kernel_size=(3, 3), stride=(1, 1), padding=(1, 1), bias=False)
      (4): BatchNorm2d(16, eps=1e-05, momentum=0.1, affine=True, track_running_stats=True)
      (5): LeakyReLU(negative_slope=0.2, inplace=True)
      (6): Conv2d(16, 8, kernel_size=(3, 3), stride=(1, 1), padding=(1, 1), bias=False)
      (7): BatchNorm2d(8, eps=1e-05, momentum=0.1, affine=True, track_running_stats=True)
      (8): LeakyReLU(negative_slope=0.2, inplace=True)
      (9): MaxPool2d(kernel_size=3, stride=3, padding=0, dilation=1, ceil_mode=False)
    )
  )
  (DT): XGBHead()
)
===================================== Epoch 0 =====================================
Trainset: 1000
Valset: 1000
Testset: 1000
Namespace(dataset_dir='../dataset/miniImageNet/', data_name='miniImageNet', mode='train', resume='../results/DN4_miniImageNet_DN4_DTR_5Way_5Shot_K3/model_best.pth.tar', epochs=1, cuda=True, ngpu=1, nc=3, clamp_lower=-0.01, clamp_upper=0.01, print_freq=100, outf='../results/DN4_miniImageNet_DN4_DTR_5Way_5Shot_K3')
=> loaded checkpoint '../results/DN4_miniImageNet_DN4_DTR_5Way_5Shot_K3/model_best.pth.tar' (epoch 16)
DN4_DTR(
  (BACKBONE_2D): FourLayer_64F(
    (features): Sequential(
      (0): Conv2d(3, 64, kernel_size=(3, 3), stride=(1, 1), padding=(1, 1), bias=False)
      (1): BatchNorm2d(64, eps=1e-05, momentum=0.1, affine=True, track_running_stats=True)
      (2): LeakyReLU(negative_slope=0.2, inplace=True)
      (3): MaxPool2d(kernel_size=2, stride=2, padding=0, dilation=1, ceil_mode=False)
      (4): Conv2d(64, 64, kernel_size=(3, 3), stride=(1, 1), padding=(1, 1), bias=False)
      (5): BatchNorm2d(64, eps=1e-05, momentum=0.1, affine=True, track_running_stats=True)
      (6): LeakyReLU(negative_slope=0.2, inplace=True)
      (7): MaxPool2d(kernel_size=2, stride=2, padding=0, dilation=1, ceil_mode=False)
      (8): Conv2d(64, 64, kernel_size=(3, 3), stride=(1, 1), padding=(1, 1), bias=False)
      (9): BatchNorm2d(64, eps=1e-05, momentum=0.1, affine=True, track_running_stats=True)
      (10): LeakyReLU(negative_slope=0.2, inplace=True)
      (11): Conv2d(64, 64, kernel_size=(3, 3), stride=(1, 1), padding=(1, 1), bias=False)
      (12): BatchNorm2d(64, eps=1e-05, momentum=0.1, affine=True, track_running_stats=True)
      (13): LeakyReLU(negative_slope=0.2, inplace=True)
    )
    (criterion): CrossEntropyLoss()
  )
  (ENCODER): Encoder(
    (encoder_smax): Sequential(
      (0): Flatten(start_dim=1, end_dim=-1)
      (1): Linear(in_features=40000, out_features=512, bias=False)
      (2): LeakyReLU(negative_slope=0.2, inplace=True)
      (3): Dropout(p=0.2, inplace=False)
      (4): Linear(in_features=512, out_features=128, bias=False)
      (5): LeakyReLU(negative_slope=0.2, inplace=True)
      (6): Dropout(p=0.2, inplace=False)
      (7): Linear(in_features=128, out_features=5, bias=False)
      (8): Softmax(dim=1)
    )
    (encoder_conv): Sequential(
      (0): Conv2d(64, 32, kernel_size=(3, 3), stride=(1, 1), padding=(1, 1), bias=False)
      (1): BatchNorm2d(32, eps=1e-05, momentum=0.1, affine=True, track_running_stats=True)
      (2): LeakyReLU(negative_slope=0.2, inplace=True)
      (3): Conv2d(32, 16, kernel_size=(3, 3), stride=(1, 1), padding=(1, 1), bias=False)
      (4): BatchNorm2d(16, eps=1e-05, momentum=0.1, affine=True, track_running_stats=True)
      (5): LeakyReLU(negative_slope=0.2, inplace=True)
      (6): Conv2d(16, 8, kernel_size=(3, 3), stride=(1, 1), padding=(1, 1), bias=False)
      (7): BatchNorm2d(8, eps=1e-05, momentum=0.1, affine=True, track_running_stats=True)
      (8): LeakyReLU(negative_slope=0.2, inplace=True)
      (9): MaxPool2d(kernel_size=3, stride=3, padding=0, dilation=1, ceil_mode=False)
    )
  )
  (DT): XGBHead()
)
===================================== Epoch 0 =====================================
Trainset: 1000
Valset: 1000
Testset: 1000
Namespace(dataset_dir='../dataset/miniImageNet/', data_name='miniImageNet', mode='train', resume='../results/DN4_miniImageNet_DN4_DTR_5Way_5Shot_K3/model_best.pth.tar', epochs=1, cuda=True, ngpu=1, nc=3, clamp_lower=-0.01, clamp_upper=0.01, print_freq=100, outf='../results/DN4_miniImageNet_DN4_DTR_5Way_5Shot_K3')
=> loaded checkpoint '../results/DN4_miniImageNet_DN4_DTR_5Way_5Shot_K3/model_best.pth.tar' (epoch 16)
DN4_DTR(
  (BACKBONE_2D): FourLayer_64F(
    (features): Sequential(
      (0): Conv2d(3, 64, kernel_size=(3, 3), stride=(1, 1), padding=(1, 1), bias=False)
      (1): BatchNorm2d(64, eps=1e-05, momentum=0.1, affine=True, track_running_stats=True)
      (2): LeakyReLU(negative_slope=0.2, inplace=True)
      (3): MaxPool2d(kernel_size=2, stride=2, padding=0, dilation=1, ceil_mode=False)
      (4): Conv2d(64, 64, kernel_size=(3, 3), stride=(1, 1), padding=(1, 1), bias=False)
      (5): BatchNorm2d(64, eps=1e-05, momentum=0.1, affine=True, track_running_stats=True)
      (6): LeakyReLU(negative_slope=0.2, inplace=True)
      (7): MaxPool2d(kernel_size=2, stride=2, padding=0, dilation=1, ceil_mode=False)
      (8): Conv2d(64, 64, kernel_size=(3, 3), stride=(1, 1), padding=(1, 1), bias=False)
      (9): BatchNorm2d(64, eps=1e-05, momentum=0.1, affine=True, track_running_stats=True)
      (10): LeakyReLU(negative_slope=0.2, inplace=True)
      (11): Conv2d(64, 64, kernel_size=(3, 3), stride=(1, 1), padding=(1, 1), bias=False)
      (12): BatchNorm2d(64, eps=1e-05, momentum=0.1, affine=True, track_running_stats=True)
      (13): LeakyReLU(negative_slope=0.2, inplace=True)
    )
    (criterion): CrossEntropyLoss()
  )
  (ENCODER): Encoder(
    (encoder_smax): Sequential(
      (0): Flatten(start_dim=1, end_dim=-1)
      (1): Linear(in_features=40000, out_features=512, bias=False)
      (2): LeakyReLU(negative_slope=0.2, inplace=True)
      (3): Dropout(p=0.2, inplace=False)
      (4): Linear(in_features=512, out_features=128, bias=False)
      (5): LeakyReLU(negative_slope=0.2, inplace=True)
      (6): Dropout(p=0.2, inplace=False)
      (7): Linear(in_features=128, out_features=5, bias=False)
      (8): Softmax(dim=1)
    )
    (encoder_conv): Sequential(
      (0): Conv2d(64, 32, kernel_size=(3, 3), stride=(1, 1), padding=(1, 1), bias=False)
      (1): BatchNorm2d(32, eps=1e-05, momentum=0.1, affine=True, track_running_stats=True)
      (2): LeakyReLU(negative_slope=0.2, inplace=True)
      (3): Conv2d(32, 16, kernel_size=(3, 3), stride=(1, 1), padding=(1, 1), bias=False)
      (4): BatchNorm2d(16, eps=1e-05, momentum=0.1, affine=True, track_running_stats=True)
      (5): LeakyReLU(negative_slope=0.2, inplace=True)
      (6): Conv2d(16, 8, kernel_size=(3, 3), stride=(1, 1), padding=(1, 1), bias=False)
      (7): BatchNorm2d(8, eps=1e-05, momentum=0.1, affine=True, track_running_stats=True)
      (8): LeakyReLU(negative_slope=0.2, inplace=True)
      (9): MaxPool2d(kernel_size=3, stride=3, padding=0, dilation=1, ceil_mode=False)
    )
  )
  (DT): XGBHead()
)
===================================== Epoch 0 =====================================
Trainset: 1000
Valset: 1000
Testset: 1000
Eposide-(116): [100/1000]	Time 0.481 (0.453)	Data 0.001 (0.014)	Loss 123.830 (83.407)	Prec@1 20.000 (19.947)
…
Eposide-(716): [700/1000]	Time 0.402 (0.438)	Data 0.001 (0.003)	Loss 107.100 (88.401)	Prec@1 20.000 (20.067)
Namespace(dataset_dir='../dataset/miniImageNet/', data_name='miniImageNet', mode='train', resume='../results/DN4_miniImageNet_DN4_DTR_5Way_5Shot_K3/model_best.pth.tar', epochs=1, cuda=True, ngpu=1, nc=3, clamp_lower=-0.01, clamp_upper=0.01, print_freq=100, outf='../results/DN4_miniImageNet_DN4_DTR_5Way_5Shot_K3')
=> loaded checkpoint '../results/DN4_miniImageNet_DN4_DTR_5Way_5Shot_K3/model_best.pth.tar' (epoch 16)
DN4_DTR(
  (BACKBONE_2D): FourLayer_64F(
    (features): Sequential(
      (0): Conv2d(3, 64, kernel_size=(3, 3), stride=(1, 1), padding=(1, 1), bias=False)
      (1): BatchNorm2d(64, eps=1e-05, momentum=0.1, affine=True, track_running_stats=True)
      (2): LeakyReLU(negative_slope=0.2, inplace=True)
      (3): MaxPool2d(kernel_size=2, stride=2, padding=0, dilation=1, ceil_mode=False)
      (4): Conv2d(64, 64, kernel_size=(3, 3), stride=(1, 1), padding=(1, 1), bias=False)
      (5): BatchNorm2d(64, eps=1e-05, momentum=0.1, affine=True, track_running_stats=True)
      (6): LeakyReLU(negative_slope=0.2, inplace=True)
      (7): MaxPool2d(kernel_size=2, stride=2, padding=0, dilation=1, ceil_mode=False)
      (8): Conv2d(64, 64, kernel_size=(3, 3), stride=(1, 1), padding=(1, 1), bias=False)
      (9): BatchNorm2d(64, eps=1e-05, momentum=0.1, affine=True, track_running_stats=True)
      (10): LeakyReLU(negative_slope=0.2, inplace=True)
      (11): Conv2d(64, 64, kernel_size=(3, 3), stride=(1, 1), padding=(1, 1), bias=False)
      (12): BatchNorm2d(64, eps=1e-05, momentum=0.1, affine=True, track_running_stats=True)
      (13): LeakyReLU(negative_slope=0.2, inplace=True)
    )
    (criterion): CrossEntropyLoss()
  )
  (ENCODER): Encoder(
    (encoder_smax): Sequential(
      (0): Flatten(start_dim=1, end_dim=-1)
      (1): Linear(in_features=40000, out_features=512, bias=False)
      (2): LeakyReLU(negative_slope=0.2, inplace=True)
      (3): Dropout(p=0.2, inplace=False)
      (4): Linear(in_features=512, out_features=128, bias=False)
      (5): LeakyReLU(negative_slope=0.2, inplace=True)
      (6): Dropout(p=0.2, inplace=False)
      (7): Linear(in_features=128, out_features=5, bias=False)
      (8): Softmax(dim=1)
    )
    (encoder_conv): Sequential(
      (0): Conv2d(64, 32, kernel_size=(3, 3), stride=(1, 1), padding=(1, 1), bias=False)
      (1): BatchNorm2d(32, eps=1e-05, momentum=0.1, affine=True, track_running_stats=True)
      (2): LeakyReLU(negative_slope=0.2, inplace=True)
      (3): Conv2d(32, 16, kernel_size=(3, 3), stride=(1, 1), padding=(1, 1), bias=False)
      (4): BatchNorm2d(16, eps=1e-05, momentum=0.1, affine=True, track_running_stats=True)
      (5): LeakyReLU(negative_slope=0.2, inplace=True)
      (6): Conv2d(16, 8, kernel_size=(3, 3), stride=(1, 1), padding=(1, 1), bias=False)
      (7): BatchNorm2d(8, eps=1e-05, momentum=0.1, affine=True, track_running_stats=True)
      (8): LeakyReLU(negative_slope=0.2, inplace=True)
      (9): MaxPool2d(kernel_size=3, stride=3, padding=0, dilation=1, ceil_mode=False)
    )
  )
  (DT): XGBHead()
)
===================================== Epoch 0 =====================================
Trainset: 1000
Valset: 1000
Testset: 1000
Namespace(dataset_dir='../dataset/miniImageNet/', data_name='miniImageNet', mode='train', resume='../results/DN4_miniImageNet_DN4_DTR_5Way_5Shot_K3/model_best.pth.tar', epochs=1, cuda=True, ngpu=1, nc=3, clamp_lower=-0.01, clamp_upper=0.01, print_freq=100, outf='../results/DN4_miniImageNet_DN4_DTR_5Way_5Shot_K3')
=> loaded checkpoint '../results/DN4_miniImageNet_DN4_DTR_5Way_5Shot_K3/model_best.pth.tar' (epoch 16)
DN4_DTR(
  (BACKBONE_2D): FourLayer_64F(
    (features): Sequential(
      (0): Conv2d(3, 64, kernel_size=(3, 3), stride=(1, 1), padding=(1, 1), bias=False)
      (1): BatchNorm2d(64, eps=1e-05, momentum=0.1, affine=True, track_running_stats=True)
      (2): LeakyReLU(negative_slope=0.2, inplace=True)
      (3): MaxPool2d(kernel_size=2, stride=2, padding=0, dilation=1, ceil_mode=False)
      (4): Conv2d(64, 64, kernel_size=(3, 3), stride=(1, 1), padding=(1, 1), bias=False)
      (5): BatchNorm2d(64, eps=1e-05, momentum=0.1, affine=True, track_running_stats=True)
      (6): LeakyReLU(negative_slope=0.2, inplace=True)
      (7): MaxPool2d(kernel_size=2, stride=2, padding=0, dilation=1, ceil_mode=False)
      (8): Conv2d(64, 64, kernel_size=(3, 3), stride=(1, 1), padding=(1, 1), bias=False)
      (9): BatchNorm2d(64, eps=1e-05, momentum=0.1, affine=True, track_running_stats=True)
      (10): LeakyReLU(negative_slope=0.2, inplace=True)
      (11): Conv2d(64, 64, kernel_size=(3, 3), stride=(1, 1), padding=(1, 1), bias=False)
      (12): BatchNorm2d(64, eps=1e-05, momentum=0.1, affine=True, track_running_stats=True)
      (13): LeakyReLU(negative_slope=0.2, inplace=True)
    )
    (criterion): CrossEntropyLoss()
  )
  (ENCODER): Encoder(
    (encoder_smax): Sequential(
      (0): Flatten(start_dim=1, end_dim=-1)
      (1): Linear(in_features=40000, out_features=512, bias=False)
      (2): LeakyReLU(negative_slope=0.2, inplace=True)
      (3): Dropout(p=0.2, inplace=False)
      (4): Linear(in_features=512, out_features=128, bias=False)
      (5): LeakyReLU(negative_slope=0.2, inplace=True)
      (6): Dropout(p=0.2, inplace=False)
      (7): Linear(in_features=128, out_features=5, bias=False)
      (8): Softmax(dim=1)
    )
    (encoder_conv): Sequential(
      (0): Conv2d(64, 32, kernel_size=(3, 3), stride=(1, 1), padding=(1, 1), bias=False)
      (1): BatchNorm2d(32, eps=1e-05, momentum=0.1, affine=True, track_running_stats=True)
      (2): LeakyReLU(negative_slope=0.2, inplace=True)
      (3): Conv2d(32, 16, kernel_size=(3, 3), stride=(1, 1), padding=(1, 1), bias=False)
      (4): BatchNorm2d(16, eps=1e-05, momentum=0.1, affine=True, track_running_stats=True)
      (5): LeakyReLU(negative_slope=0.2, inplace=True)
      (6): Conv2d(16, 8, kernel_size=(3, 3), stride=(1, 1), padding=(1, 1), bias=False)
      (7): BatchNorm2d(8, eps=1e-05, momentum=0.1, affine=True, track_running_stats=True)
      (8): LeakyReLU(negative_slope=0.2, inplace=True)
      (9): MaxPool2d(kernel_size=3, stride=3, padding=0, dilation=1, ceil_mode=False)
    )
  )
  (DT): XGBHead()
)
===================================== Epoch 0 =====================================
Trainset: 1000
Valset: 1000
Testset: 1000
Namespace(dataset_dir='../dataset/miniImageNet/', data_name='miniImageNet', mode='train', resume='../results/DN4_miniImageNet_DN4_DTR_5Way_5Shot_K3/model_best.pth.tar', epochs=1, cuda=True, ngpu=1, nc=3, clamp_lower=-0.01, clamp_upper=0.01, print_freq=100, outf='../results/DN4_miniImageNet_DN4_DTR_5Way_5Shot_K3')
=> loaded checkpoint '../results/DN4_miniImageNet_DN4_DTR_5Way_5Shot_K3/model_best.pth.tar' (epoch 16)
DN4_DTR(
  (BACKBONE_2D): FourLayer_64F(
    (features): Sequential(
      (0): Conv2d(3, 64, kernel_size=(3, 3), stride=(1, 1), padding=(1, 1), bias=False)
      (1): BatchNorm2d(64, eps=1e-05, momentum=0.1, affine=True, track_running_stats=True)
      (2): LeakyReLU(negative_slope=0.2, inplace=True)
      (3): MaxPool2d(kernel_size=2, stride=2, padding=0, dilation=1, ceil_mode=False)
      (4): Conv2d(64, 64, kernel_size=(3, 3), stride=(1, 1), padding=(1, 1), bias=False)
      (5): BatchNorm2d(64, eps=1e-05, momentum=0.1, affine=True, track_running_stats=True)
      (6): LeakyReLU(negative_slope=0.2, inplace=True)
      (7): MaxPool2d(kernel_size=2, stride=2, padding=0, dilation=1, ceil_mode=False)
      (8): Conv2d(64, 64, kernel_size=(3, 3), stride=(1, 1), padding=(1, 1), bias=False)
      (9): BatchNorm2d(64, eps=1e-05, momentum=0.1, affine=True, track_running_stats=True)
      (10): LeakyReLU(negative_slope=0.2, inplace=True)
      (11): Conv2d(64, 64, kernel_size=(3, 3), stride=(1, 1), padding=(1, 1), bias=False)
      (12): BatchNorm2d(64, eps=1e-05, momentum=0.1, affine=True, track_running_stats=True)
      (13): LeakyReLU(negative_slope=0.2, inplace=True)
    )
    (criterion): CrossEntropyLoss()
  )
  (ENCODER): Encoder(
    (encoder_smax): Sequential(
      (0): Flatten(start_dim=1, end_dim=-1)
      (1): Linear(in_features=40000, out_features=512, bias=False)
      (2): LeakyReLU(negative_slope=0.2, inplace=True)
      (3): Dropout(p=0.2, inplace=False)
      (4): Linear(in_features=512, out_features=128, bias=False)
      (5): LeakyReLU(negative_slope=0.2, inplace=True)
      (6): Dropout(p=0.2, inplace=False)
      (7): Linear(in_features=128, out_features=5, bias=False)
      (8): Softmax(dim=1)
    )
    (encoder_conv): Sequential(
      (0): Conv2d(64, 32, kernel_size=(3, 3), stride=(1, 1), padding=(1, 1), bias=False)
      (1): BatchNorm2d(32, eps=1e-05, momentum=0.1, affine=True, track_running_stats=True)
      (2): LeakyReLU(negative_slope=0.2, inplace=True)
      (3): Conv2d(32, 16, kernel_size=(3, 3), stride=(1, 1), padding=(1, 1), bias=False)
      (4): BatchNorm2d(16, eps=1e-05, momentum=0.1, affine=True, track_running_stats=True)
      (5): LeakyReLU(negative_slope=0.2, inplace=True)
      (6): Conv2d(16, 8, kernel_size=(3, 3), stride=(1, 1), padding=(1, 1), bias=False)
      (7): BatchNorm2d(8, eps=1e-05, momentum=0.1, affine=True, track_running_stats=True)
      (8): LeakyReLU(negative_slope=0.2, inplace=True)
      (9): MaxPool2d(kernel_size=3, stride=3, padding=0, dilation=1, ceil_mode=False)
    )
  )
  (DT): XGBHead()
)
===================================== Epoch 0 =====================================
Trainset: 1000
Valset: 1000
Testset: 1000
Eposide-(116): [100/1000]	Time 0.430 (0.460)	Data 0.001 (0.010)	Loss 120.636 (144.728)	Prec@1 20.000 (19.960)
…
Eposide-(916): [900/1000]	Time 0.428 (0.448)	Data 0.001 (0.002)	Loss 86.775 (95.062)	Prec@1 20.000 (20.068)
============ validation on the val set ============
Namespace(dataset_dir='../dataset/miniImageNet/', data_name='miniImageNet', mode='train', resume='../results/DN4_miniImageNet_DN4_DTR_5Way_5Shot_K3/model_best.pth.tar', epochs=1, cuda=True, ngpu=1, nc=3, clamp_lower=-0.01, clamp_upper=0.01, print_freq=100, outf='../results/DN4_miniImageNet_DN4_DTR_5Way_5Shot_K3')
=> loaded checkpoint '../results/DN4_miniImageNet_DN4_DTR_5Way_5Shot_K3/model_best.pth.tar' (epoch 16)
DN4_DTR(
  (BACKBONE_2D): FourLayer_64F(
    (features): Sequential(
      (0): Conv2d(3, 64, kernel_size=(3, 3), stride=(1, 1), padding=(1, 1), bias=False)
      (1): BatchNorm2d(64, eps=1e-05, momentum=0.1, affine=True, track_running_stats=True)
      (2): LeakyReLU(negative_slope=0.2, inplace=True)
      (3): MaxPool2d(kernel_size=2, stride=2, padding=0, dilation=1, ceil_mode=False)
      (4): Conv2d(64, 64, kernel_size=(3, 3), stride=(1, 1), padding=(1, 1), bias=False)
      (5): BatchNorm2d(64, eps=1e-05, momentum=0.1, affine=True, track_running_stats=True)
      (6): LeakyReLU(negative_slope=0.2, inplace=True)
      (7): MaxPool2d(kernel_size=2, stride=2, padding=0, dilation=1, ceil_mode=False)
      (8): Conv2d(64, 64, kernel_size=(3, 3), stride=(1, 1), padding=(1, 1), bias=False)
      (9): BatchNorm2d(64, eps=1e-05, momentum=0.1, affine=True, track_running_stats=True)
      (10): LeakyReLU(negative_slope=0.2, inplace=True)
      (11): Conv2d(64, 64, kernel_size=(3, 3), stride=(1, 1), padding=(1, 1), bias=False)
      (12): BatchNorm2d(64, eps=1e-05, momentum=0.1, affine=True, track_running_stats=True)
      (13): LeakyReLU(negative_slope=0.2, inplace=True)
    )
    (criterion): CrossEntropyLoss()
  )
  (ENCODER): Encoder(
    (encoder_smax): Sequential(
      (0): Flatten(start_dim=1, end_dim=-1)
      (1): Linear(in_features=40000, out_features=512, bias=False)
      (2): LeakyReLU(negative_slope=0.2, inplace=True)
      (3): Dropout(p=0.2, inplace=False)
      (4): Linear(in_features=512, out_features=128, bias=False)
      (5): LeakyReLU(negative_slope=0.2, inplace=True)
      (6): Dropout(p=0.2, inplace=False)
      (7): Linear(in_features=128, out_features=5, bias=False)
      (8): Softmax(dim=1)
    )
    (encoder_conv): Sequential(
      (0): Conv2d(64, 32, kernel_size=(3, 3), stride=(1, 1), padding=(1, 1), bias=False)
      (1): BatchNorm2d(32, eps=1e-05, momentum=0.1, affine=True, track_running_stats=True)
      (2): LeakyReLU(negative_slope=0.2, inplace=True)
      (3): Conv2d(32, 16, kernel_size=(3, 3), stride=(1, 1), padding=(1, 1), bias=False)
      (4): BatchNorm2d(16, eps=1e-05, momentum=0.1, affine=True, track_running_stats=True)
      (5): LeakyReLU(negative_slope=0.2, inplace=True)
      (6): Conv2d(16, 8, kernel_size=(3, 3), stride=(1, 1), padding=(1, 1), bias=False)
      (7): BatchNorm2d(8, eps=1e-05, momentum=0.1, affine=True, track_running_stats=True)
      (8): LeakyReLU(negative_slope=0.2, inplace=True)
      (9): MaxPool2d(kernel_size=3, stride=3, padding=0, dilation=1, ceil_mode=False)
    )
  )
  (DT): XGBHead()
)
===================================== Epoch 0 =====================================
Trainset: 1000
Valset: 1000
Testset: 1000
Namespace(dataset_dir='../dataset/miniImageNet/', data_name='miniImageNet', mode='train', resume='../results/DN4_miniImageNet_DN4_DTR_5Way_5Shot_K3/model_best.pth.tar', epochs=1, cuda=True, ngpu=1, nc=3, clamp_lower=-0.01, clamp_upper=0.01, print_freq=100, outf='../results/DN4_miniImageNet_DN4_DTR_5Way_5Shot_K3')
=> loaded checkpoint '../results/DN4_miniImageNet_DN4_DTR_5Way_5Shot_K3/model_best.pth.tar' (epoch 16)
DN4_DTR(
  (BACKBONE_2D): FourLayer_64F(
    (features): Sequential(
      (0): Conv2d(3, 64, kernel_size=(3, 3), stride=(1, 1), padding=(1, 1), bias=False)
      (1): BatchNorm2d(64, eps=1e-05, momentum=0.1, affine=True, track_running_stats=True)
      (2): LeakyReLU(negative_slope=0.2, inplace=True)
      (3): MaxPool2d(kernel_size=2, stride=2, padding=0, dilation=1, ceil_mode=False)
      (4): Conv2d(64, 64, kernel_size=(3, 3), stride=(1, 1), padding=(1, 1), bias=False)
      (5): BatchNorm2d(64, eps=1e-05, momentum=0.1, affine=True, track_running_stats=True)
      (6): LeakyReLU(negative_slope=0.2, inplace=True)
      (7): MaxPool2d(kernel_size=2, stride=2, padding=0, dilation=1, ceil_mode=False)
      (8): Conv2d(64, 64, kernel_size=(3, 3), stride=(1, 1), padding=(1, 1), bias=False)
      (9): BatchNorm2d(64, eps=1e-05, momentum=0.1, affine=True, track_running_stats=True)
      (10): LeakyReLU(negative_slope=0.2, inplace=True)
      (11): Conv2d(64, 64, kernel_size=(3, 3), stride=(1, 1), padding=(1, 1), bias=False)
      (12): BatchNorm2d(64, eps=1e-05, momentum=0.1, affine=True, track_running_stats=True)
      (13): LeakyReLU(negative_slope=0.2, inplace=True)
    )
    (criterion): CrossEntropyLoss()
  )
  (ENCODER): Encoder(
    (encoder_smax): Sequential(
      (0): Flatten(start_dim=1, end_dim=-1)
      (1): Linear(in_features=40000, out_features=512, bias=False)
      (2): LeakyReLU(negative_slope=0.2, inplace=True)
      (3): Dropout(p=0.2, inplace=False)
      (4): Linear(in_features=512, out_features=128, bias=False)
      (5): LeakyReLU(negative_slope=0.2, inplace=True)
      (6): Dropout(p=0.2, inplace=False)
      (7): Linear(in_features=128, out_features=5, bias=False)
      (8): Softmax(dim=1)
    )
    (encoder_conv): Sequential(
      (0): Conv2d(64, 32, kernel_size=(3, 3), stride=(1, 1), padding=(1, 1), bias=False)
      (1): BatchNorm2d(32, eps=1e-05, momentum=0.1, affine=True, track_running_stats=True)
      (2): LeakyReLU(negative_slope=0.2, inplace=True)
      (3): Conv2d(32, 16, kernel_size=(3, 3), stride=(1, 1), padding=(1, 1), bias=False)
      (4): BatchNorm2d(16, eps=1e-05, momentum=0.1, affine=True, track_running_stats=True)
      (5): LeakyReLU(negative_slope=0.2, inplace=True)
      (6): Conv2d(16, 8, kernel_size=(3, 3), stride=(1, 1), padding=(1, 1), bias=False)
      (7): BatchNorm2d(8, eps=1e-05, momentum=0.1, affine=True, track_running_stats=True)
      (8): LeakyReLU(negative_slope=0.2, inplace=True)
      (9): MaxPool2d(kernel_size=3, stride=3, padding=0, dilation=1, ceil_mode=False)
    )
  )
  (DT): XGBHead()
)
===================================== Epoch 0 =====================================
Trainset: 1000
Valset: 1000
Testset: 1000
Eposide-(16): [100/1000]	Time 0.419 (0.457)	Data 0.001 (0.012)	Loss 55.186 (144.810)	Prec@1 21.333 (19.274)
…
Eposide-(0): [900/1000]	Time 0.229 (0.226)	Data 0.000 (0.002)	Loss 1.758 (1.706)	Prec@1 14.667 (19.879)
============ validation on the val set ============
Namespace(dataset_dir='../dataset/miniImageNet/', data_name='miniImageNet', mode='train', resume='../results/DN4_miniImageNet_DN4_DTR_5Way_5Shot_K3/model_best.pth.tar', epochs=1, cuda=True, ngpu=1, nc=3, clamp_lower=-0.01, clamp_upper=0.01, print_freq=100, outf='../results/DN4_miniImageNet_DN4_DTR_5Way_5Shot_K3')
=> loaded checkpoint '../results/DN4_miniImageNet_DN4_DTR_5Way_5Shot_K3/model_best.pth.tar' (epoch 16)
DN4_DTR(
  (BACKBONE_2D): FourLayer_64F(
    (features): Sequential(
      (0): Conv2d(3, 64, kernel_size=(3, 3), stride=(1, 1), padding=(1, 1), bias=False)
      (1): BatchNorm2d(64, eps=1e-05, momentum=0.1, affine=True, track_running_stats=True)
      (2): LeakyReLU(negative_slope=0.2, inplace=True)
      (3): MaxPool2d(kernel_size=2, stride=2, padding=0, dilation=1, ceil_mode=False)
      (4): Conv2d(64, 64, kernel_size=(3, 3), stride=(1, 1), padding=(1, 1), bias=False)
      (5): BatchNorm2d(64, eps=1e-05, momentum=0.1, affine=True, track_running_stats=True)
      (6): LeakyReLU(negative_slope=0.2, inplace=True)
      (7): MaxPool2d(kernel_size=2, stride=2, padding=0, dilation=1, ceil_mode=False)
      (8): Conv2d(64, 64, kernel_size=(3, 3), stride=(1, 1), padding=(1, 1), bias=False)
      (9): BatchNorm2d(64, eps=1e-05, momentum=0.1, affine=True, track_running_stats=True)
      (10): LeakyReLU(negative_slope=0.2, inplace=True)
      (11): Conv2d(64, 64, kernel_size=(3, 3), stride=(1, 1), padding=(1, 1), bias=False)
      (12): BatchNorm2d(64, eps=1e-05, momentum=0.1, affine=True, track_running_stats=True)
      (13): LeakyReLU(negative_slope=0.2, inplace=True)
    )
    (criterion): CrossEntropyLoss()
  )
  (ENCODER): Encoder(
    (encoder_smax): Sequential(
      (0): Flatten(start_dim=1, end_dim=-1)
      (1): Linear(in_features=40000, out_features=512, bias=False)
      (2): LeakyReLU(negative_slope=0.2, inplace=True)
      (3): Dropout(p=0.1, inplace=False)
      (4): Linear(in_features=512, out_features=128, bias=False)
      (5): LeakyReLU(negative_slope=0.2, inplace=True)
      (6): Dropout(p=0.1, inplace=False)
      (7): Linear(in_features=128, out_features=5, bias=False)
      (8): Softmax(dim=1)
    )
    (encoder_conv): Sequential(
      (0): Conv2d(64, 32, kernel_size=(3, 3), stride=(1, 1), padding=(1, 1), bias=False)
      (1): BatchNorm2d(32, eps=1e-05, momentum=0.1, affine=True, track_running_stats=True)
      (2): LeakyReLU(negative_slope=0.2, inplace=True)
      (3): Conv2d(32, 16, kernel_size=(3, 3), stride=(1, 1), padding=(1, 1), bias=False)
      (4): BatchNorm2d(16, eps=1e-05, momentum=0.1, affine=True, track_running_stats=True)
      (5): LeakyReLU(negative_slope=0.2, inplace=True)
      (6): Conv2d(16, 8, kernel_size=(3, 3), stride=(1, 1), padding=(1, 1), bias=False)
      (7): BatchNorm2d(8, eps=1e-05, momentum=0.1, affine=True, track_running_stats=True)
      (8): LeakyReLU(negative_slope=0.2, inplace=True)
      (9): MaxPool2d(kernel_size=3, stride=3, padding=0, dilation=1, ceil_mode=False)
    )
  )
  (DT): XGBHead()
)
===================================== Epoch 0 =====================================
Trainset: 1000
Valset: 1000
Testset: 1000
Namespace(dataset_dir='../dataset/miniImageNet/', data_name='miniImageNet', mode='train', resume='../results/DN4_miniImageNet_DN4_DTR_5Way_5Shot_K3/model_best.pth.tar', epochs=1, cuda=True, ngpu=1, nc=3, clamp_lower=-0.01, clamp_upper=0.01, print_freq=100, outf='../results/DN4_miniImageNet_DN4_DTR_5Way_5Shot_K3')
=> loaded checkpoint '../results/DN4_miniImageNet_DN4_DTR_5Way_5Shot_K3/model_best.pth.tar' (epoch 16)
DN4_DTR(
  (BACKBONE_2D): FourLayer_64F(
    (features): Sequential(
      (0): Conv2d(3, 64, kernel_size=(3, 3), stride=(1, 1), padding=(1, 1), bias=False)
      (1): BatchNorm2d(64, eps=1e-05, momentum=0.1, affine=True, track_running_stats=True)
      (2): LeakyReLU(negative_slope=0.2, inplace=True)
      (3): MaxPool2d(kernel_size=2, stride=2, padding=0, dilation=1, ceil_mode=False)
      (4): Conv2d(64, 64, kernel_size=(3, 3), stride=(1, 1), padding=(1, 1), bias=False)
      (5): BatchNorm2d(64, eps=1e-05, momentum=0.1, affine=True, track_running_stats=True)
      (6): LeakyReLU(negative_slope=0.2, inplace=True)
      (7): MaxPool2d(kernel_size=2, stride=2, padding=0, dilation=1, ceil_mode=False)
      (8): Conv2d(64, 64, kernel_size=(3, 3), stride=(1, 1), padding=(1, 1), bias=False)
      (9): BatchNorm2d(64, eps=1e-05, momentum=0.1, affine=True, track_running_stats=True)
      (10): LeakyReLU(negative_slope=0.2, inplace=True)
      (11): Conv2d(64, 64, kernel_size=(3, 3), stride=(1, 1), padding=(1, 1), bias=False)
      (12): BatchNorm2d(64, eps=1e-05, momentum=0.1, affine=True, track_running_stats=True)
      (13): LeakyReLU(negative_slope=0.2, inplace=True)
    )
    (criterion): CrossEntropyLoss()
  )
  (ENCODER): Encoder(
    (encoder_smax): Sequential(
      (0): Flatten(start_dim=1, end_dim=-1)
      (1): Linear(in_features=40000, out_features=512, bias=False)
      (2): LeakyReLU(negative_slope=0.2, inplace=True)
      (3): Dropout(p=0.1, inplace=False)
      (4): Linear(in_features=512, out_features=128, bias=False)
      (5): LeakyReLU(negative_slope=0.2, inplace=True)
      (6): Dropout(p=0.1, inplace=False)
      (7): Linear(in_features=128, out_features=5, bias=False)
      (8): Softmax(dim=1)
    )
    (encoder_conv): Sequential(
      (0): Conv2d(64, 32, kernel_size=(3, 3), stride=(1, 1), padding=(1, 1), bias=False)
      (1): BatchNorm2d(32, eps=1e-05, momentum=0.1, affine=True, track_running_stats=True)
      (2): LeakyReLU(negative_slope=0.2, inplace=True)
      (3): Conv2d(32, 16, kernel_size=(3, 3), stride=(1, 1), padding=(1, 1), bias=False)
      (4): BatchNorm2d(16, eps=1e-05, momentum=0.1, affine=True, track_running_stats=True)
      (5): LeakyReLU(negative_slope=0.2, inplace=True)
      (6): Conv2d(16, 8, kernel_size=(3, 3), stride=(1, 1), padding=(1, 1), bias=False)
      (7): BatchNorm2d(8, eps=1e-05, momentum=0.1, affine=True, track_running_stats=True)
      (8): LeakyReLU(negative_slope=0.2, inplace=True)
      (9): MaxPool2d(kernel_size=3, stride=3, padding=0, dilation=1, ceil_mode=False)
    )
  )
  (DT): XGBHead()
)
===================================== Epoch 0 =====================================
Trainset: 1000
Valset: 1000
Testset: 1000
Namespace(dataset_dir='../dataset/miniImageNet/', data_name='miniImageNet', mode='train', resume='../results/DN4_miniImageNet_DN4_DTR_5Way_5Shot_K3/model_best.pth.tar', epochs=1, cuda=True, ngpu=1, nc=3, clamp_lower=-0.01, clamp_upper=0.01, print_freq=100, outf='../results/DN4_miniImageNet_DN4_DTR_5Way_5Shot_K3')
=> loaded checkpoint '../results/DN4_miniImageNet_DN4_DTR_5Way_5Shot_K3/model_best.pth.tar' (epoch 16)
DN4_DTR(
  (BACKBONE_2D): FourLayer_64F(
    (features): Sequential(
      (0): Conv2d(3, 64, kernel_size=(3, 3), stride=(1, 1), padding=(1, 1), bias=False)
      (1): BatchNorm2d(64, eps=1e-05, momentum=0.1, affine=True, track_running_stats=True)
      (2): LeakyReLU(negative_slope=0.2, inplace=True)
      (3): MaxPool2d(kernel_size=2, stride=2, padding=0, dilation=1, ceil_mode=False)
      (4): Conv2d(64, 64, kernel_size=(3, 3), stride=(1, 1), padding=(1, 1), bias=False)
      (5): BatchNorm2d(64, eps=1e-05, momentum=0.1, affine=True, track_running_stats=True)
      (6): LeakyReLU(negative_slope=0.2, inplace=True)
      (7): MaxPool2d(kernel_size=2, stride=2, padding=0, dilation=1, ceil_mode=False)
      (8): Conv2d(64, 64, kernel_size=(3, 3), stride=(1, 1), padding=(1, 1), bias=False)
      (9): BatchNorm2d(64, eps=1e-05, momentum=0.1, affine=True, track_running_stats=True)
      (10): LeakyReLU(negative_slope=0.2, inplace=True)
      (11): Conv2d(64, 64, kernel_size=(3, 3), stride=(1, 1), padding=(1, 1), bias=False)
      (12): BatchNorm2d(64, eps=1e-05, momentum=0.1, affine=True, track_running_stats=True)
      (13): LeakyReLU(negative_slope=0.2, inplace=True)
    )
    (criterion): CrossEntropyLoss()
  )
  (ENCODER): Encoder(
    (encoder_smax): Sequential(
      (0): Flatten(start_dim=1, end_dim=-1)
      (1): Linear(in_features=40000, out_features=512, bias=False)
      (2): LeakyReLU(negative_slope=0.2, inplace=True)
      (3): Dropout(p=0.1, inplace=False)
      (4): Linear(in_features=512, out_features=128, bias=False)
      (5): LeakyReLU(negative_slope=0.2, inplace=True)
      (6): Dropout(p=0.1, inplace=False)
      (7): Linear(in_features=128, out_features=5, bias=False)
      (8): Softmax(dim=1)
    )
    (encoder_conv): Sequential(
      (0): Conv2d(64, 32, kernel_size=(3, 3), stride=(1, 1), padding=(1, 1), bias=False)
      (1): BatchNorm2d(32, eps=1e-05, momentum=0.1, affine=True, track_running_stats=True)
      (2): LeakyReLU(negative_slope=0.2, inplace=True)
      (3): Conv2d(32, 16, kernel_size=(3, 3), stride=(1, 1), padding=(1, 1), bias=False)
      (4): BatchNorm2d(16, eps=1e-05, momentum=0.1, affine=True, track_running_stats=True)
      (5): LeakyReLU(negative_slope=0.2, inplace=True)
      (6): Conv2d(16, 8, kernel_size=(3, 3), stride=(1, 1), padding=(1, 1), bias=False)
      (7): BatchNorm2d(8, eps=1e-05, momentum=0.1, affine=True, track_running_stats=True)
      (8): LeakyReLU(negative_slope=0.2, inplace=True)
      (9): MaxPool2d(kernel_size=3, stride=3, padding=0, dilation=1, ceil_mode=False)
    )
  )
  (DT): XGBHead()
)
===================================== Epoch 0 =====================================
Trainset: 1000
Valset: 1000
Testset: 1000
Namespace(dataset_dir='../dataset/miniImageNet/', data_name='miniImageNet', mode='train', resume='../results/DN4_miniImageNet_DN4_DTR_5Way_5Shot_K3/model_best.pth.tar', epochs=1, cuda=True, ngpu=1, nc=3, clamp_lower=-0.01, clamp_upper=0.01, print_freq=100, outf='../results/DN4_miniImageNet_DN4_DTR_5Way_5Shot_K3')
=> loaded checkpoint '../results/DN4_miniImageNet_DN4_DTR_5Way_5Shot_K3/model_best.pth.tar' (epoch 16)
DN4_DTR(
  (BACKBONE_2D): FourLayer_64F(
    (features): Sequential(
      (0): Conv2d(3, 64, kernel_size=(3, 3), stride=(1, 1), padding=(1, 1), bias=False)
      (1): BatchNorm2d(64, eps=1e-05, momentum=0.1, affine=True, track_running_stats=True)
      (2): LeakyReLU(negative_slope=0.2, inplace=True)
      (3): MaxPool2d(kernel_size=2, stride=2, padding=0, dilation=1, ceil_mode=False)
      (4): Conv2d(64, 64, kernel_size=(3, 3), stride=(1, 1), padding=(1, 1), bias=False)
      (5): BatchNorm2d(64, eps=1e-05, momentum=0.1, affine=True, track_running_stats=True)
      (6): LeakyReLU(negative_slope=0.2, inplace=True)
      (7): MaxPool2d(kernel_size=2, stride=2, padding=0, dilation=1, ceil_mode=False)
      (8): Conv2d(64, 64, kernel_size=(3, 3), stride=(1, 1), padding=(1, 1), bias=False)
      (9): BatchNorm2d(64, eps=1e-05, momentum=0.1, affine=True, track_running_stats=True)
      (10): LeakyReLU(negative_slope=0.2, inplace=True)
      (11): Conv2d(64, 64, kernel_size=(3, 3), stride=(1, 1), padding=(1, 1), bias=False)
      (12): BatchNorm2d(64, eps=1e-05, momentum=0.1, affine=True, track_running_stats=True)
      (13): LeakyReLU(negative_slope=0.2, inplace=True)
    )
    (criterion): CrossEntropyLoss()
  )
  (ENCODER): Encoder(
    (encoder_smax): Sequential(
      (0): Flatten(start_dim=1, end_dim=-1)
      (1): Linear(in_features=40000, out_features=512, bias=False)
      (2): LeakyReLU(negative_slope=0.2, inplace=True)
      (3): Dropout(p=0.1, inplace=False)
      (4): Linear(in_features=512, out_features=128, bias=False)
      (5): LeakyReLU(negative_slope=0.2, inplace=True)
      (6): Dropout(p=0.1, inplace=False)
      (7): Linear(in_features=128, out_features=5, bias=False)
      (8): Softmax(dim=1)
    )
    (encoder_conv): Sequential(
      (0): Conv2d(64, 32, kernel_size=(3, 3), stride=(1, 1), padding=(1, 1), bias=False)
      (1): BatchNorm2d(32, eps=1e-05, momentum=0.1, affine=True, track_running_stats=True)
      (2): LeakyReLU(negative_slope=0.2, inplace=True)
      (3): Conv2d(32, 16, kernel_size=(3, 3), stride=(1, 1), padding=(1, 1), bias=False)
      (4): BatchNorm2d(16, eps=1e-05, momentum=0.1, affine=True, track_running_stats=True)
      (5): LeakyReLU(negative_slope=0.2, inplace=True)
      (6): Conv2d(16, 8, kernel_size=(3, 3), stride=(1, 1), padding=(1, 1), bias=False)
      (7): BatchNorm2d(8, eps=1e-05, momentum=0.1, affine=True, track_running_stats=True)
      (8): LeakyReLU(negative_slope=0.2, inplace=True)
      (9): MaxPool2d(kernel_size=3, stride=3, padding=0, dilation=1, ceil_mode=False)
    )
  )
  (DT): XGBHead()
)
===================================== Epoch 0 =====================================
Trainset: 1000
Valset: 1000
Testset: 1000
Namespace(dataset_dir='../dataset/miniImageNet/', data_name='miniImageNet', mode='train', resume='../results/DN4_miniImageNet_DN4_DTR_5Way_5Shot_K3/model_best.pth.tar', epochs=1, cuda=True, ngpu=1, nc=3, clamp_lower=-0.01, clamp_upper=0.01, print_freq=100, outf='../results/DN4_miniImageNet_DN4_DTR_5Way_5Shot_K3')
=> loaded checkpoint '../results/DN4_miniImageNet_DN4_DTR_5Way_5Shot_K3/model_best.pth.tar' (epoch 16)
DN4_DTR(
  (BACKBONE_2D): FourLayer_64F(
    (features): Sequential(
      (0): Conv2d(3, 64, kernel_size=(3, 3), stride=(1, 1), padding=(1, 1), bias=False)
      (1): BatchNorm2d(64, eps=1e-05, momentum=0.1, affine=True, track_running_stats=True)
      (2): LeakyReLU(negative_slope=0.2, inplace=True)
      (3): MaxPool2d(kernel_size=2, stride=2, padding=0, dilation=1, ceil_mode=False)
      (4): Conv2d(64, 64, kernel_size=(3, 3), stride=(1, 1), padding=(1, 1), bias=False)
      (5): BatchNorm2d(64, eps=1e-05, momentum=0.1, affine=True, track_running_stats=True)
      (6): LeakyReLU(negative_slope=0.2, inplace=True)
      (7): MaxPool2d(kernel_size=2, stride=2, padding=0, dilation=1, ceil_mode=False)
      (8): Conv2d(64, 64, kernel_size=(3, 3), stride=(1, 1), padding=(1, 1), bias=False)
      (9): BatchNorm2d(64, eps=1e-05, momentum=0.1, affine=True, track_running_stats=True)
      (10): LeakyReLU(negative_slope=0.2, inplace=True)
      (11): Conv2d(64, 64, kernel_size=(3, 3), stride=(1, 1), padding=(1, 1), bias=False)
      (12): BatchNorm2d(64, eps=1e-05, momentum=0.1, affine=True, track_running_stats=True)
      (13): LeakyReLU(negative_slope=0.2, inplace=True)
    )
    (criterion): CrossEntropyLoss()
  )
  (ENCODER): Encoder(
    (encoder_smax): Sequential(
      (0): Flatten(start_dim=1, end_dim=-1)
      (1): Linear(in_features=40000, out_features=512, bias=False)
      (2): LeakyReLU(negative_slope=0.2, inplace=True)
      (3): Dropout(p=0.1, inplace=False)
      (4): Linear(in_features=512, out_features=128, bias=False)
      (5): LeakyReLU(negative_slope=0.2, inplace=True)
      (6): Dropout(p=0.1, inplace=False)
      (7): Linear(in_features=128, out_features=5, bias=False)
      (8): Softmax(dim=1)
    )
    (encoder_conv): Sequential(
      (0): Conv2d(64, 32, kernel_size=(3, 3), stride=(1, 1), padding=(1, 1), bias=False)
      (1): BatchNorm2d(32, eps=1e-05, momentum=0.1, affine=True, track_running_stats=True)
      (2): LeakyReLU(negative_slope=0.2, inplace=True)
      (3): Conv2d(32, 16, kernel_size=(3, 3), stride=(1, 1), padding=(1, 1), bias=False)
      (4): BatchNorm2d(16, eps=1e-05, momentum=0.1, affine=True, track_running_stats=True)
      (5): LeakyReLU(negative_slope=0.2, inplace=True)
      (6): Conv2d(16, 8, kernel_size=(3, 3), stride=(1, 1), padding=(1, 1), bias=False)
      (7): BatchNorm2d(8, eps=1e-05, momentum=0.1, affine=True, track_running_stats=True)
      (8): LeakyReLU(negative_slope=0.2, inplace=True)
      (9): MaxPool2d(kernel_size=3, stride=3, padding=0, dilation=1, ceil_mode=False)
    )
  )
  (DT): XGBHead()
)
===================================== Epoch 0 =====================================
Trainset: 1000
Valset: 1000
Testset: 1000
Namespace(dataset_dir='../dataset/miniImageNet/', data_name='miniImageNet', mode='train', resume='../results/DN4_miniImageNet_DN4_DTR_5Way_5Shot_K3/model_best.pth.tar', epochs=3, cuda=True, ngpu=1, nc=3, clamp_lower=-0.01, clamp_upper=0.01, print_freq=100, outf='../results/DN4_miniImageNet_DN4_DTR_5Way_5Shot_K3')
=> loaded checkpoint '../results/DN4_miniImageNet_DN4_DTR_5Way_5Shot_K3/model_best.pth.tar' (epoch 16)
DN4_DTR(
  (BACKBONE_2D): FourLayer_64F(
    (features): Sequential(
      (0): Conv2d(3, 64, kernel_size=(3, 3), stride=(1, 1), padding=(1, 1), bias=False)
      (1): BatchNorm2d(64, eps=1e-05, momentum=0.1, affine=True, track_running_stats=True)
      (2): LeakyReLU(negative_slope=0.2, inplace=True)
      (3): MaxPool2d(kernel_size=2, stride=2, padding=0, dilation=1, ceil_mode=False)
      (4): Conv2d(64, 64, kernel_size=(3, 3), stride=(1, 1), padding=(1, 1), bias=False)
      (5): BatchNorm2d(64, eps=1e-05, momentum=0.1, affine=True, track_running_stats=True)
      (6): LeakyReLU(negative_slope=0.2, inplace=True)
      (7): MaxPool2d(kernel_size=2, stride=2, padding=0, dilation=1, ceil_mode=False)
      (8): Conv2d(64, 64, kernel_size=(3, 3), stride=(1, 1), padding=(1, 1), bias=False)
      (9): BatchNorm2d(64, eps=1e-05, momentum=0.1, affine=True, track_running_stats=True)
      (10): LeakyReLU(negative_slope=0.2, inplace=True)
      (11): Conv2d(64, 64, kernel_size=(3, 3), stride=(1, 1), padding=(1, 1), bias=False)
      (12): BatchNorm2d(64, eps=1e-05, momentum=0.1, affine=True, track_running_stats=True)
      (13): LeakyReLU(negative_slope=0.2, inplace=True)
    )
    (criterion): CrossEntropyLoss()
  )
  (ENCODER): Encoder(
    (encoder_smax): Sequential(
      (0): Flatten(start_dim=1, end_dim=-1)
      (1): Linear(in_features=40000, out_features=512, bias=False)
      (2): LeakyReLU(negative_slope=0.2, inplace=True)
      (3): Dropout(p=0.1, inplace=False)
      (4): Linear(in_features=512, out_features=128, bias=False)
      (5): LeakyReLU(negative_slope=0.2, inplace=True)
      (6): Dropout(p=0.1, inplace=False)
      (7): Linear(in_features=128, out_features=5, bias=False)
      (8): Softmax(dim=1)
    )
    (encoder_conv): Sequential(
      (0): Conv2d(64, 32, kernel_size=(3, 3), stride=(1, 1), padding=(1, 1), bias=False)
      (1): BatchNorm2d(32, eps=1e-05, momentum=0.1, affine=True, track_running_stats=True)
      (2): LeakyReLU(negative_slope=0.2, inplace=True)
      (3): Conv2d(32, 16, kernel_size=(3, 3), stride=(1, 1), padding=(1, 1), bias=False)
      (4): BatchNorm2d(16, eps=1e-05, momentum=0.1, affine=True, track_running_stats=True)
      (5): LeakyReLU(negative_slope=0.2, inplace=True)
      (6): Conv2d(16, 8, kernel_size=(3, 3), stride=(1, 1), padding=(1, 1), bias=False)
      (7): BatchNorm2d(8, eps=1e-05, momentum=0.1, affine=True, track_running_stats=True)
      (8): LeakyReLU(negative_slope=0.2, inplace=True)
      (9): MaxPool2d(kernel_size=3, stride=3, padding=0, dilation=1, ceil_mode=False)
    )
  )
  (DT): XGBHead()
)
===================================== Epoch 0 =====================================
Trainset: 1000
Valset: 1000
Testset: 1000
Namespace(dataset_dir='../dataset/miniImageNet/', data_name='miniImageNet', mode='train', resume='../results/DN4_miniImageNet_DN4_DTR_5Way_5Shot_K3/model_best.pth.tar', epochs=3, cuda=True, ngpu=1, nc=3, clamp_lower=-0.01, clamp_upper=0.01, print_freq=100, outf='../results/DN4_miniImageNet_DN4_DTR_5Way_5Shot_K3')
=> loaded checkpoint '../results/DN4_miniImageNet_DN4_DTR_5Way_5Shot_K3/model_best.pth.tar' (epoch 16)
DN4_DTR(
  (BACKBONE_2D): FourLayer_64F(
    (features): Sequential(
      (0): Conv2d(3, 64, kernel_size=(3, 3), stride=(1, 1), padding=(1, 1), bias=False)
      (1): BatchNorm2d(64, eps=1e-05, momentum=0.1, affine=True, track_running_stats=True)
      (2): LeakyReLU(negative_slope=0.2, inplace=True)
      (3): MaxPool2d(kernel_size=2, stride=2, padding=0, dilation=1, ceil_mode=False)
      (4): Conv2d(64, 64, kernel_size=(3, 3), stride=(1, 1), padding=(1, 1), bias=False)
      (5): BatchNorm2d(64, eps=1e-05, momentum=0.1, affine=True, track_running_stats=True)
      (6): LeakyReLU(negative_slope=0.2, inplace=True)
      (7): MaxPool2d(kernel_size=2, stride=2, padding=0, dilation=1, ceil_mode=False)
      (8): Conv2d(64, 64, kernel_size=(3, 3), stride=(1, 1), padding=(1, 1), bias=False)
      (9): BatchNorm2d(64, eps=1e-05, momentum=0.1, affine=True, track_running_stats=True)
      (10): LeakyReLU(negative_slope=0.2, inplace=True)
      (11): Conv2d(64, 64, kernel_size=(3, 3), stride=(1, 1), padding=(1, 1), bias=False)
      (12): BatchNorm2d(64, eps=1e-05, momentum=0.1, affine=True, track_running_stats=True)
      (13): LeakyReLU(negative_slope=0.2, inplace=True)
    )
    (criterion): CrossEntropyLoss()
  )
…
      (1): BatchNorm2d(32, eps=1e-05, momentum=0.1, affine=True, track_running_stats=True)
      (2): LeakyReLU(negative_slope=0.2, inplace=True)
      (3): Conv2d(32, 16, kernel_size=(3, 3), stride=(1, 1), padding=(1, 1), bias=False)
      (4): BatchNorm2d(16, eps=1e-05, momentum=0.1, affine=True, track_running_stats=True)
      (5): LeakyReLU(negative_slope=0.2, inplace=True)
      (6): Conv2d(16, 8, kernel_size=(3, 3), stride=(1, 1), padding=(1, 1), bias=False)
      (7): BatchNorm2d(8, eps=1e-05, momentum=0.1, affine=True, track_running_stats=True)
      (8): LeakyReLU(negative_slope=0.2, inplace=True)
      (9): MaxPool2d(kernel_size=3, stride=3, padding=0, dilation=1, ceil_mode=False)
    )
  )
  (DT): XGBHead()
)
===================================== Epoch 0 =====================================
Trainset: 5
Valset: 5
Testset: 300
Namespace(dataset_dir='../dataset/miniImageNet/', data_name='miniImageNet', mode='train', resume='../results/DN4_miniImageNet_DN4_DTR_5Way_5Shot_K3/model_best.pth.tar', epochs=3, cuda=True, ngpu=1, nc=3, clamp_lower=-0.01, clamp_upper=0.01, print_freq=100, outf='../results/DN4_miniImageNet_DN4_DTR_5Way_5Shot_K3')
=> loaded checkpoint '../results/DN4_miniImageNet_DN4_DTR_5Way_5Shot_K3/model_best.pth.tar' (epoch 16)
DN4_DTR(
  (BACKBONE_2D): FourLayer_64F(
    (features): Sequential(
      (0): Conv2d(3, 64, kernel_size=(3, 3), stride=(1, 1), padding=(1, 1), bias=False)
      (1): BatchNorm2d(64, eps=1e-05, momentum=0.1, affine=True, track_running_stats=True)
      (2): LeakyReLU(negative_slope=0.2, inplace=True)
      (3): MaxPool2d(kernel_size=2, stride=2, padding=0, dilation=1, ceil_mode=False)
      (4): Conv2d(64, 64, kernel_size=(3, 3), stride=(1, 1), padding=(1, 1), bias=False)
      (5): BatchNorm2d(64, eps=1e-05, momentum=0.1, affine=True, track_running_stats=True)
      (6): LeakyReLU(negative_slope=0.2, inplace=True)
      (7): MaxPool2d(kernel_size=2, stride=2, padding=0, dilation=1, ceil_mode=False)
      (8): Conv2d(64, 64, kernel_size=(3, 3), stride=(1, 1), padding=(1, 1), bias=False)
      (9): BatchNorm2d(64, eps=1e-05, momentum=0.1, affine=True, track_running_stats=True)
      (10): LeakyReLU(negative_slope=0.2, inplace=True)
      (11): Conv2d(64, 64, kernel_size=(3, 3), stride=(1, 1), padding=(1, 1), bias=False)
      (12): BatchNorm2d(64, eps=1e-05, momentum=0.1, affine=True, track_running_stats=True)
      (13): LeakyReLU(negative_slope=0.2, inplace=True)
    )
    (criterion): CrossEntropyLoss()
  )
  (ENCODER): Encoder(
    (encoder_smax): Sequential(
      (0): Flatten(start_dim=1, end_dim=-1)
      (1): Linear(in_features=40000, out_features=512, bias=False)
      (2): LeakyReLU(negative_slope=0.2, inplace=True)
      (3): Dropout(p=0.1, inplace=False)
      (4): Linear(in_features=512, out_features=128, bias=False)
      (5): LeakyReLU(negative_slope=0.2, inplace=True)
      (6): Dropout(p=0.1, inplace=False)
      (7): Linear(in_features=128, out_features=5, bias=False)
      (8): LogSoftmax(dim=1)
    )
    (encoder_conv): Sequential(
      (0): Conv2d(64, 32, kernel_size=(3, 3), stride=(1, 1), padding=(1, 1), bias=False)
      (1): BatchNorm2d(32, eps=1e-05, momentum=0.1, affine=True, track_running_stats=True)
      (2): LeakyReLU(negative_slope=0.2, inplace=True)
      (3): Conv2d(32, 16, kernel_size=(3, 3), stride=(1, 1), padding=(1, 1), bias=False)
      (4): BatchNorm2d(16, eps=1e-05, momentum=0.1, affine=True, track_running_stats=True)
      (5): LeakyReLU(negative_slope=0.2, inplace=True)
      (6): Conv2d(16, 8, kernel_size=(3, 3), stride=(1, 1), padding=(1, 1), bias=False)
      (7): BatchNorm2d(8, eps=1e-05, momentum=0.1, affine=True, track_running_stats=True)
      (8): LeakyReLU(negative_slope=0.2, inplace=True)
      (9): MaxPool2d(kernel_size=3, stride=3, padding=0, dilation=1, ceil_mode=False)
    )
  )
  (DT): XGBHead()
)
===================================== Epoch 0 =====================================
Trainset: 5
Valset: 5
Testset: 300
Namespace(dataset_dir='../dataset/miniImageNet/', data_name='miniImageNet', mode='train', resume='../results/DN4_miniImageNet_DN4_DTR_5Way_5Shot_K3/model_best.pth.tar', epochs=3, cuda=True, ngpu=1, nc=3, clamp_lower=-0.01, clamp_upper=0.01, print_freq=100, outf='../results/DN4_miniImageNet_DN4_DTR_5Way_5Shot_K3')
=> loaded checkpoint '../results/DN4_miniImageNet_DN4_DTR_5Way_5Shot_K3/model_best.pth.tar' (epoch 16)
DN4_DTR(
  (BACKBONE_2D): FourLayer_64F(
    (features): Sequential(
      (0): Conv2d(3, 64, kernel_size=(3, 3), stride=(1, 1), padding=(1, 1), bias=False)
      (1): BatchNorm2d(64, eps=1e-05, momentum=0.1, affine=True, track_running_stats=True)
      (2): LeakyReLU(negative_slope=0.2, inplace=True)
      (3): MaxPool2d(kernel_size=2, stride=2, padding=0, dilation=1, ceil_mode=False)
      (4): Conv2d(64, 64, kernel_size=(3, 3), stride=(1, 1), padding=(1, 1), bias=False)
      (5): BatchNorm2d(64, eps=1e-05, momentum=0.1, affine=True, track_running_stats=True)
      (6): LeakyReLU(negative_slope=0.2, inplace=True)
      (7): MaxPool2d(kernel_size=2, stride=2, padding=0, dilation=1, ceil_mode=False)
      (8): Conv2d(64, 64, kernel_size=(3, 3), stride=(1, 1), padding=(1, 1), bias=False)
      (9): BatchNorm2d(64, eps=1e-05, momentum=0.1, affine=True, track_running_stats=True)
      (10): LeakyReLU(negative_slope=0.2, inplace=True)
      (11): Conv2d(64, 64, kernel_size=(3, 3), stride=(1, 1), padding=(1, 1), bias=False)
      (12): BatchNorm2d(64, eps=1e-05, momentum=0.1, affine=True, track_running_stats=True)
      (13): LeakyReLU(negative_slope=0.2, inplace=True)
    )
    (criterion): CrossEntropyLoss()
  )
  (ENCODER): Encoder(
    (encoder_smax): Sequential(
      (0): Flatten(start_dim=1, end_dim=-1)
      (1): Linear(in_features=40000, out_features=512, bias=False)
      (2): LeakyReLU(negative_slope=0.2, inplace=True)
      (3): Dropout(p=0.1, inplace=False)
      (4): Linear(in_features=512, out_features=128, bias=False)
      (5): LeakyReLU(negative_slope=0.2, inplace=True)
      (6): Dropout(p=0.1, inplace=False)
      (7): Linear(in_features=128, out_features=5, bias=False)
      (8): LogSoftmax(dim=1)
    )
    (encoder_conv): Sequential(
      (0): Conv2d(64, 32, kernel_size=(3, 3), stride=(1, 1), padding=(1, 1), bias=False)
      (1): BatchNorm2d(32, eps=1e-05, momentum=0.1, affine=True, track_running_stats=True)
      (2): LeakyReLU(negative_slope=0.2, inplace=True)
      (3): Conv2d(32, 16, kernel_size=(3, 3), stride=(1, 1), padding=(1, 1), bias=False)
      (4): BatchNorm2d(16, eps=1e-05, momentum=0.1, affine=True, track_running_stats=True)
      (5): LeakyReLU(negative_slope=0.2, inplace=True)
      (6): Conv2d(16, 8, kernel_size=(3, 3), stride=(1, 1), padding=(1, 1), bias=False)
      (7): BatchNorm2d(8, eps=1e-05, momentum=0.1, affine=True, track_running_stats=True)
      (8): LeakyReLU(negative_slope=0.2, inplace=True)
      (9): MaxPool2d(kernel_size=3, stride=3, padding=0, dilation=1, ceil_mode=False)
    )
  )
  (DT): XGBHead()
)
===================================== Epoch 0 =====================================
Trainset: 5
Valset: 5
Testset: 300
Namespace(dataset_dir='../dataset/miniImageNet/', data_name='miniImageNet', mode='train', resume='../results/DN4_miniImageNet_DN4_DTR_5Way_5Shot_K3/model_best.pth.tar', epochs=3, cuda=True, ngpu=1, nc=3, clamp_lower=-0.01, clamp_upper=0.01, print_freq=100, outf='../results/DN4_miniImageNet_DN4_DTR_5Way_5Shot_K3')
=> loaded checkpoint '../results/DN4_miniImageNet_DN4_DTR_5Way_5Shot_K3/model_best.pth.tar' (epoch 16)
DN4_DTR(
  (BACKBONE_2D): FourLayer_64F(
    (features): Sequential(
      (0): Conv2d(3, 64, kernel_size=(3, 3), stride=(1, 1), padding=(1, 1), bias=False)
      (1): BatchNorm2d(64, eps=1e-05, momentum=0.1, affine=True, track_running_stats=True)
      (2): LeakyReLU(negative_slope=0.2, inplace=True)
      (3): MaxPool2d(kernel_size=2, stride=2, padding=0, dilation=1, ceil_mode=False)
      (4): Conv2d(64, 64, kernel_size=(3, 3), stride=(1, 1), padding=(1, 1), bias=False)
      (5): BatchNorm2d(64, eps=1e-05, momentum=0.1, affine=True, track_running_stats=True)
      (6): LeakyReLU(negative_slope=0.2, inplace=True)
      (7): MaxPool2d(kernel_size=2, stride=2, padding=0, dilation=1, ceil_mode=False)
      (8): Conv2d(64, 64, kernel_size=(3, 3), stride=(1, 1), padding=(1, 1), bias=False)
      (9): BatchNorm2d(64, eps=1e-05, momentum=0.1, affine=True, track_running_stats=True)
      (10): LeakyReLU(negative_slope=0.2, inplace=True)
      (11): Conv2d(64, 64, kernel_size=(3, 3), stride=(1, 1), padding=(1, 1), bias=False)
      (12): BatchNorm2d(64, eps=1e-05, momentum=0.1, affine=True, track_running_stats=True)
      (13): LeakyReLU(negative_slope=0.2, inplace=True)
    )
    (criterion): CrossEntropyLoss()
  )
  (ENCODER): Encoder(
    (encoder_smax): Sequential(
      (0): Flatten(start_dim=1, end_dim=-1)
      (1): Linear(in_features=40000, out_features=512, bias=False)
      (2): LeakyReLU(negative_slope=0.2, inplace=True)
      (3): Dropout(p=0.1, inplace=False)
      (4): Linear(in_features=512, out_features=128, bias=False)
      (5): LeakyReLU(negative_slope=0.2, inplace=True)
      (6): Dropout(p=0.1, inplace=False)
      (7): Linear(in_features=128, out_features=5, bias=False)
      (8): LogSoftmax(dim=1)
    )
    (encoder_conv): Sequential(
      (0): Conv2d(64, 32, kernel_size=(3, 3), stride=(1, 1), padding=(1, 1), bias=False)
      (1): BatchNorm2d(32, eps=1e-05, momentum=0.1, affine=True, track_running_stats=True)
      (2): LeakyReLU(negative_slope=0.2, inplace=True)
      (3): Conv2d(32, 16, kernel_size=(3, 3), stride=(1, 1), padding=(1, 1), bias=False)
      (4): BatchNorm2d(16, eps=1e-05, momentum=0.1, affine=True, track_running_stats=True)
      (5): LeakyReLU(negative_slope=0.2, inplace=True)
      (6): Conv2d(16, 8, kernel_size=(3, 3), stride=(1, 1), padding=(1, 1), bias=False)
      (7): BatchNorm2d(8, eps=1e-05, momentum=0.1, affine=True, track_running_stats=True)
      (8): LeakyReLU(negative_slope=0.2, inplace=True)
      (9): MaxPool2d(kernel_size=3, stride=3, padding=0, dilation=1, ceil_mode=False)
    )
  )
  (DT): XGBHead()
)
===================================== Epoch 0 =====================================
Trainset: 1
Valset: 1
Testset: 300
============ validation on the val set ============
…
Eposide-(5000): [900/5000]	Time 0.455 (0.446)	Data 0.000 (0.001)	Loss 1.617 (1.626)	Prec@1 21.333 (20.959)
Eposide-(5000): [1000/5000]	Time 0.436 (0.447)	Data 0.000 (0.001)	Loss 1.611 (1.625)	Prec@1 22.667 (20.963)
Eposide-(5000): [1100/5000]	Time 0.442 (0.447)	Data 0.000 (0.001)	Loss 1.610 (1.624)	Prec@1 20.000 (20.964)
Namespace(dataset_dir='../dataset/miniImageNet/', data_name='miniImageNet', mode='train', resume='', epochs=10, cuda=True, ngpu=1, nc=3, clamp_lower=-0.01, clamp_upper=0.01, print_freq=100, outf='../results/DN4_miniImageNet_DN4_DTR_5Way_5Shot_K3')
DN4_DTR(
  (BACKBONE_2D): FourLayer_64F(
    (features): Sequential(
      (0): Conv2d(3, 64, kernel_size=(3, 3), stride=(1, 1), padding=(1, 1), bias=False)
      (1): BatchNorm2d(64, eps=1e-05, momentum=0.1, affine=True, track_running_stats=True)
      (2): LeakyReLU(negative_slope=0.2, inplace=True)
      (3): MaxPool2d(kernel_size=2, stride=2, padding=0, dilation=1, ceil_mode=False)
      (4): Conv2d(64, 64, kernel_size=(3, 3), stride=(1, 1), padding=(1, 1), bias=False)
      (5): BatchNorm2d(64, eps=1e-05, momentum=0.1, affine=True, track_running_stats=True)
      (6): LeakyReLU(negative_slope=0.2, inplace=True)
      (7): MaxPool2d(kernel_size=2, stride=2, padding=0, dilation=1, ceil_mode=False)
      (8): Conv2d(64, 64, kernel_size=(3, 3), stride=(1, 1), padding=(1, 1), bias=False)
      (9): BatchNorm2d(64, eps=1e-05, momentum=0.1, affine=True, track_running_stats=True)
      (10): LeakyReLU(negative_slope=0.2, inplace=True)
      (11): Conv2d(64, 64, kernel_size=(3, 3), stride=(1, 1), padding=(1, 1), bias=False)
      (12): BatchNorm2d(64, eps=1e-05, momentum=0.1, affine=True, track_running_stats=True)
      (13): LeakyReLU(negative_slope=0.2, inplace=True)
    )
    (criterion): CrossEntropyLoss()
  )
  (DT): XGBHead()
)
===================================== Epoch 0 =====================================
Trainset: 5000
Valset: 500
Testset: 500
Namespace(dataset_dir='../dataset/miniImageNet/', data_name='miniImageNet', mode='train', resume='', epochs=10, cuda=True, ngpu=1, nc=3, clamp_lower=-0.01, clamp_upper=0.01, print_freq=100, outf='../results/DN4_miniImageNet_DN4_DTR_5Way_5Shot_K3')
DN7_DTR(
  (BACKBONE_2D): FourLayer_64F(
    (features): Sequential(
      (0): Conv2d(3, 64, kernel_size=(3, 3), stride=(1, 1), padding=(1, 1), bias=False)
      (1): BatchNorm2d(64, eps=1e-05, momentum=0.1, affine=True, track_running_stats=True)
      (2): LeakyReLU(negative_slope=0.2, inplace=True)
      (3): MaxPool2d(kernel_size=2, stride=2, padding=0, dilation=1, ceil_mode=False)
      (4): Conv2d(64, 64, kernel_size=(3, 3), stride=(1, 1), padding=(1, 1), bias=False)
      (5): BatchNorm2d(64, eps=1e-05, momentum=0.1, affine=True, track_running_stats=True)
      (6): LeakyReLU(negative_slope=0.2, inplace=True)
      (7): MaxPool2d(kernel_size=2, stride=2, padding=0, dilation=1, ceil_mode=False)
      (8): Conv2d(64, 64, kernel_size=(3, 3), stride=(1, 1), padding=(1, 1), bias=False)
      (9): BatchNorm2d(64, eps=1e-05, momentum=0.1, affine=True, track_running_stats=True)
      (10): LeakyReLU(negative_slope=0.2, inplace=True)
      (11): Conv2d(64, 64, kernel_size=(3, 3), stride=(1, 1), padding=(1, 1), bias=False)
      (12): BatchNorm2d(64, eps=1e-05, momentum=0.1, affine=True, track_running_stats=True)
      (13): LeakyReLU(negative_slope=0.2, inplace=True)
    )
    (criterion): CrossEntropyLoss()
  )
  (DT): XGBHead()
)
===================================== Epoch 0 =====================================
Trainset: 5000
Valset: 500
Testset: 500
Eposide-(0): [100/5000]	Time 0.335 (0.352)	Data 0.000 (0.011)	Loss 1.598 (2.343)	Prec@1 29.333 (29.729)
…
Eposide-(0): [4700/5000]	Time 0.364 (0.345)	Data 0.001 (0.001)	Loss 1.104 (1.380)	Prec@1 60.000 (44.018)
Eposide-(0): [4800/5000]	Time 0.326 (0.345)	Data 0.001 (0.001)	Loss 1.196 (1.376)	Prec@1 54.667 (44.219)
Eposide-(0): [4900/5000]	Time 0.336 (0.345)	Data 0.001 (0.001)	Loss 0.908 (1.373)	Prec@1 69.333 (44.407)
Namespace(dataset_dir='../dataset/miniImageNet/', data_name='miniImageNet', mode='train', resume='', epochs=1, cuda=True, ngpu=1, nc=3, clamp_lower=-0.01, clamp_upper=0.01, print_freq=100, outf='../results/DN4_miniImageNet_DN4_DTR_5Way_5Shot_K3')
DN7_DTR(
  (BACKBONE_2D): FourLayer_64F(
    (features): Sequential(
      (0): Conv2d(3, 64, kernel_size=(3, 3), stride=(1, 1), padding=(1, 1), bias=False)
      (1): BatchNorm2d(64, eps=1e-05, momentum=0.1, affine=True, track_running_stats=True)
      (2): LeakyReLU(negative_slope=0.2, inplace=True)
      (3): MaxPool2d(kernel_size=2, stride=2, padding=0, dilation=1, ceil_mode=False)
      (4): Conv2d(64, 64, kernel_size=(3, 3), stride=(1, 1), padding=(1, 1), bias=False)
      (5): BatchNorm2d(64, eps=1e-05, momentum=0.1, affine=True, track_running_stats=True)
      (6): LeakyReLU(negative_slope=0.2, inplace=True)
      (7): MaxPool2d(kernel_size=2, stride=2, padding=0, dilation=1, ceil_mode=False)
      (8): Conv2d(64, 64, kernel_size=(3, 3), stride=(1, 1), padding=(1, 1), bias=False)
      (9): BatchNorm2d(64, eps=1e-05, momentum=0.1, affine=True, track_running_stats=True)
      (10): LeakyReLU(negative_slope=0.2, inplace=True)
      (11): Conv2d(64, 64, kernel_size=(3, 3), stride=(1, 1), padding=(1, 1), bias=False)
      (12): BatchNorm2d(64, eps=1e-05, momentum=0.1, affine=True, track_running_stats=True)
      (13): LeakyReLU(negative_slope=0.2, inplace=True)
    )
    (criterion): CrossEntropyLoss()
  )
  (DT): XGBHead()
)
===================================== Epoch 0 =====================================
Trainset: 1
Valset: 5
Testset: 5
============ validation on the val set ============
Namespace(dataset_dir='../dataset/miniImageNet/', data_name='miniImageNet', mode='train', resume='', epochs=1, cuda=True, ngpu=1, nc=3, clamp_lower=-0.01, clamp_upper=0.01, print_freq=100, outf='../results/DN4_miniImageNet_DN4_DTR_5Way_5Shot_K3')
DN4_DTR(
  (BACKBONE_2D): FourLayer_64F(
    (features): Sequential(
      (0): Conv2d(3, 64, kernel_size=(3, 3), stride=(1, 1), padding=(1, 1), bias=False)
      (1): BatchNorm2d(64, eps=1e-05, momentum=0.1, affine=True, track_running_stats=True)
      (2): LeakyReLU(negative_slope=0.2, inplace=True)
      (3): MaxPool2d(kernel_size=2, stride=2, padding=0, dilation=1, ceil_mode=False)
      (4): Conv2d(64, 64, kernel_size=(3, 3), stride=(1, 1), padding=(1, 1), bias=False)
      (5): BatchNorm2d(64, eps=1e-05, momentum=0.1, affine=True, track_running_stats=True)
      (6): LeakyReLU(negative_slope=0.2, inplace=True)
      (7): MaxPool2d(kernel_size=2, stride=2, padding=0, dilation=1, ceil_mode=False)
      (8): Conv2d(64, 64, kernel_size=(3, 3), stride=(1, 1), padding=(1, 1), bias=False)
      (9): BatchNorm2d(64, eps=1e-05, momentum=0.1, affine=True, track_running_stats=True)
      (10): LeakyReLU(negative_slope=0.2, inplace=True)
      (11): Conv2d(64, 64, kernel_size=(3, 3), stride=(1, 1), padding=(1, 1), bias=False)
      (12): BatchNorm2d(64, eps=1e-05, momentum=0.1, affine=True, track_running_stats=True)
      (13): LeakyReLU(negative_slope=0.2, inplace=True)
    )
    (criterion): CrossEntropyLoss()
  )
  (ENCODER): Encoder(
    (encoder_smax): Sequential(
      (0): Flatten(start_dim=1, end_dim=-1)
      (1): Linear(in_features=40000, out_features=512, bias=False)
      (2): LeakyReLU(negative_slope=0.2, inplace=True)
      (3): Dropout(p=0.1, inplace=False)
      (4): Linear(in_features=512, out_features=128, bias=False)
      (5): LeakyReLU(negative_slope=0.2, inplace=True)
      (6): Dropout(p=0.1, inplace=False)
      (7): Linear(in_features=128, out_features=5, bias=False)
      (8): LogSoftmax(dim=1)
    )
    (encoder_conv): Sequential(
      (0): Conv2d(64, 32, kernel_size=(3, 3), stride=(1, 1), padding=(1, 1), bias=False)
      (1): BatchNorm2d(32, eps=1e-05, momentum=0.1, affine=True, track_running_stats=True)
      (2): LeakyReLU(negative_slope=0.2, inplace=True)
      (3): Conv2d(32, 16, kernel_size=(3, 3), stride=(1, 1), padding=(1, 1), bias=False)
      (4): BatchNorm2d(16, eps=1e-05, momentum=0.1, affine=True, track_running_stats=True)
      (5): LeakyReLU(negative_slope=0.2, inplace=True)
      (6): Conv2d(16, 8, kernel_size=(3, 3), stride=(1, 1), padding=(1, 1), bias=False)
      (7): BatchNorm2d(8, eps=1e-05, momentum=0.1, affine=True, track_running_stats=True)
      (8): LeakyReLU(negative_slope=0.2, inplace=True)
      (9): MaxPool2d(kernel_size=3, stride=3, padding=0, dilation=1, ceil_mode=False)
    )
  )
  (DT): XGBHead()
)
===================================== Epoch 0 =====================================
Trainset: 5000
Valset: 500
Testset: 500
Namespace(dataset_dir='../dataset/miniImageNet/', data_name='miniImageNet', mode='train', resume='', epochs=1, cuda=True, ngpu=1, nc=3, clamp_lower=-0.01, clamp_upper=0.01, print_freq=100, outf='../results/DN4_miniImageNet_DN4_DTR_5Way_5Shot_K3')
DN4_DTR(
  (BACKBONE_2D): FourLayer_64F(
    (features): Sequential(
      (0): Conv2d(3, 64, kernel_size=(3, 3), stride=(1, 1), padding=(1, 1), bias=False)
      (1): BatchNorm2d(64, eps=1e-05, momentum=0.1, affine=True, track_running_stats=True)
      (2): LeakyReLU(negative_slope=0.2, inplace=True)
      (3): MaxPool2d(kernel_size=2, stride=2, padding=0, dilation=1, ceil_mode=False)
      (4): Conv2d(64, 64, kernel_size=(3, 3), stride=(1, 1), padding=(1, 1), bias=False)
      (5): BatchNorm2d(64, eps=1e-05, momentum=0.1, affine=True, track_running_stats=True)
      (6): LeakyReLU(negative_slope=0.2, inplace=True)
      (7): MaxPool2d(kernel_size=2, stride=2, padding=0, dilation=1, ceil_mode=False)
      (8): Conv2d(64, 64, kernel_size=(3, 3), stride=(1, 1), padding=(1, 1), bias=False)
      (9): BatchNorm2d(64, eps=1e-05, momentum=0.1, affine=True, track_running_stats=True)
      (10): LeakyReLU(negative_slope=0.2, inplace=True)
      (11): Conv2d(64, 64, kernel_size=(3, 3), stride=(1, 1), padding=(1, 1), bias=False)
      (12): BatchNorm2d(64, eps=1e-05, momentum=0.1, affine=True, track_running_stats=True)
      (13): LeakyReLU(negative_slope=0.2, inplace=True)
    )
    (criterion): CrossEntropyLoss()
  )
  (ENCODER): Encoder(
    (encoder_smax): Sequential(
      (0): Flatten(start_dim=1, end_dim=-1)
      (1): Linear(in_features=40000, out_features=512, bias=False)
      (2): LeakyReLU(negative_slope=0.2, inplace=True)
      (3): Dropout(p=0.1, inplace=False)
      (4): Linear(in_features=512, out_features=128, bias=False)
      (5): LeakyReLU(negative_slope=0.2, inplace=True)
      (6): Dropout(p=0.1, inplace=False)
      (7): Linear(in_features=128, out_features=5, bias=False)
      (8): LogSoftmax(dim=1)
    )
    (encoder_conv): Sequential(
      (0): Conv2d(64, 32, kernel_size=(3, 3), stride=(1, 1), padding=(1, 1), bias=False)
      (1): BatchNorm2d(32, eps=1e-05, momentum=0.1, affine=True, track_running_stats=True)
      (2): LeakyReLU(negative_slope=0.2, inplace=True)
      (3): Conv2d(32, 16, kernel_size=(3, 3), stride=(1, 1), padding=(1, 1), bias=False)
      (4): BatchNorm2d(16, eps=1e-05, momentum=0.1, affine=True, track_running_stats=True)
      (5): LeakyReLU(negative_slope=0.2, inplace=True)
      (6): Conv2d(16, 8, kernel_size=(3, 3), stride=(1, 1), padding=(1, 1), bias=False)
      (7): BatchNorm2d(8, eps=1e-05, momentum=0.1, affine=True, track_running_stats=True)
      (8): LeakyReLU(negative_slope=0.2, inplace=True)
      (9): MaxPool2d(kernel_size=3, stride=3, padding=0, dilation=1, ceil_mode=False)
    )
  )
  (DT): XGBHead()
)
===================================== Epoch 0 =====================================
Trainset: 5000
Valset: 500
Testset: 500
Namespace(dataset_dir='../dataset/miniImageNet/', data_name='miniImageNet', mode='train', resume='', epochs=15, cuda=True, ngpu=1, nc=3, clamp_lower=-0.01, clamp_upper=0.01, print_freq=100, outf='../results/DN4_miniImageNet_DN4_DTR_5Way_5Shot_K3')
DN4_DTR(
  (BACKBONE_2D): FourLayer_64F(
    (features): Sequential(
      (0): Conv2d(3, 64, kernel_size=(3, 3), stride=(1, 1), padding=(1, 1), bias=False)
      (1): BatchNorm2d(64, eps=1e-05, momentum=0.1, affine=True, track_running_stats=True)
      (2): LeakyReLU(negative_slope=0.2, inplace=True)
      (3): MaxPool2d(kernel_size=2, stride=2, padding=0, dilation=1, ceil_mode=False)
      (4): Conv2d(64, 64, kernel_size=(3, 3), stride=(1, 1), padding=(1, 1), bias=False)
      (5): BatchNorm2d(64, eps=1e-05, momentum=0.1, affine=True, track_running_stats=True)
      (6): LeakyReLU(negative_slope=0.2, inplace=True)
      (7): MaxPool2d(kernel_size=2, stride=2, padding=0, dilation=1, ceil_mode=False)
      (8): Conv2d(64, 64, kernel_size=(3, 3), stride=(1, 1), padding=(1, 1), bias=False)
      (9): BatchNorm2d(64, eps=1e-05, momentum=0.1, affine=True, track_running_stats=True)
      (10): LeakyReLU(negative_slope=0.2, inplace=True)
      (11): Conv2d(64, 64, kernel_size=(3, 3), stride=(1, 1), padding=(1, 1), bias=False)
      (12): BatchNorm2d(64, eps=1e-05, momentum=0.1, affine=True, track_running_stats=True)
      (13): LeakyReLU(negative_slope=0.2, inplace=True)
    )
    (criterion): CrossEntropyLoss()
  )
  (ENCODER): Encoder(
    (encoder_smax): Sequential(
      (0): Flatten(start_dim=1, end_dim=-1)
      (1): Linear(in_features=40000, out_features=512, bias=False)
      (2): LeakyReLU(negative_slope=0.2, inplace=True)
      (3): Dropout(p=0.1, inplace=False)
      (4): Linear(in_features=512, out_features=128, bias=False)
      (5): LeakyReLU(negative_slope=0.2, inplace=True)
      (6): Dropout(p=0.1, inplace=False)
      (7): Linear(in_features=128, out_features=5, bias=False)
      (8): LogSoftmax(dim=1)
    )
    (encoder_conv): Sequential(
      (0): Conv2d(64, 32, kernel_size=(3, 3), stride=(1, 1), padding=(1, 1), bias=False)
      (1): BatchNorm2d(32, eps=1e-05, momentum=0.1, affine=True, track_running_stats=True)
      (2): LeakyReLU(negative_slope=0.2, inplace=True)
      (3): Conv2d(32, 16, kernel_size=(3, 3), stride=(1, 1), padding=(1, 1), bias=False)
      (4): BatchNorm2d(16, eps=1e-05, momentum=0.1, affine=True, track_running_stats=True)
      (5): LeakyReLU(negative_slope=0.2, inplace=True)
      (6): Conv2d(16, 8, kernel_size=(3, 3), stride=(1, 1), padding=(1, 1), bias=False)
      (7): BatchNorm2d(8, eps=1e-05, momentum=0.1, affine=True, track_running_stats=True)
      (8): LeakyReLU(negative_slope=0.2, inplace=True)
      (9): MaxPool2d(kernel_size=3, stride=3, padding=0, dilation=1, ceil_mode=False)
    )
  )
  (DT): XGBHead()
)
===================================== Epoch 0 =====================================
Trainset: 5000
Valset: 500
Testset: 500
Eposide-(0): [100/5000]	Time 0.474 (0.472)	Data 0.000 (0.016)	Loss 220.361 (250.320)	Prec@1 20.000 (21.954)
…
============ Testing on the test set ============
Test-(10): [100/500]	Time 0.270 (0.286)	Loss 1.639 (1.671)	Prec@1 22.667 (23.036)
Namespace(dataset_dir='../dataset/miniImageNet/', data_name='miniImageNet', mode='train', resume='../results/DN4_miniImageNet_DN4_DTR_5Way_5Shot_K3/epoch_10_best.pth.tar', epochs=0, cuda=True, ngpu=1, nc=3, clamp_lower=-0.01, clamp_upper=0.01, print_freq=100, outf='../results/DN4_miniImageNet_DN4_DTR_5Way_5Shot_K3')
=> loaded checkpoint '../results/DN4_miniImageNet_DN4_DTR_5Way_5Shot_K3/epoch_10_best.pth.tar' (epoch 55000)
DN4_DTR(
  (BACKBONE_2D): FourLayer_64F(
    (features): Sequential(
      (0): Conv2d(3, 64, kernel_size=(3, 3), stride=(1, 1), padding=(1, 1), bias=False)
      (1): BatchNorm2d(64, eps=1e-05, momentum=0.1, affine=True, track_running_stats=True)
      (2): LeakyReLU(negative_slope=0.2, inplace=True)
      (3): MaxPool2d(kernel_size=2, stride=2, padding=0, dilation=1, ceil_mode=False)
      (4): Conv2d(64, 64, kernel_size=(3, 3), stride=(1, 1), padding=(1, 1), bias=False)
      (5): BatchNorm2d(64, eps=1e-05, momentum=0.1, affine=True, track_running_stats=True)
      (6): LeakyReLU(negative_slope=0.2, inplace=True)
      (7): MaxPool2d(kernel_size=2, stride=2, padding=0, dilation=1, ceil_mode=False)
      (8): Conv2d(64, 64, kernel_size=(3, 3), stride=(1, 1), padding=(1, 1), bias=False)
      (9): BatchNorm2d(64, eps=1e-05, momentum=0.1, affine=True, track_running_stats=True)
      (10): LeakyReLU(negative_slope=0.2, inplace=True)
      (11): Conv2d(64, 64, kernel_size=(3, 3), stride=(1, 1), padding=(1, 1), bias=False)
      (12): BatchNorm2d(64, eps=1e-05, momentum=0.1, affine=True, track_running_stats=True)
      (13): LeakyReLU(negative_slope=0.2, inplace=True)
    )
    (criterion): CrossEntropyLoss()
  )
  (ENCODER): Encoder(
    (encoder_smax): Sequential(
      (0): Flatten(start_dim=1, end_dim=-1)
      (1): Linear(in_features=40000, out_features=512, bias=False)
      (2): LeakyReLU(negative_slope=0.2, inplace=True)
      (3): Dropout(p=0.1, inplace=False)
      (4): Linear(in_features=512, out_features=128, bias=False)
      (5): LeakyReLU(negative_slope=0.2, inplace=True)
      (6): Dropout(p=0.1, inplace=False)
      (7): Linear(in_features=128, out_features=5, bias=False)
      (8): LogSoftmax(dim=1)
    )
    (encoder_conv): Sequential(
      (0): Conv2d(64, 32, kernel_size=(3, 3), stride=(1, 1), padding=(1, 1), bias=False)
      (1): BatchNorm2d(32, eps=1e-05, momentum=0.1, affine=True, track_running_stats=True)
      (2): LeakyReLU(negative_slope=0.2, inplace=True)
      (3): Conv2d(32, 16, kernel_size=(3, 3), stride=(1, 1), padding=(1, 1), bias=False)
      (4): BatchNorm2d(16, eps=1e-05, momentum=0.1, affine=True, track_running_stats=True)
      (5): LeakyReLU(negative_slope=0.2, inplace=True)
      (6): Conv2d(16, 8, kernel_size=(3, 3), stride=(1, 1), padding=(1, 1), bias=False)
      (7): BatchNorm2d(8, eps=1e-05, momentum=0.1, affine=True, track_running_stats=True)
      (8): LeakyReLU(negative_slope=0.2, inplace=True)
      (9): MaxPool2d(kernel_size=3, stride=3, padding=0, dilation=1, ceil_mode=False)
    )
  )
  (DT): XGBHead()
)
============ validation on the val set ============
Trainset: 5000
Valset: 500
Testset: 500
Namespace(dataset_dir='../dataset/miniImageNet/', data_name='miniImageNet', mode='train', resume='../results/DN4_miniImageNet_DN4_DTR_5Way_5Shot_K3/epoch_10_best.pth.tar', epochs=0, cuda=True, ngpu=1, nc=3, clamp_lower=-0.01, clamp_upper=0.01, print_freq=100, outf='../results/DN4_miniImageNet_DN4_DTR_5Way_5Shot_K3')
=> loaded checkpoint '../results/DN4_miniImageNet_DN4_DTR_5Way_5Shot_K3/epoch_10_best.pth.tar' (epoch 55000)
DN4_DTR(
  (BACKBONE_2D): FourLayer_64F(
    (features): Sequential(
      (0): Conv2d(3, 64, kernel_size=(3, 3), stride=(1, 1), padding=(1, 1), bias=False)
      (1): BatchNorm2d(64, eps=1e-05, momentum=0.1, affine=True, track_running_stats=True)
      (2): LeakyReLU(negative_slope=0.2, inplace=True)
      (3): MaxPool2d(kernel_size=2, stride=2, padding=0, dilation=1, ceil_mode=False)
      (4): Conv2d(64, 64, kernel_size=(3, 3), stride=(1, 1), padding=(1, 1), bias=False)
      (5): BatchNorm2d(64, eps=1e-05, momentum=0.1, affine=True, track_running_stats=True)
      (6): LeakyReLU(negative_slope=0.2, inplace=True)
      (7): MaxPool2d(kernel_size=2, stride=2, padding=0, dilation=1, ceil_mode=False)
      (8): Conv2d(64, 64, kernel_size=(3, 3), stride=(1, 1), padding=(1, 1), bias=False)
      (9): BatchNorm2d(64, eps=1e-05, momentum=0.1, affine=True, track_running_stats=True)
      (10): LeakyReLU(negative_slope=0.2, inplace=True)
      (11): Conv2d(64, 64, kernel_size=(3, 3), stride=(1, 1), padding=(1, 1), bias=False)
      (12): BatchNorm2d(64, eps=1e-05, momentum=0.1, affine=True, track_running_stats=True)
      (13): LeakyReLU(negative_slope=0.2, inplace=True)
    )
    (criterion): CrossEntropyLoss()
  )
  (ENCODER): Encoder(
    (encoder_smax): Sequential(
      (0): Flatten(start_dim=1, end_dim=-1)
      (1): Linear(in_features=40000, out_features=512, bias=False)
      (2): LeakyReLU(negative_slope=0.2, inplace=True)
      (3): Dropout(p=0.1, inplace=False)
      (4): Linear(in_features=512, out_features=128, bias=False)
      (5): LeakyReLU(negative_slope=0.2, inplace=True)
      (6): Dropout(p=0.1, inplace=False)
      (7): Linear(in_features=128, out_features=5, bias=False)
      (8): LogSoftmax(dim=1)
    )
    (encoder_conv): Sequential(
      (0): Conv2d(64, 32, kernel_size=(3, 3), stride=(1, 1), padding=(1, 1), bias=False)
      (1): BatchNorm2d(32, eps=1e-05, momentum=0.1, affine=True, track_running_stats=True)
      (2): LeakyReLU(negative_slope=0.2, inplace=True)
      (3): Conv2d(32, 16, kernel_size=(3, 3), stride=(1, 1), padding=(1, 1), bias=False)
      (4): BatchNorm2d(16, eps=1e-05, momentum=0.1, affine=True, track_running_stats=True)
      (5): LeakyReLU(negative_slope=0.2, inplace=True)
      (6): Conv2d(16, 8, kernel_size=(3, 3), stride=(1, 1), padding=(1, 1), bias=False)
      (7): BatchNorm2d(8, eps=1e-05, momentum=0.1, affine=True, track_running_stats=True)
      (8): LeakyReLU(negative_slope=0.2, inplace=True)
      (9): MaxPool2d(kernel_size=3, stride=3, padding=0, dilation=1, ceil_mode=False)
    )
  )
  (DT): XGBHead()
)
============ validation on the val set ============
Trainset: 5000
Valset: 500
Testset: 500
Namespace(dataset_dir='../dataset/miniImageNet/', data_name='miniImageNet', mode='train', resume='../results/DN4_miniImageNet_DN4_DTR_5Way_5Shot_K3/epoch_10_best.pth.tar', epochs=0, cuda=True, ngpu=1, nc=3, clamp_lower=-0.01, clamp_upper=0.01, print_freq=100, outf='../results/DN4_miniImageNet_DN4_DTR_5Way_5Shot_K3')
=> loaded checkpoint '../results/DN4_miniImageNet_DN4_DTR_5Way_5Shot_K3/epoch_10_best.pth.tar' (epoch 55000)
DN4_DTR(
  (BACKBONE_2D): FourLayer_64F(
    (features): Sequential(
      (0): Conv2d(3, 64, kernel_size=(3, 3), stride=(1, 1), padding=(1, 1), bias=False)
      (1): BatchNorm2d(64, eps=1e-05, momentum=0.1, affine=True, track_running_stats=True)
      (2): LeakyReLU(negative_slope=0.2, inplace=True)
      (3): MaxPool2d(kernel_size=2, stride=2, padding=0, dilation=1, ceil_mode=False)
      (4): Conv2d(64, 64, kernel_size=(3, 3), stride=(1, 1), padding=(1, 1), bias=False)
      (5): BatchNorm2d(64, eps=1e-05, momentum=0.1, affine=True, track_running_stats=True)
      (6): LeakyReLU(negative_slope=0.2, inplace=True)
      (7): MaxPool2d(kernel_size=2, stride=2, padding=0, dilation=1, ceil_mode=False)
      (8): Conv2d(64, 64, kernel_size=(3, 3), stride=(1, 1), padding=(1, 1), bias=False)
      (9): BatchNorm2d(64, eps=1e-05, momentum=0.1, affine=True, track_running_stats=True)
      (10): LeakyReLU(negative_slope=0.2, inplace=True)
      (11): Conv2d(64, 64, kernel_size=(3, 3), stride=(1, 1), padding=(1, 1), bias=False)
      (12): BatchNorm2d(64, eps=1e-05, momentum=0.1, affine=True, track_running_stats=True)
      (13): LeakyReLU(negative_slope=0.2, inplace=True)
    )
    (criterion): CrossEntropyLoss()
  )
  (ENCODER): Encoder(
    (encoder_smax): Sequential(
      (0): Flatten(start_dim=1, end_dim=-1)
      (1): Linear(in_features=40000, out_features=512, bias=False)
      (2): LeakyReLU(negative_slope=0.2, inplace=True)
      (3): Dropout(p=0.1, inplace=False)
      (4): Linear(in_features=512, out_features=128, bias=False)
      (5): LeakyReLU(negative_slope=0.2, inplace=True)
      (6): Dropout(p=0.1, inplace=False)
      (7): Linear(in_features=128, out_features=5, bias=False)
      (8): LogSoftmax(dim=1)
    )
    (encoder_conv): Sequential(
      (0): Conv2d(64, 32, kernel_size=(3, 3), stride=(1, 1), padding=(1, 1), bias=False)
      (1): BatchNorm2d(32, eps=1e-05, momentum=0.1, affine=True, track_running_stats=True)
      (2): LeakyReLU(negative_slope=0.2, inplace=True)
      (3): Conv2d(32, 16, kernel_size=(3, 3), stride=(1, 1), padding=(1, 1), bias=False)
      (4): BatchNorm2d(16, eps=1e-05, momentum=0.1, affine=True, track_running_stats=True)
      (5): LeakyReLU(negative_slope=0.2, inplace=True)
      (6): Conv2d(16, 8, kernel_size=(3, 3), stride=(1, 1), padding=(1, 1), bias=False)
      (7): BatchNorm2d(8, eps=1e-05, momentum=0.1, affine=True, track_running_stats=True)
      (8): LeakyReLU(negative_slope=0.2, inplace=True)
      (9): MaxPool2d(kernel_size=3, stride=3, padding=0, dilation=1, ceil_mode=False)
    )
  )
  (DT): XGBHead()
)
============ validation on the val set ============
Trainset: 5000
Valset: 500
Testset: 500
Namespace(dataset_dir='../dataset/miniImageNet/', data_name='miniImageNet', mode='train', resume='../results/DN4_miniImageNet_DN4_DTR_5Way_5Shot_K3/epoch_10_best.pth.tar', epochs=0, cuda=True, ngpu=1, nc=3, clamp_lower=-0.01, clamp_upper=0.01, print_freq=100, outf='../results/DN4_miniImageNet_DN4_DTR_5Way_5Shot_K3')
=> loaded checkpoint '../results/DN4_miniImageNet_DN4_DTR_5Way_5Shot_K3/epoch_10_best.pth.tar' (epoch 55000)
DN4_DTR(
  (BACKBONE_2D): FourLayer_64F(
    (features): Sequential(
      (0): Conv2d(3, 64, kernel_size=(3, 3), stride=(1, 1), padding=(1, 1), bias=False)
      (1): BatchNorm2d(64, eps=1e-05, momentum=0.1, affine=True, track_running_stats=True)
      (2): LeakyReLU(negative_slope=0.2, inplace=True)
      (3): MaxPool2d(kernel_size=2, stride=2, padding=0, dilation=1, ceil_mode=False)
      (4): Conv2d(64, 64, kernel_size=(3, 3), stride=(1, 1), padding=(1, 1), bias=False)
      (5): BatchNorm2d(64, eps=1e-05, momentum=0.1, affine=True, track_running_stats=True)
      (6): LeakyReLU(negative_slope=0.2, inplace=True)
      (7): MaxPool2d(kernel_size=2, stride=2, padding=0, dilation=1, ceil_mode=False)
      (8): Conv2d(64, 64, kernel_size=(3, 3), stride=(1, 1), padding=(1, 1), bias=False)
      (9): BatchNorm2d(64, eps=1e-05, momentum=0.1, affine=True, track_running_stats=True)
      (10): LeakyReLU(negative_slope=0.2, inplace=True)
      (11): Conv2d(64, 64, kernel_size=(3, 3), stride=(1, 1), padding=(1, 1), bias=False)
      (12): BatchNorm2d(64, eps=1e-05, momentum=0.1, affine=True, track_running_stats=True)
      (13): LeakyReLU(negative_slope=0.2, inplace=True)
    )
    (criterion): CrossEntropyLoss()
  )
  (ENCODER): Encoder(
    (encoder_smax): Sequential(
      (0): Flatten(start_dim=1, end_dim=-1)
      (1): Linear(in_features=40000, out_features=512, bias=False)
      (2): LeakyReLU(negative_slope=0.2, inplace=True)
      (3): Dropout(p=0.1, inplace=False)
      (4): Linear(in_features=512, out_features=128, bias=False)
      (5): LeakyReLU(negative_slope=0.2, inplace=True)
      (6): Dropout(p=0.1, inplace=False)
      (7): Linear(in_features=128, out_features=5, bias=False)
      (8): LogSoftmax(dim=1)
    )
    (encoder_conv): Sequential(
      (0): Conv2d(64, 32, kernel_size=(3, 3), stride=(1, 1), padding=(1, 1), bias=False)
      (1): BatchNorm2d(32, eps=1e-05, momentum=0.1, affine=True, track_running_stats=True)
      (2): LeakyReLU(negative_slope=0.2, inplace=True)
      (3): Conv2d(32, 16, kernel_size=(3, 3), stride=(1, 1), padding=(1, 1), bias=False)
      (4): BatchNorm2d(16, eps=1e-05, momentum=0.1, affine=True, track_running_stats=True)
      (5): LeakyReLU(negative_slope=0.2, inplace=True)
      (6): Conv2d(16, 8, kernel_size=(3, 3), stride=(1, 1), padding=(1, 1), bias=False)
      (7): BatchNorm2d(8, eps=1e-05, momentum=0.1, affine=True, track_running_stats=True)
      (8): LeakyReLU(negative_slope=0.2, inplace=True)
      (9): MaxPool2d(kernel_size=3, stride=3, padding=0, dilation=1, ceil_mode=False)
    )
  )
  (DT): XGBHead()
)
============ validation on the val set ============
Trainset: 5000
Valset: 500
Testset: 500
Namespace(dataset_dir='../dataset/miniImageNet/', data_name='miniImageNet', mode='train', resume='../results/DN4_miniImageNet_DN4_DTR_5Way_5Shot_K3/epoch_10_best.pth.tar', epochs=0, cuda=True, ngpu=1, nc=3, clamp_lower=-0.01, clamp_upper=0.01, print_freq=100, outf='../results/DN4_miniImageNet_DN4_DTR_5Way_5Shot_K3')
=> loaded checkpoint '../results/DN4_miniImageNet_DN4_DTR_5Way_5Shot_K3/epoch_10_best.pth.tar' (epoch 55000)
DN4_DTR(
  (BACKBONE_2D): FourLayer_64F(
    (features): Sequential(
      (0): Conv2d(3, 64, kernel_size=(3, 3), stride=(1, 1), padding=(1, 1), bias=False)
      (1): BatchNorm2d(64, eps=1e-05, momentum=0.1, affine=True, track_running_stats=True)
      (2): LeakyReLU(negative_slope=0.2, inplace=True)
      (3): MaxPool2d(kernel_size=2, stride=2, padding=0, dilation=1, ceil_mode=False)
      (4): Conv2d(64, 64, kernel_size=(3, 3), stride=(1, 1), padding=(1, 1), bias=False)
      (5): BatchNorm2d(64, eps=1e-05, momentum=0.1, affine=True, track_running_stats=True)
      (6): LeakyReLU(negative_slope=0.2, inplace=True)
      (7): MaxPool2d(kernel_size=2, stride=2, padding=0, dilation=1, ceil_mode=False)
      (8): Conv2d(64, 64, kernel_size=(3, 3), stride=(1, 1), padding=(1, 1), bias=False)
      (9): BatchNorm2d(64, eps=1e-05, momentum=0.1, affine=True, track_running_stats=True)
      (10): LeakyReLU(negative_slope=0.2, inplace=True)
      (11): Conv2d(64, 64, kernel_size=(3, 3), stride=(1, 1), padding=(1, 1), bias=False)
      (12): BatchNorm2d(64, eps=1e-05, momentum=0.1, affine=True, track_running_stats=True)
      (13): LeakyReLU(negative_slope=0.2, inplace=True)
    )
    (criterion): CrossEntropyLoss()
  )
  (ENCODER): Encoder(
    (encoder_smax): Sequential(
      (0): Flatten(start_dim=1, end_dim=-1)
      (1): Linear(in_features=40000, out_features=512, bias=False)
      (2): LeakyReLU(negative_slope=0.2, inplace=True)
      (3): Dropout(p=0.1, inplace=False)
      (4): Linear(in_features=512, out_features=128, bias=False)
      (5): LeakyReLU(negative_slope=0.2, inplace=True)
      (6): Dropout(p=0.1, inplace=False)
      (7): Linear(in_features=128, out_features=5, bias=False)
      (8): LogSoftmax(dim=1)
    )
    (encoder_conv): Sequential(
      (0): Conv2d(64, 32, kernel_size=(3, 3), stride=(1, 1), padding=(1, 1), bias=False)
      (1): BatchNorm2d(32, eps=1e-05, momentum=0.1, affine=True, track_running_stats=True)
      (2): LeakyReLU(negative_slope=0.2, inplace=True)
      (3): Conv2d(32, 16, kernel_size=(3, 3), stride=(1, 1), padding=(1, 1), bias=False)
      (4): BatchNorm2d(16, eps=1e-05, momentum=0.1, affine=True, track_running_stats=True)
      (5): LeakyReLU(negative_slope=0.2, inplace=True)
      (6): Conv2d(16, 8, kernel_size=(3, 3), stride=(1, 1), padding=(1, 1), bias=False)
      (7): BatchNorm2d(8, eps=1e-05, momentum=0.1, affine=True, track_running_stats=True)
      (8): LeakyReLU(negative_slope=0.2, inplace=True)
      (9): MaxPool2d(kernel_size=3, stride=3, padding=0, dilation=1, ceil_mode=False)
    )
  )
  (DT): XGBHead()
)
============ validation on the val set ============
Trainset: 5000
Valset: 500
Testset: 500
Namespace(dataset_dir='../dataset/miniImageNet/', data_name='miniImageNet', mode='train', resume='../results/DN4_miniImageNet_DN4_DTR_5Way_5Shot_K3/epoch_10_best.pth.tar', epochs=0, cuda=True, ngpu=1, nc=3, clamp_lower=-0.01, clamp_upper=0.01, print_freq=100, outf='../results/DN4_miniImageNet_DN4_DTR_5Way_5Shot_K3')
=> loaded checkpoint '../results/DN4_miniImageNet_DN4_DTR_5Way_5Shot_K3/epoch_10_best.pth.tar' (epoch 55000)
DN4_DTR(
  (BACKBONE_2D): FourLayer_64F(
    (features): Sequential(
      (0): Conv2d(3, 64, kernel_size=(3, 3), stride=(1, 1), padding=(1, 1), bias=False)
      (1): BatchNorm2d(64, eps=1e-05, momentum=0.1, affine=True, track_running_stats=True)
      (2): LeakyReLU(negative_slope=0.2, inplace=True)
      (3): MaxPool2d(kernel_size=2, stride=2, padding=0, dilation=1, ceil_mode=False)
      (4): Conv2d(64, 64, kernel_size=(3, 3), stride=(1, 1), padding=(1, 1), bias=False)
      (5): BatchNorm2d(64, eps=1e-05, momentum=0.1, affine=True, track_running_stats=True)
      (6): LeakyReLU(negative_slope=0.2, inplace=True)
      (7): MaxPool2d(kernel_size=2, stride=2, padding=0, dilation=1, ceil_mode=False)
      (8): Conv2d(64, 64, kernel_size=(3, 3), stride=(1, 1), padding=(1, 1), bias=False)
      (9): BatchNorm2d(64, eps=1e-05, momentum=0.1, affine=True, track_running_stats=True)
      (10): LeakyReLU(negative_slope=0.2, inplace=True)
      (11): Conv2d(64, 64, kernel_size=(3, 3), stride=(1, 1), padding=(1, 1), bias=False)
      (12): BatchNorm2d(64, eps=1e-05, momentum=0.1, affine=True, track_running_stats=True)
      (13): LeakyReLU(negative_slope=0.2, inplace=True)
    )
    (criterion): CrossEntropyLoss()
  )
  (ENCODER): Encoder(
    (encoder_smax): Sequential(
      (0): Flatten(start_dim=1, end_dim=-1)
      (1): Linear(in_features=40000, out_features=512, bias=False)
      (2): LeakyReLU(negative_slope=0.2, inplace=True)
      (3): Dropout(p=0.1, inplace=False)
      (4): Linear(in_features=512, out_features=128, bias=False)
      (5): LeakyReLU(negative_slope=0.2, inplace=True)
      (6): Dropout(p=0.1, inplace=False)
      (7): Linear(in_features=128, out_features=5, bias=False)
      (8): LogSoftmax(dim=1)
    )
    (encoder_conv): Sequential(
      (0): Conv2d(64, 32, kernel_size=(3, 3), stride=(1, 1), padding=(1, 1), bias=False)
      (1): BatchNorm2d(32, eps=1e-05, momentum=0.1, affine=True, track_running_stats=True)
      (2): LeakyReLU(negative_slope=0.2, inplace=True)
      (3): Conv2d(32, 16, kernel_size=(3, 3), stride=(1, 1), padding=(1, 1), bias=False)
      (4): BatchNorm2d(16, eps=1e-05, momentum=0.1, affine=True, track_running_stats=True)
      (5): LeakyReLU(negative_slope=0.2, inplace=True)
      (6): Conv2d(16, 8, kernel_size=(3, 3), stride=(1, 1), padding=(1, 1), bias=False)
      (7): BatchNorm2d(8, eps=1e-05, momentum=0.1, affine=True, track_running_stats=True)
      (8): LeakyReLU(negative_slope=0.2, inplace=True)
      (9): MaxPool2d(kernel_size=3, stride=3, padding=0, dilation=1, ceil_mode=False)
    )
  )
  (DT): XGBHead()
)
============ validation on the val set ============
Trainset: 5000
Valset: 500
Testset: 500
Namespace(dataset_dir='../dataset/miniImageNet/', data_name='miniImageNet', mode='train', resume='../results/DN4_miniImageNet_DN4_DTR_5Way_5Shot_K3/epoch_10_best.pth.tar', epochs=0, cuda=True, ngpu=1, nc=3, clamp_lower=-0.01, clamp_upper=0.01, print_freq=100, outf='../results/DN4_miniImageNet_DN4_DTR_5Way_5Shot_K3')
=> loaded checkpoint '../results/DN4_miniImageNet_DN4_DTR_5Way_5Shot_K3/epoch_10_best.pth.tar' (epoch 55000)
DN4_DTR(
  (BACKBONE_2D): FourLayer_64F(
    (features): Sequential(
      (0): Conv2d(3, 64, kernel_size=(3, 3), stride=(1, 1), padding=(1, 1), bias=False)
      (1): BatchNorm2d(64, eps=1e-05, momentum=0.1, affine=True, track_running_stats=True)
      (2): LeakyReLU(negative_slope=0.2, inplace=True)
      (3): MaxPool2d(kernel_size=2, stride=2, padding=0, dilation=1, ceil_mode=False)
      (4): Conv2d(64, 64, kernel_size=(3, 3), stride=(1, 1), padding=(1, 1), bias=False)
      (5): BatchNorm2d(64, eps=1e-05, momentum=0.1, affine=True, track_running_stats=True)
      (6): LeakyReLU(negative_slope=0.2, inplace=True)
      (7): MaxPool2d(kernel_size=2, stride=2, padding=0, dilation=1, ceil_mode=False)
      (8): Conv2d(64, 64, kernel_size=(3, 3), stride=(1, 1), padding=(1, 1), bias=False)
      (9): BatchNorm2d(64, eps=1e-05, momentum=0.1, affine=True, track_running_stats=True)
      (10): LeakyReLU(negative_slope=0.2, inplace=True)
      (11): Conv2d(64, 64, kernel_size=(3, 3), stride=(1, 1), padding=(1, 1), bias=False)
      (12): BatchNorm2d(64, eps=1e-05, momentum=0.1, affine=True, track_running_stats=True)
      (13): LeakyReLU(negative_slope=0.2, inplace=True)
    )
    (criterion): CrossEntropyLoss()
  )
  (ENCODER): Encoder(
    (encoder_smax): Sequential(
      (0): Flatten(start_dim=1, end_dim=-1)
      (1): Linear(in_features=40000, out_features=512, bias=False)
      (2): LeakyReLU(negative_slope=0.2, inplace=True)
      (3): Dropout(p=0.1, inplace=False)
      (4): Linear(in_features=512, out_features=128, bias=False)
      (5): LeakyReLU(negative_slope=0.2, inplace=True)
      (6): Dropout(p=0.1, inplace=False)
      (7): Linear(in_features=128, out_features=5, bias=False)
      (8): LogSoftmax(dim=1)
    )
    (encoder_conv): Sequential(
      (0): Conv2d(64, 32, kernel_size=(3, 3), stride=(1, 1), padding=(1, 1), bias=False)
      (1): BatchNorm2d(32, eps=1e-05, momentum=0.1, affine=True, track_running_stats=True)
      (2): LeakyReLU(negative_slope=0.2, inplace=True)
      (3): Conv2d(32, 16, kernel_size=(3, 3), stride=(1, 1), padding=(1, 1), bias=False)
      (4): BatchNorm2d(16, eps=1e-05, momentum=0.1, affine=True, track_running_stats=True)
      (5): LeakyReLU(negative_slope=0.2, inplace=True)
      (6): Conv2d(16, 8, kernel_size=(3, 3), stride=(1, 1), padding=(1, 1), bias=False)
      (7): BatchNorm2d(8, eps=1e-05, momentum=0.1, affine=True, track_running_stats=True)
      (8): LeakyReLU(negative_slope=0.2, inplace=True)
      (9): MaxPool2d(kernel_size=3, stride=3, padding=0, dilation=1, ceil_mode=False)
    )
  )
  (DT): XGBHead()
)
============ validation on the val set ============
Trainset: 5000
Valset: 500
Testset: 500
Namespace(dataset_dir='../dataset/miniImageNet/', data_name='miniImageNet', mode='train', resume='../results/DN4_miniImageNet_DN4_DTR_5Way_5Shot_K3/epoch_10_best.pth.tar', epochs=0, cuda=True, ngpu=1, nc=3, clamp_lower=-0.01, clamp_upper=0.01, print_freq=100, outf='../results/DN4_miniImageNet_DN4_DTR_5Way_5Shot_K3')
=> loaded checkpoint '../results/DN4_miniImageNet_DN4_DTR_5Way_5Shot_K3/epoch_10_best.pth.tar' (epoch 55000)
DN4_DTR(
  (BACKBONE_2D): FourLayer_64F(
    (features): Sequential(
      (0): Conv2d(3, 64, kernel_size=(3, 3), stride=(1, 1), padding=(1, 1), bias=False)
      (1): BatchNorm2d(64, eps=1e-05, momentum=0.1, affine=True, track_running_stats=True)
      (2): LeakyReLU(negative_slope=0.2, inplace=True)
      (3): MaxPool2d(kernel_size=2, stride=2, padding=0, dilation=1, ceil_mode=False)
      (4): Conv2d(64, 64, kernel_size=(3, 3), stride=(1, 1), padding=(1, 1), bias=False)
      (5): BatchNorm2d(64, eps=1e-05, momentum=0.1, affine=True, track_running_stats=True)
      (6): LeakyReLU(negative_slope=0.2, inplace=True)
      (7): MaxPool2d(kernel_size=2, stride=2, padding=0, dilation=1, ceil_mode=False)
      (8): Conv2d(64, 64, kernel_size=(3, 3), stride=(1, 1), padding=(1, 1), bias=False)
      (9): BatchNorm2d(64, eps=1e-05, momentum=0.1, affine=True, track_running_stats=True)
      (10): LeakyReLU(negative_slope=0.2, inplace=True)
      (11): Conv2d(64, 64, kernel_size=(3, 3), stride=(1, 1), padding=(1, 1), bias=False)
      (12): BatchNorm2d(64, eps=1e-05, momentum=0.1, affine=True, track_running_stats=True)
      (13): LeakyReLU(negative_slope=0.2, inplace=True)
    )
    (criterion): CrossEntropyLoss()
  )
  (ENCODER): Encoder(
    (encoder_smax): Sequential(
      (0): Flatten(start_dim=1, end_dim=-1)
      (1): Linear(in_features=40000, out_features=512, bias=False)
      (2): LeakyReLU(negative_slope=0.2, inplace=True)
      (3): Dropout(p=0.1, inplace=False)
      (4): Linear(in_features=512, out_features=128, bias=False)
      (5): LeakyReLU(negative_slope=0.2, inplace=True)
      (6): Dropout(p=0.1, inplace=False)
      (7): Linear(in_features=128, out_features=5, bias=False)
      (8): LogSoftmax(dim=1)
    )
    (encoder_conv): Sequential(
      (0): Conv2d(64, 32, kernel_size=(3, 3), stride=(1, 1), padding=(1, 1), bias=False)
      (1): BatchNorm2d(32, eps=1e-05, momentum=0.1, affine=True, track_running_stats=True)
      (2): LeakyReLU(negative_slope=0.2, inplace=True)
      (3): Conv2d(32, 16, kernel_size=(3, 3), stride=(1, 1), padding=(1, 1), bias=False)
      (4): BatchNorm2d(16, eps=1e-05, momentum=0.1, affine=True, track_running_stats=True)
      (5): LeakyReLU(negative_slope=0.2, inplace=True)
      (6): Conv2d(16, 8, kernel_size=(3, 3), stride=(1, 1), padding=(1, 1), bias=False)
      (7): BatchNorm2d(8, eps=1e-05, momentum=0.1, affine=True, track_running_stats=True)
      (8): LeakyReLU(negative_slope=0.2, inplace=True)
      (9): MaxPool2d(kernel_size=3, stride=3, padding=0, dilation=1, ceil_mode=False)
    )
  )
  (DT): XGBHead()
)
============ validation on the val set ============
Trainset: 5000
Valset: 500
Testset: 500
