Namespace(arch='DN_X', config='../models/architectures/configs/DN4_Vanilla.yaml', dengine=False, refit_dengine=False, dataset_dir='../dataset/StanfordDogs/', data_name='test1', mode='train', resume='', epochs=1, ngpu=1, print_freq=100, outf='../results/DN_X_test1_DN4_5_Way_5_Shot_K3')DN_X(
  (BACKBONE): FourLayer_64F(
    (features): Sequential(
      (0): Conv2d(3, 64, kernel_size=(3, 3), stride=(1, 1), padding=(1, 1), bias=False)
      (1): BatchNorm2d(64, eps=1e-05, momentum=0.1, affine=True, track_running_stats=True)
      (2): LeakyReLU(negative_slope=0.2, inplace=True)
      (3): MaxPool2d(kernel_size=2, stride=2, padding=0, dilation=1, ceil_mode=False)
      (4): Conv2d(64, 64, kernel_size=(3, 3), stride=(1, 1), padding=(1, 1), bias=False)
      (5): BatchNorm2d(64, eps=1e-05, momentum=0.1, affine=True, track_running_stats=True)
      (6): LeakyReLU(negative_slope=0.2, inplace=True)
      (7): MaxPool2d(kernel_size=2, stride=2, padding=0, dilation=1, ceil_mode=False)
      (8): Conv2d(64, 64, kernel_size=(3, 3), stride=(1, 1), padding=(1, 1), bias=False)
      (9): BatchNorm2d(64, eps=1e-05, momentum=0.1, affine=True, track_running_stats=True)
      (10): LeakyReLU(negative_slope=0.2, inplace=True)
      (11): Conv2d(64, 64, kernel_size=(3, 3), stride=(1, 1), padding=(1, 1), bias=False)
      (12): BatchNorm2d(64, eps=1e-05, momentum=0.1, affine=True, track_running_stats=True)
      (13): LeakyReLU(negative_slope=0.2, inplace=True)
    )
    (criterion): CrossEntropyLoss()
  )
  (DE): RandomForestHead()
)
===================================== Epoch 0 =====================================
Trainset: 100
Valset: 600
Testset: 200
Namespace(arch='DN_X', config='../models/architectures/configs/DN4_Vanilla.yaml', dengine=False, refit_dengine=False, dataset_dir='../dataset/StanfordDogs/', data_name='test1', mode='train', resume='', epochs=1, ngpu=1, print_freq=100, outf='../results/DN_X_test1_DN4_5_Way_5_Shot_K3')DN_X(
  (BACKBONE): FourLayer_64F(
    (features): Sequential(
      (0): Conv2d(3, 64, kernel_size=(3, 3), stride=(1, 1), padding=(1, 1), bias=False)
      (1): BatchNorm2d(64, eps=1e-05, momentum=0.1, affine=True, track_running_stats=True)
      (2): LeakyReLU(negative_slope=0.2, inplace=True)
      (3): MaxPool2d(kernel_size=2, stride=2, padding=0, dilation=1, ceil_mode=False)
      (4): Conv2d(64, 64, kernel_size=(3, 3), stride=(1, 1), padding=(1, 1), bias=False)
      (5): BatchNorm2d(64, eps=1e-05, momentum=0.1, affine=True, track_running_stats=True)
      (6): LeakyReLU(negative_slope=0.2, inplace=True)
      (7): MaxPool2d(kernel_size=2, stride=2, padding=0, dilation=1, ceil_mode=False)
      (8): Conv2d(64, 64, kernel_size=(3, 3), stride=(1, 1), padding=(1, 1), bias=False)
      (9): BatchNorm2d(64, eps=1e-05, momentum=0.1, affine=True, track_running_stats=True)
      (10): LeakyReLU(negative_slope=0.2, inplace=True)
      (11): Conv2d(64, 64, kernel_size=(3, 3), stride=(1, 1), padding=(1, 1), bias=False)
      (12): BatchNorm2d(64, eps=1e-05, momentum=0.1, affine=True, track_running_stats=True)
      (13): LeakyReLU(negative_slope=0.2, inplace=True)
    )
    (criterion): CrossEntropyLoss()
  )
  (DE): RandomForestHead()
)
===================================== Epoch 0 =====================================
Trainset: 100
Valset: 50
Testset: 50
============ Testing on the test set ============
 * Prec@1 24.760 Best_prec1 0.000============ Testing on the test set ============
 * Prec@1 25.720 Best_prec1 24.760Trainset: 100
Valset: 50
Testset: 50
Namespace(arch='DN_X', config='../models/architectures/configs/DN4_Vanilla.yaml', dengine=True, refit_dengine=False, dataset_dir='../dataset/StanfordDogs/', data_name='test1', mode='train', resume='', epochs=1, ngpu=1, print_freq=100, outf='../results/DN_X_test1_DN4_5_Way_5_Shot_K3')DN_X(
  (BACKBONE): FourLayer_64F(
    (features): Sequential(
      (0): Conv2d(3, 64, kernel_size=(3, 3), stride=(1, 1), padding=(1, 1), bias=False)
      (1): BatchNorm2d(64, eps=1e-05, momentum=0.1, affine=True, track_running_stats=True)
      (2): LeakyReLU(negative_slope=0.2, inplace=True)
      (3): MaxPool2d(kernel_size=2, stride=2, padding=0, dilation=1, ceil_mode=False)
      (4): Conv2d(64, 64, kernel_size=(3, 3), stride=(1, 1), padding=(1, 1), bias=False)
      (5): BatchNorm2d(64, eps=1e-05, momentum=0.1, affine=True, track_running_stats=True)
      (6): LeakyReLU(negative_slope=0.2, inplace=True)
      (7): MaxPool2d(kernel_size=2, stride=2, padding=0, dilation=1, ceil_mode=False)
      (8): Conv2d(64, 64, kernel_size=(3, 3), stride=(1, 1), padding=(1, 1), bias=False)
      (9): BatchNorm2d(64, eps=1e-05, momentum=0.1, affine=True, track_running_stats=True)
      (10): LeakyReLU(negative_slope=0.2, inplace=True)
      (11): Conv2d(64, 64, kernel_size=(3, 3), stride=(1, 1), padding=(1, 1), bias=False)
      (12): BatchNorm2d(64, eps=1e-05, momentum=0.1, affine=True, track_running_stats=True)
      (13): LeakyReLU(negative_slope=0.2, inplace=True)
    )
    (criterion): CrossEntropyLoss()
  )
  (DE): RandomForestHead()
)
===================================== Epoch 0 =====================================
Trainset: 100
Valset: 50
Testset: 50
============ Testing on the test set ============
 * Prec@1 26.240 Best_prec1 0.000============ Testing on the test set ============
 * Prec@1 27.600 Best_prec1 26.240Trainset: 100
Valset: 50
Testset: 50
Namespace(arch='DN_X', config='../models/architectures/configs/DN4_Vanilla.yaml', dengine=True, refit_dengine=False, dataset_dir='../dataset/StanfordDogs/', data_name='test1', mode='train', resume='', epochs=1, ngpu=1, print_freq=100, outf='../results/DN_X_test1_DN4_5_Way_5_Shot_K3')DN_X(
  (BACKBONE): FourLayer_64F(
    (features): Sequential(
      (0): Conv2d(3, 64, kernel_size=(3, 3), stride=(1, 1), padding=(1, 1), bias=False)
      (1): BatchNorm2d(64, eps=1e-05, momentum=0.1, affine=True, track_running_stats=True)
      (2): LeakyReLU(negative_slope=0.2, inplace=True)
      (3): MaxPool2d(kernel_size=2, stride=2, padding=0, dilation=1, ceil_mode=False)
      (4): Conv2d(64, 64, kernel_size=(3, 3), stride=(1, 1), padding=(1, 1), bias=False)
      (5): BatchNorm2d(64, eps=1e-05, momentum=0.1, affine=True, track_running_stats=True)
      (6): LeakyReLU(negative_slope=0.2, inplace=True)
      (7): MaxPool2d(kernel_size=2, stride=2, padding=0, dilation=1, ceil_mode=False)
      (8): Conv2d(64, 64, kernel_size=(3, 3), stride=(1, 1), padding=(1, 1), bias=False)
      (9): BatchNorm2d(64, eps=1e-05, momentum=0.1, affine=True, track_running_stats=True)
      (10): LeakyReLU(negative_slope=0.2, inplace=True)
      (11): Conv2d(64, 64, kernel_size=(3, 3), stride=(1, 1), padding=(1, 1), bias=False)
      (12): BatchNorm2d(64, eps=1e-05, momentum=0.1, affine=True, track_running_stats=True)
      (13): LeakyReLU(negative_slope=0.2, inplace=True)
    )
    (criterion): CrossEntropyLoss()
  )
  (DE): RandomForestHead()
)
===================================== Epoch 0 =====================================
Trainset: 100
Valset: 50
Testset: 50
============ Testing on the test set ============
 * Prec@1 25.640 Best_prec1 0.000============ Testing on the test set ============
 * Prec@1 25.720 Best_prec1 25.640Trainset: 100
Valset: 50
Testset: 50
 * Prec@1 22.600 Best_prec1 25.640
============ Testing on the test set ============
 * Prec@1 22.400 Best_prec1 25.640Namespace(arch='DN_X', config='../models/architectures/configs/DN4_Vanilla.yaml', dengine=True, refit_dengine=False, dataset_dir='../dataset/StanfordDogs/', data_name='test1', mode='train', resume='', epochs=1, ngpu=1, print_freq=100, outf='../results/DN_X_test1_DN4_5_Way_5_Shot_K3')DN_X(
  (BACKBONE): FourLayer_64F(
    (features): Sequential(
      (0): Conv2d(3, 64, kernel_size=(3, 3), stride=(1, 1), padding=(1, 1), bias=False)
      (1): BatchNorm2d(64, eps=1e-05, momentum=0.1, affine=True, track_running_stats=True)
      (2): LeakyReLU(negative_slope=0.2, inplace=True)
      (3): MaxPool2d(kernel_size=2, stride=2, padding=0, dilation=1, ceil_mode=False)
      (4): Conv2d(64, 64, kernel_size=(3, 3), stride=(1, 1), padding=(1, 1), bias=False)
      (5): BatchNorm2d(64, eps=1e-05, momentum=0.1, affine=True, track_running_stats=True)
      (6): LeakyReLU(negative_slope=0.2, inplace=True)
      (7): MaxPool2d(kernel_size=2, stride=2, padding=0, dilation=1, ceil_mode=False)
      (8): Conv2d(64, 64, kernel_size=(3, 3), stride=(1, 1), padding=(1, 1), bias=False)
      (9): BatchNorm2d(64, eps=1e-05, momentum=0.1, affine=True, track_running_stats=True)
      (10): LeakyReLU(negative_slope=0.2, inplace=True)
      (11): Conv2d(64, 64, kernel_size=(3, 3), stride=(1, 1), padding=(1, 1), bias=False)
      (12): BatchNorm2d(64, eps=1e-05, momentum=0.1, affine=True, track_running_stats=True)
      (13): LeakyReLU(negative_slope=0.2, inplace=True)
    )
    (criterion): CrossEntropyLoss()
  )
  (DE): RandomForestHead()
)
===================================== Epoch 0 =====================================
Trainset: 100
Valset: 50
Testset: 50
============ Testing on the test set ============
 * Prec@1 25.600 Best_prec1 0.000============ Testing on the test set ============
 * Prec@1 26.200 Best_prec1 25.600Trainset: 100
Valset: 50
Testset: 50
 * Prec@1 23.480 Best_prec1 25.600
============ Testing on the test set ============
 * Prec@1 23.240 Best_prec1 25.600Namespace(arch='DN_X', config='../models/architectures/configs/DN4_Vanilla.yaml', dengine=True, refit_dengine=False, dataset_dir='../dataset/StanfordDogs/', data_name='test1', mode='train', resume='', epochs=1, ngpu=1, print_freq=100, outf='../results/DN_X_test1_DN4_5_Way_5_Shot_K3')DN_X(
  (BACKBONE): FourLayer_64F(
    (features): Sequential(
      (0): Conv2d(3, 64, kernel_size=(3, 3), stride=(1, 1), padding=(1, 1), bias=False)
      (1): BatchNorm2d(64, eps=1e-05, momentum=0.1, affine=True, track_running_stats=True)
      (2): LeakyReLU(negative_slope=0.2, inplace=True)
      (3): MaxPool2d(kernel_size=2, stride=2, padding=0, dilation=1, ceil_mode=False)
      (4): Conv2d(64, 64, kernel_size=(3, 3), stride=(1, 1), padding=(1, 1), bias=False)
      (5): BatchNorm2d(64, eps=1e-05, momentum=0.1, affine=True, track_running_stats=True)
      (6): LeakyReLU(negative_slope=0.2, inplace=True)
      (7): MaxPool2d(kernel_size=2, stride=2, padding=0, dilation=1, ceil_mode=False)
      (8): Conv2d(64, 64, kernel_size=(3, 3), stride=(1, 1), padding=(1, 1), bias=False)
      (9): BatchNorm2d(64, eps=1e-05, momentum=0.1, affine=True, track_running_stats=True)
      (10): LeakyReLU(negative_slope=0.2, inplace=True)
      (11): Conv2d(64, 64, kernel_size=(3, 3), stride=(1, 1), padding=(1, 1), bias=False)
      (12): BatchNorm2d(64, eps=1e-05, momentum=0.1, affine=True, track_running_stats=True)
      (13): LeakyReLU(negative_slope=0.2, inplace=True)
    )
    (criterion): CrossEntropyLoss()
  )
  (DE): RandomForestHead()
)
===================================== Epoch 0 =====================================
Trainset: 100
Valset: 50
Testset: 50
============ Testing on the test set ============
 * Prec@1 26.680 Best_prec1 0.000============ Testing on the test set ============
 * Prec@1 25.120 Best_prec1 26.680Trainset: 100
Valset: 50
Testset: 50
Namespace(arch='DN_X', config='../models/architectures/configs/DN4_Vanilla.yaml', dengine=True, refit_dengine=False, dataset_dir='../dataset/StanfordDogs/', data_name='test1', mode='train', resume='', epochs=1, ngpu=1, print_freq=100, outf='../results/DN_X_test1_DN4_5_Way_5_Shot_K3')DN_X(
  (BACKBONE): FourLayer_64F(
    (features): Sequential(
      (0): Conv2d(3, 64, kernel_size=(3, 3), stride=(1, 1), padding=(1, 1), bias=False)
      (1): BatchNorm2d(64, eps=1e-05, momentum=0.1, affine=True, track_running_stats=True)
      (2): LeakyReLU(negative_slope=0.2, inplace=True)
      (3): MaxPool2d(kernel_size=2, stride=2, padding=0, dilation=1, ceil_mode=False)
      (4): Conv2d(64, 64, kernel_size=(3, 3), stride=(1, 1), padding=(1, 1), bias=False)
      (5): BatchNorm2d(64, eps=1e-05, momentum=0.1, affine=True, track_running_stats=True)
      (6): LeakyReLU(negative_slope=0.2, inplace=True)
      (7): MaxPool2d(kernel_size=2, stride=2, padding=0, dilation=1, ceil_mode=False)
      (8): Conv2d(64, 64, kernel_size=(3, 3), stride=(1, 1), padding=(1, 1), bias=False)
      (9): BatchNorm2d(64, eps=1e-05, momentum=0.1, affine=True, track_running_stats=True)
      (10): LeakyReLU(negative_slope=0.2, inplace=True)
      (11): Conv2d(64, 64, kernel_size=(3, 3), stride=(1, 1), padding=(1, 1), bias=False)
      (12): BatchNorm2d(64, eps=1e-05, momentum=0.1, affine=True, track_running_stats=True)
      (13): LeakyReLU(negative_slope=0.2, inplace=True)
    )
    (criterion): CrossEntropyLoss()
  )
  (DE): RandomForestHead()
)
===================================== Epoch 0 =====================================
Trainset: 100
Valset: 50
Testset: 50
============ Testing on the test set ============
 * Prec@1 27.280 Best_prec1 0.000============ Testing on the test set ============
…
