Namespace(arch='DN_X', dataset_dir='../dataset/StanfordDogs/', data_name='stanforddogz', mode='test', resume='../results/models/epoch_14_best.pth.tar', epochs=30, cuda=True, ngpu=1, nc=3, clamp_lower=-0.01, clamp_upper=0.01, print_freq=100, outf='../results/_DN_X_stanforddogz_DN4_5_Way_5_Shot_K5')
=> loaded checkpoint '../results/models/epoch_14_best.pth.tar' (epoch 14)
DN_X(
  (BACKBONE): FourLayer_64F(
    (features): Sequential(
      (0): Conv2d(3, 64, kernel_size=(3, 3), stride=(1, 1), padding=(1, 1), bias=False)
      (1): BatchNorm2d(64, eps=1e-05, momentum=0.1, affine=True, track_running_stats=True)
      (2): LeakyReLU(negative_slope=0.2, inplace=True)
      (3): MaxPool2d(kernel_size=2, stride=2, padding=0, dilation=1, ceil_mode=False)
      (4): Conv2d(64, 64, kernel_size=(3, 3), stride=(1, 1), padding=(1, 1), bias=False)
      (5): BatchNorm2d(64, eps=1e-05, momentum=0.1, affine=True, track_running_stats=True)
      (6): LeakyReLU(negative_slope=0.2, inplace=True)
      (7): MaxPool2d(kernel_size=2, stride=2, padding=0, dilation=1, ceil_mode=False)
      (8): Conv2d(64, 64, kernel_size=(3, 3), stride=(1, 1), padding=(1, 1), bias=False)
      (9): BatchNorm2d(64, eps=1e-05, momentum=0.1, affine=True, track_running_stats=True)
      (10): LeakyReLU(negative_slope=0.2, inplace=True)
      (11): Conv2d(64, 64, kernel_size=(3, 3), stride=(1, 1), padding=(1, 1), bias=False)
      (12): BatchNorm2d(64, eps=1e-05, momentum=0.1, affine=True, track_running_stats=True)
      (13): LeakyReLU(negative_slope=0.2, inplace=True)
    )
    (criterion): CrossEntropyLoss()
  )
  (DT): RandomForestHead()
)
===================================== Round 0 =====================================
Namespace(arch='DN_X', dataset_dir='../dataset/StanfordDogs/', data_name='stanforddogz', mode='test', resume='../results/models/epoch_14_best.pth.tar', epochs=30, cuda=True, ngpu=1, nc=3, clamp_lower=-0.01, clamp_upper=0.01, print_freq=100, outf='../results/_DN_X_stanforddogz_DN4_5_Way_5_Shot_K5')
=> loaded checkpoint '../results/models/epoch_14_best.pth.tar' (epoch 14)
DN_X(
  (BACKBONE): FourLayer_64F(
    (features): Sequential(
      (0): Conv2d(3, 64, kernel_size=(3, 3), stride=(1, 1), padding=(1, 1), bias=False)
      (1): BatchNorm2d(64, eps=1e-05, momentum=0.1, affine=True, track_running_stats=True)
      (2): LeakyReLU(negative_slope=0.2, inplace=True)
      (3): MaxPool2d(kernel_size=2, stride=2, padding=0, dilation=1, ceil_mode=False)
      (4): Conv2d(64, 64, kernel_size=(3, 3), stride=(1, 1), padding=(1, 1), bias=False)
      (5): BatchNorm2d(64, eps=1e-05, momentum=0.1, affine=True, track_running_stats=True)
      (6): LeakyReLU(negative_slope=0.2, inplace=True)
      (7): MaxPool2d(kernel_size=2, stride=2, padding=0, dilation=1, ceil_mode=False)
      (8): Conv2d(64, 64, kernel_size=(3, 3), stride=(1, 1), padding=(1, 1), bias=False)
      (9): BatchNorm2d(64, eps=1e-05, momentum=0.1, affine=True, track_running_stats=True)
      (10): LeakyReLU(negative_slope=0.2, inplace=True)
      (11): Conv2d(64, 64, kernel_size=(3, 3), stride=(1, 1), padding=(1, 1), bias=False)
      (12): BatchNorm2d(64, eps=1e-05, momentum=0.1, affine=True, track_running_stats=True)
      (13): LeakyReLU(negative_slope=0.2, inplace=True)
    )
    (criterion): CrossEntropyLoss()
  )
  (DT): RandomForestHead()
)
===================================== Round 0 =====================================
Testset: 1000-------------0
Namespace(arch='DN_X', dataset_dir='../dataset/StanfordDogs/', data_name='stanforddogz', mode='test', resume='../results/models/epoch_14_best.pth.tar', epochs=30, cuda=True, ngpu=1, nc=3, clamp_lower=-0.01, clamp_upper=0.01, print_freq=100, outf='../results/_DN_X_stanforddogz_DN4_5_Way_5_Shot_K5')
=> loaded checkpoint '../results/models/epoch_14_best.pth.tar' (epoch 14)
DN_X(
  (BACKBONE): FourLayer_64F(
    (features): Sequential(
      (0): Conv2d(3, 64, kernel_size=(3, 3), stride=(1, 1), padding=(1, 1), bias=False)
      (1): BatchNorm2d(64, eps=1e-05, momentum=0.1, affine=True, track_running_stats=True)
      (2): LeakyReLU(negative_slope=0.2, inplace=True)
      (3): MaxPool2d(kernel_size=2, stride=2, padding=0, dilation=1, ceil_mode=False)
      (4): Conv2d(64, 64, kernel_size=(3, 3), stride=(1, 1), padding=(1, 1), bias=False)
      (5): BatchNorm2d(64, eps=1e-05, momentum=0.1, affine=True, track_running_stats=True)
      (6): LeakyReLU(negative_slope=0.2, inplace=True)
      (7): MaxPool2d(kernel_size=2, stride=2, padding=0, dilation=1, ceil_mode=False)
      (8): Conv2d(64, 64, kernel_size=(3, 3), stride=(1, 1), padding=(1, 1), bias=False)
      (9): BatchNorm2d(64, eps=1e-05, momentum=0.1, affine=True, track_running_stats=True)
      (10): LeakyReLU(negative_slope=0.2, inplace=True)
      (11): Conv2d(64, 64, kernel_size=(3, 3), stride=(1, 1), padding=(1, 1), bias=False)
      (12): BatchNorm2d(64, eps=1e-05, momentum=0.1, affine=True, track_running_stats=True)
      (13): LeakyReLU(negative_slope=0.2, inplace=True)
    )
    (criterion): CrossEntropyLoss()
  )
  (DT): RandomForestHead()
)
===================================== Round 0 =====================================
Testset: 1000-------------0
Namespace(arch='DN_X', dataset_dir='../dataset/StanfordDogs/', data_name='stanforddogz', mode='test', resume='../results/models/epoch_14_best.pth.tar', epochs=30, cuda=True, ngpu=1, nc=3, clamp_lower=-0.01, clamp_upper=0.01, print_freq=100, outf='../results/_DN_X_stanforddogz_DN4_5_Way_5_Shot_K5')
=> loaded checkpoint '../results/models/epoch_14_best.pth.tar' (epoch 14)
DN_X(
  (BACKBONE): FourLayer_64F(
    (features): Sequential(
      (0): Conv2d(3, 64, kernel_size=(3, 3), stride=(1, 1), padding=(1, 1), bias=False)
      (1): BatchNorm2d(64, eps=1e-05, momentum=0.1, affine=True, track_running_stats=True)
      (2): LeakyReLU(negative_slope=0.2, inplace=True)
      (3): MaxPool2d(kernel_size=2, stride=2, padding=0, dilation=1, ceil_mode=False)
      (4): Conv2d(64, 64, kernel_size=(3, 3), stride=(1, 1), padding=(1, 1), bias=False)
      (5): BatchNorm2d(64, eps=1e-05, momentum=0.1, affine=True, track_running_stats=True)
      (6): LeakyReLU(negative_slope=0.2, inplace=True)
      (7): MaxPool2d(kernel_size=2, stride=2, padding=0, dilation=1, ceil_mode=False)
      (8): Conv2d(64, 64, kernel_size=(3, 3), stride=(1, 1), padding=(1, 1), bias=False)
      (9): BatchNorm2d(64, eps=1e-05, momentum=0.1, affine=True, track_running_stats=True)
      (10): LeakyReLU(negative_slope=0.2, inplace=True)
      (11): Conv2d(64, 64, kernel_size=(3, 3), stride=(1, 1), padding=(1, 1), bias=False)
      (12): BatchNorm2d(64, eps=1e-05, momentum=0.1, affine=True, track_running_stats=True)
      (13): LeakyReLU(negative_slope=0.2, inplace=True)
    )
    (criterion): CrossEntropyLoss()
  )
  (DT): RandomForestHead()
)
===================================== Round 0 =====================================
Testset: 1000-------------0
Namespace(arch='DN_X', dataset_dir='../dataset/StanfordDogs/', data_name='stanforddogz', mode='test', resume='../results/models/epoch_14_best.pth.tar', epochs=30, cuda=True, ngpu=1, nc=3, clamp_lower=-0.01, clamp_upper=0.01, print_freq=100, outf='../results/_DN_X_stanforddogz_DN4_5_Way_5_Shot_K5')
=> loaded checkpoint '../results/models/epoch_14_best.pth.tar' (epoch 14)
DN_X(
  (BACKBONE): FourLayer_64F(
    (features): Sequential(
      (0): Conv2d(3, 64, kernel_size=(3, 3), stride=(1, 1), padding=(1, 1), bias=False)
      (1): BatchNorm2d(64, eps=1e-05, momentum=0.1, affine=True, track_running_stats=True)
      (2): LeakyReLU(negative_slope=0.2, inplace=True)
      (3): MaxPool2d(kernel_size=2, stride=2, padding=0, dilation=1, ceil_mode=False)
      (4): Conv2d(64, 64, kernel_size=(3, 3), stride=(1, 1), padding=(1, 1), bias=False)
      (5): BatchNorm2d(64, eps=1e-05, momentum=0.1, affine=True, track_running_stats=True)
      (6): LeakyReLU(negative_slope=0.2, inplace=True)
      (7): MaxPool2d(kernel_size=2, stride=2, padding=0, dilation=1, ceil_mode=False)
      (8): Conv2d(64, 64, kernel_size=(3, 3), stride=(1, 1), padding=(1, 1), bias=False)
      (9): BatchNorm2d(64, eps=1e-05, momentum=0.1, affine=True, track_running_stats=True)
      (10): LeakyReLU(negative_slope=0.2, inplace=True)
      (11): Conv2d(64, 64, kernel_size=(3, 3), stride=(1, 1), padding=(1, 1), bias=False)
      (12): BatchNorm2d(64, eps=1e-05, momentum=0.1, affine=True, track_running_stats=True)
      (13): LeakyReLU(negative_slope=0.2, inplace=True)
    )
    (criterion): CrossEntropyLoss()
  )
  (DT): RandomForestHead()
)
===================================== Round 0 =====================================
Testset: 1000-------------0
Namespace(arch='DN_X', dataset_dir='../dataset/StanfordDogs/', data_name='stanforddogz', mode='test', resume='../results/models/epoch_14_best.pth.tar', epochs=30, cuda=True, ngpu=1, nc=3, clamp_lower=-0.01, clamp_upper=0.01, print_freq=100, outf='../results/_DN_X_stanforddogz_DN4_5_Way_5_Shot_K5')
=> loaded checkpoint '../results/models/epoch_14_best.pth.tar' (epoch 14)
DN_X(
  (BACKBONE): FourLayer_64F(
    (features): Sequential(
      (0): Conv2d(3, 64, kernel_size=(3, 3), stride=(1, 1), padding=(1, 1), bias=False)
      (1): BatchNorm2d(64, eps=1e-05, momentum=0.1, affine=True, track_running_stats=True)
      (2): LeakyReLU(negative_slope=0.2, inplace=True)
      (3): MaxPool2d(kernel_size=2, stride=2, padding=0, dilation=1, ceil_mode=False)
      (4): Conv2d(64, 64, kernel_size=(3, 3), stride=(1, 1), padding=(1, 1), bias=False)
      (5): BatchNorm2d(64, eps=1e-05, momentum=0.1, affine=True, track_running_stats=True)
      (6): LeakyReLU(negative_slope=0.2, inplace=True)
      (7): MaxPool2d(kernel_size=2, stride=2, padding=0, dilation=1, ceil_mode=False)
      (8): Conv2d(64, 64, kernel_size=(3, 3), stride=(1, 1), padding=(1, 1), bias=False)
      (9): BatchNorm2d(64, eps=1e-05, momentum=0.1, affine=True, track_running_stats=True)
      (10): LeakyReLU(negative_slope=0.2, inplace=True)
      (11): Conv2d(64, 64, kernel_size=(3, 3), stride=(1, 1), padding=(1, 1), bias=False)
      (12): BatchNorm2d(64, eps=1e-05, momentum=0.1, affine=True, track_running_stats=True)
      (13): LeakyReLU(negative_slope=0.2, inplace=True)
    )
    (criterion): CrossEntropyLoss()
  )
  (DT): RandomForestHead()
)
===================================== Round 0 =====================================
Testset: 1000-------------0
Test-(14): [100/1000]	Time 0.112 (0.126)	Loss 1.478 (1.501)	Prec@1 72.000 (66.515)
Test-(14): [200/1000]	Time 0.127 (0.123)	Loss 0.973 (1.482)	Prec@1 72.000 (66.318)
Namespace(arch='DN_X', dataset_dir='../dataset/StanfordDogs/', data_name='stanforddogz', mode='test', resume='../results/models/epoch_14_best.pth.tar', epochs=30, cuda=True, ngpu=1, nc=3, clamp_lower=-0.01, clamp_upper=0.01, print_freq=100, outf='../results/_DN_X_stanforddogz_DN4_5_Way_5_Shot_K5')
=> loaded checkpoint '../results/models/epoch_14_best.pth.tar' (epoch 14)
DN_X(
  (BACKBONE): FourLayer_64F(
    (features): Sequential(
      (0): Conv2d(3, 64, kernel_size=(3, 3), stride=(1, 1), padding=(1, 1), bias=False)
      (1): BatchNorm2d(64, eps=1e-05, momentum=0.1, affine=True, track_running_stats=True)
      (2): LeakyReLU(negative_slope=0.2, inplace=True)
      (3): MaxPool2d(kernel_size=2, stride=2, padding=0, dilation=1, ceil_mode=False)
      (4): Conv2d(64, 64, kernel_size=(3, 3), stride=(1, 1), padding=(1, 1), bias=False)
      (5): BatchNorm2d(64, eps=1e-05, momentum=0.1, affine=True, track_running_stats=True)
      (6): LeakyReLU(negative_slope=0.2, inplace=True)
      (7): MaxPool2d(kernel_size=2, stride=2, padding=0, dilation=1, ceil_mode=False)
      (8): Conv2d(64, 64, kernel_size=(3, 3), stride=(1, 1), padding=(1, 1), bias=False)
      (9): BatchNorm2d(64, eps=1e-05, momentum=0.1, affine=True, track_running_stats=True)
      (10): LeakyReLU(negative_slope=0.2, inplace=True)
      (11): Conv2d(64, 64, kernel_size=(3, 3), stride=(1, 1), padding=(1, 1), bias=False)
      (12): BatchNorm2d(64, eps=1e-05, momentum=0.1, affine=True, track_running_stats=True)
      (13): LeakyReLU(negative_slope=0.2, inplace=True)
    )
    (criterion): CrossEntropyLoss()
  )
  (DT): RandomForestHead()
)
===================================== Round 0 =====================================
Testset: 1000-------------0
Test-(14): [100/1000]	Time 0.107 (0.123)	Loss 10.572 (11.772)	Prec@1 30.000 (32.079)
Namespace(arch='DN_X', dataset_dir='../dataset/StanfordDogs/', data_name='stanforddogz', mode='test', resume='../results/models/epoch_14_best.pth.tar', epochs=30, cuda=True, ngpu=1, nc=3, clamp_lower=-0.01, clamp_upper=0.01, print_freq=100, outf='../results/_DN_X_stanforddogz_DN4_5_Way_5_Shot_K5')
=> loaded checkpoint '../results/models/epoch_14_best.pth.tar' (epoch 14)
DN_X(
  (BACKBONE): FourLayer_64F(
    (features): Sequential(
      (0): Conv2d(3, 64, kernel_size=(3, 3), stride=(1, 1), padding=(1, 1), bias=False)
      (1): BatchNorm2d(64, eps=1e-05, momentum=0.1, affine=True, track_running_stats=True)
      (2): LeakyReLU(negative_slope=0.2, inplace=True)
      (3): MaxPool2d(kernel_size=2, stride=2, padding=0, dilation=1, ceil_mode=False)
      (4): Conv2d(64, 64, kernel_size=(3, 3), stride=(1, 1), padding=(1, 1), bias=False)
      (5): BatchNorm2d(64, eps=1e-05, momentum=0.1, affine=True, track_running_stats=True)
      (6): LeakyReLU(negative_slope=0.2, inplace=True)
      (7): MaxPool2d(kernel_size=2, stride=2, padding=0, dilation=1, ceil_mode=False)
      (8): Conv2d(64, 64, kernel_size=(3, 3), stride=(1, 1), padding=(1, 1), bias=False)
      (9): BatchNorm2d(64, eps=1e-05, momentum=0.1, affine=True, track_running_stats=True)
      (10): LeakyReLU(negative_slope=0.2, inplace=True)
      (11): Conv2d(64, 64, kernel_size=(3, 3), stride=(1, 1), padding=(1, 1), bias=False)
      (12): BatchNorm2d(64, eps=1e-05, momentum=0.1, affine=True, track_running_stats=True)
      (13): LeakyReLU(negative_slope=0.2, inplace=True)
    )
    (criterion): CrossEntropyLoss()
  )
  (DT): RandomForestHead()
)
===================================== Round 0 =====================================
Testset: 1000-------------0
Test-(14): [100/1000]	Time 0.105 (0.121)	Loss 1.051 (1.479)	Prec@1 80.000 (66.990)
Test-(14): [200/1000]	Time 0.124 (0.118)	Loss 1.019 (1.536)	Prec@1 66.000 (66.100)
Namespace(arch='DN_X', cfg='../models/architectures/DN_X/config.yaml', dataset_dir='../dataset/StanfordDogs/', data_name='stanforddogz', mode='test', resume='../results/models/epoch_14_best.pth.tar', epochs=30, cuda=True, ngpu=1, nc=3, clamp_lower=-0.01, clamp_upper=0.01, print_freq=100, outf='../results/_DN_X_stanforddogz_DN4_5_Way_5_Shot_K5')
=> loaded checkpoint '../results/models/epoch_14_best.pth.tar' (epoch 14)
DN_X(
  (BACKBONE): FourLayer_64F(
    (features): Sequential(
      (0): Conv2d(3, 64, kernel_size=(3, 3), stride=(1, 1), padding=(1, 1), bias=False)
      (1): BatchNorm2d(64, eps=1e-05, momentum=0.1, affine=True, track_running_stats=True)
      (2): LeakyReLU(negative_slope=0.2, inplace=True)
      (3): MaxPool2d(kernel_size=2, stride=2, padding=0, dilation=1, ceil_mode=False)
      (4): Conv2d(64, 64, kernel_size=(3, 3), stride=(1, 1), padding=(1, 1), bias=False)
      (5): BatchNorm2d(64, eps=1e-05, momentum=0.1, affine=True, track_running_stats=True)
      (6): LeakyReLU(negative_slope=0.2, inplace=True)
      (7): MaxPool2d(kernel_size=2, stride=2, padding=0, dilation=1, ceil_mode=False)
      (8): Conv2d(64, 64, kernel_size=(3, 3), stride=(1, 1), padding=(1, 1), bias=False)
      (9): BatchNorm2d(64, eps=1e-05, momentum=0.1, affine=True, track_running_stats=True)
      (10): LeakyReLU(negative_slope=0.2, inplace=True)
      (11): Conv2d(64, 64, kernel_size=(3, 3), stride=(1, 1), padding=(1, 1), bias=False)
      (12): BatchNorm2d(64, eps=1e-05, momentum=0.1, affine=True, track_running_stats=True)
      (13): LeakyReLU(negative_slope=0.2, inplace=True)
    )
    (criterion): CrossEntropyLoss()
  )
  (DT): RandomForestHead()
)
===================================== Round 0 =====================================
Testset: 1000-------------0
Test-(14): [100/1000]	Time 0.111 (0.126)	Loss 0.793 (1.509)	Prec@1 72.000 (66.079)
Test-(14): [200/1000]	Time 0.103 (0.120)	Loss 1.864 (1.537)	Prec@1 68.000 (65.652)
…
Test-(14): [200/1000]	Time 0.125 (0.125)	Loss 1.411 (1.480)	Prec@1 70.000 (66.985)
Test-(14): [300/1000]	Time 0.105 (0.121)	Loss 1.527 (1.530)	Prec@1 70.000 (66.492)
Namespace(arch='DN_X', cfg='../models/architectures/DN_X/config.yaml', dataset_dir='../dataset/StanfordDogs/', data_name='stanforddogz', mode='test', resume='../results/models/epoch_14_best.pth.tar', epochs=30, cuda=True, ngpu=1, nc=3, clamp_lower=-0.01, clamp_upper=0.01, print_freq=100, outf='../results/_DN_X_stanforddogz_DN4_5_Way_5_Shot_K5')
=> loaded checkpoint '../results/models/epoch_14_best.pth.tar' (epoch 14)
DN_X(
  (BACKBONE): FourLayer_64F(
    (features): Sequential(
      (0): Conv2d(3, 64, kernel_size=(3, 3), stride=(1, 1), padding=(1, 1), bias=False)
      (1): BatchNorm2d(64, eps=1e-05, momentum=0.1, affine=True, track_running_stats=True)
      (2): LeakyReLU(negative_slope=0.2, inplace=True)
      (3): MaxPool2d(kernel_size=2, stride=2, padding=0, dilation=1, ceil_mode=False)
      (4): Conv2d(64, 64, kernel_size=(3, 3), stride=(1, 1), padding=(1, 1), bias=False)
      (5): BatchNorm2d(64, eps=1e-05, momentum=0.1, affine=True, track_running_stats=True)
      (6): LeakyReLU(negative_slope=0.2, inplace=True)
      (7): MaxPool2d(kernel_size=2, stride=2, padding=0, dilation=1, ceil_mode=False)
      (8): Conv2d(64, 64, kernel_size=(3, 3), stride=(1, 1), padding=(1, 1), bias=False)
      (9): BatchNorm2d(64, eps=1e-05, momentum=0.1, affine=True, track_running_stats=True)
      (10): LeakyReLU(negative_slope=0.2, inplace=True)
      (11): Conv2d(64, 64, kernel_size=(3, 3), stride=(1, 1), padding=(1, 1), bias=False)
      (12): BatchNorm2d(64, eps=1e-05, momentum=0.1, affine=True, track_running_stats=True)
      (13): LeakyReLU(negative_slope=0.2, inplace=True)
    )
    (criterion): CrossEntropyLoss()
  )
  (DT): RandomForestHead()
)
===================================== Round 0 =====================================
Testset: 1000-------------0
Test-(14): [100/1000]	Time 0.128 (0.123)	Loss 0.833 (1.587)	Prec@1 82.000 (65.644)
Namespace(arch='DN_X', cfg='../models/architectures/DN_X/config.yaml', dataset_dir='../dataset/StanfordDogs/', data_name='stanforddogz', mode='test', resume='../results/models/epoch_14_best.pth.tar', epochs=30, cuda=True, ngpu=1, nc=3, clamp_lower=-0.01, clamp_upper=0.01, print_freq=100, outf='../results/_DN_X_stanforddogz_DN4_5_Way_5_Shot_K5')
=> loaded checkpoint '../results/models/epoch_14_best.pth.tar' (epoch 14)
DN_X(
  (BACKBONE): FourLayer_64F(
    (features): Sequential(
      (0): Conv2d(3, 64, kernel_size=(3, 3), stride=(1, 1), padding=(1, 1), bias=False)
      (1): BatchNorm2d(64, eps=1e-05, momentum=0.1, affine=True, track_running_stats=True)
      (2): LeakyReLU(negative_slope=0.2, inplace=True)
      (3): MaxPool2d(kernel_size=2, stride=2, padding=0, dilation=1, ceil_mode=False)
      (4): Conv2d(64, 64, kernel_size=(3, 3), stride=(1, 1), padding=(1, 1), bias=False)
      (5): BatchNorm2d(64, eps=1e-05, momentum=0.1, affine=True, track_running_stats=True)
      (6): LeakyReLU(negative_slope=0.2, inplace=True)
      (7): MaxPool2d(kernel_size=2, stride=2, padding=0, dilation=1, ceil_mode=False)
      (8): Conv2d(64, 64, kernel_size=(3, 3), stride=(1, 1), padding=(1, 1), bias=False)
      (9): BatchNorm2d(64, eps=1e-05, momentum=0.1, affine=True, track_running_stats=True)
      (10): LeakyReLU(negative_slope=0.2, inplace=True)
      (11): Conv2d(64, 64, kernel_size=(3, 3), stride=(1, 1), padding=(1, 1), bias=False)
      (12): BatchNorm2d(64, eps=1e-05, momentum=0.1, affine=True, track_running_stats=True)
      (13): LeakyReLU(negative_slope=0.2, inplace=True)
    )
    (criterion): CrossEntropyLoss()
  )
  (DT): RandomForestHead()
)
===================================== Round 0 =====================================
Testset: 1000-------------0
Namespace(arch='DN_X', cfg='../models/architectures/DN_X/config.yaml', dataset_dir='../dataset/StanfordDogs/', data_name='stanforddogz', mode='test', resume='../results/models/epoch_14_best.pth.tar', epochs=30, cuda=True, ngpu=1, nc=3, clamp_lower=-0.01, clamp_upper=0.01, print_freq=100, outf='../results/_DN_X_stanforddogz_DN4_5_Way_5_Shot_K5')
=> loaded checkpoint '../results/models/epoch_14_best.pth.tar' (epoch 14)
DN_X(
  (BACKBONE): FourLayer_64F(
    (features): Sequential(
      (0): Conv2d(3, 64, kernel_size=(3, 3), stride=(1, 1), padding=(1, 1), bias=False)
      (1): BatchNorm2d(64, eps=1e-05, momentum=0.1, affine=True, track_running_stats=True)
      (2): LeakyReLU(negative_slope=0.2, inplace=True)
      (3): MaxPool2d(kernel_size=2, stride=2, padding=0, dilation=1, ceil_mode=False)
      (4): Conv2d(64, 64, kernel_size=(3, 3), stride=(1, 1), padding=(1, 1), bias=False)
      (5): BatchNorm2d(64, eps=1e-05, momentum=0.1, affine=True, track_running_stats=True)
      (6): LeakyReLU(negative_slope=0.2, inplace=True)
      (7): MaxPool2d(kernel_size=2, stride=2, padding=0, dilation=1, ceil_mode=False)
      (8): Conv2d(64, 64, kernel_size=(3, 3), stride=(1, 1), padding=(1, 1), bias=False)
      (9): BatchNorm2d(64, eps=1e-05, momentum=0.1, affine=True, track_running_stats=True)
      (10): LeakyReLU(negative_slope=0.2, inplace=True)
      (11): Conv2d(64, 64, kernel_size=(3, 3), stride=(1, 1), padding=(1, 1), bias=False)
      (12): BatchNorm2d(64, eps=1e-05, momentum=0.1, affine=True, track_running_stats=True)
      (13): LeakyReLU(negative_slope=0.2, inplace=True)
    )
    (criterion): CrossEntropyLoss()
  )
  (DT): RandomForestHead()
)
===================================== Round 0 =====================================
Testset: 1000-------------0
Test-(14): [100/1000]	Time 0.125 (0.126)	Loss 0.965 (1.411)	Prec@1 70.000 (68.119)
Test-(14): [200/1000]	Time 0.097 (0.121)	Loss 0.624 (1.467)	Prec@1 82.000 (67.154)
…
Test-(14): [200/600]	Time 0.121 (0.121)	Loss 1.365 (1.246)	Prec@1 54.000 (65.861)
Test-(14): [300/600]	Time 0.124 (0.118)	Loss 1.225 (1.248)	Prec@1 68.000 (65.721)
Namespace(arch='DN_X', cfg='../models/architectures/DN_X/config.yaml', dataset_dir='../dataset/StanfordDogs/', data_name='stanforddogz', mode='test', resume='../results/models/epoch_14_best.pth.tar', epochs=30, cuda=True, ngpu=1, nc=3, clamp_lower=-0.01, clamp_upper=0.01, print_freq=100, outf='../results/_DN_X_stanforddogz_DN4_5_Way_5_Shot_K5')
=> loaded checkpoint '../results/models/epoch_14_best.pth.tar' (epoch 14)
DN_X(
  (BACKBONE): FourLayer_64F(
    (features): Sequential(
      (0): Conv2d(3, 64, kernel_size=(3, 3), stride=(1, 1), padding=(1, 1), bias=False)
      (1): BatchNorm2d(64, eps=1e-05, momentum=0.1, affine=True, track_running_stats=True)
      (2): LeakyReLU(negative_slope=0.2, inplace=True)
      (3): MaxPool2d(kernel_size=2, stride=2, padding=0, dilation=1, ceil_mode=False)
      (4): Conv2d(64, 64, kernel_size=(3, 3), stride=(1, 1), padding=(1, 1), bias=False)
      (5): BatchNorm2d(64, eps=1e-05, momentum=0.1, affine=True, track_running_stats=True)
      (6): LeakyReLU(negative_slope=0.2, inplace=True)
      (7): MaxPool2d(kernel_size=2, stride=2, padding=0, dilation=1, ceil_mode=False)
      (8): Conv2d(64, 64, kernel_size=(3, 3), stride=(1, 1), padding=(1, 1), bias=False)
      (9): BatchNorm2d(64, eps=1e-05, momentum=0.1, affine=True, track_running_stats=True)
      (10): LeakyReLU(negative_slope=0.2, inplace=True)
      (11): Conv2d(64, 64, kernel_size=(3, 3), stride=(1, 1), padding=(1, 1), bias=False)
      (12): BatchNorm2d(64, eps=1e-05, momentum=0.1, affine=True, track_running_stats=True)
      (13): LeakyReLU(negative_slope=0.2, inplace=True)
    )
    (criterion): CrossEntropyLoss()
  )
  (DT): RandomForestHead()
)
===================================== Round 0 =====================================
Testset: 600-------------0
Namespace(arch='DN_X', cfg='../models/architectures/DN_X/config.yaml', dataset_dir='../dataset/StanfordDogs/', data_name='stanforddogz', mode='test', resume='../results/models/epoch_14_best.pth.tar', epochs=30, cuda=True, ngpu=1, nc=3, clamp_lower=-0.01, clamp_upper=0.01, print_freq=100, outf='../results/_DN_X_stanforddogz_DN4_5_Way_5_Shot_K5')
=> loaded checkpoint '../results/models/epoch_14_best.pth.tar' (epoch 14)
DN_X(
  (BACKBONE): FourLayer_64F(
    (features): Sequential(
      (0): Conv2d(3, 64, kernel_size=(3, 3), stride=(1, 1), padding=(1, 1), bias=False)
      (1): BatchNorm2d(64, eps=1e-05, momentum=0.1, affine=True, track_running_stats=True)
      (2): LeakyReLU(negative_slope=0.2, inplace=True)
      (3): MaxPool2d(kernel_size=2, stride=2, padding=0, dilation=1, ceil_mode=False)
      (4): Conv2d(64, 64, kernel_size=(3, 3), stride=(1, 1), padding=(1, 1), bias=False)
      (5): BatchNorm2d(64, eps=1e-05, momentum=0.1, affine=True, track_running_stats=True)
      (6): LeakyReLU(negative_slope=0.2, inplace=True)
      (7): MaxPool2d(kernel_size=2, stride=2, padding=0, dilation=1, ceil_mode=False)
      (8): Conv2d(64, 64, kernel_size=(3, 3), stride=(1, 1), padding=(1, 1), bias=False)
      (9): BatchNorm2d(64, eps=1e-05, momentum=0.1, affine=True, track_running_stats=True)
      (10): LeakyReLU(negative_slope=0.2, inplace=True)
      (11): Conv2d(64, 64, kernel_size=(3, 3), stride=(1, 1), padding=(1, 1), bias=False)
      (12): BatchNorm2d(64, eps=1e-05, momentum=0.1, affine=True, track_running_stats=True)
      (13): LeakyReLU(negative_slope=0.2, inplace=True)
    )
    (criterion): CrossEntropyLoss()
  )
  (DT): RandomForestHead()
)
===================================== Round 0 =====================================
Testset: 600-------------0
Namespace(arch='DN_X', cfg='../models/architectures/DN_X/config.yaml', dataset_dir='../dataset/StanfordDogs/', data_name='stanforddogz', mode='test', resume='../results/models/epoch_14_best.pth.tar', epochs=30, cuda=True, ngpu=1, nc=3, clamp_lower=-0.01, clamp_upper=0.01, print_freq=100, outf='../results/_DN_X_stanforddogz_DN4_5_Way_5_Shot_K5')
=> loaded checkpoint '../results/models/epoch_14_best.pth.tar' (epoch 14)
DN_X(
  (BACKBONE): FourLayer_64F(
    (features): Sequential(
      (0): Conv2d(3, 64, kernel_size=(3, 3), stride=(1, 1), padding=(1, 1), bias=False)
      (1): BatchNorm2d(64, eps=1e-05, momentum=0.1, affine=True, track_running_stats=True)
      (2): LeakyReLU(negative_slope=0.2, inplace=True)
      (3): MaxPool2d(kernel_size=2, stride=2, padding=0, dilation=1, ceil_mode=False)
      (4): Conv2d(64, 64, kernel_size=(3, 3), stride=(1, 1), padding=(1, 1), bias=False)
      (5): BatchNorm2d(64, eps=1e-05, momentum=0.1, affine=True, track_running_stats=True)
      (6): LeakyReLU(negative_slope=0.2, inplace=True)
      (7): MaxPool2d(kernel_size=2, stride=2, padding=0, dilation=1, ceil_mode=False)
      (8): Conv2d(64, 64, kernel_size=(3, 3), stride=(1, 1), padding=(1, 1), bias=False)
      (9): BatchNorm2d(64, eps=1e-05, momentum=0.1, affine=True, track_running_stats=True)
      (10): LeakyReLU(negative_slope=0.2, inplace=True)
      (11): Conv2d(64, 64, kernel_size=(3, 3), stride=(1, 1), padding=(1, 1), bias=False)
      (12): BatchNorm2d(64, eps=1e-05, momentum=0.1, affine=True, track_running_stats=True)
      (13): LeakyReLU(negative_slope=0.2, inplace=True)
    )
    (criterion): CrossEntropyLoss()
  )
  (DT): RandomForestHead()
)
===================================== Round 0 =====================================
Testset: 600-------------0
Namespace(arch='DN_X', cfg='../models/architectures/configs/DN4_Vanilla.yaml', dataset_dir='../dataset/StanfordDogs/', data_name='stanforddogz', mode='train', resume='../results/models/epoch_14_best.pth.tar', epochs=0, cuda=True, ngpu=1, nc=3, clamp_lower=-0.01, clamp_upper=0.01, print_freq=100, outf='../results/_DN_X_stanforddogz_DN4_5_Way_5_Shot_K5')
=> loaded checkpoint '../results/models/epoch_14_best.pth.tar' (epoch 14)
DN_X(
  (BACKBONE): FourLayer_64F(
    (features): Sequential(
      (0): Conv2d(3, 64, kernel_size=(3, 3), stride=(1, 1), padding=(1, 1), bias=False)
      (1): BatchNorm2d(64, eps=1e-05, momentum=0.1, affine=True, track_running_stats=True)
      (2): LeakyReLU(negative_slope=0.2, inplace=True)
      (3): MaxPool2d(kernel_size=2, stride=2, padding=0, dilation=1, ceil_mode=False)
      (4): Conv2d(64, 64, kernel_size=(3, 3), stride=(1, 1), padding=(1, 1), bias=False)
      (5): BatchNorm2d(64, eps=1e-05, momentum=0.1, affine=True, track_running_stats=True)
      (6): LeakyReLU(negative_slope=0.2, inplace=True)
      (7): MaxPool2d(kernel_size=2, stride=2, padding=0, dilation=1, ceil_mode=False)
      (8): Conv2d(64, 64, kernel_size=(3, 3), stride=(1, 1), padding=(1, 1), bias=False)
      (9): BatchNorm2d(64, eps=1e-05, momentum=0.1, affine=True, track_running_stats=True)
      (10): LeakyReLU(negative_slope=0.2, inplace=True)
      (11): Conv2d(64, 64, kernel_size=(3, 3), stride=(1, 1), padding=(1, 1), bias=False)
      (12): BatchNorm2d(64, eps=1e-05, momentum=0.1, affine=True, track_running_stats=True)
      (13): LeakyReLU(negative_slope=0.2, inplace=True)
    )
    (criterion): CrossEntropyLoss()
  )
  (DT): RandomForestHead()
)
============ validation on the val set ============
Trainset: 10000
Valset: 600
Testset: 600
Test-(14): [100/600]	Time 0.147 (0.168)	Loss 1.323 (1.883)	Prec@1 74.000 (61.545)
Test-(14): [200/600]	Time 0.170 (0.167)	Loss 1.637 (1.902)	Prec@1 62.000 (61.542)
…
Test-(14): [400/600]	Time 0.152 (0.162)	Loss 0.924 (1.896)	Prec@1 72.000 (61.446)
Test-(14): [500/600]	Time 0.167 (0.162)	Loss 0.808 (1.880)	Prec@1 68.000 (61.573)
Namespace(arch='DN_X', cfg='../models/architectures/configs/DN4_Vanilla.yaml', dataset_dir='../dataset/StanfordDogs/', data_name='stanforddogz', mode='train', resume='../results/models/epoch_14_best.pth.tar', epochs=0, cuda=True, ngpu=1, nc=3, clamp_lower=-0.01, clamp_upper=0.01, print_freq=100, outf='../results/_DN_X_stanforddogz_DN4_5_Way_5_Shot_K5')
=> loaded checkpoint '../results/models/epoch_14_best.pth.tar' (epoch 14)
DN_X(
  (BACKBONE): FourLayer_64F(
    (features): Sequential(
      (0): Conv2d(3, 64, kernel_size=(3, 3), stride=(1, 1), padding=(1, 1), bias=False)
      (1): BatchNorm2d(64, eps=1e-05, momentum=0.1, affine=True, track_running_stats=True)
      (2): LeakyReLU(negative_slope=0.2, inplace=True)
      (3): MaxPool2d(kernel_size=2, stride=2, padding=0, dilation=1, ceil_mode=False)
      (4): Conv2d(64, 64, kernel_size=(3, 3), stride=(1, 1), padding=(1, 1), bias=False)
      (5): BatchNorm2d(64, eps=1e-05, momentum=0.1, affine=True, track_running_stats=True)
      (6): LeakyReLU(negative_slope=0.2, inplace=True)
      (7): MaxPool2d(kernel_size=2, stride=2, padding=0, dilation=1, ceil_mode=False)
      (8): Conv2d(64, 64, kernel_size=(3, 3), stride=(1, 1), padding=(1, 1), bias=False)
      (9): BatchNorm2d(64, eps=1e-05, momentum=0.1, affine=True, track_running_stats=True)
      (10): LeakyReLU(negative_slope=0.2, inplace=True)
      (11): Conv2d(64, 64, kernel_size=(3, 3), stride=(1, 1), padding=(1, 1), bias=False)
      (12): BatchNorm2d(64, eps=1e-05, momentum=0.1, affine=True, track_running_stats=True)
      (13): LeakyReLU(negative_slope=0.2, inplace=True)
    )
    (criterion): CrossEntropyLoss()
  )
  (DT): RandomForestHead()
)
============ validation on the val set ============
Trainset: 10000
Valset: 600
Testset: 600
Test-(14): [100/600]	Time 0.155 (0.193)	Loss 1.110 (1.947)	Prec@1 68.000 (61.307)
Namespace(arch='DN_X', cfg='../models/architectures/configs/DN4_Vanilla.yaml', dataset_dir='../dataset/StanfordDogs/', data_name='stanforddogz', mode='train', resume='../results/models/epoch_14_best.pth.tar', epochs=0, cuda=True, ngpu=1, nc=3, clamp_lower=-0.01, clamp_upper=0.01, print_freq=100, outf='../results/_DN_X_stanforddogz_DN4_5_Way_5_Shot_K5')
=> loaded checkpoint '../results/models/epoch_14_best.pth.tar' (epoch 14)
DN_X(
  (BACKBONE): FourLayer_64F(
    (features): Sequential(
      (0): Conv2d(3, 64, kernel_size=(3, 3), stride=(1, 1), padding=(1, 1), bias=False)
      (1): BatchNorm2d(64, eps=1e-05, momentum=0.1, affine=True, track_running_stats=True)
      (2): LeakyReLU(negative_slope=0.2, inplace=True)
      (3): MaxPool2d(kernel_size=2, stride=2, padding=0, dilation=1, ceil_mode=False)
      (4): Conv2d(64, 64, kernel_size=(3, 3), stride=(1, 1), padding=(1, 1), bias=False)
      (5): BatchNorm2d(64, eps=1e-05, momentum=0.1, affine=True, track_running_stats=True)
      (6): LeakyReLU(negative_slope=0.2, inplace=True)
      (7): MaxPool2d(kernel_size=2, stride=2, padding=0, dilation=1, ceil_mode=False)
      (8): Conv2d(64, 64, kernel_size=(3, 3), stride=(1, 1), padding=(1, 1), bias=False)
      (9): BatchNorm2d(64, eps=1e-05, momentum=0.1, affine=True, track_running_stats=True)
      (10): LeakyReLU(negative_slope=0.2, inplace=True)
      (11): Conv2d(64, 64, kernel_size=(3, 3), stride=(1, 1), padding=(1, 1), bias=False)
      (12): BatchNorm2d(64, eps=1e-05, momentum=0.1, affine=True, track_running_stats=True)
      (13): LeakyReLU(negative_slope=0.2, inplace=True)
    )
    (criterion): CrossEntropyLoss()
  )
  (DT): RandomForestHead()
)
Namespace(arch='DN_X', cfg='../models/architectures/configs/DN4_Vanilla.yaml', dataset_dir='../dataset/StanfordDogs/', data_name='stanforddogz', mode='train', resume='../results/models/epoch_14_best.pth.tar', epochs=0, cuda=True, ngpu=1, nc=3, clamp_lower=-0.01, clamp_upper=0.01, print_freq=100, outf='../results/_DN_X_stanforddogz_DN4_5_Way_5_Shot_K5')
=> loaded checkpoint '../results/models/epoch_14_best.pth.tar' (epoch 14)
DN_X(
  (BACKBONE): FourLayer_64F(
    (features): Sequential(
      (0): Conv2d(3, 64, kernel_size=(3, 3), stride=(1, 1), padding=(1, 1), bias=False)
      (1): BatchNorm2d(64, eps=1e-05, momentum=0.1, affine=True, track_running_stats=True)
      (2): LeakyReLU(negative_slope=0.2, inplace=True)
      (3): MaxPool2d(kernel_size=2, stride=2, padding=0, dilation=1, ceil_mode=False)
      (4): Conv2d(64, 64, kernel_size=(3, 3), stride=(1, 1), padding=(1, 1), bias=False)
      (5): BatchNorm2d(64, eps=1e-05, momentum=0.1, affine=True, track_running_stats=True)
      (6): LeakyReLU(negative_slope=0.2, inplace=True)
      (7): MaxPool2d(kernel_size=2, stride=2, padding=0, dilation=1, ceil_mode=False)
      (8): Conv2d(64, 64, kernel_size=(3, 3), stride=(1, 1), padding=(1, 1), bias=False)
      (9): BatchNorm2d(64, eps=1e-05, momentum=0.1, affine=True, track_running_stats=True)
      (10): LeakyReLU(negative_slope=0.2, inplace=True)
      (11): Conv2d(64, 64, kernel_size=(3, 3), stride=(1, 1), padding=(1, 1), bias=False)
      (12): BatchNorm2d(64, eps=1e-05, momentum=0.1, affine=True, track_running_stats=True)
      (13): LeakyReLU(negative_slope=0.2, inplace=True)
    )
    (criterion): CrossEntropyLoss()
  )
  (DE): RandomForestHead()
)
Trainset: 10000
Valset: 600
Testset: 600
Namespace(arch='DN_X', cfg='../models/architectures/configs/DN4_Vanilla.yaml', dataset_dir='../dataset/StanfordDogs/', data_name='stanforddogz', mode='train', resume='../results/models/epoch_14_best.pth.tar', epochs=0, cuda=True, ngpu=1, nc=3, clamp_lower=-0.01, clamp_upper=0.01, print_freq=100, outf='../results/_DN_X_stanforddogz_DN4_5_Way_5_Shot_K5')
=> loaded checkpoint '../results/models/epoch_14_best.pth.tar' (epoch 14)
DN_X(
  (BACKBONE): FourLayer_64F(
    (features): Sequential(
      (0): Conv2d(3, 64, kernel_size=(3, 3), stride=(1, 1), padding=(1, 1), bias=False)
      (1): BatchNorm2d(64, eps=1e-05, momentum=0.1, affine=True, track_running_stats=True)
      (2): LeakyReLU(negative_slope=0.2, inplace=True)
      (3): MaxPool2d(kernel_size=2, stride=2, padding=0, dilation=1, ceil_mode=False)
      (4): Conv2d(64, 64, kernel_size=(3, 3), stride=(1, 1), padding=(1, 1), bias=False)
      (5): BatchNorm2d(64, eps=1e-05, momentum=0.1, affine=True, track_running_stats=True)
      (6): LeakyReLU(negative_slope=0.2, inplace=True)
      (7): MaxPool2d(kernel_size=2, stride=2, padding=0, dilation=1, ceil_mode=False)
      (8): Conv2d(64, 64, kernel_size=(3, 3), stride=(1, 1), padding=(1, 1), bias=False)
      (9): BatchNorm2d(64, eps=1e-05, momentum=0.1, affine=True, track_running_stats=True)
      (10): LeakyReLU(negative_slope=0.2, inplace=True)
      (11): Conv2d(64, 64, kernel_size=(3, 3), stride=(1, 1), padding=(1, 1), bias=False)
      (12): BatchNorm2d(64, eps=1e-05, momentum=0.1, affine=True, track_running_stats=True)
      (13): LeakyReLU(negative_slope=0.2, inplace=True)
    )
    (criterion): CrossEntropyLoss()
  )
  (DE): RandomForestHead()
)
Trainset: 10000
Valset: 600
Testset: 600
Namespace(arch='DN_X', cfg='../models/architectures/configs/DN4_Vanilla.yaml', dataset_dir='../dataset/StanfordDogs/', data_name='stanforddogz', mode='train', resume='../results/models/epoch_14_best.pth.tar', epochs=0, cuda=True, ngpu=1, nc=3, clamp_lower=-0.01, clamp_upper=0.01, print_freq=100, outf='../results/_DN_X_stanforddogz_DN4_5_Way_5_Shot_K5')
=> loaded checkpoint '../results/models/epoch_14_best.pth.tar' (epoch 14)
DN_X(
  (BACKBONE): FourLayer_64F(
    (features): Sequential(
      (0): Conv2d(3, 64, kernel_size=(3, 3), stride=(1, 1), padding=(1, 1), bias=False)
      (1): BatchNorm2d(64, eps=1e-05, momentum=0.1, affine=True, track_running_stats=True)
      (2): LeakyReLU(negative_slope=0.2, inplace=True)
      (3): MaxPool2d(kernel_size=2, stride=2, padding=0, dilation=1, ceil_mode=False)
      (4): Conv2d(64, 64, kernel_size=(3, 3), stride=(1, 1), padding=(1, 1), bias=False)
      (5): BatchNorm2d(64, eps=1e-05, momentum=0.1, affine=True, track_running_stats=True)
      (6): LeakyReLU(negative_slope=0.2, inplace=True)
      (7): MaxPool2d(kernel_size=2, stride=2, padding=0, dilation=1, ceil_mode=False)
      (8): Conv2d(64, 64, kernel_size=(3, 3), stride=(1, 1), padding=(1, 1), bias=False)
      (9): BatchNorm2d(64, eps=1e-05, momentum=0.1, affine=True, track_running_stats=True)
      (10): LeakyReLU(negative_slope=0.2, inplace=True)
      (11): Conv2d(64, 64, kernel_size=(3, 3), stride=(1, 1), padding=(1, 1), bias=False)
      (12): BatchNorm2d(64, eps=1e-05, momentum=0.1, affine=True, track_running_stats=True)
      (13): LeakyReLU(negative_slope=0.2, inplace=True)
    )
    (criterion): CrossEntropyLoss()
  )
  (DE): RandomForestHead()
)
Namespace(arch='DN_X', cfg='../models/architectures/configs/DN4_Vanilla.yaml', dataset_dir='../dataset/StanfordDogs/', data_name='stanforddogz', mode='train', resume='../results/models/epoch_14_best.pth.tar', epochs=0, cuda=True, ngpu=1, nc=3, clamp_lower=-0.01, clamp_upper=0.01, print_freq=100, outf='../results/_DN_X_stanforddogz_DN4_5_Way_5_Shot_K5')
=> loaded checkpoint '../results/models/epoch_14_best.pth.tar' (epoch 14)
DN_X(
  (BACKBONE): FourLayer_64F(
    (features): Sequential(
      (0): Conv2d(3, 64, kernel_size=(3, 3), stride=(1, 1), padding=(1, 1), bias=False)
      (1): BatchNorm2d(64, eps=1e-05, momentum=0.1, affine=True, track_running_stats=True)
      (2): LeakyReLU(negative_slope=0.2, inplace=True)
      (3): MaxPool2d(kernel_size=2, stride=2, padding=0, dilation=1, ceil_mode=False)
      (4): Conv2d(64, 64, kernel_size=(3, 3), stride=(1, 1), padding=(1, 1), bias=False)
      (5): BatchNorm2d(64, eps=1e-05, momentum=0.1, affine=True, track_running_stats=True)
      (6): LeakyReLU(negative_slope=0.2, inplace=True)
      (7): MaxPool2d(kernel_size=2, stride=2, padding=0, dilation=1, ceil_mode=False)
      (8): Conv2d(64, 64, kernel_size=(3, 3), stride=(1, 1), padding=(1, 1), bias=False)
      (9): BatchNorm2d(64, eps=1e-05, momentum=0.1, affine=True, track_running_stats=True)
      (10): LeakyReLU(negative_slope=0.2, inplace=True)
      (11): Conv2d(64, 64, kernel_size=(3, 3), stride=(1, 1), padding=(1, 1), bias=False)
      (12): BatchNorm2d(64, eps=1e-05, momentum=0.1, affine=True, track_running_stats=True)
      (13): LeakyReLU(negative_slope=0.2, inplace=True)
    )
    (criterion): CrossEntropyLoss()
  )
  (DE): RandomForestHead()
)
Trainset: 10000
Valset: 600
Testset: 600
Namespace(arch='DN_X', cfg='../models/architectures/configs/DN4_Vanilla.yaml', dataset_dir='../dataset/StanfordDogs/', data_name='stanforddogz', mode='train', resume='../results/models/epoch_14_best.pth.tar', epochs=0, cuda=True, ngpu=1, nc=3, clamp_lower=-0.01, clamp_upper=0.01, print_freq=100, outf='../results/_DN_X_stanforddogz_DN4_5_Way_5_Shot_K5')
=> loaded checkpoint '../results/models/epoch_14_best.pth.tar' (epoch 14)
DN_X(
  (BACKBONE): FourLayer_64F(
    (features): Sequential(
      (0): Conv2d(3, 64, kernel_size=(3, 3), stride=(1, 1), padding=(1, 1), bias=False)
      (1): BatchNorm2d(64, eps=1e-05, momentum=0.1, affine=True, track_running_stats=True)
      (2): LeakyReLU(negative_slope=0.2, inplace=True)
      (3): MaxPool2d(kernel_size=2, stride=2, padding=0, dilation=1, ceil_mode=False)
      (4): Conv2d(64, 64, kernel_size=(3, 3), stride=(1, 1), padding=(1, 1), bias=False)
      (5): BatchNorm2d(64, eps=1e-05, momentum=0.1, affine=True, track_running_stats=True)
      (6): LeakyReLU(negative_slope=0.2, inplace=True)
      (7): MaxPool2d(kernel_size=2, stride=2, padding=0, dilation=1, ceil_mode=False)
      (8): Conv2d(64, 64, kernel_size=(3, 3), stride=(1, 1), padding=(1, 1), bias=False)
      (9): BatchNorm2d(64, eps=1e-05, momentum=0.1, affine=True, track_running_stats=True)
      (10): LeakyReLU(negative_slope=0.2, inplace=True)
      (11): Conv2d(64, 64, kernel_size=(3, 3), stride=(1, 1), padding=(1, 1), bias=False)
      (12): BatchNorm2d(64, eps=1e-05, momentum=0.1, affine=True, track_running_stats=True)
      (13): LeakyReLU(negative_slope=0.2, inplace=True)
    )
    (criterion): CrossEntropyLoss()
  )
  (DE): RandomForestHead()
)
Trainset: 10000
Valset: 600
Testset: 600
Namespace(arch='DN_X', cfg='../models/architectures/configs/DN4_Vanilla.yaml', dataset_dir='../dataset/StanfordDogs/', data_name='stanforddogz', mode='train', resume='../results/models/epoch_14_best.pth.tar', epochs=0, cuda=True, ngpu=1, nc=3, clamp_lower=-0.01, clamp_upper=0.01, print_freq=100, outf='../results/_DN_X_stanforddogz_DN4_5_Way_5_Shot_K5')
=> loaded checkpoint '../results/models/epoch_14_best.pth.tar' (epoch 14)
DN_X(
  (BACKBONE): FourLayer_64F(
    (features): Sequential(
      (0): Conv2d(3, 64, kernel_size=(3, 3), stride=(1, 1), padding=(1, 1), bias=False)
      (1): BatchNorm2d(64, eps=1e-05, momentum=0.1, affine=True, track_running_stats=True)
      (2): LeakyReLU(negative_slope=0.2, inplace=True)
      (3): MaxPool2d(kernel_size=2, stride=2, padding=0, dilation=1, ceil_mode=False)
      (4): Conv2d(64, 64, kernel_size=(3, 3), stride=(1, 1), padding=(1, 1), bias=False)
      (5): BatchNorm2d(64, eps=1e-05, momentum=0.1, affine=True, track_running_stats=True)
      (6): LeakyReLU(negative_slope=0.2, inplace=True)
      (7): MaxPool2d(kernel_size=2, stride=2, padding=0, dilation=1, ceil_mode=False)
      (8): Conv2d(64, 64, kernel_size=(3, 3), stride=(1, 1), padding=(1, 1), bias=False)
      (9): BatchNorm2d(64, eps=1e-05, momentum=0.1, affine=True, track_running_stats=True)
      (10): LeakyReLU(negative_slope=0.2, inplace=True)
      (11): Conv2d(64, 64, kernel_size=(3, 3), stride=(1, 1), padding=(1, 1), bias=False)
      (12): BatchNorm2d(64, eps=1e-05, momentum=0.1, affine=True, track_running_stats=True)
      (13): LeakyReLU(negative_slope=0.2, inplace=True)
    )
    (criterion): CrossEntropyLoss()
  )
  (DE): RandomForestHead()
)
Trainset: 10000
Valset: 600
Testset: 600
Namespace(arch='DN_X', cfg='../models/architectures/configs/DN4_Vanilla.yaml', dataset_dir='../dataset/StanfordDogs/', data_name='stanforddogz', mode='train', resume='../results/models/epoch_14_best.pth.tar', epochs=0, cuda=True, ngpu=1, nc=3, clamp_lower=-0.01, clamp_upper=0.01, print_freq=100, outf='../results/_DN_X_stanforddogz_DN4_5_Way_5_Shot_K5')
=> loaded checkpoint '../results/models/epoch_14_best.pth.tar' (epoch 14)
DN_X(
  (BACKBONE): FourLayer_64F(
    (features): Sequential(
      (0): Conv2d(3, 64, kernel_size=(3, 3), stride=(1, 1), padding=(1, 1), bias=False)
      (1): BatchNorm2d(64, eps=1e-05, momentum=0.1, affine=True, track_running_stats=True)
      (2): LeakyReLU(negative_slope=0.2, inplace=True)
      (3): MaxPool2d(kernel_size=2, stride=2, padding=0, dilation=1, ceil_mode=False)
      (4): Conv2d(64, 64, kernel_size=(3, 3), stride=(1, 1), padding=(1, 1), bias=False)
      (5): BatchNorm2d(64, eps=1e-05, momentum=0.1, affine=True, track_running_stats=True)
      (6): LeakyReLU(negative_slope=0.2, inplace=True)
      (7): MaxPool2d(kernel_size=2, stride=2, padding=0, dilation=1, ceil_mode=False)
      (8): Conv2d(64, 64, kernel_size=(3, 3), stride=(1, 1), padding=(1, 1), bias=False)
      (9): BatchNorm2d(64, eps=1e-05, momentum=0.1, affine=True, track_running_stats=True)
      (10): LeakyReLU(negative_slope=0.2, inplace=True)
      (11): Conv2d(64, 64, kernel_size=(3, 3), stride=(1, 1), padding=(1, 1), bias=False)
      (12): BatchNorm2d(64, eps=1e-05, momentum=0.1, affine=True, track_running_stats=True)
      (13): LeakyReLU(negative_slope=0.2, inplace=True)
    )
    (criterion): CrossEntropyLoss()
  )
  (DE): RandomForestHead()
)
Namespace(arch='DN_X', cfg='../models/architectures/configs/DN4_Vanilla.yaml', dataset_dir='../dataset/StanfordDogs/', data_name='stanforddogz', mode='train', resume='../results/models/epoch_14_best.pth.tar', epochs=0, cuda=True, ngpu=1, nc=3, clamp_lower=-0.01, clamp_upper=0.01, print_freq=100, outf='../results/_DN_X_stanforddogz_DN4_5_Way_5_Shot_K5')
=> loaded checkpoint '../results/models/epoch_14_best.pth.tar' (epoch 14)
DN_X(
  (BACKBONE): FourLayer_64F(
    (features): Sequential(
      (0): Conv2d(3, 64, kernel_size=(3, 3), stride=(1, 1), padding=(1, 1), bias=False)
      (1): BatchNorm2d(64, eps=1e-05, momentum=0.1, affine=True, track_running_stats=True)
      (2): LeakyReLU(negative_slope=0.2, inplace=True)
      (3): MaxPool2d(kernel_size=2, stride=2, padding=0, dilation=1, ceil_mode=False)
      (4): Conv2d(64, 64, kernel_size=(3, 3), stride=(1, 1), padding=(1, 1), bias=False)
      (5): BatchNorm2d(64, eps=1e-05, momentum=0.1, affine=True, track_running_stats=True)
      (6): LeakyReLU(negative_slope=0.2, inplace=True)
      (7): MaxPool2d(kernel_size=2, stride=2, padding=0, dilation=1, ceil_mode=False)
      (8): Conv2d(64, 64, kernel_size=(3, 3), stride=(1, 1), padding=(1, 1), bias=False)
      (9): BatchNorm2d(64, eps=1e-05, momentum=0.1, affine=True, track_running_stats=True)
      (10): LeakyReLU(negative_slope=0.2, inplace=True)
      (11): Conv2d(64, 64, kernel_size=(3, 3), stride=(1, 1), padding=(1, 1), bias=False)
      (12): BatchNorm2d(64, eps=1e-05, momentum=0.1, affine=True, track_running_stats=True)
      (13): LeakyReLU(negative_slope=0.2, inplace=True)
    )
    (criterion): CrossEntropyLoss()
  )
  (DE): RandomForestHead()
)
Trainset: 10000
Valset: 600
Testset: 600
Namespace(arch='DN_X', cfg='../models/architectures/configs/DN4_Vanilla.yaml', dataset_dir='../dataset/StanfordDogs/', data_name='stanforddogz', mode='train', resume='../results/models/epoch_14_best.pth.tar', epochs=0, cuda=True, ngpu=1, nc=3, clamp_lower=-0.01, clamp_upper=0.01, print_freq=100, outf='../results/_DN_X_stanforddogz_DN4_5_Way_5_Shot_K5')
=> loaded checkpoint '../results/models/epoch_14_best.pth.tar' (epoch 14)
DN_X(
  (BACKBONE): FourLayer_64F(
    (features): Sequential(
      (0): Conv2d(3, 64, kernel_size=(3, 3), stride=(1, 1), padding=(1, 1), bias=False)
      (1): BatchNorm2d(64, eps=1e-05, momentum=0.1, affine=True, track_running_stats=True)
      (2): LeakyReLU(negative_slope=0.2, inplace=True)
      (3): MaxPool2d(kernel_size=2, stride=2, padding=0, dilation=1, ceil_mode=False)
      (4): Conv2d(64, 64, kernel_size=(3, 3), stride=(1, 1), padding=(1, 1), bias=False)
      (5): BatchNorm2d(64, eps=1e-05, momentum=0.1, affine=True, track_running_stats=True)
      (6): LeakyReLU(negative_slope=0.2, inplace=True)
      (7): MaxPool2d(kernel_size=2, stride=2, padding=0, dilation=1, ceil_mode=False)
      (8): Conv2d(64, 64, kernel_size=(3, 3), stride=(1, 1), padding=(1, 1), bias=False)
      (9): BatchNorm2d(64, eps=1e-05, momentum=0.1, affine=True, track_running_stats=True)
      (10): LeakyReLU(negative_slope=0.2, inplace=True)
      (11): Conv2d(64, 64, kernel_size=(3, 3), stride=(1, 1), padding=(1, 1), bias=False)
      (12): BatchNorm2d(64, eps=1e-05, momentum=0.1, affine=True, track_running_stats=True)
      (13): LeakyReLU(negative_slope=0.2, inplace=True)
    )
    (criterion): CrossEntropyLoss()
  )
  (DE): RandomForestHead()
)
Trainset: 10000
Valset: 600
Testset: 600
Namespace(arch='DN_X', cfg='../models/architectures/configs/DN4_Vanilla.yaml', dataset_dir='../dataset/StanfordDogs/', data_name='stanforddogz', mode='train', resume='../results/models/epoch_14_best.pth.tar', epochs=0, cuda=True, ngpu=1, nc=3, clamp_lower=-0.01, clamp_upper=0.01, print_freq=100, outf='../results/_DN_X_stanforddogz_DN4_5_Way_5_Shot_K5')
…
Namespace(arch='DN_X', cfg='../models/architectures/configs/DN4_Vanilla.yaml', dataset_dir='../dataset/StanfordDogs/', data_name='stanforddogz', mode='train', resume='../results/models/epoch_14_best.pth.tar', epochs=0, cuda=True, ngpu=1, nc=3, clamp_lower=-0.01, clamp_upper=0.01, print_freq=100, outf='../results/_DN_X_stanforddogz_DN4_5_Way_5_Shot_K5')
Namespace(arch='DN_X', cfg='../models/architectures/configs/DN4_Vanilla.yaml', dataset_dir='../dataset/StanfordDogs/', data_name='stanforddogz', mode='train', resume='../results/models/epoch_14_best.pth.tar', epochs=0, cuda=True, ngpu=1, nc=3, clamp_lower=-0.01, clamp_upper=0.01, print_freq=100, outf='../results/_DN_X_stanforddogz_DN4_5_Way_5_Shot_K5')
=> loaded checkpoint '../results/models/epoch_14_best.pth.tar' (epoch 14)
DN_X(
  (BACKBONE): FourLayer_64F(
    (features): Sequential(
      (0): Conv2d(3, 64, kernel_size=(3, 3), stride=(1, 1), padding=(1, 1), bias=False)
      (1): BatchNorm2d(64, eps=1e-05, momentum=0.1, affine=True, track_running_stats=True)
      (2): LeakyReLU(negative_slope=0.2, inplace=True)
      (3): MaxPool2d(kernel_size=2, stride=2, padding=0, dilation=1, ceil_mode=False)
      (4): Conv2d(64, 64, kernel_size=(3, 3), stride=(1, 1), padding=(1, 1), bias=False)
      (5): BatchNorm2d(64, eps=1e-05, momentum=0.1, affine=True, track_running_stats=True)
      (6): LeakyReLU(negative_slope=0.2, inplace=True)
      (7): MaxPool2d(kernel_size=2, stride=2, padding=0, dilation=1, ceil_mode=False)
      (8): Conv2d(64, 64, kernel_size=(3, 3), stride=(1, 1), padding=(1, 1), bias=False)
      (9): BatchNorm2d(64, eps=1e-05, momentum=0.1, affine=True, track_running_stats=True)
      (10): LeakyReLU(negative_slope=0.2, inplace=True)
      (11): Conv2d(64, 64, kernel_size=(3, 3), stride=(1, 1), padding=(1, 1), bias=False)
      (12): BatchNorm2d(64, eps=1e-05, momentum=0.1, affine=True, track_running_stats=True)
      (13): LeakyReLU(negative_slope=0.2, inplace=True)
    )
    (criterion): CrossEntropyLoss()
  )
  (DE): RandomForestHead()
)
Trainset: 10000
Valset: 600
Testset: 600
Namespace(arch='DN_X', cfg='../models/architectures/configs/DN4_Vanilla.yaml', dataset_dir='../dataset/StanfordDogs/', data_name='stanforddogz', mode='train', resume='../results/models/epoch_14_best.pth.tar', epochs=0, cuda=True, ngpu=1, nc=3, clamp_lower=-0.01, clamp_upper=0.01, print_freq=100, outf='../results/_DN_X_stanforddogz_DN4_5_Way_5_Shot_K5')
=> loaded checkpoint '../results/models/epoch_14_best.pth.tar' (epoch 14)
DN_X(
  (BACKBONE): FourLayer_64F(
    (features): Sequential(
      (0): Conv2d(3, 64, kernel_size=(3, 3), stride=(1, 1), padding=(1, 1), bias=False)
      (1): BatchNorm2d(64, eps=1e-05, momentum=0.1, affine=True, track_running_stats=True)
      (2): LeakyReLU(negative_slope=0.2, inplace=True)
      (3): MaxPool2d(kernel_size=2, stride=2, padding=0, dilation=1, ceil_mode=False)
      (4): Conv2d(64, 64, kernel_size=(3, 3), stride=(1, 1), padding=(1, 1), bias=False)
      (5): BatchNorm2d(64, eps=1e-05, momentum=0.1, affine=True, track_running_stats=True)
      (6): LeakyReLU(negative_slope=0.2, inplace=True)
      (7): MaxPool2d(kernel_size=2, stride=2, padding=0, dilation=1, ceil_mode=False)
      (8): Conv2d(64, 64, kernel_size=(3, 3), stride=(1, 1), padding=(1, 1), bias=False)
      (9): BatchNorm2d(64, eps=1e-05, momentum=0.1, affine=True, track_running_stats=True)
      (10): LeakyReLU(negative_slope=0.2, inplace=True)
      (11): Conv2d(64, 64, kernel_size=(3, 3), stride=(1, 1), padding=(1, 1), bias=False)
      (12): BatchNorm2d(64, eps=1e-05, momentum=0.1, affine=True, track_running_stats=True)
      (13): LeakyReLU(negative_slope=0.2, inplace=True)
    )
    (criterion): CrossEntropyLoss()
  )
  (DE): RandomForestHead()
)
Trainset: 10000
Valset: 600
Testset: 600
Namespace(arch='DN_X', cfg='../models/architectures/configs/DN4_Vanilla.yaml', dataset_dir='../dataset/StanfordDogs/', data_name='stanforddogz', mode='train', resume='../results/models/epoch_14_best.pth.tar', epochs=0, cuda=True, ngpu=1, nc=3, clamp_lower=-0.01, clamp_upper=0.01, print_freq=100, outf='../results/_DN_X_stanforddogz_DN4_5_Way_5_Shot_K5')
=> loaded checkpoint '../results/models/epoch_14_best.pth.tar' (epoch 14)
DN_X(
  (BACKBONE): FourLayer_64F(
    (features): Sequential(
      (0): Conv2d(3, 64, kernel_size=(3, 3), stride=(1, 1), padding=(1, 1), bias=False)
      (1): BatchNorm2d(64, eps=1e-05, momentum=0.1, affine=True, track_running_stats=True)
      (2): LeakyReLU(negative_slope=0.2, inplace=True)
      (3): MaxPool2d(kernel_size=2, stride=2, padding=0, dilation=1, ceil_mode=False)
      (4): Conv2d(64, 64, kernel_size=(3, 3), stride=(1, 1), padding=(1, 1), bias=False)
      (5): BatchNorm2d(64, eps=1e-05, momentum=0.1, affine=True, track_running_stats=True)
      (6): LeakyReLU(negative_slope=0.2, inplace=True)
      (7): MaxPool2d(kernel_size=2, stride=2, padding=0, dilation=1, ceil_mode=False)
      (8): Conv2d(64, 64, kernel_size=(3, 3), stride=(1, 1), padding=(1, 1), bias=False)
      (9): BatchNorm2d(64, eps=1e-05, momentum=0.1, affine=True, track_running_stats=True)
      (10): LeakyReLU(negative_slope=0.2, inplace=True)
      (11): Conv2d(64, 64, kernel_size=(3, 3), stride=(1, 1), padding=(1, 1), bias=False)
      (12): BatchNorm2d(64, eps=1e-05, momentum=0.1, affine=True, track_running_stats=True)
      (13): LeakyReLU(negative_slope=0.2, inplace=True)
    )
    (criterion): CrossEntropyLoss()
  )
  (DE): RandomForestHead()
)
Trainset: 10000
Valset: 600
Testset: 600
Namespace(arch='DN_X', cfg='../models/architectures/configs/DN4_Vanilla.yaml', dataset_dir='../dataset/StanfordDogs/', data_name='stanforddogz', mode='train', resume='../results/models/epoch_14_best.pth.tar', epochs=0, cuda=True, ngpu=1, nc=3, clamp_lower=-0.01, clamp_upper=0.01, print_freq=100, outf='../results/_DN_X_stanforddogz_DN4_5_Way_5_Shot_K5')
=> loaded checkpoint '../results/models/epoch_14_best.pth.tar' (epoch 14)
DN_X(
  (BACKBONE): FourLayer_64F(
    (features): Sequential(
      (0): Conv2d(3, 64, kernel_size=(3, 3), stride=(1, 1), padding=(1, 1), bias=False)
      (1): BatchNorm2d(64, eps=1e-05, momentum=0.1, affine=True, track_running_stats=True)
      (2): LeakyReLU(negative_slope=0.2, inplace=True)
      (3): MaxPool2d(kernel_size=2, stride=2, padding=0, dilation=1, ceil_mode=False)
      (4): Conv2d(64, 64, kernel_size=(3, 3), stride=(1, 1), padding=(1, 1), bias=False)
      (5): BatchNorm2d(64, eps=1e-05, momentum=0.1, affine=True, track_running_stats=True)
      (6): LeakyReLU(negative_slope=0.2, inplace=True)
      (7): MaxPool2d(kernel_size=2, stride=2, padding=0, dilation=1, ceil_mode=False)
      (8): Conv2d(64, 64, kernel_size=(3, 3), stride=(1, 1), padding=(1, 1), bias=False)
      (9): BatchNorm2d(64, eps=1e-05, momentum=0.1, affine=True, track_running_stats=True)
      (10): LeakyReLU(negative_slope=0.2, inplace=True)
      (11): Conv2d(64, 64, kernel_size=(3, 3), stride=(1, 1), padding=(1, 1), bias=False)
      (12): BatchNorm2d(64, eps=1e-05, momentum=0.1, affine=True, track_running_stats=True)
      (13): LeakyReLU(negative_slope=0.2, inplace=True)
    )
    (criterion): CrossEntropyLoss()
  )
  (DE): RandomForestHead()
)
Trainset: 10000
Valset: 600
Testset: 600
Namespace(arch='DN_X', cfg='../models/architectures/configs/DN4_Vanilla.yaml', dataset_dir='../dataset/StanfordDogs/', data_name='stanforddogz', mode='train', resume='../results/models/epoch_14_best.pth.tar', epochs=0, cuda=True, ngpu=1, nc=3, clamp_lower=-0.01, clamp_upper=0.01, print_freq=100, outf='../results/_DN_X_stanforddogz_DN4_5_Way_5_Shot_K5')
=> loaded checkpoint '../results/models/epoch_14_best.pth.tar' (epoch 14)
DN_X(
  (BACKBONE): FourLayer_64F(
    (features): Sequential(
      (0): Conv2d(3, 64, kernel_size=(3, 3), stride=(1, 1), padding=(1, 1), bias=False)
      (1): BatchNorm2d(64, eps=1e-05, momentum=0.1, affine=True, track_running_stats=True)
      (2): LeakyReLU(negative_slope=0.2, inplace=True)
      (3): MaxPool2d(kernel_size=2, stride=2, padding=0, dilation=1, ceil_mode=False)
      (4): Conv2d(64, 64, kernel_size=(3, 3), stride=(1, 1), padding=(1, 1), bias=False)
      (5): BatchNorm2d(64, eps=1e-05, momentum=0.1, affine=True, track_running_stats=True)
      (6): LeakyReLU(negative_slope=0.2, inplace=True)
      (7): MaxPool2d(kernel_size=2, stride=2, padding=0, dilation=1, ceil_mode=False)
      (8): Conv2d(64, 64, kernel_size=(3, 3), stride=(1, 1), padding=(1, 1), bias=False)
      (9): BatchNorm2d(64, eps=1e-05, momentum=0.1, affine=True, track_running_stats=True)
      (10): LeakyReLU(negative_slope=0.2, inplace=True)
      (11): Conv2d(64, 64, kernel_size=(3, 3), stride=(1, 1), padding=(1, 1), bias=False)
      (12): BatchNorm2d(64, eps=1e-05, momentum=0.1, affine=True, track_running_stats=True)
      (13): LeakyReLU(negative_slope=0.2, inplace=True)
    )
    (criterion): CrossEntropyLoss()
  )
  (DE): RandomForestHead()
)
Trainset: 10000
Valset: 600
Testset: 600
Namespace(arch='DN_X', cfg='../models/architectures/configs/DN4_Vanilla.yaml', dataset_dir='../dataset/StanfordDogs/', data_name='stanforddogz', mode='train', resume='../results/models/epoch_14_best.pth.tar', epochs=0, cuda=True, ngpu=1, nc=3, clamp_lower=-0.01, clamp_upper=0.01, print_freq=100, outf='../results/_DN_X_stanforddogz_DN4_5_Way_5_Shot_K5')
=> loaded checkpoint '../results/models/epoch_14_best.pth.tar' (epoch 14)
DN_X(
  (BACKBONE): FourLayer_64F(
    (features): Sequential(
      (0): Conv2d(3, 64, kernel_size=(3, 3), stride=(1, 1), padding=(1, 1), bias=False)
      (1): BatchNorm2d(64, eps=1e-05, momentum=0.1, affine=True, track_running_stats=True)
      (2): LeakyReLU(negative_slope=0.2, inplace=True)
      (3): MaxPool2d(kernel_size=2, stride=2, padding=0, dilation=1, ceil_mode=False)
      (4): Conv2d(64, 64, kernel_size=(3, 3), stride=(1, 1), padding=(1, 1), bias=False)
      (5): BatchNorm2d(64, eps=1e-05, momentum=0.1, affine=True, track_running_stats=True)
      (6): LeakyReLU(negative_slope=0.2, inplace=True)
      (7): MaxPool2d(kernel_size=2, stride=2, padding=0, dilation=1, ceil_mode=False)
      (8): Conv2d(64, 64, kernel_size=(3, 3), stride=(1, 1), padding=(1, 1), bias=False)
      (9): BatchNorm2d(64, eps=1e-05, momentum=0.1, affine=True, track_running_stats=True)
      (10): LeakyReLU(negative_slope=0.2, inplace=True)
      (11): Conv2d(64, 64, kernel_size=(3, 3), stride=(1, 1), padding=(1, 1), bias=False)
      (12): BatchNorm2d(64, eps=1e-05, momentum=0.1, affine=True, track_running_stats=True)
      (13): LeakyReLU(negative_slope=0.2, inplace=True)
    )
    (criterion): CrossEntropyLoss()
  )
  (DE): RandomForestHead()
)
Trainset: 10000
Valset: 600
Testset: 600
Namespace(arch='DN_X', cfg='../models/architectures/configs/DN4_Vanilla.yaml', dataset_dir='../dataset/StanfordDogs/', data_name='stanforddogz', mode='train', resume='../results/models/epoch_14_best.pth.tar', epochs=0, cuda=True, ngpu=1, nc=3, clamp_lower=-0.01, clamp_upper=0.01, print_freq=100, outf='../results/_DN_X_stanforddogz_DN4_5_Way_5_Shot_K5')
=> loaded checkpoint '../results/models/epoch_14_best.pth.tar' (epoch 14)
DN_X(
  (BACKBONE): FourLayer_64F(
    (features): Sequential(
      (0): Conv2d(3, 64, kernel_size=(3, 3), stride=(1, 1), padding=(1, 1), bias=False)
      (1): BatchNorm2d(64, eps=1e-05, momentum=0.1, affine=True, track_running_stats=True)
      (2): LeakyReLU(negative_slope=0.2, inplace=True)
      (3): MaxPool2d(kernel_size=2, stride=2, padding=0, dilation=1, ceil_mode=False)
      (4): Conv2d(64, 64, kernel_size=(3, 3), stride=(1, 1), padding=(1, 1), bias=False)
      (5): BatchNorm2d(64, eps=1e-05, momentum=0.1, affine=True, track_running_stats=True)
      (6): LeakyReLU(negative_slope=0.2, inplace=True)
      (7): MaxPool2d(kernel_size=2, stride=2, padding=0, dilation=1, ceil_mode=False)
      (8): Conv2d(64, 64, kernel_size=(3, 3), stride=(1, 1), padding=(1, 1), bias=False)
      (9): BatchNorm2d(64, eps=1e-05, momentum=0.1, affine=True, track_running_stats=True)
      (10): LeakyReLU(negative_slope=0.2, inplace=True)
      (11): Conv2d(64, 64, kernel_size=(3, 3), stride=(1, 1), padding=(1, 1), bias=False)
      (12): BatchNorm2d(64, eps=1e-05, momentum=0.1, affine=True, track_running_stats=True)
      (13): LeakyReLU(negative_slope=0.2, inplace=True)
    )
    (criterion): CrossEntropyLoss()
  )
  (DE): RandomForestHead()
)
Trainset: 10000
Valset: 600
Testset: 600
Namespace(arch='DN_X', cfg='../models/architectures/configs/DN4_Vanilla.yaml', dataset_dir='../dataset/StanfordDogs/', data_name='stanforddogz', mode='train', resume='../results/models/epoch_14_best.pth.tar', epochs=0, cuda=True, ngpu=1, nc=3, clamp_lower=-0.01, clamp_upper=0.01, print_freq=100, outf='../results/_DN_X_stanforddogz_DN4_5_Way_5_Shot_K5')
=> loaded checkpoint '../results/models/epoch_14_best.pth.tar' (epoch 14)
DN_X(
  (BACKBONE): FourLayer_64F(
    (features): Sequential(
      (0): Conv2d(3, 64, kernel_size=(3, 3), stride=(1, 1), padding=(1, 1), bias=False)
      (1): BatchNorm2d(64, eps=1e-05, momentum=0.1, affine=True, track_running_stats=True)
      (2): LeakyReLU(negative_slope=0.2, inplace=True)
      (3): MaxPool2d(kernel_size=2, stride=2, padding=0, dilation=1, ceil_mode=False)
      (4): Conv2d(64, 64, kernel_size=(3, 3), stride=(1, 1), padding=(1, 1), bias=False)
      (5): BatchNorm2d(64, eps=1e-05, momentum=0.1, affine=True, track_running_stats=True)
      (6): LeakyReLU(negative_slope=0.2, inplace=True)
      (7): MaxPool2d(kernel_size=2, stride=2, padding=0, dilation=1, ceil_mode=False)
      (8): Conv2d(64, 64, kernel_size=(3, 3), stride=(1, 1), padding=(1, 1), bias=False)
      (9): BatchNorm2d(64, eps=1e-05, momentum=0.1, affine=True, track_running_stats=True)
      (10): LeakyReLU(negative_slope=0.2, inplace=True)
      (11): Conv2d(64, 64, kernel_size=(3, 3), stride=(1, 1), padding=(1, 1), bias=False)
      (12): BatchNorm2d(64, eps=1e-05, momentum=0.1, affine=True, track_running_stats=True)
      (13): LeakyReLU(negative_slope=0.2, inplace=True)
    )
    (criterion): CrossEntropyLoss()
  )
  (DE): RandomForestHead()
)
Trainset: 10000
Valset: 600
Testset: 600
Namespace(arch='DN_X', cfg='../models/architectures/configs/DN4_Vanilla.yaml', dataset_dir='../dataset/StanfordDogs/', data_name='stanforddogz', mode='train', resume='../results/models/epoch_14_best.pth.tar', epochs=0, cuda=True, ngpu=1, nc=3, clamp_lower=-0.01, clamp_upper=0.01, print_freq=100, outf='../results/_DN_X_stanforddogz_DN4_5_Way_5_Shot_K5')
=> loaded checkpoint '../results/models/epoch_14_best.pth.tar' (epoch 14)
DN_X(
  (BACKBONE): FourLayer_64F(
    (features): Sequential(
      (0): Conv2d(3, 64, kernel_size=(3, 3), stride=(1, 1), padding=(1, 1), bias=False)
      (1): BatchNorm2d(64, eps=1e-05, momentum=0.1, affine=True, track_running_stats=True)
      (2): LeakyReLU(negative_slope=0.2, inplace=True)
      (3): MaxPool2d(kernel_size=2, stride=2, padding=0, dilation=1, ceil_mode=False)
      (4): Conv2d(64, 64, kernel_size=(3, 3), stride=(1, 1), padding=(1, 1), bias=False)
      (5): BatchNorm2d(64, eps=1e-05, momentum=0.1, affine=True, track_running_stats=True)
      (6): LeakyReLU(negative_slope=0.2, inplace=True)
      (7): MaxPool2d(kernel_size=2, stride=2, padding=0, dilation=1, ceil_mode=False)
      (8): Conv2d(64, 64, kernel_size=(3, 3), stride=(1, 1), padding=(1, 1), bias=False)
      (9): BatchNorm2d(64, eps=1e-05, momentum=0.1, affine=True, track_running_stats=True)
      (10): LeakyReLU(negative_slope=0.2, inplace=True)
      (11): Conv2d(64, 64, kernel_size=(3, 3), stride=(1, 1), padding=(1, 1), bias=False)
      (12): BatchNorm2d(64, eps=1e-05, momentum=0.1, affine=True, track_running_stats=True)
      (13): LeakyReLU(negative_slope=0.2, inplace=True)
    )
    (criterion): CrossEntropyLoss()
  )
  (DE): RandomForestHead()
)
Trainset: 10000
Valset: 600
Testset: 600
Namespace(arch='DN_X', cfg='../models/architectures/configs/DN4_Vanilla.yaml', dataset_dir='../dataset/StanfordDogs/', data_name='stanforddogz', mode='train', resume='../results/models/epoch_14_best.pth.tar', epochs=0, cuda=True, ngpu=1, nc=3, clamp_lower=-0.01, clamp_upper=0.01, print_freq=100, outf='../results/_DN_X_stanforddogz_DN4_5_Way_5_Shot_K5')
=> loaded checkpoint '../results/models/epoch_14_best.pth.tar' (epoch 14)
DN_X(
  (BACKBONE): FourLayer_64F(
    (features): Sequential(
      (0): Conv2d(3, 64, kernel_size=(3, 3), stride=(1, 1), padding=(1, 1), bias=False)
      (1): BatchNorm2d(64, eps=1e-05, momentum=0.1, affine=True, track_running_stats=True)
      (2): LeakyReLU(negative_slope=0.2, inplace=True)
      (3): MaxPool2d(kernel_size=2, stride=2, padding=0, dilation=1, ceil_mode=False)
      (4): Conv2d(64, 64, kernel_size=(3, 3), stride=(1, 1), padding=(1, 1), bias=False)
      (5): BatchNorm2d(64, eps=1e-05, momentum=0.1, affine=True, track_running_stats=True)
      (6): LeakyReLU(negative_slope=0.2, inplace=True)
      (7): MaxPool2d(kernel_size=2, stride=2, padding=0, dilation=1, ceil_mode=False)
      (8): Conv2d(64, 64, kernel_size=(3, 3), stride=(1, 1), padding=(1, 1), bias=False)
      (9): BatchNorm2d(64, eps=1e-05, momentum=0.1, affine=True, track_running_stats=True)
      (10): LeakyReLU(negative_slope=0.2, inplace=True)
      (11): Conv2d(64, 64, kernel_size=(3, 3), stride=(1, 1), padding=(1, 1), bias=False)
      (12): BatchNorm2d(64, eps=1e-05, momentum=0.1, affine=True, track_running_stats=True)
      (13): LeakyReLU(negative_slope=0.2, inplace=True)
    )
    (criterion): CrossEntropyLoss()
  )
  (DE): RandomForestHead()
)
Trainset: 10000
Valset: 600
Testset: 600
Namespace(arch='DN_X', cfg='../models/architectures/configs/DN4_Vanilla.yaml', dataset_dir='../dataset/StanfordDogs/', data_name='stanforddogz', mode='train', resume='../results/models/epoch_14_best.pth.tar', epochs=0, cuda=True, ngpu=1, nc=3, clamp_lower=-0.01, clamp_upper=0.01, print_freq=100, outf='../results/_DN_X_stanforddogz_DN4_5_Way_5_Shot_K5')
=> loaded checkpoint '../results/models/epoch_14_best.pth.tar' (epoch 14)
DN_X(
  (BACKBONE): FourLayer_64F(
    (features): Sequential(
      (0): Conv2d(3, 64, kernel_size=(3, 3), stride=(1, 1), padding=(1, 1), bias=False)
      (1): BatchNorm2d(64, eps=1e-05, momentum=0.1, affine=True, track_running_stats=True)
      (2): LeakyReLU(negative_slope=0.2, inplace=True)
      (3): MaxPool2d(kernel_size=2, stride=2, padding=0, dilation=1, ceil_mode=False)
      (4): Conv2d(64, 64, kernel_size=(3, 3), stride=(1, 1), padding=(1, 1), bias=False)
      (5): BatchNorm2d(64, eps=1e-05, momentum=0.1, affine=True, track_running_stats=True)
      (6): LeakyReLU(negative_slope=0.2, inplace=True)
      (7): MaxPool2d(kernel_size=2, stride=2, padding=0, dilation=1, ceil_mode=False)
      (8): Conv2d(64, 64, kernel_size=(3, 3), stride=(1, 1), padding=(1, 1), bias=False)
      (9): BatchNorm2d(64, eps=1e-05, momentum=0.1, affine=True, track_running_stats=True)
      (10): LeakyReLU(negative_slope=0.2, inplace=True)
      (11): Conv2d(64, 64, kernel_size=(3, 3), stride=(1, 1), padding=(1, 1), bias=False)
      (12): BatchNorm2d(64, eps=1e-05, momentum=0.1, affine=True, track_running_stats=True)
      (13): LeakyReLU(negative_slope=0.2, inplace=True)
    )
    (criterion): CrossEntropyLoss()
  )
  (DE): RandomForestHead()
)
Namespace(arch='DN_X', cfg='../models/architectures/configs/DN4_Vanilla.yaml', dataset_dir='../dataset/StanfordDogs/', data_name='stanforddogz', mode='train', resume='../results/models/epoch_14_best.pth.tar', epochs=0, cuda=True, ngpu=1, nc=3, clamp_lower=-0.01, clamp_upper=0.01, print_freq=100, outf='../results/_DN_X_stanforddogz_DN4_5_Way_5_Shot_K5')
=> loaded checkpoint '../results/models/epoch_14_best.pth.tar' (epoch 14)
DN_X(
  (BACKBONE): FourLayer_64F(
    (features): Sequential(
      (0): Conv2d(3, 64, kernel_size=(3, 3), stride=(1, 1), padding=(1, 1), bias=False)
      (1): BatchNorm2d(64, eps=1e-05, momentum=0.1, affine=True, track_running_stats=True)
      (2): LeakyReLU(negative_slope=0.2, inplace=True)
      (3): MaxPool2d(kernel_size=2, stride=2, padding=0, dilation=1, ceil_mode=False)
      (4): Conv2d(64, 64, kernel_size=(3, 3), stride=(1, 1), padding=(1, 1), bias=False)
      (5): BatchNorm2d(64, eps=1e-05, momentum=0.1, affine=True, track_running_stats=True)
      (6): LeakyReLU(negative_slope=0.2, inplace=True)
      (7): MaxPool2d(kernel_size=2, stride=2, padding=0, dilation=1, ceil_mode=False)
      (8): Conv2d(64, 64, kernel_size=(3, 3), stride=(1, 1), padding=(1, 1), bias=False)
      (9): BatchNorm2d(64, eps=1e-05, momentum=0.1, affine=True, track_running_stats=True)
      (10): LeakyReLU(negative_slope=0.2, inplace=True)
      (11): Conv2d(64, 64, kernel_size=(3, 3), stride=(1, 1), padding=(1, 1), bias=False)
      (12): BatchNorm2d(64, eps=1e-05, momentum=0.1, affine=True, track_running_stats=True)
      (13): LeakyReLU(negative_slope=0.2, inplace=True)
    )
    (criterion): CrossEntropyLoss()
  )
  (DE): RandomForestHead()
)
Trainset: 10000
Valset: 600
Testset: 600
Namespace(arch='DN_X', cfg='../models/architectures/configs/DN4_Vanilla.yaml', dataset_dir='../dataset/StanfordDogs/', data_name='stanforddogz', mode='train', resume='../results/models/epoch_14_best.pth.tar', epochs=0, cuda=True, ngpu=1, nc=3, clamp_lower=-0.01, clamp_upper=0.01, print_freq=100, outf='../results/_DN_X_stanforddogz_DN4_5_Way_5_Shot_K5')
=> loaded checkpoint '../results/models/epoch_14_best.pth.tar' (epoch 14)
DN_X(
  (BACKBONE): FourLayer_64F(
    (features): Sequential(
      (0): Conv2d(3, 64, kernel_size=(3, 3), stride=(1, 1), padding=(1, 1), bias=False)
      (1): BatchNorm2d(64, eps=1e-05, momentum=0.1, affine=True, track_running_stats=True)
      (2): LeakyReLU(negative_slope=0.2, inplace=True)
      (3): MaxPool2d(kernel_size=2, stride=2, padding=0, dilation=1, ceil_mode=False)
      (4): Conv2d(64, 64, kernel_size=(3, 3), stride=(1, 1), padding=(1, 1), bias=False)
      (5): BatchNorm2d(64, eps=1e-05, momentum=0.1, affine=True, track_running_stats=True)
      (6): LeakyReLU(negative_slope=0.2, inplace=True)
      (7): MaxPool2d(kernel_size=2, stride=2, padding=0, dilation=1, ceil_mode=False)
      (8): Conv2d(64, 64, kernel_size=(3, 3), stride=(1, 1), padding=(1, 1), bias=False)
      (9): BatchNorm2d(64, eps=1e-05, momentum=0.1, affine=True, track_running_stats=True)
      (10): LeakyReLU(negative_slope=0.2, inplace=True)
      (11): Conv2d(64, 64, kernel_size=(3, 3), stride=(1, 1), padding=(1, 1), bias=False)
      (12): BatchNorm2d(64, eps=1e-05, momentum=0.1, affine=True, track_running_stats=True)
      (13): LeakyReLU(negative_slope=0.2, inplace=True)
    )
    (criterion): CrossEntropyLoss()
  )
  (DE): RandomForestHead()
)
Trainset: 10000
Valset: 600
Testset: 600
Namespace(arch='DN_X', cfg='../models/architectures/configs/DN4_Vanilla.yaml', dataset_dir='../dataset/StanfordDogs/', data_name='stanforddogz', mode='train', resume='../results/models/epoch_14_best.pth.tar', epochs=0, cuda=True, ngpu=1, nc=3, clamp_lower=-0.01, clamp_upper=0.01, print_freq=100, outf='../results/_DN_X_stanforddogz_DN4_5_Way_5_Shot_K5')
=> loaded checkpoint '../results/models/epoch_14_best.pth.tar' (epoch 14)
DN_X(
  (BACKBONE): FourLayer_64F(
    (features): Sequential(
      (0): Conv2d(3, 64, kernel_size=(3, 3), stride=(1, 1), padding=(1, 1), bias=False)
      (1): BatchNorm2d(64, eps=1e-05, momentum=0.1, affine=True, track_running_stats=True)
      (2): LeakyReLU(negative_slope=0.2, inplace=True)
      (3): MaxPool2d(kernel_size=2, stride=2, padding=0, dilation=1, ceil_mode=False)
      (4): Conv2d(64, 64, kernel_size=(3, 3), stride=(1, 1), padding=(1, 1), bias=False)
      (5): BatchNorm2d(64, eps=1e-05, momentum=0.1, affine=True, track_running_stats=True)
      (6): LeakyReLU(negative_slope=0.2, inplace=True)
      (7): MaxPool2d(kernel_size=2, stride=2, padding=0, dilation=1, ceil_mode=False)
      (8): Conv2d(64, 64, kernel_size=(3, 3), stride=(1, 1), padding=(1, 1), bias=False)
      (9): BatchNorm2d(64, eps=1e-05, momentum=0.1, affine=True, track_running_stats=True)
      (10): LeakyReLU(negative_slope=0.2, inplace=True)
      (11): Conv2d(64, 64, kernel_size=(3, 3), stride=(1, 1), padding=(1, 1), bias=False)
      (12): BatchNorm2d(64, eps=1e-05, momentum=0.1, affine=True, track_running_stats=True)
      (13): LeakyReLU(negative_slope=0.2, inplace=True)
    )
    (criterion): CrossEntropyLoss()
  )
  (DE): RandomForestHead()
)
Trainset: 10000
Valset: 600
Testset: 600
Namespace(arch='DN_X', cfg='../models/architectures/configs/DN4_Vanilla.yaml', dataset_dir='../dataset/StanfordDogs/', data_name='stanforddogz', mode='train', resume='../results/models/epoch_14_best.pth.tar', epochs=0, cuda=True, ngpu=1, nc=3, clamp_lower=-0.01, clamp_upper=0.01, print_freq=100, outf='../results/_DN_X_stanforddogz_DN4_5_Way_5_Shot_K5')
=> loaded checkpoint '../results/models/epoch_14_best.pth.tar' (epoch 14)
DN_X(
  (BACKBONE): FourLayer_64F(
    (features): Sequential(
      (0): Conv2d(3, 64, kernel_size=(3, 3), stride=(1, 1), padding=(1, 1), bias=False)
      (1): BatchNorm2d(64, eps=1e-05, momentum=0.1, affine=True, track_running_stats=True)
      (2): LeakyReLU(negative_slope=0.2, inplace=True)
      (3): MaxPool2d(kernel_size=2, stride=2, padding=0, dilation=1, ceil_mode=False)
      (4): Conv2d(64, 64, kernel_size=(3, 3), stride=(1, 1), padding=(1, 1), bias=False)
      (5): BatchNorm2d(64, eps=1e-05, momentum=0.1, affine=True, track_running_stats=True)
      (6): LeakyReLU(negative_slope=0.2, inplace=True)
      (7): MaxPool2d(kernel_size=2, stride=2, padding=0, dilation=1, ceil_mode=False)
      (8): Conv2d(64, 64, kernel_size=(3, 3), stride=(1, 1), padding=(1, 1), bias=False)
      (9): BatchNorm2d(64, eps=1e-05, momentum=0.1, affine=True, track_running_stats=True)
      (10): LeakyReLU(negative_slope=0.2, inplace=True)
      (11): Conv2d(64, 64, kernel_size=(3, 3), stride=(1, 1), padding=(1, 1), bias=False)
      (12): BatchNorm2d(64, eps=1e-05, momentum=0.1, affine=True, track_running_stats=True)
      (13): LeakyReLU(negative_slope=0.2, inplace=True)
    )
    (criterion): CrossEntropyLoss()
  )
  (DE): RandomForestHead()
)
Trainset: 10000
Valset: 600
Testset: 600
Namespace(arch='DN_X', cfg='../models/architectures/configs/DN4_Vanilla.yaml', dataset_dir='../dataset/StanfordDogs/', data_name='stanforddogz', mode='train', resume='../results/models/epoch_14_best.pth.tar', epochs=0, cuda=True, ngpu=1, nc=3, clamp_lower=-0.01, clamp_upper=0.01, print_freq=100, outf='../results/_DN_X_stanforddogz_DN4_5_Way_5_Shot_K5')
=> loaded checkpoint '../results/models/epoch_14_best.pth.tar' (epoch 14)
DN_X(
  (BACKBONE): FourLayer_64F(
    (features): Sequential(
      (0): Conv2d(3, 64, kernel_size=(3, 3), stride=(1, 1), padding=(1, 1), bias=False)
      (1): BatchNorm2d(64, eps=1e-05, momentum=0.1, affine=True, track_running_stats=True)
      (2): LeakyReLU(negative_slope=0.2, inplace=True)
      (3): MaxPool2d(kernel_size=2, stride=2, padding=0, dilation=1, ceil_mode=False)
      (4): Conv2d(64, 64, kernel_size=(3, 3), stride=(1, 1), padding=(1, 1), bias=False)
      (5): BatchNorm2d(64, eps=1e-05, momentum=0.1, affine=True, track_running_stats=True)
      (6): LeakyReLU(negative_slope=0.2, inplace=True)
      (7): MaxPool2d(kernel_size=2, stride=2, padding=0, dilation=1, ceil_mode=False)
      (8): Conv2d(64, 64, kernel_size=(3, 3), stride=(1, 1), padding=(1, 1), bias=False)
      (9): BatchNorm2d(64, eps=1e-05, momentum=0.1, affine=True, track_running_stats=True)
      (10): LeakyReLU(negative_slope=0.2, inplace=True)
      (11): Conv2d(64, 64, kernel_size=(3, 3), stride=(1, 1), padding=(1, 1), bias=False)
      (12): BatchNorm2d(64, eps=1e-05, momentum=0.1, affine=True, track_running_stats=True)
      (13): LeakyReLU(negative_slope=0.2, inplace=True)
    )
    (criterion): CrossEntropyLoss()
  )
  (DE): RandomForestHead()
)
Trainset: 10000
Valset: 600
Testset: 600
Namespace(arch='DN_X', cfg='../models/architectures/configs/DN4_Vanilla.yaml', dataset_dir='../dataset/StanfordDogs/', data_name='stanforddogz', mode='train', resume='../results/models/epoch_14_best.pth.tar', epochs=0, cuda=True, ngpu=1, nc=3, clamp_lower=-0.01, clamp_upper=0.01, print_freq=100, outf='../results/_DN_X_stanforddogz_DN4_5_Way_5_Shot_K5')
=> loaded checkpoint '../results/models/epoch_14_best.pth.tar' (epoch 14)
DN_X(
  (BACKBONE): FourLayer_64F(
    (features): Sequential(
      (0): Conv2d(3, 64, kernel_size=(3, 3), stride=(1, 1), padding=(1, 1), bias=False)
      (1): BatchNorm2d(64, eps=1e-05, momentum=0.1, affine=True, track_running_stats=True)
      (2): LeakyReLU(negative_slope=0.2, inplace=True)
      (3): MaxPool2d(kernel_size=2, stride=2, padding=0, dilation=1, ceil_mode=False)
      (4): Conv2d(64, 64, kernel_size=(3, 3), stride=(1, 1), padding=(1, 1), bias=False)
      (5): BatchNorm2d(64, eps=1e-05, momentum=0.1, affine=True, track_running_stats=True)
      (6): LeakyReLU(negative_slope=0.2, inplace=True)
      (7): MaxPool2d(kernel_size=2, stride=2, padding=0, dilation=1, ceil_mode=False)
      (8): Conv2d(64, 64, kernel_size=(3, 3), stride=(1, 1), padding=(1, 1), bias=False)
      (9): BatchNorm2d(64, eps=1e-05, momentum=0.1, affine=True, track_running_stats=True)
      (10): LeakyReLU(negative_slope=0.2, inplace=True)
      (11): Conv2d(64, 64, kernel_size=(3, 3), stride=(1, 1), padding=(1, 1), bias=False)
      (12): BatchNorm2d(64, eps=1e-05, momentum=0.1, affine=True, track_running_stats=True)
      (13): LeakyReLU(negative_slope=0.2, inplace=True)
    )
    (criterion): CrossEntropyLoss()
  )
  (DE): RandomForestHead()
)
Trainset: 10000
Valset: 600
Testset: 600
Test-(14): [100/600]	Time 0.156 (0.175)	Loss 1.285 (1.318)	Prec@1 62.000 (58.693)
Test-(14): [200/600]	Time 0.167 (0.170)	Loss 1.345 (1.314)	Prec@1 56.000 (59.075)
…
Test-(14): [100/600]	Time 0.153 (0.173)	Loss 1.425 (1.252)	Prec@1 48.000 (65.287)
Test-(14): [200/600]	Time 0.144 (0.167)	Loss 1.125 (1.246)	Prec@1 78.000 (65.930)
Namespace(arch='DN_X', cfg='../models/architectures/configs/DN4_Vanilla.yaml', dataset_dir='../dataset/StanfordDogs/', data_name='stanforddogz', mode='train', resume='../results/models/epoch_14_best.pth.tar', epochs=0, cuda=True, ngpu=1, nc=3, clamp_lower=-0.01, clamp_upper=0.01, print_freq=100, outf='../results/_DN_X_stanforddogz_DN4_5_Way_5_Shot_K5')
=> loaded checkpoint '../results/models/epoch_14_best.pth.tar' (epoch 14)
DN_X(
  (BACKBONE): FourLayer_64F(
    (features): Sequential(
      (0): Conv2d(3, 64, kernel_size=(3, 3), stride=(1, 1), padding=(1, 1), bias=False)
      (1): BatchNorm2d(64, eps=1e-05, momentum=0.1, affine=True, track_running_stats=True)
      (2): LeakyReLU(negative_slope=0.2, inplace=True)
      (3): MaxPool2d(kernel_size=2, stride=2, padding=0, dilation=1, ceil_mode=False)
      (4): Conv2d(64, 64, kernel_size=(3, 3), stride=(1, 1), padding=(1, 1), bias=False)
      (5): BatchNorm2d(64, eps=1e-05, momentum=0.1, affine=True, track_running_stats=True)
      (6): LeakyReLU(negative_slope=0.2, inplace=True)
      (7): MaxPool2d(kernel_size=2, stride=2, padding=0, dilation=1, ceil_mode=False)
      (8): Conv2d(64, 64, kernel_size=(3, 3), stride=(1, 1), padding=(1, 1), bias=False)
      (9): BatchNorm2d(64, eps=1e-05, momentum=0.1, affine=True, track_running_stats=True)
      (10): LeakyReLU(negative_slope=0.2, inplace=True)
      (11): Conv2d(64, 64, kernel_size=(3, 3), stride=(1, 1), padding=(1, 1), bias=False)
      (12): BatchNorm2d(64, eps=1e-05, momentum=0.1, affine=True, track_running_stats=True)
      (13): LeakyReLU(negative_slope=0.2, inplace=True)
    )
    (criterion): CrossEntropyLoss()
  )
  (DE): XGBHead()
)
Trainset: 10000
Valset: 600
Testset: 600
Namespace(arch='DN_X', cfg='../models/architectures/configs/DN4_Vanilla.yaml', dataset_dir='../dataset/StanfordDogs/', data_name='stanforddogz', mode='train', resume='../results/models/epoch_14_best.pth.tar', epochs=0, cuda=True, ngpu=1, nc=3, clamp_lower=-0.01, clamp_upper=0.01, print_freq=100, outf='../results/_DN_X_stanforddogz_DN4_5_Way_5_Shot_K5')
=> loaded checkpoint '../results/models/epoch_14_best.pth.tar' (epoch 14)
DN_X(
  (BACKBONE): FourLayer_64F(
    (features): Sequential(
      (0): Conv2d(3, 64, kernel_size=(3, 3), stride=(1, 1), padding=(1, 1), bias=False)
      (1): BatchNorm2d(64, eps=1e-05, momentum=0.1, affine=True, track_running_stats=True)
      (2): LeakyReLU(negative_slope=0.2, inplace=True)
      (3): MaxPool2d(kernel_size=2, stride=2, padding=0, dilation=1, ceil_mode=False)
      (4): Conv2d(64, 64, kernel_size=(3, 3), stride=(1, 1), padding=(1, 1), bias=False)
      (5): BatchNorm2d(64, eps=1e-05, momentum=0.1, affine=True, track_running_stats=True)
      (6): LeakyReLU(negative_slope=0.2, inplace=True)
      (7): MaxPool2d(kernel_size=2, stride=2, padding=0, dilation=1, ceil_mode=False)
      (8): Conv2d(64, 64, kernel_size=(3, 3), stride=(1, 1), padding=(1, 1), bias=False)
      (9): BatchNorm2d(64, eps=1e-05, momentum=0.1, affine=True, track_running_stats=True)
      (10): LeakyReLU(negative_slope=0.2, inplace=True)
      (11): Conv2d(64, 64, kernel_size=(3, 3), stride=(1, 1), padding=(1, 1), bias=False)
      (12): BatchNorm2d(64, eps=1e-05, momentum=0.1, affine=True, track_running_stats=True)
      (13): LeakyReLU(negative_slope=0.2, inplace=True)
    )
    (criterion): CrossEntropyLoss()
  )
  (DE): XGBHead()
)
Trainset: 10000
Valset: 600
Testset: 600
Namespace(arch='DN_X', cfg='../models/architectures/configs/DN4_Vanilla.yaml', dataset_dir='../dataset/StanfordDogs/', data_name='stanforddogz', mode='train', resume='../results/models/epoch_14_best.pth.tar', epochs=0, cuda=True, ngpu=1, nc=3, clamp_lower=-0.01, clamp_upper=0.01, print_freq=100, outf='../results/_DN_X_stanforddogz_DN4_5_Way_5_Shot_K5')
=> loaded checkpoint '../results/models/epoch_14_best.pth.tar' (epoch 14)
DN_X(
  (BACKBONE): FourLayer_64F(
    (features): Sequential(
      (0): Conv2d(3, 64, kernel_size=(3, 3), stride=(1, 1), padding=(1, 1), bias=False)
      (1): BatchNorm2d(64, eps=1e-05, momentum=0.1, affine=True, track_running_stats=True)
      (2): LeakyReLU(negative_slope=0.2, inplace=True)
      (3): MaxPool2d(kernel_size=2, stride=2, padding=0, dilation=1, ceil_mode=False)
      (4): Conv2d(64, 64, kernel_size=(3, 3), stride=(1, 1), padding=(1, 1), bias=False)
      (5): BatchNorm2d(64, eps=1e-05, momentum=0.1, affine=True, track_running_stats=True)
      (6): LeakyReLU(negative_slope=0.2, inplace=True)
      (7): MaxPool2d(kernel_size=2, stride=2, padding=0, dilation=1, ceil_mode=False)
      (8): Conv2d(64, 64, kernel_size=(3, 3), stride=(1, 1), padding=(1, 1), bias=False)
      (9): BatchNorm2d(64, eps=1e-05, momentum=0.1, affine=True, track_running_stats=True)
      (10): LeakyReLU(negative_slope=0.2, inplace=True)
      (11): Conv2d(64, 64, kernel_size=(3, 3), stride=(1, 1), padding=(1, 1), bias=False)
      (12): BatchNorm2d(64, eps=1e-05, momentum=0.1, affine=True, track_running_stats=True)
      (13): LeakyReLU(negative_slope=0.2, inplace=True)
    )
    (criterion): CrossEntropyLoss()
  )
  (DE): XGBHead()
)
Trainset: 10000
Valset: 600
Testset: 600
Namespace(arch='DN_X', cfg='../models/architectures/configs/DN4_Vanilla.yaml', dataset_dir='../dataset/StanfordDogs/', data_name='stanforddogz', mode='train', resume='../results/models/epoch_14_best.pth.tar', epochs=0, cuda=True, ngpu=1, nc=3, clamp_lower=-0.01, clamp_upper=0.01, print_freq=100, outf='../results/_DN_X_stanforddogz_DN4_5_Way_5_Shot_K5')
=> loaded checkpoint '../results/models/epoch_14_best.pth.tar' (epoch 14)
DN_X(
  (BACKBONE): FourLayer_64F(
    (features): Sequential(
      (0): Conv2d(3, 64, kernel_size=(3, 3), stride=(1, 1), padding=(1, 1), bias=False)
      (1): BatchNorm2d(64, eps=1e-05, momentum=0.1, affine=True, track_running_stats=True)
      (2): LeakyReLU(negative_slope=0.2, inplace=True)
      (3): MaxPool2d(kernel_size=2, stride=2, padding=0, dilation=1, ceil_mode=False)
      (4): Conv2d(64, 64, kernel_size=(3, 3), stride=(1, 1), padding=(1, 1), bias=False)
      (5): BatchNorm2d(64, eps=1e-05, momentum=0.1, affine=True, track_running_stats=True)
      (6): LeakyReLU(negative_slope=0.2, inplace=True)
      (7): MaxPool2d(kernel_size=2, stride=2, padding=0, dilation=1, ceil_mode=False)
      (8): Conv2d(64, 64, kernel_size=(3, 3), stride=(1, 1), padding=(1, 1), bias=False)
      (9): BatchNorm2d(64, eps=1e-05, momentum=0.1, affine=True, track_running_stats=True)
      (10): LeakyReLU(negative_slope=0.2, inplace=True)
      (11): Conv2d(64, 64, kernel_size=(3, 3), stride=(1, 1), padding=(1, 1), bias=False)
      (12): BatchNorm2d(64, eps=1e-05, momentum=0.1, affine=True, track_running_stats=True)
      (13): LeakyReLU(negative_slope=0.2, inplace=True)
    )
    (criterion): CrossEntropyLoss()
  )
  (DE): XGBHead()
)
Trainset: 10000
Valset: 600
Testset: 600
Namespace(arch='DN_X', cfg='../models/architectures/configs/DN4_Vanilla.yaml', dataset_dir='../dataset/StanfordDogs/', data_name='stanforddogz', mode='train', resume='../results/models/epoch_14_best.pth.tar', epochs=0, cuda=True, ngpu=1, nc=3, clamp_lower=-0.01, clamp_upper=0.01, print_freq=100, outf='../results/_DN_X_stanforddogz_DN4_5_Way_5_Shot_K5')
=> loaded checkpoint '../results/models/epoch_14_best.pth.tar' (epoch 14)
DN_X(
  (BACKBONE): FourLayer_64F(
    (features): Sequential(
      (0): Conv2d(3, 64, kernel_size=(3, 3), stride=(1, 1), padding=(1, 1), bias=False)
      (1): BatchNorm2d(64, eps=1e-05, momentum=0.1, affine=True, track_running_stats=True)
      (2): LeakyReLU(negative_slope=0.2, inplace=True)
      (3): MaxPool2d(kernel_size=2, stride=2, padding=0, dilation=1, ceil_mode=False)
      (4): Conv2d(64, 64, kernel_size=(3, 3), stride=(1, 1), padding=(1, 1), bias=False)
      (5): BatchNorm2d(64, eps=1e-05, momentum=0.1, affine=True, track_running_stats=True)
      (6): LeakyReLU(negative_slope=0.2, inplace=True)
      (7): MaxPool2d(kernel_size=2, stride=2, padding=0, dilation=1, ceil_mode=False)
      (8): Conv2d(64, 64, kernel_size=(3, 3), stride=(1, 1), padding=(1, 1), bias=False)
      (9): BatchNorm2d(64, eps=1e-05, momentum=0.1, affine=True, track_running_stats=True)
      (10): LeakyReLU(negative_slope=0.2, inplace=True)
      (11): Conv2d(64, 64, kernel_size=(3, 3), stride=(1, 1), padding=(1, 1), bias=False)
      (12): BatchNorm2d(64, eps=1e-05, momentum=0.1, affine=True, track_running_stats=True)
      (13): LeakyReLU(negative_slope=0.2, inplace=True)
    )
    (criterion): CrossEntropyLoss()
  )
  (DE): XGBHead()
)
Trainset: 10000
Valset: 600
Testset: 600
Namespace(arch='DN_X', cfg='../models/architectures/configs/DN4_Vanilla.yaml', dataset_dir='../dataset/StanfordDogs/', data_name='stanforddogz', mode='train', resume='../results/models/epoch_14_best.pth.tar', epochs=0, cuda=True, ngpu=1, nc=3, clamp_lower=-0.01, clamp_upper=0.01, print_freq=100, outf='../results/_DN_X_stanforddogz_DN4_5_Way_5_Shot_K5')
=> loaded checkpoint '../results/models/epoch_14_best.pth.tar' (epoch 14)
DN_X(
  (BACKBONE): FourLayer_64F(
    (features): Sequential(
      (0): Conv2d(3, 64, kernel_size=(3, 3), stride=(1, 1), padding=(1, 1), bias=False)
      (1): BatchNorm2d(64, eps=1e-05, momentum=0.1, affine=True, track_running_stats=True)
      (2): LeakyReLU(negative_slope=0.2, inplace=True)
      (3): MaxPool2d(kernel_size=2, stride=2, padding=0, dilation=1, ceil_mode=False)
      (4): Conv2d(64, 64, kernel_size=(3, 3), stride=(1, 1), padding=(1, 1), bias=False)
      (5): BatchNorm2d(64, eps=1e-05, momentum=0.1, affine=True, track_running_stats=True)
      (6): LeakyReLU(negative_slope=0.2, inplace=True)
      (7): MaxPool2d(kernel_size=2, stride=2, padding=0, dilation=1, ceil_mode=False)
      (8): Conv2d(64, 64, kernel_size=(3, 3), stride=(1, 1), padding=(1, 1), bias=False)
      (9): BatchNorm2d(64, eps=1e-05, momentum=0.1, affine=True, track_running_stats=True)
      (10): LeakyReLU(negative_slope=0.2, inplace=True)
      (11): Conv2d(64, 64, kernel_size=(3, 3), stride=(1, 1), padding=(1, 1), bias=False)
      (12): BatchNorm2d(64, eps=1e-05, momentum=0.1, affine=True, track_running_stats=True)
      (13): LeakyReLU(negative_slope=0.2, inplace=True)
    )
    (criterion): CrossEntropyLoss()
  )
  (DE): XGBHead()
)
Trainset: 10000
Valset: 600
Testset: 600
Namespace(arch='DN_X', cfg='../models/architectures/configs/DN4_Vanilla.yaml', dataset_dir='../dataset/StanfordDogs/', data_name='stanforddogz', mode='train', resume='../results/models/epoch_14_best.pth.tar', epochs=0, cuda=True, ngpu=1, nc=3, clamp_lower=-0.01, clamp_upper=0.01, print_freq=100, outf='../results/_DN_X_stanforddogz_DN4_5_Way_5_Shot_K5')
=> loaded checkpoint '../results/models/epoch_14_best.pth.tar' (epoch 14)
DN_X(
  (BACKBONE): FourLayer_64F(
    (features): Sequential(
      (0): Conv2d(3, 64, kernel_size=(3, 3), stride=(1, 1), padding=(1, 1), bias=False)
      (1): BatchNorm2d(64, eps=1e-05, momentum=0.1, affine=True, track_running_stats=True)
      (2): LeakyReLU(negative_slope=0.2, inplace=True)
      (3): MaxPool2d(kernel_size=2, stride=2, padding=0, dilation=1, ceil_mode=False)
      (4): Conv2d(64, 64, kernel_size=(3, 3), stride=(1, 1), padding=(1, 1), bias=False)
      (5): BatchNorm2d(64, eps=1e-05, momentum=0.1, affine=True, track_running_stats=True)
      (6): LeakyReLU(negative_slope=0.2, inplace=True)
      (7): MaxPool2d(kernel_size=2, stride=2, padding=0, dilation=1, ceil_mode=False)
      (8): Conv2d(64, 64, kernel_size=(3, 3), stride=(1, 1), padding=(1, 1), bias=False)
      (9): BatchNorm2d(64, eps=1e-05, momentum=0.1, affine=True, track_running_stats=True)
      (10): LeakyReLU(negative_slope=0.2, inplace=True)
      (11): Conv2d(64, 64, kernel_size=(3, 3), stride=(1, 1), padding=(1, 1), bias=False)
      (12): BatchNorm2d(64, eps=1e-05, momentum=0.1, affine=True, track_running_stats=True)
      (13): LeakyReLU(negative_slope=0.2, inplace=True)
    )
    (criterion): CrossEntropyLoss()
  )
  (DE): XGBHead()
)
Trainset: 10000
Valset: 600
Testset: 600
Test-(14): [100/600]	Time 0.171 (0.175)	Loss 1.425 (1.300)	Prec@1 48.0 (60.51485148514851)
Test-(14): [200/600]	Time 0.205 (0.166)	Loss 1.405 (1.306)	Prec@1 50.0 (59.91044776119403)
…
