Namespace(arch='DN_X', config='../models/architectures/configs/DN4_DA.yaml', dengine=False, refit_dengine=False, dataset_dir='../dataset/miniImageNet', data_name='test', mode='test', resume='../results/models/dn4__miniImageNet_epoch_23.pth.tar', epochs=1, ngpu=1, print_freq=100, outf='../results/DN_X_test_DN4_10_Way_5_Shot_K1')=> loaded checkpoint '../results/models/dn4__miniImageNet_epoch_23.pth.tar' (epoch 23)
DN_X(
  (BACKBONE): FourLayer_64F(
    (features): Sequential(
      (0): Conv2d(3, 64, kernel_size=(3, 3), stride=(1, 1), padding=(1, 1), bias=False)
      (1): BatchNorm2d(64, eps=1e-05, momentum=0.1, affine=True, track_running_stats=True)
      (2): LeakyReLU(negative_slope=0.2, inplace=True)
      (3): MaxPool2d(kernel_size=2, stride=2, padding=0, dilation=1, ceil_mode=False)
      (4): Conv2d(64, 64, kernel_size=(3, 3), stride=(1, 1), padding=(1, 1), bias=False)
      (5): BatchNorm2d(64, eps=1e-05, momentum=0.1, affine=True, track_running_stats=True)
      (6): LeakyReLU(negative_slope=0.2, inplace=True)
      (7): MaxPool2d(kernel_size=2, stride=2, padding=0, dilation=1, ceil_mode=False)
      (8): Conv2d(64, 64, kernel_size=(3, 3), stride=(1, 1), padding=(1, 1), bias=False)
      (9): BatchNorm2d(64, eps=1e-05, momentum=0.1, affine=True, track_running_stats=True)
      (10): LeakyReLU(negative_slope=0.2, inplace=True)
      (11): Conv2d(64, 64, kernel_size=(3, 3), stride=(1, 1), padding=(1, 1), bias=False)
      (12): BatchNorm2d(64, eps=1e-05, momentum=0.1, affine=True, track_running_stats=True)
      (13): LeakyReLU(negative_slope=0.2, inplace=True)
    )
    (criterion): CrossEntropyLoss()
  )
  (DE): XGBHead()
)
===================================== Round 0 =====================================
Testset: 600-------------0Namespace(arch='DN_X', config='../models/architectures/configs/DN4_DA.yaml', dengine=False, refit_dengine=False, dataset_dir='../dataset/miniImageNet', data_name='test', mode='test', resume='../results/models/dn4__miniImageNet_epoch_23.pth.tar', epochs=1, ngpu=1, print_freq=100, outf='../results/DN_X_test_DN4_10_Way_5_Shot_K1')=> loaded checkpoint '../results/models/dn4__miniImageNet_epoch_23.pth.tar' (epoch 23)
DN_X(
  (BACKBONE): FourLayer_64F(
    (features): Sequential(
      (0): Conv2d(3, 64, kernel_size=(3, 3), stride=(1, 1), padding=(1, 1), bias=False)
      (1): BatchNorm2d(64, eps=1e-05, momentum=0.1, affine=True, track_running_stats=True)
      (2): LeakyReLU(negative_slope=0.2, inplace=True)
      (3): MaxPool2d(kernel_size=2, stride=2, padding=0, dilation=1, ceil_mode=False)
      (4): Conv2d(64, 64, kernel_size=(3, 3), stride=(1, 1), padding=(1, 1), bias=False)
      (5): BatchNorm2d(64, eps=1e-05, momentum=0.1, affine=True, track_running_stats=True)
      (6): LeakyReLU(negative_slope=0.2, inplace=True)
      (7): MaxPool2d(kernel_size=2, stride=2, padding=0, dilation=1, ceil_mode=False)
      (8): Conv2d(64, 64, kernel_size=(3, 3), stride=(1, 1), padding=(1, 1), bias=False)
      (9): BatchNorm2d(64, eps=1e-05, momentum=0.1, affine=True, track_running_stats=True)
      (10): LeakyReLU(negative_slope=0.2, inplace=True)
      (11): Conv2d(64, 64, kernel_size=(3, 3), stride=(1, 1), padding=(1, 1), bias=False)
      (12): BatchNorm2d(64, eps=1e-05, momentum=0.1, affine=True, track_running_stats=True)
      (13): LeakyReLU(negative_slope=0.2, inplace=True)
    )
    (criterion): CrossEntropyLoss()
  )
  (DE): XGBHead()
)
===================================== Round 0 =====================================
Testset: 600-------------0Namespace(arch='DN_X', config='../models/architectures/configs/DN4_DA.yaml', dengine=False, refit_dengine=False, dataset_dir='../dataset/miniImageNet', data_name='test', mode='test', resume='../results/models/dn4__miniImageNet_epoch_23.pth.tar', epochs=1, ngpu=1, print_freq=100, outf='../results/DN_X_test_DN4_10_Way_5_Shot_K1')=> loaded checkpoint '../results/models/dn4__miniImageNet_epoch_23.pth.tar' (epoch 23)
DN_X(
  (BACKBONE): FourLayer_64F(
    (features): Sequential(
      (0): Conv2d(3, 64, kernel_size=(3, 3), stride=(1, 1), padding=(1, 1), bias=False)
      (1): BatchNorm2d(64, eps=1e-05, momentum=0.1, affine=True, track_running_stats=True)
      (2): LeakyReLU(negative_slope=0.2, inplace=True)
      (3): MaxPool2d(kernel_size=2, stride=2, padding=0, dilation=1, ceil_mode=False)
      (4): Conv2d(64, 64, kernel_size=(3, 3), stride=(1, 1), padding=(1, 1), bias=False)
      (5): BatchNorm2d(64, eps=1e-05, momentum=0.1, affine=True, track_running_stats=True)
      (6): LeakyReLU(negative_slope=0.2, inplace=True)
      (7): MaxPool2d(kernel_size=2, stride=2, padding=0, dilation=1, ceil_mode=False)
      (8): Conv2d(64, 64, kernel_size=(3, 3), stride=(1, 1), padding=(1, 1), bias=False)
      (9): BatchNorm2d(64, eps=1e-05, momentum=0.1, affine=True, track_running_stats=True)
      (10): LeakyReLU(negative_slope=0.2, inplace=True)
      (11): Conv2d(64, 64, kernel_size=(3, 3), stride=(1, 1), padding=(1, 1), bias=False)
      (12): BatchNorm2d(64, eps=1e-05, momentum=0.1, affine=True, track_running_stats=True)
      (13): LeakyReLU(negative_slope=0.2, inplace=True)
    )
    (criterion): CrossEntropyLoss()
  )
  (DE): XGBHead()
)
===================================== Round 0 =====================================
Testset: 600-------------0
Test-(23): [100/600]	Time 0.432 (0.399)	Loss 1.507 (1.576)	Prec@1 53.0 (50.22772216796875)

Test-(23): [200/600]	Time 0.360 (0.390)	Loss 1.769 (1.579)	Prec@1 41.0 (50.02487564086914)
…
 * Prec@1 50.178 Best_prec1 50.313Test accuracy= 50.1783332824707 h= 0.48273253440856934

Aver_accuracy= 50.15599822998047 Aver_h= 0.48125377893447874
Namespace(arch='DN_X', config='../models/architectures/configs/DN4_DA.yaml', dengine=True, refit_dengine=True, dataset_dir='../dataset/miniImageNet', data_name='test', mode='test', resume='../results/models/dn4__miniImageNet_epoch_23.pth.tar', epochs=1, ngpu=1, print_freq=100, outf='../results/DN_X_test_DN4_10_Way_5_Shot_K1')=> loaded checkpoint '../results/models/dn4__miniImageNet_epoch_23.pth.tar' (epoch 23)
DN_X(
  (BACKBONE): FourLayer_64F(
    (features): Sequential(
      (0): Conv2d(3, 64, kernel_size=(3, 3), stride=(1, 1), padding=(1, 1), bias=False)
      (1): BatchNorm2d(64, eps=1e-05, momentum=0.1, affine=True, track_running_stats=True)
      (2): LeakyReLU(negative_slope=0.2, inplace=True)
      (3): MaxPool2d(kernel_size=2, stride=2, padding=0, dilation=1, ceil_mode=False)
      (4): Conv2d(64, 64, kernel_size=(3, 3), stride=(1, 1), padding=(1, 1), bias=False)
      (5): BatchNorm2d(64, eps=1e-05, momentum=0.1, affine=True, track_running_stats=True)
      (6): LeakyReLU(negative_slope=0.2, inplace=True)
      (7): MaxPool2d(kernel_size=2, stride=2, padding=0, dilation=1, ceil_mode=False)
      (8): Conv2d(64, 64, kernel_size=(3, 3), stride=(1, 1), padding=(1, 1), bias=False)
      (9): BatchNorm2d(64, eps=1e-05, momentum=0.1, affine=True, track_running_stats=True)
      (10): LeakyReLU(negative_slope=0.2, inplace=True)
      (11): Conv2d(64, 64, kernel_size=(3, 3), stride=(1, 1), padding=(1, 1), bias=False)
      (12): BatchNorm2d(64, eps=1e-05, momentum=0.1, affine=True, track_running_stats=True)
      (13): LeakyReLU(negative_slope=0.2, inplace=True)
    )
    (criterion): CrossEntropyLoss()
  )
  (DE): XGBHead()
)
Trainset: 10000
Valset: 800
Testset: 600
Namespace(arch='DN_X', config='../models/architectures/configs/DN4_DA.yaml', dengine=False, refit_dengine=False, dataset_dir='../dataset/miniImageNet', data_name='test', mode='test', resume='../results/models/dn4__miniImageNet_epoch_23.pth.tar', epochs=1, ngpu=1, print_freq=100, outf='../results/DN_X_test_DN4_10_Way_5_Shot_K1')=> loaded checkpoint '../results/models/dn4__miniImageNet_epoch_23.pth.tar' (epoch 23)
DN_X(
  (BACKBONE): FourLayer_64F(
    (features): Sequential(
      (0): Conv2d(3, 64, kernel_size=(3, 3), stride=(1, 1), padding=(1, 1), bias=False)
      (1): BatchNorm2d(64, eps=1e-05, momentum=0.1, affine=True, track_running_stats=True)
      (2): LeakyReLU(negative_slope=0.2, inplace=True)
      (3): MaxPool2d(kernel_size=2, stride=2, padding=0, dilation=1, ceil_mode=False)
      (4): Conv2d(64, 64, kernel_size=(3, 3), stride=(1, 1), padding=(1, 1), bias=False)
      (5): BatchNorm2d(64, eps=1e-05, momentum=0.1, affine=True, track_running_stats=True)
      (6): LeakyReLU(negative_slope=0.2, inplace=True)
      (7): MaxPool2d(kernel_size=2, stride=2, padding=0, dilation=1, ceil_mode=False)
      (8): Conv2d(64, 64, kernel_size=(3, 3), stride=(1, 1), padding=(1, 1), bias=False)
      (9): BatchNorm2d(64, eps=1e-05, momentum=0.1, affine=True, track_running_stats=True)
      (10): LeakyReLU(negative_slope=0.2, inplace=True)
      (11): Conv2d(64, 64, kernel_size=(3, 3), stride=(1, 1), padding=(1, 1), bias=False)
      (12): BatchNorm2d(64, eps=1e-05, momentum=0.1, affine=True, track_running_stats=True)
      (13): LeakyReLU(negative_slope=0.2, inplace=True)
    )
    (criterion): CrossEntropyLoss()
  )
  (DE): XGBHead()
)
===================================== Round 0 =====================================
Testset: 600-------------0
Test-(23): [100/600]	Time 0.387 (0.399)	Loss 1.636 (1.554)	Prec@1 48.0 (51.39603805541992)
