…
ImageNet', 'data_name': 'imageNetAV', 'mode': 'train', 'resume': 'None', 'epochs': 30, 'ngpu': 1, 'print_freq': 100, 'outf': '../results/DN_X_imageNetAV_DN4_5_Way_5_Shot_K3'}{'JOB_ID': 'imagenet_av_2_k3_w5_s5', 'arch': 'DN_X', 'config': '../models/architectures/configs/DN4_AV.yaml', 'dengine': False, 'refit_dengine': False, 'dataset_dir': '../dataset/miniImageNet', 'data_name': 'imageNetAV', 'mode': 'train', 'resume': None, 'epochs': 30, 'ngpu': 1, 'print_freq': 100, 'outf': '../results/DN_X_imageNetAV_DN4_5_Way_5_Shot_K3'}DN_X(
  (BACKBONE): FourLayer_64F(
    (features): Sequential(
      (0): Conv2d(3, 64, kernel_size=(3, 3), stride=(1, 1), padding=(1, 1), bias=False)
      (1): BatchNorm2d(64, eps=1e-05, momentum=0.1, affine=True, track_running_stats=True)
      (2): LeakyReLU(negative_slope=0.2, inplace=True)
      (3): MaxPool2d(kernel_size=2, stride=2, padding=0, dilation=1, ceil_mode=False)
      (4): Conv2d(64, 64, kernel_size=(3, 3), stride=(1, 1), padding=(1, 1), bias=False)
      (5): BatchNorm2d(64, eps=1e-05, momentum=0.1, affine=True, track_running_stats=True)
      (6): LeakyReLU(negative_slope=0.2, inplace=True)
      (7): MaxPool2d(kernel_size=2, stride=2, padding=0, dilation=1, ceil_mode=False)
      (8): Conv2d(64, 64, kernel_size=(3, 3), stride=(1, 1), padding=(1, 1), bias=False)
      (9): BatchNorm2d(64, eps=1e-05, momentum=0.1, affine=True, track_running_stats=True)
      (10): LeakyReLU(negative_slope=0.2, inplace=True)
      (11): Conv2d(64, 64, kernel_size=(3, 3), stride=(1, 1), padding=(1, 1), bias=False)
      (12): BatchNorm2d(64, eps=1e-05, momentum=0.1, affine=True, track_running_stats=True)
      (13): LeakyReLU(negative_slope=0.2, inplace=True)
    )
    (criterion): CrossEntropyLoss()
    (knn): KNN_itc(
      (softmax): Softmax(dim=1)
    )
  )
)
===================================== Epoch 0 =====================================
Trainset: 10000
Valset: 900
Testset: 600
{'JOB_ID': 'imagenet_av_2_k3_w5_s5', 'arch': 'DN_X', 'config': '../models/architectures/configs/DN4_AV.yaml', 'dengine': False, 'refit_dengine': False, 'dataset_dir': '../dataset/miniImageNet', 'data_name': 'imageNetAV', 'mode': 'train', 'resume': None, 'epochs': 30, 'ngpu': 1, 'print_freq': 100, 'outf': '../results/DN_X_imageNetAV_DN4_5_Way_5_Shot_K3'}DN_X(
  (BACKBONE): FourLayer_64F(
    (features): Sequential(
      (0): Conv2d(3, 64, kernel_size=(3, 3), stride=(1, 1), padding=(1, 1), bias=False)
      (1): BatchNorm2d(64, eps=1e-05, momentum=0.1, affine=True, track_running_stats=True)
      (2): LeakyReLU(negative_slope=0.2, inplace=True)
      (3): MaxPool2d(kernel_size=2, stride=2, padding=0, dilation=1, ceil_mode=False)
      (4): Conv2d(64, 64, kernel_size=(3, 3), stride=(1, 1), padding=(1, 1), bias=False)
      (5): BatchNorm2d(64, eps=1e-05, momentum=0.1, affine=True, track_running_stats=True)
      (6): LeakyReLU(negative_slope=0.2, inplace=True)
      (7): MaxPool2d(kernel_size=2, stride=2, padding=0, dilation=1, ceil_mode=False)
      (8): Conv2d(64, 64, kernel_size=(3, 3), stride=(1, 1), padding=(1, 1), bias=False)
      (9): BatchNorm2d(64, eps=1e-05, momentum=0.1, affine=True, track_running_stats=True)
      (10): LeakyReLU(negative_slope=0.2, inplace=True)
      (11): Conv2d(64, 64, kernel_size=(3, 3), stride=(1, 1), padding=(1, 1), bias=False)
      (12): BatchNorm2d(64, eps=1e-05, momentum=0.1, affine=True, track_running_stats=True)
      (13): LeakyReLU(negative_slope=0.2, inplace=True)
    )
    (criterion): CrossEntropyLoss()
    (knn): KNN_itc(
      (softmax): Softmax(dim=1)
    )
  )
)
===================================== Epoch 0 =====================================
Trainset: 10000
Valset: 900
Testset: 600
{'JOB_ID': 'imagenet_av_2_k3_w5_s5', 'arch': 'DN_X', 'config': '../models/architectures/configs/DN4_AV.yaml', 'dengine': False, 'refit_dengine': False, 'dataset_dir': '../dataset/miniImageNet', 'data_name': 'imageNetAV', 'mode': 'train', 'resume': None, 'epochs': 30, 'ngpu': 1, 'print_freq': 100, 'outf': '../results/DN_X_imageNetAV_DN4_5_Way_5_Shot_K3'}DN_X(
  (BACKBONE): FourLayer_64F(
    (features): Sequential(
      (0): Conv2d(3, 64, kernel_size=(3, 3), stride=(1, 1), padding=(1, 1), bias=False)
      (1): BatchNorm2d(64, eps=1e-05, momentum=0.1, affine=True, track_running_stats=True)
      (2): LeakyReLU(negative_slope=0.2, inplace=True)
      (3): MaxPool2d(kernel_size=2, stride=2, padding=0, dilation=1, ceil_mode=False)
      (4): Conv2d(64, 64, kernel_size=(3, 3), stride=(1, 1), padding=(1, 1), bias=False)
      (5): BatchNorm2d(64, eps=1e-05, momentum=0.1, affine=True, track_running_stats=True)
      (6): LeakyReLU(negative_slope=0.2, inplace=True)
      (7): MaxPool2d(kernel_size=2, stride=2, padding=0, dilation=1, ceil_mode=False)
      (8): Conv2d(64, 64, kernel_size=(3, 3), stride=(1, 1), padding=(1, 1), bias=False)
      (9): BatchNorm2d(64, eps=1e-05, momentum=0.1, affine=True, track_running_stats=True)
      (10): LeakyReLU(negative_slope=0.2, inplace=True)
      (11): Conv2d(64, 64, kernel_size=(3, 3), stride=(1, 1), padding=(1, 1), bias=False)
      (12): BatchNorm2d(64, eps=1e-05, momentum=0.1, affine=True, track_running_stats=True)
      (13): LeakyReLU(negative_slope=0.2, inplace=True)
    )
    (criterion): CrossEntropyLoss()
    (knn): KNN_itc(
      (softmax): Softmax(dim=1)
    )
  )
)
===================================== Epoch 0 =====================================
{'JOB_ID': 'imagenet_av_2_k3_w5_s5', 'arch': 'DN_X', 'config': '../models/architectures/configs/DN4_AV.yaml', 'dengine': False, 'refit_dengine': False, 'dataset_dir': '../dataset/miniImageNet', 'data_name': 'imageNetAV', 'mode': 'train', 'resume': None, 'epochs': 30, 'ngpu': 1, 'print_freq': 100, 'outf': '../results/DN_X_imageNetAV_DN4_5_Way_5_Shot_K3'}DN_X(
  (BACKBONE): FourLayer_64F(
    (features): Sequential(
      (0): Conv2d(3, 64, kernel_size=(3, 3), stride=(1, 1), padding=(1, 1), bias=False)
      (1): BatchNorm2d(64, eps=1e-05, momentum=0.1, affine=True, track_running_stats=True)
      (2): LeakyReLU(negative_slope=0.2, inplace=True)
      (3): MaxPool2d(kernel_size=2, stride=2, padding=0, dilation=1, ceil_mode=False)
      (4): Conv2d(64, 64, kernel_size=(3, 3), stride=(1, 1), padding=(1, 1), bias=False)
      (5): BatchNorm2d(64, eps=1e-05, momentum=0.1, affine=True, track_running_stats=True)
      (6): LeakyReLU(negative_slope=0.2, inplace=True)
      (7): MaxPool2d(kernel_size=2, stride=2, padding=0, dilation=1, ceil_mode=False)
      (8): Conv2d(64, 64, kernel_size=(3, 3), stride=(1, 1), padding=(1, 1), bias=False)
      (9): BatchNorm2d(64, eps=1e-05, momentum=0.1, affine=True, track_running_stats=True)
      (10): LeakyReLU(negative_slope=0.2, inplace=True)
      (11): Conv2d(64, 64, kernel_size=(3, 3), stride=(1, 1), padding=(1, 1), bias=False)
      (12): BatchNorm2d(64, eps=1e-05, momentum=0.1, affine=True, track_running_stats=True)
      (13): LeakyReLU(negative_slope=0.2, inplace=True)
    )
    (criterion): CrossEntropyLoss()
    (knn): KNN_itc(
      (softmax): Softmax(dim=1)
    )
  )
)
===================================== Epoch 0 =====================================
Trainset: 10000
Valset: 900
Testset: 600
{'JOB_ID': 'imagenet_av_2_k3_w5_s5', 'arch': 'DN_X', 'config': '../models/architectures/configs/DN4_AV.yaml', 'dengine': False, 'refit_dengine': False, 'dataset_dir': '../dataset/miniImageNet', 'data_name': 'imageNetAV', 'mode': 'train', 'resume': None, 'epochs': 30, 'ngpu': 1, 'print_freq': 100, 'outf': '../results/DN_X_imageNetAV_DN4_5_Way_5_Shot_K3'}DN_X(
  (BACKBONE): FourLayer_64F(
    (features): Sequential(
      (0): Conv2d(3, 64, kernel_size=(3, 3), stride=(1, 1), padding=(1, 1), bias=False)
      (1): BatchNorm2d(64, eps=1e-05, momentum=0.1, affine=True, track_running_stats=True)
      (2): LeakyReLU(negative_slope=0.2, inplace=True)
      (3): MaxPool2d(kernel_size=2, stride=2, padding=0, dilation=1, ceil_mode=False)
      (4): Conv2d(64, 64, kernel_size=(3, 3), stride=(1, 1), padding=(1, 1), bias=False)
      (5): BatchNorm2d(64, eps=1e-05, momentum=0.1, affine=True, track_running_stats=True)
      (6): LeakyReLU(negative_slope=0.2, inplace=True)
      (7): MaxPool2d(kernel_size=2, stride=2, padding=0, dilation=1, ceil_mode=False)
      (8): Conv2d(64, 64, kernel_size=(3, 3), stride=(1, 1), padding=(1, 1), bias=False)
      (9): BatchNorm2d(64, eps=1e-05, momentum=0.1, affine=True, track_running_stats=True)
      (10): LeakyReLU(negative_slope=0.2, inplace=True)
      (11): Conv2d(64, 64, kernel_size=(3, 3), stride=(1, 1), padding=(1, 1), bias=False)
      (12): BatchNorm2d(64, eps=1e-05, momentum=0.1, affine=True, track_running_stats=True)
      (13): LeakyReLU(negative_slope=0.2, inplace=True)
    )
    (criterion): CrossEntropyLoss()
    (knn): KNN_itc(
      (softmax): Softmax(dim=1)
    )
  )
)
===================================== Epoch 0 =====================================
Trainset: 10
Valset: 600
Testset: 600
============ Testing on the test set ============
…
Test-(1): [400/600]	Time 0.100 (0.153)	Loss 3.111 (3.966)	Prec@1 20.0 (31.960098266601562)

Test-(1): [500/600]	Time 0.085 (0.145)	Loss 3.168 (3.924)	Prec@1 26.0 (31.968063354492188)
 * Prec@1 32.010 Best_prec1 0.000{'JOB_ID': 'imagenet_av_2_k3_w5_s5', 'arch': 'DN_X', 'config': '../models/architectures/configs/DN4_AV.yaml', 'dengine': False, 'refit_dengine': False, 'dataset_dir': '../dataset/miniImageNet', 'data_name': 'imageNetAV', 'mode': 'train', 'resume': None, 'epochs': 30, 'ngpu': 1, 'print_freq': 100, 'outf': '../results/DN_X_imageNetAV_DN4_5_Way_5_Shot_K3'}DN_X(
  (BACKBONE): FourLayer_64F(
    (features): Sequential(
      (0): Conv2d(3, 64, kernel_size=(3, 3), stride=(1, 1), padding=(1, 1), bias=False)
      (1): BatchNorm2d(64, eps=1e-05, momentum=0.1, affine=True, track_running_stats=True)
      (2): LeakyReLU(negative_slope=0.2, inplace=True)
      (3): MaxPool2d(kernel_size=2, stride=2, padding=0, dilation=1, ceil_mode=False)
      (4): Conv2d(64, 64, kernel_size=(3, 3), stride=(1, 1), padding=(1, 1), bias=False)
      (5): BatchNorm2d(64, eps=1e-05, momentum=0.1, affine=True, track_running_stats=True)
      (6): LeakyReLU(negative_slope=0.2, inplace=True)
      (7): MaxPool2d(kernel_size=2, stride=2, padding=0, dilation=1, ceil_mode=False)
      (8): Conv2d(64, 64, kernel_size=(3, 3), stride=(1, 1), padding=(1, 1), bias=False)
      (9): BatchNorm2d(64, eps=1e-05, momentum=0.1, affine=True, track_running_stats=True)
      (10): LeakyReLU(negative_slope=0.2, inplace=True)
      (11): Conv2d(64, 64, kernel_size=(3, 3), stride=(1, 1), padding=(1, 1), bias=False)
      (12): BatchNorm2d(64, eps=1e-05, momentum=0.1, affine=True, track_running_stats=True)
      (13): LeakyReLU(negative_slope=0.2, inplace=True)
    )
    (criterion): CrossEntropyLoss()
    (knn): KNN_itc(
      (softmax): Softmax(dim=1)
    )
  )
)
===================================== Epoch 0 =====================================
Trainset: 10
Valset: 600
Testset: 600
============ Testing on the test set ============
…
