Namespace(id='', dataset_dir='../dataset/miniImageNet/', data_name='miniImageNet', mode='train', resume='../results/DN4_miniImageNet_Conv64F_5Way_1Shot_K3/model_best.pth.tar', epochs=0, cuda=True, ngpu=1, nc=3, clamp_lower=-0.01, clamp_upper=0.01, print_freq=100, outf='../results/__miniImageNet_DN4_5_Way_5_Shot_K3')
=> loaded checkpoint '../results/DN4_miniImageNet_Conv64F_5Way_1Shot_K3/model_best.pth.tar' (epoch 14)
DN4(
  (BACKBONE): FourLayer_64F(
    (features): Sequential(
      (0): Conv2d(3, 64, kernel_size=(3, 3), stride=(1, 1), padding=(1, 1), bias=False)
      (1): BatchNorm2d(64, eps=1e-05, momentum=0.1, affine=True, track_running_stats=True)
      (2): LeakyReLU(negative_slope=0.2, inplace=True)
      (3): MaxPool2d(kernel_size=2, stride=2, padding=0, dilation=1, ceil_mode=False)
      (4): Conv2d(64, 64, kernel_size=(3, 3), stride=(1, 1), padding=(1, 1), bias=False)
      (5): BatchNorm2d(64, eps=1e-05, momentum=0.1, affine=True, track_running_stats=True)
      (6): LeakyReLU(negative_slope=0.2, inplace=True)
      (7): MaxPool2d(kernel_size=2, stride=2, padding=0, dilation=1, ceil_mode=False)
      (8): Conv2d(64, 64, kernel_size=(3, 3), stride=(1, 1), padding=(1, 1), bias=False)
      (9): BatchNorm2d(64, eps=1e-05, momentum=0.1, affine=True, track_running_stats=True)
      (10): LeakyReLU(negative_slope=0.2, inplace=True)
      (11): Conv2d(64, 64, kernel_size=(3, 3), stride=(1, 1), padding=(1, 1), bias=False)
      (12): BatchNorm2d(64, eps=1e-05, momentum=0.1, affine=True, track_running_stats=True)
      (13): LeakyReLU(negative_slope=0.2, inplace=True)
    )
    (criterion): CrossEntropyLoss()
  )
  (DT): XGBHead()
)
============ validation on the val set ============
Trainset: 10000
Valset: 600
Testset: 600
Namespace(id='', dataset_dir='../dataset/miniImageNet/', data_name='miniImageNet', mode='train', resume='../results/DN4_miniImageNet_Conv64F_5Way_1Shot_K3/model_best.pth.tar', epochs=0, cuda=True, ngpu=1, nc=3, clamp_lower=-0.01, clamp_upper=0.01, print_freq=100, outf='../results/__miniImageNet_DN4_5_Way_5_Shot_K3')
=> loaded checkpoint '../results/DN4_miniImageNet_Conv64F_5Way_1Shot_K3/model_best.pth.tar' (epoch 14)
DN4(
  (BACKBONE): FourLayer_64F(
    (features): Sequential(
      (0): Conv2d(3, 64, kernel_size=(3, 3), stride=(1, 1), padding=(1, 1), bias=False)
      (1): BatchNorm2d(64, eps=1e-05, momentum=0.1, affine=True, track_running_stats=True)
      (2): LeakyReLU(negative_slope=0.2, inplace=True)
      (3): MaxPool2d(kernel_size=2, stride=2, padding=0, dilation=1, ceil_mode=False)
      (4): Conv2d(64, 64, kernel_size=(3, 3), stride=(1, 1), padding=(1, 1), bias=False)
      (5): BatchNorm2d(64, eps=1e-05, momentum=0.1, affine=True, track_running_stats=True)
      (6): LeakyReLU(negative_slope=0.2, inplace=True)
      (7): MaxPool2d(kernel_size=2, stride=2, padding=0, dilation=1, ceil_mode=False)
      (8): Conv2d(64, 64, kernel_size=(3, 3), stride=(1, 1), padding=(1, 1), bias=False)
      (9): BatchNorm2d(64, eps=1e-05, momentum=0.1, affine=True, track_running_stats=True)
      (10): LeakyReLU(negative_slope=0.2, inplace=True)
      (11): Conv2d(64, 64, kernel_size=(3, 3), stride=(1, 1), padding=(1, 1), bias=False)
      (12): BatchNorm2d(64, eps=1e-05, momentum=0.1, affine=True, track_running_stats=True)
      (13): LeakyReLU(negative_slope=0.2, inplace=True)
    )
    (criterion): CrossEntropyLoss()
  )
  (DT): XGBHead()
)
============ validation on the val set ============
Trainset: 10000
Valset: 600
Testset: 600
Namespace(id='', dataset_dir='../dataset/miniImageNet/', data_name='miniImageNet', mode='train', resume='../results/DN4_miniImageNet_Conv64F_5Way_1Shot_K3/model_best.pth.tar', epochs=0, cuda=True, ngpu=1, nc=3, clamp_lower=-0.01, clamp_upper=0.01, print_freq=100, outf='../results/__miniImageNet_DN4_5_Way_5_Shot_K3')
=> loaded checkpoint '../results/DN4_miniImageNet_Conv64F_5Way_1Shot_K3/model_best.pth.tar' (epoch 14)
DN4(
  (BACKBONE): FourLayer_64F(
    (features): Sequential(
      (0): Conv2d(3, 64, kernel_size=(3, 3), stride=(1, 1), padding=(1, 1), bias=False)
      (1): BatchNorm2d(64, eps=1e-05, momentum=0.1, affine=True, track_running_stats=True)
      (2): LeakyReLU(negative_slope=0.2, inplace=True)
      (3): MaxPool2d(kernel_size=2, stride=2, padding=0, dilation=1, ceil_mode=False)
      (4): Conv2d(64, 64, kernel_size=(3, 3), stride=(1, 1), padding=(1, 1), bias=False)
      (5): BatchNorm2d(64, eps=1e-05, momentum=0.1, affine=True, track_running_stats=True)
      (6): LeakyReLU(negative_slope=0.2, inplace=True)
      (7): MaxPool2d(kernel_size=2, stride=2, padding=0, dilation=1, ceil_mode=False)
      (8): Conv2d(64, 64, kernel_size=(3, 3), stride=(1, 1), padding=(1, 1), bias=False)
      (9): BatchNorm2d(64, eps=1e-05, momentum=0.1, affine=True, track_running_stats=True)
      (10): LeakyReLU(negative_slope=0.2, inplace=True)
      (11): Conv2d(64, 64, kernel_size=(3, 3), stride=(1, 1), padding=(1, 1), bias=False)
      (12): BatchNorm2d(64, eps=1e-05, momentum=0.1, affine=True, track_running_stats=True)
      (13): LeakyReLU(negative_slope=0.2, inplace=True)
    )
    (criterion): CrossEntropyLoss()
  )
  (DT): XGBHead()
)
============ validation on the val set ============
Trainset: 10000
Valset: 600
Testset: 600
Namespace(id='', dataset_dir='../dataset/miniImageNet/', data_name='miniImageNet', mode='train', resume='../results/DN4_miniImageNet_Conv64F_5Way_1Shot_K3/model_best.pth.tar', epochs=0, cuda=True, ngpu=1, nc=3, clamp_lower=-0.01, clamp_upper=0.01, print_freq=100, outf='../results/__miniImageNet_DN4_5_Way_5_Shot_K3')
=> loaded checkpoint '../results/DN4_miniImageNet_Conv64F_5Way_1Shot_K3/model_best.pth.tar' (epoch 14)
DN4(
  (BACKBONE): FourLayer_64F(
    (features): Sequential(
      (0): Conv2d(3, 64, kernel_size=(3, 3), stride=(1, 1), padding=(1, 1), bias=False)
      (1): BatchNorm2d(64, eps=1e-05, momentum=0.1, affine=True, track_running_stats=True)
      (2): LeakyReLU(negative_slope=0.2, inplace=True)
      (3): MaxPool2d(kernel_size=2, stride=2, padding=0, dilation=1, ceil_mode=False)
      (4): Conv2d(64, 64, kernel_size=(3, 3), stride=(1, 1), padding=(1, 1), bias=False)
      (5): BatchNorm2d(64, eps=1e-05, momentum=0.1, affine=True, track_running_stats=True)
      (6): LeakyReLU(negative_slope=0.2, inplace=True)
      (7): MaxPool2d(kernel_size=2, stride=2, padding=0, dilation=1, ceil_mode=False)
      (8): Conv2d(64, 64, kernel_size=(3, 3), stride=(1, 1), padding=(1, 1), bias=False)
      (9): BatchNorm2d(64, eps=1e-05, momentum=0.1, affine=True, track_running_stats=True)
      (10): LeakyReLU(negative_slope=0.2, inplace=True)
      (11): Conv2d(64, 64, kernel_size=(3, 3), stride=(1, 1), padding=(1, 1), bias=False)
      (12): BatchNorm2d(64, eps=1e-05, momentum=0.1, affine=True, track_running_stats=True)
      (13): LeakyReLU(negative_slope=0.2, inplace=True)
    )
    (criterion): CrossEntropyLoss()
  )
  (DT): XGBHead()
)
============ validation on the val set ============
Trainset: 10000
Valset: 600
Testset: 600
Namespace(id='', dataset_dir='../dataset/miniImageNet/', data_name='miniImageNet', mode='train', resume='../results/DN4_miniImageNet_Conv64F_5Way_1Shot_K3/model_best.pth.tar', epochs=0, cuda=True, ngpu=1, nc=3, clamp_lower=-0.01, clamp_upper=0.01, print_freq=100, outf='../results/__miniImageNet_DN4_5_Way_5_Shot_K3')
=> loaded checkpoint '../results/DN4_miniImageNet_Conv64F_5Way_1Shot_K3/model_best.pth.tar' (epoch 14)
DN4(
  (BACKBONE): FourLayer_64F(
    (features): Sequential(
      (0): Conv2d(3, 64, kernel_size=(3, 3), stride=(1, 1), padding=(1, 1), bias=False)
      (1): BatchNorm2d(64, eps=1e-05, momentum=0.1, affine=True, track_running_stats=True)
      (2): LeakyReLU(negative_slope=0.2, inplace=True)
      (3): MaxPool2d(kernel_size=2, stride=2, padding=0, dilation=1, ceil_mode=False)
      (4): Conv2d(64, 64, kernel_size=(3, 3), stride=(1, 1), padding=(1, 1), bias=False)
      (5): BatchNorm2d(64, eps=1e-05, momentum=0.1, affine=True, track_running_stats=True)
      (6): LeakyReLU(negative_slope=0.2, inplace=True)
      (7): MaxPool2d(kernel_size=2, stride=2, padding=0, dilation=1, ceil_mode=False)
      (8): Conv2d(64, 64, kernel_size=(3, 3), stride=(1, 1), padding=(1, 1), bias=False)
      (9): BatchNorm2d(64, eps=1e-05, momentum=0.1, affine=True, track_running_stats=True)
      (10): LeakyReLU(negative_slope=0.2, inplace=True)
      (11): Conv2d(64, 64, kernel_size=(3, 3), stride=(1, 1), padding=(1, 1), bias=False)
      (12): BatchNorm2d(64, eps=1e-05, momentum=0.1, affine=True, track_running_stats=True)
      (13): LeakyReLU(negative_slope=0.2, inplace=True)
    )
    (criterion): CrossEntropyLoss()
  )
  (DT): XGBHead()
)
============ validation on the val set ============
Trainset: 10000
Valset: 600
Testset: 600
Namespace(id='', dataset_dir='../dataset/miniImageNet/', data_name='miniImageNet', mode='train', resume='../results/DN4_miniImageNet_Conv64F_5Way_1Shot_K3/model_best.pth.tar', epochs=0, cuda=True, ngpu=1, nc=3, clamp_lower=-0.01, clamp_upper=0.01, print_freq=100, outf='../results/__miniImageNet_DN4_5_Way_5_Shot_K3')
=> loaded checkpoint '../results/DN4_miniImageNet_Conv64F_5Way_1Shot_K3/model_best.pth.tar' (epoch 14)
DN4(
  (BACKBONE): FourLayer_64F(
    (features): Sequential(
      (0): Conv2d(3, 64, kernel_size=(3, 3), stride=(1, 1), padding=(1, 1), bias=False)
      (1): BatchNorm2d(64, eps=1e-05, momentum=0.1, affine=True, track_running_stats=True)
      (2): LeakyReLU(negative_slope=0.2, inplace=True)
      (3): MaxPool2d(kernel_size=2, stride=2, padding=0, dilation=1, ceil_mode=False)
      (4): Conv2d(64, 64, kernel_size=(3, 3), stride=(1, 1), padding=(1, 1), bias=False)
      (5): BatchNorm2d(64, eps=1e-05, momentum=0.1, affine=True, track_running_stats=True)
      (6): LeakyReLU(negative_slope=0.2, inplace=True)
      (7): MaxPool2d(kernel_size=2, stride=2, padding=0, dilation=1, ceil_mode=False)
      (8): Conv2d(64, 64, kernel_size=(3, 3), stride=(1, 1), padding=(1, 1), bias=False)
      (9): BatchNorm2d(64, eps=1e-05, momentum=0.1, affine=True, track_running_stats=True)
      (10): LeakyReLU(negative_slope=0.2, inplace=True)
      (11): Conv2d(64, 64, kernel_size=(3, 3), stride=(1, 1), padding=(1, 1), bias=False)
      (12): BatchNorm2d(64, eps=1e-05, momentum=0.1, affine=True, track_running_stats=True)
      (13): LeakyReLU(negative_slope=0.2, inplace=True)
    )
    (criterion): CrossEntropyLoss()
  )
  (DT): XGBHead()
)
============ validation on the val set ============
Trainset: 10000
Valset: 600
Testset: 600
Namespace(id='', dataset_dir='../dataset/miniImageNet/', data_name='miniImageNet', mode='train', resume='../results/DN4_miniImageNet_Conv64F_5Way_1Shot_K3/model_best.pth.tar', epochs=0, cuda=True, ngpu=1, nc=3, clamp_lower=-0.01, clamp_upper=0.01, print_freq=100, outf='../results/__miniImageNet_DN4_5_Way_5_Shot_K3')
=> loaded checkpoint '../results/DN4_miniImageNet_Conv64F_5Way_1Shot_K3/model_best.pth.tar' (epoch 14)
DN4(
  (BACKBONE): FourLayer_64F(
    (features): Sequential(
      (0): Conv2d(3, 64, kernel_size=(3, 3), stride=(1, 1), padding=(1, 1), bias=False)
      (1): BatchNorm2d(64, eps=1e-05, momentum=0.1, affine=True, track_running_stats=True)
      (2): LeakyReLU(negative_slope=0.2, inplace=True)
      (3): MaxPool2d(kernel_size=2, stride=2, padding=0, dilation=1, ceil_mode=False)
      (4): Conv2d(64, 64, kernel_size=(3, 3), stride=(1, 1), padding=(1, 1), bias=False)
      (5): BatchNorm2d(64, eps=1e-05, momentum=0.1, affine=True, track_running_stats=True)
      (6): LeakyReLU(negative_slope=0.2, inplace=True)
      (7): MaxPool2d(kernel_size=2, stride=2, padding=0, dilation=1, ceil_mode=False)
      (8): Conv2d(64, 64, kernel_size=(3, 3), stride=(1, 1), padding=(1, 1), bias=False)
      (9): BatchNorm2d(64, eps=1e-05, momentum=0.1, affine=True, track_running_stats=True)
      (10): LeakyReLU(negative_slope=0.2, inplace=True)
      (11): Conv2d(64, 64, kernel_size=(3, 3), stride=(1, 1), padding=(1, 1), bias=False)
      (12): BatchNorm2d(64, eps=1e-05, momentum=0.1, affine=True, track_running_stats=True)
      (13): LeakyReLU(negative_slope=0.2, inplace=True)
    )
    (criterion): CrossEntropyLoss()
  )
  (DT): XGBHead()
)
============ validation on the val set ============
Trainset: 10000
Valset: 600
Testset: 600
Namespace(id='', dataset_dir='../dataset/miniImageNet/', data_name='miniImageNet', mode='train', resume='../results/DN4_miniImageNet_Conv64F_5Way_1Shot_K3/model_best.pth.tar', epochs=0, cuda=True, ngpu=1, nc=3, clamp_lower=-0.01, clamp_upper=0.01, print_freq=100, outf='../results/__miniImageNet_DN4_5_Way_5_Shot_K3')
=> loaded checkpoint '../results/DN4_miniImageNet_Conv64F_5Way_1Shot_K3/model_best.pth.tar' (epoch 14)
DN4(
  (BACKBONE): FourLayer_64F(
    (features): Sequential(
      (0): Conv2d(3, 64, kernel_size=(3, 3), stride=(1, 1), padding=(1, 1), bias=False)
      (1): BatchNorm2d(64, eps=1e-05, momentum=0.1, affine=True, track_running_stats=True)
      (2): LeakyReLU(negative_slope=0.2, inplace=True)
      (3): MaxPool2d(kernel_size=2, stride=2, padding=0, dilation=1, ceil_mode=False)
      (4): Conv2d(64, 64, kernel_size=(3, 3), stride=(1, 1), padding=(1, 1), bias=False)
      (5): BatchNorm2d(64, eps=1e-05, momentum=0.1, affine=True, track_running_stats=True)
      (6): LeakyReLU(negative_slope=0.2, inplace=True)
      (7): MaxPool2d(kernel_size=2, stride=2, padding=0, dilation=1, ceil_mode=False)
      (8): Conv2d(64, 64, kernel_size=(3, 3), stride=(1, 1), padding=(1, 1), bias=False)
      (9): BatchNorm2d(64, eps=1e-05, momentum=0.1, affine=True, track_running_stats=True)
      (10): LeakyReLU(negative_slope=0.2, inplace=True)
      (11): Conv2d(64, 64, kernel_size=(3, 3), stride=(1, 1), padding=(1, 1), bias=False)
      (12): BatchNorm2d(64, eps=1e-05, momentum=0.1, affine=True, track_running_stats=True)
      (13): LeakyReLU(negative_slope=0.2, inplace=True)
    )
    (criterion): CrossEntropyLoss()
  )
  (DT): XGBHead()
)
============ validation on the val set ============
Trainset: 10000
Valset: 600
Testset: 600
Namespace(id='', dataset_dir='../dataset/miniImageNet/', data_name='miniImageNet', mode='train', resume='../results/DN4_miniImageNet_Conv64F_5Way_1Shot_K3/model_best.pth.tar', epochs=0, cuda=True, ngpu=1, nc=3, clamp_lower=-0.01, clamp_upper=0.01, print_freq=100, outf='../results/__miniImageNet_DN4_5_Way_5_Shot_K3')
=> loaded checkpoint '../results/DN4_miniImageNet_Conv64F_5Way_1Shot_K3/model_best.pth.tar' (epoch 14)
DN4(
  (BACKBONE): FourLayer_64F(
    (features): Sequential(
      (0): Conv2d(3, 64, kernel_size=(3, 3), stride=(1, 1), padding=(1, 1), bias=False)
      (1): BatchNorm2d(64, eps=1e-05, momentum=0.1, affine=True, track_running_stats=True)
      (2): LeakyReLU(negative_slope=0.2, inplace=True)
      (3): MaxPool2d(kernel_size=2, stride=2, padding=0, dilation=1, ceil_mode=False)
      (4): Conv2d(64, 64, kernel_size=(3, 3), stride=(1, 1), padding=(1, 1), bias=False)
      (5): BatchNorm2d(64, eps=1e-05, momentum=0.1, affine=True, track_running_stats=True)
      (6): LeakyReLU(negative_slope=0.2, inplace=True)
      (7): MaxPool2d(kernel_size=2, stride=2, padding=0, dilation=1, ceil_mode=False)
      (8): Conv2d(64, 64, kernel_size=(3, 3), stride=(1, 1), padding=(1, 1), bias=False)
      (9): BatchNorm2d(64, eps=1e-05, momentum=0.1, affine=True, track_running_stats=True)
      (10): LeakyReLU(negative_slope=0.2, inplace=True)
      (11): Conv2d(64, 64, kernel_size=(3, 3), stride=(1, 1), padding=(1, 1), bias=False)
      (12): BatchNorm2d(64, eps=1e-05, momentum=0.1, affine=True, track_running_stats=True)
      (13): LeakyReLU(negative_slope=0.2, inplace=True)
    )
    (criterion): CrossEntropyLoss()
  )
  (DT): XGBHead()
)
============ validation on the val set ============
Trainset: 10000
Valset: 600
Testset: 600
Namespace(id='', dataset_dir='../dataset/miniImageNet/', data_name='miniImageNet', mode='train', resume='../results/DN4_miniImageNet_Conv64F_5Way_1Shot_K3/model_best.pth.tar', epochs=0, cuda=True, ngpu=1, nc=3, clamp_lower=-0.01, clamp_upper=0.01, print_freq=100, outf='../results/__miniImageNet_DN4_5_Way_5_Shot_K3')
=> loaded checkpoint '../results/DN4_miniImageNet_Conv64F_5Way_1Shot_K3/model_best.pth.tar' (epoch 14)
DN4(
  (BACKBONE): FourLayer_64F(
    (features): Sequential(
      (0): Conv2d(3, 64, kernel_size=(3, 3), stride=(1, 1), padding=(1, 1), bias=False)
      (1): BatchNorm2d(64, eps=1e-05, momentum=0.1, affine=True, track_running_stats=True)
      (2): LeakyReLU(negative_slope=0.2, inplace=True)
      (3): MaxPool2d(kernel_size=2, stride=2, padding=0, dilation=1, ceil_mode=False)
      (4): Conv2d(64, 64, kernel_size=(3, 3), stride=(1, 1), padding=(1, 1), bias=False)
      (5): BatchNorm2d(64, eps=1e-05, momentum=0.1, affine=True, track_running_stats=True)
      (6): LeakyReLU(negative_slope=0.2, inplace=True)
      (7): MaxPool2d(kernel_size=2, stride=2, padding=0, dilation=1, ceil_mode=False)
      (8): Conv2d(64, 64, kernel_size=(3, 3), stride=(1, 1), padding=(1, 1), bias=False)
      (9): BatchNorm2d(64, eps=1e-05, momentum=0.1, affine=True, track_running_stats=True)
      (10): LeakyReLU(negative_slope=0.2, inplace=True)
      (11): Conv2d(64, 64, kernel_size=(3, 3), stride=(1, 1), padding=(1, 1), bias=False)
      (12): BatchNorm2d(64, eps=1e-05, momentum=0.1, affine=True, track_running_stats=True)
      (13): LeakyReLU(negative_slope=0.2, inplace=True)
    )
    (criterion): CrossEntropyLoss()
  )
  (DT): XGBHead()
)
============ validation on the val set ============
Trainset: 10000
Valset: 600
Testset: 600
Namespace(id='', dataset_dir='../dataset/miniImageNet/', data_name='miniImageNet', mode='train', resume='../results/DN4_miniImageNet_Conv64F_5Way_1Shot_K3/model_best.pth.tar', epochs=0, cuda=True, ngpu=1, nc=3, clamp_lower=-0.01, clamp_upper=0.01, print_freq=100, outf='../results/__miniImageNet_DN4_5_Way_5_Shot_K3')
=> loaded checkpoint '../results/DN4_miniImageNet_Conv64F_5Way_1Shot_K3/model_best.pth.tar' (epoch 14)
DN4(
  (BACKBONE): FourLayer_64F(
    (features): Sequential(
      (0): Conv2d(3, 64, kernel_size=(3, 3), stride=(1, 1), padding=(1, 1), bias=False)
      (1): BatchNorm2d(64, eps=1e-05, momentum=0.1, affine=True, track_running_stats=True)
      (2): LeakyReLU(negative_slope=0.2, inplace=True)
      (3): MaxPool2d(kernel_size=2, stride=2, padding=0, dilation=1, ceil_mode=False)
      (4): Conv2d(64, 64, kernel_size=(3, 3), stride=(1, 1), padding=(1, 1), bias=False)
      (5): BatchNorm2d(64, eps=1e-05, momentum=0.1, affine=True, track_running_stats=True)
      (6): LeakyReLU(negative_slope=0.2, inplace=True)
      (7): MaxPool2d(kernel_size=2, stride=2, padding=0, dilation=1, ceil_mode=False)
      (8): Conv2d(64, 64, kernel_size=(3, 3), stride=(1, 1), padding=(1, 1), bias=False)
      (9): BatchNorm2d(64, eps=1e-05, momentum=0.1, affine=True, track_running_stats=True)
      (10): LeakyReLU(negative_slope=0.2, inplace=True)
      (11): Conv2d(64, 64, kernel_size=(3, 3), stride=(1, 1), padding=(1, 1), bias=False)
      (12): BatchNorm2d(64, eps=1e-05, momentum=0.1, affine=True, track_running_stats=True)
      (13): LeakyReLU(negative_slope=0.2, inplace=True)
    )
    (criterion): CrossEntropyLoss()
  )
  (DT): XGBHead()
)
============ validation on the val set ============
Trainset: 10000
Valset: 600
Testset: 600
Namespace(id='', dataset_dir='../dataset/miniImageNet/', data_name='miniImageNet', mode='train', resume='../results/DN4_miniImageNet_Conv64F_5Way_1Shot_K3/model_best.pth.tar', epochs=0, cuda=True, ngpu=1, nc=3, clamp_lower=-0.01, clamp_upper=0.01, print_freq=100, outf='../results/__miniImageNet_DN4_5_Way_5_Shot_K3')
=> loaded checkpoint '../results/DN4_miniImageNet_Conv64F_5Way_1Shot_K3/model_best.pth.tar' (epoch 14)
DN4(
  (BACKBONE): FourLayer_64F(
    (features): Sequential(
      (0): Conv2d(3, 64, kernel_size=(3, 3), stride=(1, 1), padding=(1, 1), bias=False)
      (1): BatchNorm2d(64, eps=1e-05, momentum=0.1, affine=True, track_running_stats=True)
      (2): LeakyReLU(negative_slope=0.2, inplace=True)
      (3): MaxPool2d(kernel_size=2, stride=2, padding=0, dilation=1, ceil_mode=False)
      (4): Conv2d(64, 64, kernel_size=(3, 3), stride=(1, 1), padding=(1, 1), bias=False)
      (5): BatchNorm2d(64, eps=1e-05, momentum=0.1, affine=True, track_running_stats=True)
      (6): LeakyReLU(negative_slope=0.2, inplace=True)
      (7): MaxPool2d(kernel_size=2, stride=2, padding=0, dilation=1, ceil_mode=False)
      (8): Conv2d(64, 64, kernel_size=(3, 3), stride=(1, 1), padding=(1, 1), bias=False)
      (9): BatchNorm2d(64, eps=1e-05, momentum=0.1, affine=True, track_running_stats=True)
      (10): LeakyReLU(negative_slope=0.2, inplace=True)
      (11): Conv2d(64, 64, kernel_size=(3, 3), stride=(1, 1), padding=(1, 1), bias=False)
      (12): BatchNorm2d(64, eps=1e-05, momentum=0.1, affine=True, track_running_stats=True)
      (13): LeakyReLU(negative_slope=0.2, inplace=True)
    )
    (criterion): CrossEntropyLoss()
  )
  (DT): XGBHead()
)
============ validation on the val set ============
Namespace(id='', dataset_dir='../dataset/miniImageNet/', data_name='miniImageNet', mode='train', resume='../results/DN4_miniImageNet_Conv64F_5Way_1Shot_K3/model_best.pth.tar', epochs=0, cuda=True, ngpu=1, nc=3, clamp_lower=-0.01, clamp_upper=0.01, print_freq=100, outf='../results/__miniImageNet_DN4_5_Way_5_Shot_K3')
=> loaded checkpoint '../results/DN4_miniImageNet_Conv64F_5Way_1Shot_K3/model_best.pth.tar' (epoch 14)
DN4(
  (BACKBONE): FourLayer_64F(
    (features): Sequential(
      (0): Conv2d(3, 64, kernel_size=(3, 3), stride=(1, 1), padding=(1, 1), bias=False)
      (1): BatchNorm2d(64, eps=1e-05, momentum=0.1, affine=True, track_running_stats=True)
      (2): LeakyReLU(negative_slope=0.2, inplace=True)
      (3): MaxPool2d(kernel_size=2, stride=2, padding=0, dilation=1, ceil_mode=False)
      (4): Conv2d(64, 64, kernel_size=(3, 3), stride=(1, 1), padding=(1, 1), bias=False)
      (5): BatchNorm2d(64, eps=1e-05, momentum=0.1, affine=True, track_running_stats=True)
      (6): LeakyReLU(negative_slope=0.2, inplace=True)
      (7): MaxPool2d(kernel_size=2, stride=2, padding=0, dilation=1, ceil_mode=False)
      (8): Conv2d(64, 64, kernel_size=(3, 3), stride=(1, 1), padding=(1, 1), bias=False)
      (9): BatchNorm2d(64, eps=1e-05, momentum=0.1, affine=True, track_running_stats=True)
      (10): LeakyReLU(negative_slope=0.2, inplace=True)
      (11): Conv2d(64, 64, kernel_size=(3, 3), stride=(1, 1), padding=(1, 1), bias=False)
      (12): BatchNorm2d(64, eps=1e-05, momentum=0.1, affine=True, track_running_stats=True)
      (13): LeakyReLU(negative_slope=0.2, inplace=True)
    )
    (criterion): CrossEntropyLoss()
  )
  (DT): XGBHead()
)
============ validation on the val set ============
Trainset: 10000
Valset: 600
Testset: 600
Namespace(id='', dataset_dir='../dataset/miniImageNet/', data_name='miniImageNet', mode='train', resume='../results/DN4_miniImageNet_Conv64F_5Way_1Shot_K3/model_best.pth.tar', epochs=0, cuda=True, ngpu=1, nc=3, clamp_lower=-0.01, clamp_upper=0.01, print_freq=100, outf='../results/__miniImageNet_DN4_5_Way_5_Shot_K3')
=> loaded checkpoint '../results/DN4_miniImageNet_Conv64F_5Way_1Shot_K3/model_best.pth.tar' (epoch 14)
DN4(
  (BACKBONE): FourLayer_64F(
    (features): Sequential(
      (0): Conv2d(3, 64, kernel_size=(3, 3), stride=(1, 1), padding=(1, 1), bias=False)
      (1): BatchNorm2d(64, eps=1e-05, momentum=0.1, affine=True, track_running_stats=True)
      (2): LeakyReLU(negative_slope=0.2, inplace=True)
      (3): MaxPool2d(kernel_size=2, stride=2, padding=0, dilation=1, ceil_mode=False)
      (4): Conv2d(64, 64, kernel_size=(3, 3), stride=(1, 1), padding=(1, 1), bias=False)
      (5): BatchNorm2d(64, eps=1e-05, momentum=0.1, affine=True, track_running_stats=True)
      (6): LeakyReLU(negative_slope=0.2, inplace=True)
      (7): MaxPool2d(kernel_size=2, stride=2, padding=0, dilation=1, ceil_mode=False)
      (8): Conv2d(64, 64, kernel_size=(3, 3), stride=(1, 1), padding=(1, 1), bias=False)
      (9): BatchNorm2d(64, eps=1e-05, momentum=0.1, affine=True, track_running_stats=True)
      (10): LeakyReLU(negative_slope=0.2, inplace=True)
      (11): Conv2d(64, 64, kernel_size=(3, 3), stride=(1, 1), padding=(1, 1), bias=False)
      (12): BatchNorm2d(64, eps=1e-05, momentum=0.1, affine=True, track_running_stats=True)
      (13): LeakyReLU(negative_slope=0.2, inplace=True)
    )
    (criterion): CrossEntropyLoss()
  )
  (DT): XGBHead()
)
============ validation on the val set ============
Trainset: 10000
Valset: 600
Testset: 600
Test-(0): [100/600]	Time 0.156 (0.156)	Loss 5.243 (8.121)	Prec@1 50.000 (38.713)
Test-(0): [200/600]	Time 0.137 (0.149)	Loss 9.433 (8.017)	Prec@1 34.000 (39.234)
…
Test-(0): [500/600]	Time 0.134 (0.148)	Loss 10.596 (8.997)	Prec@1 28.000 (36.898)
 * Prec@1 36.943 Best_prec1 0.000
Namespace(id='', dataset_dir='../dataset/miniImageNet/', data_name='miniImageNet', mode='train', resume='../results/DN4_miniImageNet_Conv64F_5Way_5Shot_K3/model_best.pth.tar', epochs=0, cuda=True, ngpu=1, nc=3, clamp_lower=-0.01, clamp_upper=0.01, print_freq=100, outf='../results/__miniImageNet_DN4_5_Way_5_Shot_K3')
=> loaded checkpoint '../results/DN4_miniImageNet_Conv64F_5Way_5Shot_K3/model_best.pth.tar' (epoch 16)
DN4(
  (BACKBONE): FourLayer_64F(
    (features): Sequential(
      (0): Conv2d(3, 64, kernel_size=(3, 3), stride=(1, 1), padding=(1, 1), bias=False)
      (1): BatchNorm2d(64, eps=1e-05, momentum=0.1, affine=True, track_running_stats=True)
      (2): LeakyReLU(negative_slope=0.2, inplace=True)
      (3): MaxPool2d(kernel_size=2, stride=2, padding=0, dilation=1, ceil_mode=False)
      (4): Conv2d(64, 64, kernel_size=(3, 3), stride=(1, 1), padding=(1, 1), bias=False)
      (5): BatchNorm2d(64, eps=1e-05, momentum=0.1, affine=True, track_running_stats=True)
      (6): LeakyReLU(negative_slope=0.2, inplace=True)
      (7): MaxPool2d(kernel_size=2, stride=2, padding=0, dilation=1, ceil_mode=False)
      (8): Conv2d(64, 64, kernel_size=(3, 3), stride=(1, 1), padding=(1, 1), bias=False)
      (9): BatchNorm2d(64, eps=1e-05, momentum=0.1, affine=True, track_running_stats=True)
      (10): LeakyReLU(negative_slope=0.2, inplace=True)
      (11): Conv2d(64, 64, kernel_size=(3, 3), stride=(1, 1), padding=(1, 1), bias=False)
      (12): BatchNorm2d(64, eps=1e-05, momentum=0.1, affine=True, track_running_stats=True)
      (13): LeakyReLU(negative_slope=0.2, inplace=True)
    )
    (criterion): CrossEntropyLoss()
  )
  (DT): XGBHead()
)
============ validation on the val set ============
Trainset: 10000
Valset: 600
Testset: 600
Test-(0): [100/600]	Time 0.122 (0.164)	Loss 5.849 (7.378)	Prec@1 38.000 (40.079)
Test-(0): [200/600]	Time 0.149 (0.154)	Loss 11.851 (7.535)	Prec@1 48.000 (40.468)
…
Test-(16): [300/600]	Time 0.119 (0.123)	Loss 9.498 (7.922)	Prec@1 40.000 (37.681)
Test-(16): [400/600]	Time 0.109 (0.120)	Loss 5.997 (7.901)	Prec@1 44.000 (38.040)
Namespace(id='', dataset_dir='../dataset/miniImageNet/', data_name='miniImageNet', mode='train', resume='../results/DN4_miniImageNet_Conv64F_5Way_5Shot_K3/model_best.pth.tar', epochs=0, cuda=True, ngpu=1, nc=3, clamp_lower=-0.01, clamp_upper=0.01, print_freq=100, outf='../results/__miniImageNet_DN4_5_Way_5_Shot_K3')
=> loaded checkpoint '../results/DN4_miniImageNet_Conv64F_5Way_5Shot_K3/model_best.pth.tar' (epoch 16)
DN4(
  (BACKBONE): FourLayer_64F(
    (features): Sequential(
      (0): Conv2d(3, 64, kernel_size=(3, 3), stride=(1, 1), padding=(1, 1), bias=False)
      (1): BatchNorm2d(64, eps=1e-05, momentum=0.1, affine=True, track_running_stats=True)
      (2): LeakyReLU(negative_slope=0.2, inplace=True)
      (3): MaxPool2d(kernel_size=2, stride=2, padding=0, dilation=1, ceil_mode=False)
      (4): Conv2d(64, 64, kernel_size=(3, 3), stride=(1, 1), padding=(1, 1), bias=False)
      (5): BatchNorm2d(64, eps=1e-05, momentum=0.1, affine=True, track_running_stats=True)
      (6): LeakyReLU(negative_slope=0.2, inplace=True)
      (7): MaxPool2d(kernel_size=2, stride=2, padding=0, dilation=1, ceil_mode=False)
      (8): Conv2d(64, 64, kernel_size=(3, 3), stride=(1, 1), padding=(1, 1), bias=False)
      (9): BatchNorm2d(64, eps=1e-05, momentum=0.1, affine=True, track_running_stats=True)
      (10): LeakyReLU(negative_slope=0.2, inplace=True)
      (11): Conv2d(64, 64, kernel_size=(3, 3), stride=(1, 1), padding=(1, 1), bias=False)
      (12): BatchNorm2d(64, eps=1e-05, momentum=0.1, affine=True, track_running_stats=True)
      (13): LeakyReLU(negative_slope=0.2, inplace=True)
    )
    (criterion): CrossEntropyLoss()
  )
  (DT): XGBHead()
)
============ validation on the val set ============
Namespace(id='', dataset_dir='../dataset/miniImageNet/', data_name='miniImageNet', mode='train', resume='../results/DN4_miniImageNet_Conv64F_5Way_5Shot_K3/model_best.pth.tar', epochs=0, cuda=True, ngpu=1, nc=3, clamp_lower=-0.01, clamp_upper=0.01, print_freq=100, outf='../results/__miniImageNet_DN4_5_Way_5_Shot_K3')
=> loaded checkpoint '../results/DN4_miniImageNet_Conv64F_5Way_5Shot_K3/model_best.pth.tar' (epoch 16)
DN4(
  (BACKBONE): FourLayer_64F(
    (features): Sequential(
      (0): Conv2d(3, 64, kernel_size=(3, 3), stride=(1, 1), padding=(1, 1), bias=False)
      (1): BatchNorm2d(64, eps=1e-05, momentum=0.1, affine=True, track_running_stats=True)
      (2): LeakyReLU(negative_slope=0.2, inplace=True)
      (3): MaxPool2d(kernel_size=2, stride=2, padding=0, dilation=1, ceil_mode=False)
      (4): Conv2d(64, 64, kernel_size=(3, 3), stride=(1, 1), padding=(1, 1), bias=False)
      (5): BatchNorm2d(64, eps=1e-05, momentum=0.1, affine=True, track_running_stats=True)
      (6): LeakyReLU(negative_slope=0.2, inplace=True)
      (7): MaxPool2d(kernel_size=2, stride=2, padding=0, dilation=1, ceil_mode=False)
      (8): Conv2d(64, 64, kernel_size=(3, 3), stride=(1, 1), padding=(1, 1), bias=False)
      (9): BatchNorm2d(64, eps=1e-05, momentum=0.1, affine=True, track_running_stats=True)
      (10): LeakyReLU(negative_slope=0.2, inplace=True)
      (11): Conv2d(64, 64, kernel_size=(3, 3), stride=(1, 1), padding=(1, 1), bias=False)
      (12): BatchNorm2d(64, eps=1e-05, momentum=0.1, affine=True, track_running_stats=True)
      (13): LeakyReLU(negative_slope=0.2, inplace=True)
    )
    (criterion): CrossEntropyLoss()
  )
  (DT): XGBHead()
)
============ validation on the val set ============
Trainset: 10000
Valset: 600
Testset: 600
Test-(16): [100/600]	Time 0.096 (0.127)	Loss 4.195 (7.627)	Prec@1 58.000 (39.861)
Test-(16): [200/600]	Time 0.130 (0.121)	Loss 9.955 (7.772)	Prec@1 34.000 (39.761)
…
Test-(0): [500/600]	Time 0.131 (0.135)	Loss 1.146 (0.772)	Prec@1 62.000 (70.846)
 * Prec@1 70.660 Best_prec1 0.000
Namespace(id='', dataset_dir='../dataset/miniImageNet/', data_name='miniImageNet', mode='train', resume='../results/DN4_miniImageNet_Conv64F_5Way_5Shot_K3/model_best.pth.tar', epochs=0, cuda=True, ngpu=1, nc=3, clamp_lower=-0.01, clamp_upper=0.01, print_freq=100, outf='../results/__miniImageNet_DN4_5_Way_5_Shot_K3')
=> loaded checkpoint '../results/DN4_miniImageNet_Conv64F_5Way_5Shot_K3/model_best.pth.tar' (epoch 16)
DN4(
  (BACKBONE): FourLayer_64F(
    (features): Sequential(
      (0): Conv2d(3, 64, kernel_size=(3, 3), stride=(1, 1), padding=(1, 1), bias=False)
      (1): BatchNorm2d(64, eps=1e-05, momentum=0.1, affine=True, track_running_stats=True)
      (2): LeakyReLU(negative_slope=0.2, inplace=True)
      (3): MaxPool2d(kernel_size=2, stride=2, padding=0, dilation=1, ceil_mode=False)
      (4): Conv2d(64, 64, kernel_size=(3, 3), stride=(1, 1), padding=(1, 1), bias=False)
      (5): BatchNorm2d(64, eps=1e-05, momentum=0.1, affine=True, track_running_stats=True)
      (6): LeakyReLU(negative_slope=0.2, inplace=True)
      (7): MaxPool2d(kernel_size=2, stride=2, padding=0, dilation=1, ceil_mode=False)
      (8): Conv2d(64, 64, kernel_size=(3, 3), stride=(1, 1), padding=(1, 1), bias=False)
      (9): BatchNorm2d(64, eps=1e-05, momentum=0.1, affine=True, track_running_stats=True)
      (10): LeakyReLU(negative_slope=0.2, inplace=True)
      (11): Conv2d(64, 64, kernel_size=(3, 3), stride=(1, 1), padding=(1, 1), bias=False)
      (12): BatchNorm2d(64, eps=1e-05, momentum=0.1, affine=True, track_running_stats=True)
      (13): LeakyReLU(negative_slope=0.2, inplace=True)
    )
    (criterion): CrossEntropyLoss()
  )
  (DT): RandomForestHead()
)
============ validation on the val set ============
Trainset: 10000
Valset: 600
Testset: 600
Namespace(id='', dataset_dir='../dataset/miniImageNet/', data_name='miniImageNet', mode='train', resume='../results/DN4_miniImageNet_Conv64F_5Way_5Shot_K3/model_best.pth.tar', epochs=0, cuda=True, ngpu=1, nc=3, clamp_lower=-0.01, clamp_upper=0.01, print_freq=100, outf='../results/__miniImageNet_DN4_5_Way_5_Shot_K3')
=> loaded checkpoint '../results/DN4_miniImageNet_Conv64F_5Way_5Shot_K3/model_best.pth.tar' (epoch 16)
DN4(
  (BACKBONE): FourLayer_64F(
    (features): Sequential(
      (0): Conv2d(3, 64, kernel_size=(3, 3), stride=(1, 1), padding=(1, 1), bias=False)
      (1): BatchNorm2d(64, eps=1e-05, momentum=0.1, affine=True, track_running_stats=True)
      (2): LeakyReLU(negative_slope=0.2, inplace=True)
      (3): MaxPool2d(kernel_size=2, stride=2, padding=0, dilation=1, ceil_mode=False)
      (4): Conv2d(64, 64, kernel_size=(3, 3), stride=(1, 1), padding=(1, 1), bias=False)
      (5): BatchNorm2d(64, eps=1e-05, momentum=0.1, affine=True, track_running_stats=True)
      (6): LeakyReLU(negative_slope=0.2, inplace=True)
      (7): MaxPool2d(kernel_size=2, stride=2, padding=0, dilation=1, ceil_mode=False)
      (8): Conv2d(64, 64, kernel_size=(3, 3), stride=(1, 1), padding=(1, 1), bias=False)
      (9): BatchNorm2d(64, eps=1e-05, momentum=0.1, affine=True, track_running_stats=True)
      (10): LeakyReLU(negative_slope=0.2, inplace=True)
      (11): Conv2d(64, 64, kernel_size=(3, 3), stride=(1, 1), padding=(1, 1), bias=False)
      (12): BatchNorm2d(64, eps=1e-05, momentum=0.1, affine=True, track_running_stats=True)
      (13): LeakyReLU(negative_slope=0.2, inplace=True)
    )
    (criterion): CrossEntropyLoss()
  )
  (DT): RandomForestHead()
)
============ validation on the val set ============
Trainset: 10000
Valset: 600
Testset: 1000
Namespace(id='', dataset_dir='../dataset/miniImageNet/', data_name='miniImageNet', mode='train', resume='../results/DN4_miniImageNet_Conv64F_5Way_5Shot_K3/model_best.pth.tar', epochs=0, cuda=True, ngpu=1, nc=3, clamp_lower=-0.01, clamp_upper=0.01, print_freq=100, outf='../results/__miniImageNet_DN4_5_Way_5_Shot_K3')
=> loaded checkpoint '../results/DN4_miniImageNet_Conv64F_5Way_5Shot_K3/model_best.pth.tar' (epoch 16)
DN4(
  (BACKBONE): FourLayer_64F(
    (features): Sequential(
      (0): Conv2d(3, 64, kernel_size=(3, 3), stride=(1, 1), padding=(1, 1), bias=False)
      (1): BatchNorm2d(64, eps=1e-05, momentum=0.1, affine=True, track_running_stats=True)
      (2): LeakyReLU(negative_slope=0.2, inplace=True)
      (3): MaxPool2d(kernel_size=2, stride=2, padding=0, dilation=1, ceil_mode=False)
      (4): Conv2d(64, 64, kernel_size=(3, 3), stride=(1, 1), padding=(1, 1), bias=False)
      (5): BatchNorm2d(64, eps=1e-05, momentum=0.1, affine=True, track_running_stats=True)
      (6): LeakyReLU(negative_slope=0.2, inplace=True)
      (7): MaxPool2d(kernel_size=2, stride=2, padding=0, dilation=1, ceil_mode=False)
      (8): Conv2d(64, 64, kernel_size=(3, 3), stride=(1, 1), padding=(1, 1), bias=False)
      (9): BatchNorm2d(64, eps=1e-05, momentum=0.1, affine=True, track_running_stats=True)
      (10): LeakyReLU(negative_slope=0.2, inplace=True)
      (11): Conv2d(64, 64, kernel_size=(3, 3), stride=(1, 1), padding=(1, 1), bias=False)
      (12): BatchNorm2d(64, eps=1e-05, momentum=0.1, affine=True, track_running_stats=True)
      (13): LeakyReLU(negative_slope=0.2, inplace=True)
    )
    (criterion): CrossEntropyLoss()
  )
  (DT): RandomForestHead()
)
============ validation on the val set ============
Trainset: 10000
Valset: 600
Testset: 1000
Test-(0): [100/600]	Time 0.130 (0.146)	Loss 0.992 (0.856)	Prec@1 62.000 (66.673)
Test-(0): [200/600]	Time 0.118 (0.140)	Loss 0.814 (0.842)	Prec@1 70.000 (67.602)
…
